results/FHN_celegans_directed_wcc_multiple_nn_True_11/neural_network.pth (torch, 38491 bytes, 26 tensors)

g.0.weight f4 [30, 2]
0	0x3e4cf022	0.20013478
1	0x3f117f69	0.5683504
2	0x3ec45e2d	0.383531
3	0xbe3b342f	-0.18281625
4	0x3b8b307f	0.0042477245
5	0x3b03067a	0.0019992874
6	0x3f593d2c	0.84858966
7	0x3f673c9a	0.90326846
8	0xbe91d8f9	-0.2848585
9	0xbde9249b	-0.11383935
10	0x3e852ec5	0.26012245
11	0x3ed9838c	0.42483175
12	0x3f1c48ea	0.6104876
13	0xbd6b0b64	-0.05738391
14	0x3f171419	0.5901504
15	0xbdc75a8e	-0.09734069
16	0x3d021738	0.031760424
17	0xbeb4af96	-0.3529021
18	0xbe061384	-0.13093382
19	0xbf0ed02e	-0.55786407
20	0x3e1a7750	0.15084577
21	0x3eca89d0	0.39558268
22	0xbece7914	-0.4032675
23	0xbec2e70f	-0.3806691
24	0xbf1c1515	-0.6096967
25	0x3de1c639	0.11024136
26	0x3ea1e356	0.31618756
27	0xbd5b9752	-0.053611107
28	0x3ee23432	0.44180447
29	0xbe6795b2	-0.22615698
30	0x3ee2f6ec	0.4432901
31	0x3f0d758d	0.55257493
32	0xbee3ca9b	-0.44490513
33	0xbeb5af86	-0.35485476
34	0xbe666e0c	-0.22502917
35	0xbee2eb91	-0.44320348
36	0x3eefaf13	0.4681326
37	0xbd251195	-0.04029997
38	0x3eebd666	0.4606201
39	0xbe4e37e9	-0.20138516
40	0xbecab7b7	-0.39593288
41	0xbee28a74	-0.44246256
42	0xbf007cbe	-0.5019034
43	0xbf1bd9e3	-0.60879344
44	0x3f26e343	0.65190524
45	0x3ef41e6b	0.47679457
46	0x3ee7fba9	0.4530919
47	0x3dfcdab5	0.123464026
48	0x3e793c86	0.24339494
49	0xbe4e5f31	-0.201535
50	0xbdf3b3da	-0.11899538
51	0x3f26a758	0.65099096
52	0xbd5d5b82	-0.054042347
53	0x3f19f47c	0.6013868
54	0x3e953e27	0.2914898
55	0xbdd9fff3	-0.106445216
56	0xbda2dd16	-0.07952325
57	0x3d4d67b0	0.050147712
58	0xbeace513	-0.3376852
59	0xbeb4e316	-0.35329503

g.0.bias f4 [30]
0	0x3efcbc07	0.49362203
1	0x3eb39155	0.35071817
2	0x3c55bbef	0.013045295
3	0xbf07c0ac	-0.5302837
4	0xbeef95f8	-0.46794105
5	0xbe8e419b	-0.27784428
6	0x3f40238b	0.75054234
7	0xbcf94e3f	-0.030432818
8	0xbe795e51	-0.24352385
9	0xbeddb3be	-0.43301195
10	0x3ede157d	0.4337577
11	0x3e31bcc3	0.17357163
12	0xbf0dff2a	-0.55467474
13	0x3ebe6c62	0.37192065
14	0xbda5dfe8	-0.08099347
15	0x3f0dcc75	0.553901
16	0x3e92ebc7	0.2869551
17	0xbee08152	-0.43848664
18	0x3df7f0a3	0.12106445
19	0xbe9dd544	-0.3082677
20	0xbf176bc5	-0.5914882
21	0x3e87b3d0	0.26504374
22	0xbefb176d	-0.4904131
23	0x3f12f3ee	0.5740346
24	0xbe9a8549	-0.30179814
25	0xbecd1dd3	-0.40061817
26	0x3f02e980	0.5113754
27	0x3e85d4c0	0.26138878
28	0x3f06616c	0.52492404
29	0xbf1682da	-0.58793414

g.2.weight f4 [30, 30]
0	0x3deabc41	0.11461688
1	0xbd4c9c5d	-0.049953807
2	0xbe217024	-0.15765435
3	0x3c827285	0.015923748
4	0xbe2ffa39	-0.17185296
5	0x3d5f1bb8	0.054469794
6	0x3df8f8eb	0.12156852
7	0x3e72acd2	0.23698738
8	0x3e62eec5	0.22161396
9	0x3e07971a	0.13241234
10	0x3dd69685	0.10477928
11	0xbcd15f5b	-0.025558164
12	0xbe71d342	-0.23615745
13	0xbd5c51ea	-0.053789057
14	0x3ecfbe5e	0.40574926
15	0x3d389b5b	0.045070034
16	0xbe1c487f	-0.1526203
17	0xbdc7ccfd	-0.09755895
18	0x3ba3b63c	0.0049960893
19	0x3eb60335	0.35549322
20	0xbdb27d2c	-0.08715281
21	0xbd8c962a	-0.06864579
22	0x3e66802e	0.22509834
23	0xbad034d9	-0.001588489
24	0x3e457b3f	0.19285296
25	0xbdfa7001	-0.12228394
26	0xbe5d6f68	-0.2162453
27	0x3e6d23a5	0.23158129
28	0x3da7efa7	0.08200007
29	0x3c226da1	0.009913833
30	0xbdf862f8	-0.12128252
31	0xbd9ab32f	-0.07553708
32	0x3dbb5107	0.09146314
33	0x3ddf689d	0.10908625
34	0x3d009af3	0.03139777
35	0x3db4e41b	0.0883257
36	0xbc99b813	-0.018764531
37	0xbccbf259	-0.024895834
38	0x3be90e66	0.007112312
39	0x3ddde649	0.10834939
40	0xbdb5ba50	-0.08873427
41	0x3d88121b	0.06644078
42	0x3c2cb62f	0.010541483
43	0xbe0d2638	-0.1378411
44	0xbd15b46d	-0.03654902
45	0x3dcafa5f	0.09911036
46	0xbd84eaaa	-0.06490071
47	0x3d3744ca	0.044743337
48	0xbe48847b	-0.19581787
49	0xbe0b79d5	-0.13620694
50	0x3d67899c	0.05652772
51	0xbca9ec79	-0.020742642
52	0x3e45d413	0.19319181
53	0x3e166ea2	0.1469064
54	0x3ca80f3b	0.020515075
55	0x3e12cf7a	0.14336959
56	0xbb473723	-0.0030397854
57	0xbdd5a2b2	-0.10431422
58	0x3e38c1a9	0.18042625
59	0xbdcb1c15	-0.099174656
60	0xbb88f81f	-0.004179969
61	0xbe3663cf	-0.17811511
62	0x3d84be48	0.06481606
63	0xbdf20749	-0.11817796
64	0x3d12500f	0.03572088
65	0x3cefd1c6	0.029274832
66	0x3deadf66	0.11468391
67	0x3d07b7c1	0.033134226
68	0xbd033dd4	-0.032041386
69	0x3dae3c56	0.08507602
70	0x3caec32a	0.021333296
71	0xbc3a25a3	-0.011361512
72	0x3e4b8c2a	0.19877687
73	0x3de4f42e	0.11179386
74	0xbd41f665	-0.04735412
75	0x3e1012d1	0.14069678
76	0xbd789356	-0.060687385
77	0x3e35e04f	0.17761348
78	0xbe087018	-0.1332401
79	0x3e12689e	0.14297721
80	0xbd2cdb0d	-0.04220109
81	0xbe086225	-0.13318689
82	0xbd513904	-0.051079765
83	0x3d9ee60c	0.07758722
84	0x3e10bcae	0.14134476
85	0xbdb5881e	-0.08863853
86	0x3dd845d0	0.10560191
87	0x3e18826c	0.14893502
88	0xbd4b24fd	-0.04959582
89	0x3c114775	0.008867134
90	0xbd4d2585	-0.05008461
91	0x3dc5bb28	0.09654838
92	0x3ddae6ec	0.10688576
93	0x3e5424db	0.20717184
94	0xbd3bec84	-0.045879856
95	0x3bbc47ae	0.0057458496
96	0x3e6d6814	0.23184234
97	0x3bbf3e42	0.005836279
98	0xbe04021c	-0.1289143
99	0xbdd6e7e5	-0.10493449
100	0x3d4abdd7	0.04949745
101	0x3e268b41	0.16264059
102	0xbe2f94b6	-0.17146572
103	0x3e0ae552	0.13564041
104	0xbe12f4f2	-0.14351252
105	0x3d8bb44c	0.06821498
106	0xbe0c24a4	-0.13685852
107	0x3d8d6de6	0.06905727
108	0x3df6f38f	0.12058174
109	0x3e3223ae	0.17396423
110	0x3df0bff4	0.11755362
111	0xbde976cf	-0.11399614
112	0xbddd42fa	-0.108037904
113	0x3e753191	0.2394469
114	0xbde7f789	-0.113265105
115	0xbe74f865	-0.2392288
116	0xbd0ba312	-0.034091063
117	0xbd5850ec	-0.052811548
118	0xbe1d813e	-0.15381333
119	0xbdfe2505	-0.12409405
120	0x3cb1cb7b	0.021703472
121	0xbd8869bc	-0.06660792
122	0xbcf41e8c	-0.029799722
123	0xbe42406e	-0.1896989
124	0x3e1cbd39	0.15306558
125	0xbd8007ba	-0.06251474
126	0xbdf681ab	-0.12036451
127	0x3ca9391d	0.020657117
128	0x3e117bb0	0.1420734
129	0xbd88986e	-0.06669699
130	0x3dd2ec1d	0.10298941
131	0xbc7fa389	-0.015602955
132	0xbe53b784	-0.20675474
133	0xbdf6a599	-0.12043304
134	0xbb20177c	-0.002442806
135	0x3e371913	0.17880659
136	0x3d608d1e	0.05482208
137	0xbd579dbe	-0.05264067
138	0x3e5fb29b	0.21845476
139	0x3e7c7df9	0.2465743
140	0xbdcecdd1	-0.1009785
141	0x3d706076	0.058685742
142	0xbe2a1910	-0.16611123
143	0x3dad9a2d	0.08476672
144	0xbd1f1759	-0.038840625
145	0xbcbfc0fd	-0.023407454
146	0x3dd687c3	0.10475113
147	0x3d1d5010	0.03840643
148	0xbdff7f13	-0.12475409
149	0xbdee2b50	-0.11629355
150	0x3d54cb31	0.05195159
151	0xbd423f69	-0.047423754
152	0xbe613290	-0.21991944
153	0xbd7ac816	-0.061225973
154	0xbdbecf54	-0.093168885
155	0xbdb1aafc	-0.08675191
156	0x3e0d2238	0.13782585
157	0xbe443330	-0.19160151
158	0x3e10f150	0.14154553
159	0x3e0b5d76	0.13609871
160	0xbde2b7bf	-0.11070203
161	0xbe1b37c8	-0.15157998
162	0x3e672336	0.22572026
163	0x3c9e33e8	0.01931186
164	0xbd6d7409	-0.057971988
165	0x3dba6071	0.09100426
166	0xbe3fbbb6	-0.1872395
167	0xbdd307b7	-0.10304206
168	0x3e00cb07	0.12577449
169	0x3c69c5d8	0.014268361
170	0xbd8c1e56	-0.068417236
171	0x3da2fb40	0.079580784
172	0xbd6c1d54	-0.057645157
173	0x3d93bbd7	0.07213562
174	0xbe02fc75	-0.12791617
175	0xbd0f0921	-0.034920815
176	0xbdca4faf	-0.0987848
177	0xbc73815e	-0.0148623865
178	0x3d821645	0.06351904
179	0xbd68580e	-0.0567246
180	0x3d0a3dbf	0.033750292
181	0xbd913e0c	-0.070919126
182	0xbdbc8a37	-0.0920605
183	0xbd1b347d	-0.037891854
184	0x3df07c43	0.11742451
185	0xbdf268df	-0.11836409
186	0x3dbd1e32	0.09234275
187	0x3d049411	0.03236777
188	0x3dcb75ef	0.099346034
189	0xbd9407e4	-0.072280675
190	0x3d8c5b38	0.06853336
191	0xbd857a5a	-0.06517477
192	0xbd6cbb30	-0.057795703
193	0x3e017fb2	0.12646368
194	0x3d009598	0.031392664
195	0xbe62f40d	-0.2216341
196	0xbd24ebe0	-0.04026401
197	0x3db7f1dd	0.08981679
198	0x3db49d6d	0.08819089
199	0xbd8bec36	-0.06832163
200	0x3d2217fd	0.03957366
201	0xbcfabc3a	-0.030607332
202	0x3b4ee61f	0.0031570268
203	0x3cd294e8	0.02570577
204	0x3d24402b	0.040100258
205	0x3de3abf3	0.11116781
206	0x3e01e001	0.12683107
207	0xbe1c0304	-0.15235525
208	0x3e2d963a	0.16951838
209	0xbd89b8dd	-0.06724713
210	0xbdc0fe9f	-0.09423565
211	0xbe5ab088	-0.21356404
212	0x3a3614be	0.000694584
213	0x3da0413c	0.078249425
214	0x3e3bae56	0.18328223
215	0x3dde7337	0.10861819
216	0x3e141c8f	0.14464019
217	0xbe5a45f4	-0.21315747
218	0xbd921a3b	-0.07133909
219	0xbdf99004	-0.12185672
220	0x3e0587bf	0.13040064
221	0xbcff049e	-0.031130131
222	0x3cdb5656	0.026774567
223	0xbd922e73	-0.07137766
224	0xbd8f32aa	-0.06992085
225	0xbda44469	-0.08020861
226	0xbdb710f9	-0.08938784
227	0x3d89ec96	0.06734578
228	0xbdef5ffa	-0.11688228
229	0xbdca85e9	-0.098888226
230	0xbbc2e911	-0.005948194
231	0xbe17994b	-0.1480457
232	0x3d0f5273	0.03499074
233	0x3d21a3b6	0.039462768
234	0xbe150013	-0.1455081
235	0x3e07d92d	0.1326644
236	0xbe0ea54b	-0.13930242
237	0x3c52b2f8	0.012860052
238	0xbe12d0c9	-0.14337458
239	0x3e47cbb2	0.19511297
240	0xbc92c3df	-0.017915664
241	0x3dd45d5b	0.10369369
242	0x3d5252c7	0.051348474
243	0xbd28fd6f	-0.041257318
244	0xbe2b7646	-0.16744336
245	0x3e093a56	0.1340116
246	0xbcabdf1f	-0.020980416
247	0xbde30e11	-0.11086667
248	0x3e1f1c6f	0.1553819
249	0x3ca1a5c7	0.01973237
250	0x3e212f55	0.15740712
251	0x3da1b337	0.07895511
252	0xbd3518eb	-0.044213217
253	0x3dc4e839	0.096146055
254	0xbcbd53e6	-0.023111295
255	0xbdc009fa	-0.09376903

g.2.bias f4 [30]
0	0xbe49ab78	-0.19694316
1	0xbd62669e	-0.055273645
2	0x3d974f14	0.0738813
3	0x3d62a79f	0.055335637
4	0xbdee4336	-0.11633913
5	0xbe1ad875	-0.15121634
6	0xbdc11f38	-0.09429783
7	0x3c2cff63	0.010558936
8	0xbdbc2cb7	-0.09188216
9	0xbddf7f59	-0.109129615
10	0x3d8186d4	0.063245445
11	0x3da3ec23	0.08004024
12	0xbdcaaad4	-0.09895864
13	0x3e24fd39	0.16112222
14	0xbdd861ce	-0.1056553
15	0xbddab0c0	-0.10678244
16	0x3d80f9d8	0.06297654
17	0xbda0daaf	-0.078542106
18	0x3d364c06	0.044506095
19	0x3cbbd539	0.02292882
20	0xbdaa0aa6	-0.08302812
21	0xbdb091a6	-0.0862153
22	0xbb31c4b5	-0.0027125303
23	0x3c542f96	0.0129507985
24	0xbe46512e	-0.19366905
25	0xbdddd2ef	-0.10831248
26	0x3da488f7	0.080339365
27	0x3d8f79c2	0.07005645
28	0xbde51770	-0.11186111
29	0x3c98c65e	0.018649276

g.4.weight f4 [30, 30]
0	0xbdf45c74	-0.119316965
1	0x3e494576	0.19655403
2	0xbd95a657	-0.073071174
3	0xbd236080	-0.03988695
4	0x3dead93a	0.11467214
5	0x3de9f087	0.1142283
6	0x3ca42d8e	0.020041253
7	0xbd5de458	-0.054172844
8	0x3b95a63e	0.0045669368
9	0x3b7a7b02	0.003822029
10	0x3d948bec	0.072532505
11	0x3c9b5938	0.018963441
12	0x3e247244	0.16059214
13	0x3c82ebfd	0.015981669
14	0xbe306798	-0.17227018
15	0xbd7c4ce9	-0.061596785
16	0x3e1bfdc2	0.1523352
17	0x3c836134	0.016037561
18	0x3debfbda	0.11522646
19	0xbe054143	-0.13013177
20	0x3db3defa	0.08782764
21	0x3d127b37	0.035762038
22	0xbdea39ab	-0.114367805
23	0xbda715d5	-0.08158461
24	0x3e11a3cd	0.14222641
25	0x3cb218ef	0.021740405
26	0x3d8dea72	0.069294825
27	0xbe16612c	-0.14685506
28	0xbdd5e02a	-0.104431465
29	0xbdfebfb0	-0.12438905
30	0xbdffa0e3	-0.124818586
31	0x3dff6d0d	0.12471972
32	0x3d9fc2b9	0.07800812
33	0x3de91e2a	0.113827065
34	0x3d467267	0.048448946
35	0xbdddef9c	-0.108367175
36	0xbdf88218	-0.121341884
37	0xbe4c4767	-0.19949113
38	0xbe24e65a	-0.16103497
39	0xbcd79d62	-0.026320163
40	0x3cad0107	0.021118654
41	0xbdf83935	-0.121202864
42	0x3d0cb7be	0.034354918
43	0xbcf17204	-0.029473312
44	0x3c7432c9	0.014904686
45	0xbd12a2c1	-0.035799745
46	0x3dcb57cd	0.09928856
47	0x3d1f76bb	0.03893159
48	0x3dbd6607	0.09247976
49	0x3e21fdc5	0.15819462
50	0xbdcbfa48	-0.09959847
51	0xbe2f2a7a	-0.17106047
52	0xbc084504	-0.008317236
53	0x3e01c75c	0.12673706
54	0x3d1655ca	0.03670291
55	0x3db56d75	0.08858768
56	0xbb3b084c	-0.002853888
57	0x3de0ee12	0.10982908
58	0xbe0c83e4	-0.13722187
59	0xbe326438	-0.17421043
60	0x3dc5882a	0.09645112
61	0x3d1bacce	0.038006596
62	0x3c941a19	0.01807885
63	0x3d8b0e40	0.06789827
64	0xbd904575	-0.07044498
65	0xbd0c5fb9	-0.034270976
66	0xbd995c2a	-0.07488282
67	0x3d7b1594	0.061299875
68	0xbd9024cf	-0.07038271
69	0x3d194282	0.037416942
70	0xbe2501af	-0.16113923
71	0x3dc3878d	0.09547339
72	0xbe153ac7	-0.14573203
73	0xbe431a25	-0.19052942
74	0x39d2d882	0.00040215632
75	0xbe29a173	-0.16565494
76	0x3d83e17c	0.06439492
77	0xbd443ffa	-0.047912575
78	0x3e0febdd	0.14054818
79	0xbdfa451b	-0.12220212
80	0x3e2003e5	0.15626486
81	0xbe20309d	-0.15643544
82	0x3d0ba26e	0.034090452
83	0xbdc631b0	-0.09677446
84	0x3dda5e06	0.10662465
85	0xbe2c3a85	-0.16819198
86	0x3c802b1a	0.015645552
87	0xbda70b19	-0.081564136
88	0x3e3e8954	0.18607074
89	0x3d62e473	0.055393647
90	0x3e5795d7	0.21053253
91	0xbcf5b3f5	-0.029993037
92	0xbd84c1a5	-0.06482247
93	0x3cdbe523	0.02684266
94	0xbc606b6d	-0.013697487
95	0x3c6345a7	0.013871587
96	0x3e14833f	0.14503191
97	0x3d0c1c46	0.03420665
98	0xbd7e2cb3	-0.062054347
99	0xbe39f816	-0.18161044
100	0x3d8c28db	0.0684373
101	0xbc9250a7	-0.017860724
102	0xbdad9227	-0.08475142
103	0xbe3c7942	-0.18405631
104	0xbdbd31c0	-0.09238005
105	0xbd8826a6	-0.066479966
106	0xbdb64e39	-0.089016385
107	0x3e127f66	0.14306411
108	0x3d855568	0.065104306
109	0x3db62275	0.08893291
110	0x3e08889f	0.13333367
111	0x3e0bea78	0.13663661
112	0xbdc97f8c	-0.09838781
113	0xbda75b00	-0.08171654
114	0xbe43596c	-0.1907708
115	0x3dc53054	0.096283585
116	0xbe0c002b	-0.13671939
117	0xbd76c216	-0.06024369
118	0xbdd27658	-0.102764785
119	0xbe2dfbf8	-0.1699065
120	0xbe068f3f	-0.13140582
121	0xbcdff308	-0.027337566
122	0x3dc4df6a	0.09612925
123	0xbd8efc3b	-0.06981703
124	0x3dbbeb47	0.09175735
125	0x3d2d62f9	0.042330716
126	0xbe1442c9	-0.14478602
127	0x3e02d79a	0.12777558
128	0xbdd86ffc	-0.10568234
129	0xbdfa8263	-0.122319005
130	0x3e032e1d	0.1281056
131	0xbe0e4c2a	-0.13896242
132	0x3e1a502d	0.15069647
133	0xbd4a79cd	-0.049432565
134	0x3e3fee11	0.18743159
135	0x3dcea790	0.10090554
136	0x3de3fc18	0.111320674
137	0x3c2e1904	0.010626081
138	0xbac9defa	-0.0015401535
139	0x3d394791	0.045234267
140	0x3d9cc598	0.076548755
141	0x3dae4f7d	0.08511255
142	0x3e1199bf	0.14218806
143	0x3d2207ab	0.039558094
144	0xbdd1d20e	-0.10245143
145	0xbe3f1f6b	-0.18664329
146	0x3d64e4c9	0.05588225
147	0xbc23ea0c	-0.010004532
148	0xbce18b48	-0.027532235
149	0xbe0b70d2	-0.13617256
150	0x3d7703c3	0.06030632
151	0x3c696e5d	0.014247504
152	0xbe213f78	-0.15746868
153	0x3e40480e	0.18777487
154	0xbd134aff	-0.035960194
155	0x3d8c2edf	0.068448775
156	0xbd7ef19c	-0.062242135
157	0xbd065185	-0.032792587
158	0xbe21c7ef	-0.15798925
159	0x3e137e5e	0.14403674
160	0x3d2e5427	0.042560723
161	0xbddd579f	-0.10807728
162	0xbe3de83c	-0.18545622
163	0xbe353c48	-0.17698777
164	0x3e01acf8	0.12663639
165	0xbc1bdd4e	-0.009513212
166	0x3e3c272a	0.18374315
167	0xbe0b8241	-0.13623907
168	0x3caa74d1	0.020807656
169	0xbb4d38e6	-0.0031314432
170	0xbbcc24d9	-0.0062299785
171	0x3e5db9d8	0.21652925
172	0x3d0528f3	0.032509755
173	0xbc50184a	-0.012701103
174	0xbd806566	-0.0626934
175	0xbc8cf06e	-0.01720449
176	0x3bfe7ec2	0.0077665756
177	0x3dac777e	0.08421229
178	0xbd7b5b3b	-0.0613663
179	0x3b899765	0.004198956
180	0x3d9ba9a4	0.07600716
181	0xbe063eb4	-0.13109857
182	0xbdb29b47	-0.08721023
183	0xbcc48a58	-0.023991749
184	0xbd8afc31	-0.06786383
185	0x3d868475	0.06568233
186	0x3dc1d7f9	0.09465022
187	0xbe092805	-0.13394172
188	0xbe61f3b4	-0.22065622
189	0x3b882aff	0.004155516
190	0xbb98526b	-0.004648497
191	0x3c52fbb2	0.012877392
192	0x3dcc6d27	0.09981757
193	0x3d27c412	0.04095847
194	0x3e2b702a	0.16742006
195	0x3d756201	0.059907917
196	0x3d8786d5	0.06617514
197	0xbe31e2df	-0.173717
198	0x3dd4ec3a	0.10396619
199	0xbdf8bc85	-0.12145332
200	0xbd197c42	-0.037472017
201	0x3e0cf87f	0.13766669
202	0x3e2c6b30	0.16837764
203	0x3ce2fee0	0.027709424
204	0x3d95fb7b	0.07323357
205	0xbdb54c7a	-0.08852477
206	0x3dfeedd1	0.12447704
207	0xbe6665ba	-0.22499743
208	0xbbf3ec4c	-0.0074439403
209	0xbd744fbf	-0.059646364
210	0xbcadf951	-0.021237047
211	0x3d605185	0.054765243
212	0x3c7171bd	0.01473659
213	0x3d63e204	0.055635467
214	0x3cdd9321	0.027047696
215	0xbdbd73d2	-0.092506066
216	0x3d21b501	0.03947926
217	0xbdb261d9	-0.08710069
218	0x3d64b6cd	0.055838395
219	0xbb3c53b8	-0.0028736424
220	0xbd84febb	-0.064938985
221	0xbc381731	-0.011235998
222	0xbc01860d	-0.007905495
223	0x3e4084af	0.18800615
224	0x3d2444b0	0.040104568
225	0x3e4e7b59	0.20164241
226	0x3dc0c4b8	0.09412521
227	0xbdba0b97	-0.09084242
228	0xbdfa3e6e	-0.12218939
229	0xbddb4863	-0.10707166
230	0x3d04458c	0.032292888
231	0x3c84d99e	0.01621705
232	0xbd9037ec	-0.07041916
233	0xbe01b8ed	-0.126682
234	0xbe08e11b	-0.13367121
235	0xbc4fb134	-0.012676526
236	0x3dd8fa79	0.10594649
237	0xbd13325c	-0.0359367
238	0xbbd3123f	-0.006441384
239	0x3e2dece1	0.16984893
240	0x3ccbf96f	0.024899213
241	0xbdc22679	-0.09479994
242	0xbd5da674	-0.05411382
243	0xbd66529b	-0.056231122
244	0xbe028330	-0.12745357
245	0xbe12e783	-0.14346127
246	0xbd58ce28	-0.05293098
247	0xbe520079	-0.20507993
248	0x3da004ae	0.078133926
249	0xbe48c163	-0.19605021
250	0xbe23ab91	-0.15983416
251	0xbe301da9	-0.17198814
252	0x3e3368f1	0.175205
253	0x3e79607a	0.24353209
254	0x3e262e11	0.1622851
255	0xbd9022b6	-0.070378706

g.4.bias f4 [30]
0	0x3d1d1570	0.038350523
1	0xbe0e2e7a	-0.13884917
2	0x3e3d777b	0.1850261
3	0xbcbc9710	-0.023021251
4	0x3de2aaec	0.11067757
5	0xbd321d39	-0.0434849
6	0xbd0f290c	-0.034951255
7	0xbe1817e9	-0.14852871
8	0x3dd2ce41	0.10293246
9	0xbe1c0a52	-0.15238312
10	0xbd02469a	-0.031805612
11	0x3b9c1a56	0.0047638817
12	0x3d8ade3e	0.067806706
13	0xbe1b24ee	-0.15150806
14	0x3cf1efec	0.029533349
15	0xbe1d98e0	-0.15390348
16	0xbcc31e76	-0.023818236
17	0x3e28b57e	0.16475484
18	0xbe214b62	-0.15751413
19	0xbe0e260e	-0.13881704
20	0xbe322653	-0.17397432
21	0x3e05e45c	0.13075393
22	0x3d20044f	0.03906661
23	0x3dbd044c	0.09229335
24	0x3e08907e	0.1333637
25	0xbe04ecfc	-0.12981027
26	0x3dcb0ca5	0.09914521
27	0xbe3769d9	-0.17911471
28	0xbd0a100c	-0.03370671
29	0xbe33b7d4	-0.17550594

g.6.weight f4 [2, 30]
0	0xbd66228d	-0.056185294
1	0xbaeebd04	-0.001821429
2	0xbe011fb6	-0.12609753
3	0xbca4b230	-0.020104498
4	0x3d46c4e5	0.048527617
5	0xbe1d24c8	-0.15346062
6	0x3c6cbc0c	0.014449131
7	0x3d8fda4c	0.07024059
8	0x3e459287	0.19294177
9	0xbd68534e	-0.05672007
10	0xbcbe49a9	-0.023228483
11	0x3b526fb0	0.0032110028
12	0xbcb0d920	-0.021587908
13	0x3dbe8d74	0.09304324
14	0xbc8ac55b	-0.01693981
15	0x3d44e509	0.048069987
16	0xbc2602c2	-0.010132493
17	0xbda5b64d	-0.08091412
18	0xbe3672f2	-0.17817286
19	0x3d83a50e	0.06427966
20	0xbe0a21d6	-0.1348947
21	0x3d846b76	0.06465809
22	0xbd14f9af	-0.03637093
23	0xb87cc244	-6.0262406e-05
24	0xbe38017f	-0.1796932
25	0xbd854f2c	-0.065092415
26	0x3b55d279	0.0032626672
27	0x3e1da48b	0.153948
28	0xbe061101	-0.13092424
29	0x3d85b70d	0.06529055
30	0xba41eab6	-0.00073973404
31	0xb8d05c84	-9.935445e-05
32	0x3d480ed2	0.04884226
33	0x3e3637e2	0.17794755
34	0xbd45e0a4	-0.048309937
35	0xbd83074e	-0.06397878
36	0xbce881cf	-0.02838221
37	0xbda407ee	-0.08009325
38	0xbcd58db8	-0.026068553
39	0xbd378711	-0.044806544
40	0x3ca13bc6	0.019681823
41	0xba82b0ac	-0.0009970865
42	0xbc27ad2c	-0.0102341585
43	0x3e07f053	0.1327527
44	0x3e09231a	0.13392296
45	0xbd8f61fd	-0.07001112
46	0xbb6042af	-0.0034219434
47	0xbe1afb11	-0.15134837
48	0x3c91ed2c	0.017813288
49	0x3dec53a1	0.115393884
50	0xbe0a8634	-0.13527757
51	0x3d1e6cf1	0.038678113
52	0xbc597fdc	-0.013275113
53	0x3a7f5cab	0.00097412866
54	0xbdcf0d21	-0.10109926
55	0x3da320a7	0.07965212
56	0x3cc19bf5	0.023633936
57	0xbe0d9d3c	-0.13829511
58	0xbcafa4ba	-0.021440852
59	0xbd8d22bd	-0.068913914

g.6.bias f4 [2]
0	0xbdf33cfe	-0.11876868
1	0xbd3de1da	-0.046357967

nn_fun1.0.weight f4 [30, 2]
0	0x3ef0de01	0.47044376
1	0x3f2f2fc0	0.68432236
2	0xbdbd071f	-0.09229874
3	0x3d7ff43d	0.062488783
4	0x3f0394d2	0.51398957
5	0xbe9693a2	-0.2940951
6	0xbeb9b695	-0.36272112
7	0x3e0b392b	0.13596027
8	0x3e0d9d98	0.13829648
9	0xbf1b3556	-0.6062826
10	0x3db33673	0.0875062
11	0x3f1bc1f7	0.6084284
12	0x3ef7f3e4	0.4842826
13	0xbe8e1864	-0.27752984
14	0x3f508fe5	0.81469566
15	0xbdc9b53c	-0.09849021
16	0x3db28ecb	0.08718642
17	0xbc34cb3a	-0.011034781
18	0x3edcb420	0.43106174
19	0x3f1a4fe3	0.6027815
20	0x3d7e0887	0.06201985
21	0xbed90dc8	-0.42393327
22	0xbee3fd46	-0.4452917
23	0x3f8856e3	1.0651516
24	0xbf1171a6	-0.5681404
25	0xbf83c558	-1.02946
26	0x3e11afe1	0.14227249
27	0x3ebd18d4	0.36933005
28	0x3f63c3e3	0.88970774
29	0xbeca9fd8	-0.39575076
30	0x3ee68d30	0.45029593
31	0xbd805a3d	-0.062672116
32	0xbe177c1c	-0.14793438
33	0xbe91b122	-0.28455454
34	0x3f178fb9	0.5920368
35	0xbe401e97	-0.18761669
36	0xbe72cd7c	-0.23711199
37	0xbe5479fd	-0.2074966
38	0xbdb0eeab	-0.08639272
39	0xbe7cf0b8	-0.24701202
40	0xbf0c0bc9	-0.5470548
41	0xbf42b620	-0.7605915
42	0x3f2a14a8	0.6643777
43	0xbe5d8085	-0.21631058
44	0xbe9b61ac	-0.30347955
45	0xbf01f4c3	-0.507641
46	0x3f116fe3	0.5681135
47	0xbcb1cda8	-0.02170451
48	0x3e83a64f	0.2571282
49	0x3f49f97b	0.788963
50	0x3d512ad8	0.05106625
51	0x3ec46bb8	0.38363433
52	0x3eee577d	0.46551123
53	0x3f0b50a0	0.544199
54	0xbe886856	-0.26642102
55	0x3f202099	0.6254974
56	0x3dcf4c08	0.10121924
57	0x3cebe782	0.028796915
58	0xbd186936	-0.037209712
59	0xbdbf37e6	-0.09336834

nn_fun1.0.bias f4 [30]
0	0xbef36b79	-0.47542933
1	0xbc768999	-0.015047454
2	0x3efe5ec4	0.49681675
3	0x3e5a6d3b	0.2133073
4	0xbe6fafc5	-0.23406895
5	0xbebdc8fb	-0.37067398
6	0x3ef6f6fb	0.48235306
7	0xbeac4ef5	-0.3365399
8	0xbf083b91	-0.5321589
9	0xbecc0f9a	-0.39855653
10	0xbe8f64bd	-0.28006545
11	0x3ecfc537	0.4058015
12	0xbe409c76	-0.18809685
13	0xbf11d068	-0.5695863
14	0x3f15b74f	0.5848283
15	0xbecf2395	-0.40456834
16	0x3da1ce62	0.079006925
17	0x3f086ef2	0.5329429
18	0xbe5aae66	-0.2135559
19	0xbd8d3abb	-0.068959676
20	0xbe0c96e5	-0.13729437
21	0xbed031cb	-0.4066299
22	0xbea2cfcc	-0.3179916
23	0xbf0e690a	-0.55629027
24	0x3eee08d3	0.46491107
25	0x3eeb477e	0.45952982
26	0xbed5a3b2	-0.41726452
27	0x3c972191	0.018448623
28	0xbebf29eb	-0.37336668
29	0x3e82dc18	0.25558543

nn_fun1.2.weight f4 [30, 30]
0	0x3e26955a	0.1626791
1	0xbe14f6c4	-0.14547259
2	0x3ea7f409	0.32803372
3	0xbe5170d9	-0.20453204
4	0x3d90d192	0.07071222
5	0xbdfc3d35	-0.12316362
6	0x3da1b384	0.07895568
7	0x3e50eafd	0.20402141
8	0xbbb831bc	-0.005621163
9	0x3e22381c	0.15841717
10	0x3ddd201d	0.10797141
11	0x3e958f11	0.29210714
12	0x3d9c5d1e	0.07634948
13	0xbd99b9fd	-0.075061776
14	0x3ea1917b	0.31556305
15	0x3dea9187	0.114535384
16	0xbd4d995f	-0.050195094
17	0x3e824ded	0.25450078
18	0xbdabc8c6	-0.08387904
19	0x3de7d70d	0.113203146
20	0xbdb658f0	-0.08903682
21	0x3db6abf9	0.0891952
22	0xbd5097f6	-0.05092617
23	0x3c875ec4	0.01652468
24	0xbdab3b76	-0.08360951
25	0x3ddbe451	0.10736907
26	0xbe2bd6c6	-0.16781148
27	0x3d97530b	0.07388886
28	0x3cb698d9	0.02228968
29	0x3e1599b7	0.14609419
30	0x3dbf98c8	0.093553126
31	0x3e1f3ca4	0.15550476
32	0xbd5a33b2	-0.053271957
33	0x3de3f665	0.111309804
34	0x3e4b04cb	0.19826047
35	0x3df21b1d	0.11821578
36	0x3d69c18b	0.057069343
37	0xbc98547d	-0.018594975
38	0xbd9c3e15	-0.07629029
39	0x3c49bcb1	0.012313054
40	0x3da517f9	0.08061213
41	0xbde52b62	-0.11189915
42	0xbe0c5d30	-0.13707423
43	0xbe09c97e	-0.1345577
44	0xbe19955c	-0.14998382
45	0xbe14560b	-0.14485948
46	0xbe254a52	-0.16141632
47	0xbe41b9aa	-0.18918481
48	0xbe1347f0	-0.1438291
49	0x3dc90f30	0.0981735
50	0x3d81b73a	0.06333776
51	0xbe1338b9	-0.14377107
52	0xbdf6b7a5	-0.12046746
53	0xbd9dc934	-0.07704392
54	0xbe41036b	-0.1884896
55	0xbd32b67f	-0.043631073
56	0xbe2f9cf1	-0.17149712
57	0xbe38123b	-0.17975704
58	0x3e04bec1	0.12963392
59	0xbde6eb9e	-0.11275409
60	0xbd918f85	-0.07107452
61	0xbd32bf4e	-0.043639474
62	0xbe10fba7	-0.14158498
63	0x3e01fad9	0.12693347
64	0xbde182d8	-0.110112846
65	0xbdae5b35	-0.0851349
66	0x3dad0c28	0.08449584
67	0x3e9eb140	0.30994606
68	0xbd8dea5b	-0.069294654
69	0xbda9f4bc	-0.082986325
70	0x3c65e998	0.014032744
71	0xbd8d2d58	-0.06893414
72	0xbd8660eb	-0.065614544
73	0xbe11fe1e	-0.14257094
74	0xbe3ae1a3	-0.18250136
75	0xbd6b8321	-0.0574981
76	0xbe84d205	-0.25941482
77	0xbe1c297b	-0.15250199
78	0xbe50a129	-0.20373978
79	0xbe47139f	-0.19441079
80	0xbe203320	-0.15644503
81	0x3e83ff5b	0.25780758
82	0xbdc41902	-0.09575082
83	0x3dde4102	0.10852243
84	0x3e19c5a1	0.15016796
85	0xbd8617ac	-0.06547484
86	0xbdd01ff6	-0.10162346
87	0x3e36b4c4	0.17842394
88	0xbbb294ff	-0.0054498906
89	0xbd0dfd93	-0.034665655
90	0x3da17920	0.07884431
91	0xbd5dd01f	-0.054153558
92	0x3cd4326b	0.025902947
93	0x3e06e4b8	0.13173187
94	0x3d8663e6	0.06562023
95	0x3d4e5ae1	0.050379638
96	0x3e588d38	0.2114762
97	0xbe6ad108	-0.22931302
98	0xbd242a9a	-0.04007969
99	0x3dac8dc8	0.0842548
100	0xbdf58ff1	-0.11990345
101	0x3d3655f3	0.04451556
102	0x3e736745	0.23769863
103	0xbde2817a	-0.11059852
104	0xbd015c42	-0.031582125
105	0xbe2b4274	-0.16724569
106	0x3c899c47	0.016798152
107	0x3cea3d00	0.02859354
108	0x3de66b2c	0.1125091
109	0x3e77662d	0.2416007
110	0x3d05ad20	0.032635808
111	0x3dc7a813	0.097488545
112	0x3d8afb42	0.06786205
113	0xbe196c63	-0.14982753
114	0xbe42428c	-0.18970698
115	0xbd6e6734	-0.05820389
116	0xbd5f4bf6	-0.0545158
117	0xbe57ca4d	-0.21073265
118	0x3da9bdbe	0.082881436
119	0x39c19c13	0.00036928113
120	0x3d9bceb0	0.07607782
121	0xbe34ea73	-0.1766756
122	0xbd25459b	-0.040349584
123	0xbae2336e	-0.0017257759
124	0xbca1f6e7	-0.019771053
125	0xbe5daf38	-0.21648872
126	0xbd779811	-0.060447756
127	0xbe39ee27	-0.18157254
128	0xbe2461d5	-0.16052945
129	0xbd8316c6	-0.06400828
130	0x3d085ed7	0.03329357
131	0xbe22ab82	-0.15885738
132	0xbdd9c3e2	-0.10633065
133	0xbd302384	-0.04300262
134	0x3e529129	0.20563187
135	0xba9de5dd	-0.0012046654
136	0xbc4273d9	-0.011868441
137	0x3d93a813	0.07209792
138	0x3e157883	0.14596753
139	0x3dc60e1e	0.096706614
140	0xbca2c8da	-0.019871164
141	0x3d3f04ec	0.046635553
142	0x3dc24b64	0.09487036
143	0xbe683c2c	-0.22679204
144	0x3d3dcf04	0.046340004
145	0xbe04cd15	-0.12968858
146	0xbe685b02	-0.22690967
147	0xbe0f9bf9	-0.14024343
148	0xbdba886f	-0.09108054
149	0x3e7908d3	0.24319772
150	0xbee8f79d	-0.45501414
151	0x3da6fc6e	0.08153616
152	0x3e94b231	0.290422
153	0x3d9fdfe9	0.07806379
154	0x3e8bba8a	0.27290756
155	0xbece3e4e	-0.4028191
156	0xbda878aa	-0.0822614
157	0xbe060942	-0.13089469
158	0xbe06a5c4	-0.13149172
159	0xbed6c473	-0.41946754
160	0x3e8ffca7	0.28122446
161	0xbe0d7382	-0.13813594
162	0x3edbc67c	0.4292487
163	0xbe510ab9	-0.20414247
164	0x3c21cc09	0.009875306
165	0x3cde0d25	0.027105877
166	0x3f111c98	0.56684256
167	0xbd07f5b0	-0.03319329
168	0x3e4c3351	0.1994145
169	0x3e75f4c0	0.24019146
170	0x3eb65c2c	0.35617197
171	0x3d0fc0a1	0.035095815
172	0x3ebdcef2	0.3707195
173	0xbe042194	-0.12903434
174	0xbe874811	-0.2642217
175	0xbdf7b1e9	-0.120944805
176	0xbebbd823	-0.36688337
177	0xbe048782	-0.12942317
178	0xbe73d3a5	-0.23811205
179	0x3d72766a	0.05919496
180	0x3d81924f	0.06326734
181	0x3da98744	0.08277753
182	0xbd724c22	-0.059154637
183	0x3dc2791f	0.09495758
184	0xbdc142c8	-0.09436566
185	0xbdf18233	-0.11792412
186	0xbe85b2bd	-0.2611293
187	0xbe853967	-0.26020357
188	0x3d14a9c4	0.036294714
189	0xbaa36da8	-0.0012468593
190	0x3de121d7	0.109927826
191	0xbe7beca6	-0.24601993
192	0x3c51fe05	0.012816911
193	0x3ddc87bd	0.107680775
194	0xbe1ef7dc	-0.15524238
195	0xbe200b1b	-0.15629236
196	0x3e40e9a6	0.1883913
197	0xbe621416	-0.22077975
198	0xbdb5d4b9	-0.08878464
199	0x3dc5ac25	0.096519746
200	0x3dc0ae03	0.0940819
201	0xbe2f0ed6	-0.17095503
202	0x3dd7f447	0.10544639
203	0xbe2ae1d6	-0.16687712
204	0xbb8953db	-0.0041909046
205	0x3c9af994	0.018917836
206	0x3c95753d	0.01824438
207	0xbc4a8e64	-0.01236305
208	0xbde03523	-0.10947635
209	0x3bdd93da	0.00676201
210	0x3c67c1c7	0.014145321
211	0x3d69debe	0.05709719
212	0xbdf6786e	-0.12034689
213	0x3db80ccf	0.08986818
214	0x3bdc8e01	0.0067307954
215	0xbd4f31c4	-0.05058457
216	0xbd1b470e	-0.03790956
217	0xbdab2544	-0.08356717
218	0xbe70d8d9	-0.23520221
219	0xbd822b7a	-0.06355949
220	0x3ddd0025	0.10791043
221	0xbd6896db	-0.056784492
222	0xbdd87281	-0.10568715
223	0xbe36b2da	-0.17841664
224	0x3d9f2ea6	0.07772569
225	0x3d207b86	0.0391803
226	0xbdb91586	-0.090373084
227	0xbd152d8a	-0.036420383
228	0xbe047375	-0.12934668
229	0x3df31bf4	0.11870566
230	0x3e0b3c21	0.13597156
231	0x3da5469e	0.0807011
232	0xbd95f9d6	-0.07323043
233	0x3db8c435	0.090217985
234	0x3db83666	0.08994751
235	0xbe1f37e5	-0.15548666
236	0xbe111ea6	-0.14171848
237	0xbe247f0e	-0.16064093
238	0x3de4a2e6	0.11163883
239	0x3d62d671	0.05538029
240	0xbe0c4975	-0.13699897
241	0xbd839a10	-0.064258695
242	0xbc5c6b69	-0.013453343
243	0xbe094e51	-0.13408782
244	0xbe4f2cc4	-0.2023192
245	0xbdc3d5f3	-0.09562292
246	0xbd416593	-0.04721601
247	0x3e470f7d	0.19439502
248	0xbe4a2732	-0.19741514
249	0x3de017fe	0.10942076
250	0xbd5aafb1	-0.05339021
251	0x3d284207	0.041078594
252	0x3e1c381d	0.1525578
253	0x3e0b8c2c	0.1362769
254	0xbe5be40a	-0.21473709
255	0x3bc8d50a	0.006128912

nn_fun1.2.bias f4 [30]
0	0x3d2a7943	0.04161955
1	0x3c037073	0.008022415
2	0xbda034e9	-0.07822592
3	0x3e370806	0.17874154
4	0xbd9704a3	-0.07373931
5	0xbdc5b15a	-0.09652968
6	0xbdf1a547	-0.11799102
7	0x3c5a7834	0.013334323
8	0x3d238bcd	0.039928246
9	0x3dd95738	0.10612339
10	0xbdddb5eb	-0.10825714
11	0x3e2b35fc	0.16719812
12	0x3d0dca40	0.03461671
13	0x3d1ead96	0.038739763
14	0xbc00c193	-0.007858652
15	0xbd4df416	-0.050281607
16	0xbe034d5e	-0.12822482
17	0x3e5d5496	0.21614298
18	0x3d164f6c	0.036696836
19	0xbe2de2b8	-0.16981018
20	0xbe47cf25	-0.19512613
21	0xbdab5d43	-0.08367398
22	0x3db50ee7	0.08840733
23	0x3dafb462	0.08579327
24	0x3bcb76a6	0.0062092124
25	0x3e200698	0.15627515
26	0xbbc921e7	-0.0061380747
27	0x3e1a139d	0.15046544
28	0x3dbb1b6e	0.09136091
29	0x3e57bd26	0.21068248

nn_fun1.4.weight f4 [30, 30]
0	0xbdeb361d	-0.11484931
1	0xbd4292fe	-0.047503464
2	0x3e07c9c6	0.13260564
3	0x3e5b9ace	0.21445772
4	0x3bc2e792	0.0059480155
5	0x3d31e674	0.043432668
6	0xbd4c28db	-0.04984365
7	0x3e159af0	0.14609885
8	0xbd9ebd75	-0.0775098
9	0x3b17adc4	0.0023144344
10	0x3dc2b82c	0.09507784
11	0x3e5eeb3e	0.21769425
12	0x3e139b71	0.14414765
13	0x3d6349ad	0.055490185
14	0x3e1d6f90	0.15374589
15	0xbd9db10f	-0.07699787
16	0x3dae3e86	0.08508019
17	0x3e1c8fae	0.15289184
18	0xbe435b49	-0.19077791
19	0xbe95bd93	-0.29246196
20	0x3e06db7e	0.13169667
21	0xbd393439	-0.04521582
22	0xbe0a3d8f	-0.13500045
23	0xbe3b01f6	-0.18262467
24	0x3d49c949	0.049264226
25	0xbe024a1b	-0.12723581
26	0x3d6d11e2	0.057878383
27	0x3de9f692	0.11423983
28	0x3dfdc4a6	0.12391023
29	0x3d721289	0.059099708
30	0xbd857b85	-0.065177
31	0xbdd9ce13	-0.10635009
32	0x3e2a8b59	0.1665472
33	0x3d9c90aa	0.0764478
34	0x3df381ae	0.11889969
35	0x3d716408	0.058933288
36	0xbe11f182	-0.14252284
37	0x3d9563dd	0.07294438
38	0xbdc616d4	-0.09672323
39	0xbc891b82	-0.01673675
40	0x3c170ba7	0.009219087
41	0xbd568162	-0.052369483
42	0x3dce1150	0.10061896
43	0x3b67c9ec	0.0035368158
44	0xbdb235b2	-0.08701648
45	0x3e1d0662	0.15334466
46	0x3d21133c	0.039324984
47	0xbd7f74ae	-0.062367134
48	0x3e706923	0.23477606
49	0x3e4b7bf6	0.19871506
50	0xbcabba3b	-0.020962825
51	0xbe16b326	-0.14716777
52	0x3dce0600	0.10059738
53	0xbe01578d	-0.12631054
54	0x3d476b02	0.048686035
55	0x3e943af6	0.28951234
56	0x3ce5f81a	0.028072406
57	0x3e064110	0.13110757
58	0x3e0a500d	0.135071
59	0xbe31482c	-0.17312688
60	0xbe1aec38	-0.15129173
61	0xbd8cb0d9	-0.068696685
62	0xbe48e5d4	-0.19618922
63	0x3df48c1a	0.11940785
64	0x3cf653f4	0.030069329
65	0x3c3a5bb1	0.0113744
66	0xbcc85fa8	-0.024459675
67	0xbd577674	-0.0526032
68	0x3e2d4513	0.16920881
69	0x3dd17759	0.10227842
70	0x3dc5cffa	0.09658809
71	0xbd5f19b5	-0.054467876
72	0x3d1a99b5	0.037744243
73	0xbe2130fb	-0.15741341
74	0xbd6aae56	-0.057295166
75	0xbe3a05cd	-0.18166275
76	0xbd88e43b	-0.066841565
77	0xbe727611	-0.23677851
78	0xbd646f67	-0.055770304
79	0x3cebf7e0	0.02880472
80	0xbe69cfd3	-0.22833185
81	0x3db63f25	0.088987626
82	0x3e0975e1	0.13423873
83	0x3dbb1838	0.09135479
84	0xbd99b18e	-0.07504569
85	0xbe1e0735	-0.15432437
86	0xbb821202	-0.003969432
87	0x3dd956f6	0.106122896
88	0x3d0a6ff0	0.03379816
89	0x3d0a5cd1	0.033779923
90	0xbdc407f5	-0.0957183
91	0xbe2f7c28	-0.17137206
92	0x3e398999	0.18118896
93	0x3d10e25f	0.035372134
94	0xbd8cc7eb	-0.06874069
95	0x3dfc7634	0.12327233
96	0x3db5f9f2	0.08885564
97	0x3d0b239b	0.033969503
98	0x3daec0d3	0.08532872
99	0x3db05229	0.08609421
100	0xbdefd0a8	-0.1170972
101	0xbe087239	-0.13324822
102	0xbd44e763	-0.04807223
103	0xbd6384f4	-0.055546716
104	0xbd21ea24	-0.039529935
105	0xbd936141	-0.07196284
106	0xbd308481	-0.043095116
107	0xbd7bc7c7	-0.06146982
108	0xbd8858c8	-0.06657559
109	0x3dee0cc9	0.11623532
110	0xbd826cff	-0.063684456
111	0x3e0f7a4b	0.14011495
112	0xbc644cb1	-0.0139343
113	0x3b9ac64b	0.0047233454
114	0x3d6aa02f	0.05728167
115	0x3d98137c	0.07425591
116	0xbe329e7f	-0.17443274
117	0xbe0cc5cf	-0.13747333
118	0xbd8e5f9f	-0.06951832
119	0xbd68501a	-0.056717016
120	0xbdf2d271	-0.11856545
121	0x3d9b67c8	0.07588154
122	0x3dba2c5d	0.09090493
123	0xbda45a0e	-0.08024989
124	0xbe052735	-0.13003238
125	0x3e07b8b3	0.13254051
126	0xbd758e1d	-0.059949983
127	0xbc553e79	-0.013015383
128	0x3e297705	0.16549309
129	0xbd3f9f3e	-0.046782725
130	0xbdba0d94	-0.09084621
131	0x3d7e0015	0.062011797
132	0x3d9f5a0a	0.077808455
133	0x3d9c429c	0.07629892
134	0xbc23122a	-0.009953061
135	0x3d172f7d	0.036910523
136	0xbc062279	-0.00818693
137	0x3d3a6525	0.045506615
138	0x3df1dd20	0.11809754
139	0xbd40181e	-0.046898
140	0x3c904462	0.017610732
141	0xbd1de3b9	-0.03854725
142	0x3d860d5f	0.06545519
143	0xbc9bf1a8	-0.01903613
144	0xbe0ffea4	-0.14061981
145	0xbe0716ad	-0.13192244
146	0xbcc14b8e	-0.023595598
147	0x3e0c330e	0.13691351
148	0x3d1939a2	0.03740848
149	0xbe50aa72	-0.2037752
150	0x3e16d50b	0.14729707
151	0x3dca6ec9	0.09884412
152	0xbd5e430a	-0.054263152
153	0xbd90b078	-0.07064909
154	0xbd4e103c	-0.05030845
155	0xbde44e63	-0.111477636
156	0x3d4ef754	0.05052884
157	0xbd7dfcf1	-0.0620088
158	0xbbff2a6f	-0.007787041
159	0x3e07b68e	0.13253233
160	0xbe0ffe69	-0.14061894
161	0x3cf393f8	0.029733643
162	0x3d81a134	0.06329575
163	0x3d9a82e7	0.07544499
164	0xbda8c017	-0.08239763
165	0x3e1120e3	0.14172702
166	0xbe024387	-0.12721072
167	0xbe2fe392	-0.17176655
168	0xbd0959c8	-0.033532888
169	0x3bf6b922	0.007529394
170	0xbe51aecd	-0.20476837
171	0xbd9755c5	-0.07389406
172	0x3c5f179b	0.013616468
173	0x3dfee689	0.12446315
174	0x3dc4ef1a	0.096159175
175	0xbe364c58	-0.1780256
176	0xbdac56bd	-0.084149815
177	0xbd641415	-0.055683214
178	0x3d5886ec	0.052863047
179	0x3d5a5d22	0.053311475
180	0x3d613398	0.054980844
181	0xbd421cc4	-0.047390714
182	0x3d96dc8e	0.07366286
183	0x3e1a42fa	0.15064612
184	0xbd8af17d	-0.067843415
185	0x3e303d2f	0.1721084
186	0xbde50d21	-0.11184145
187	0x3ddf04c4	0.10889581
188	0xbcc2a6f6	-0.023761254
189	0xbda2b790	-0.07945168
190	0x3e0c923b	0.13727657
191	0xbcff88b9	-0.031193124
192	0x3e21eba1	0.15812542
193	0xbe0f6bff	-0.14006041
194	0x3d40a381	0.04703093
195	0x3dbe7101	0.092988975
196	0xbd584583	-0.052800667
197	0xbbe08773	-0.0068520843
198	0x3e1abc00	0.15110779
199	0x3e30bbce	0.17259142
200	0x3c331e1e	0.0109324735
201	0xbe108ec0	-0.14116955
202	0xbd87ec80	-0.06636906
203	0xbc25de00	-0.01012373
204	0x3da1e137	0.079042844
205	0xbdd3050c	-0.10303697
206	0x3e1b9a86	0.15195665
207	0x3dd7d134	0.10537949
208	0x3e010d9c	0.12602848
209	0x3ce4e6e9	0.027942138
210	0xbe4f38a6	-0.20236453
211	0xbcc627ee	-0.024188962
212	0x3dc070de	0.09396528
213	0xbd60ebb5	-0.054912288
214	0x3de91a2d	0.11381946
215	0x3ce17703	0.02752257
216	0xbe09796f	-0.1342523
217	0xbe24356c	-0.16036004
218	0xbe1686f5	-0.1469992
219	0xbdd3a53e	-0.10334252
220	0xbd887267	-0.066624455
221	0x3c477bd5	0.01217552
222	0xbd049449	-0.03236798
223	0x3d049839	0.032371733
224	0xbdb49d07	-0.08819013
225	0xbe010658	-0.12600076
226	0x3e3608b2	0.17776754
227	0x3d2d91d7	0.04237541
228	0xbdc25683	-0.09489157
229	0x3d56cda9	0.052442227
230	0xbd23da0c	-0.040002868
231	0x3d7f3aec	0.06231205
232	0x3de064fc	0.10956761
233	0xbdf7c0df	-0.12097334
234	0xbde54c87	-0.11196237
235	0x3d9e2a1e	0.07722877
236	0xbd1366aa	-0.03598658
237	0xbd26fb29	-0.04076687
238	0x3e28bc8b	0.16478173
239	0x3e01903c	0.12652677
240	0x3cbc2a40	0.022969365
241	0xbb7902d3	-0.0037996068
242	0x3d7693c9	0.060199533
243	0x3d827258	0.063694656
244	0x3e09ccab	0.13456981
245	0x3e76c607	0.24098979
246	0xbde4eadd	-0.11177609
247	0x3d9cfd50	0.07665503
248	0xbc540238	-0.012939982
249	0xbea7bb08	-0.3275988
250	0xbd298b7c	-0.04139279
251	0x3c1511b9	0.009098464
252	0x3ee1eb4d	0.44124833
253	0xbc838b8c	-0.016057752
254	0x3e92152a	0.28531772
255	0xbe871b50	-0.26388025

nn_fun1.4.bias f4 [30]
0	0xbd14d8da	-0.03633962
1	0x3cd0d6f7	0.025493128
2	0x3e1b530c	0.15168399
3	0xbc974902	-0.01846743
4	0x3deb1e1a	0.11480351
5	0x3e117e9c	0.14208454
6	0xbdfd2fbe	-0.12362622
7	0x3d299dc3	0.04141022
8	0x3be0cb98	0.0068602078
9	0x3db676e5	0.08909396
10	0xbde8a0f3	-0.113588236
11	0x3d3c1e43	0.045927297
12	0xbddcafa2	-0.10775687
13	0x3ddc55c7	0.10758548
14	0xbe474f06	-0.19463739
15	0x3af729aa	0.0018857021
16	0x3e1c3066	0.15252838
17	0xbe1b6f99	-0.1517929
18	0xbd2dec07	-0.04246142
19	0xbd9dd13f	-0.07705926
20	0xbd5ae9be	-0.05344557
21	0xbdf2d0b2	-0.11856212
22	0xbdf3c5ce	-0.119029626
23	0xbe1fc891	-0.15603854
24	0xbdceb1b3	-0.10092487
25	0x3dc8a7db	0.09797641
26	0xbd2e8ec6	-0.042616628
27	0x3d5d2a8b	0.05399565
28	0xbe1a23e3	-0.15052752
29	0x3e54a984	0.2076779

nn_fun1.6.weight f4 [30, 30]
0	0x3d0bf5d8	0.03417
1	0xbd452b23	-0.04813684
2	0xbccae6e6	-0.024768304
3	0xbe4b0620	-0.19826555
4	0xbcd7106b	-0.026252946
5	0x3d8a654e	0.067576036
6	0xbd9220c9	-0.071351595
7	0x3d025d86	0.031827472
8	0xbb663c22	-0.0035131057
9	0xbc7809c8	-0.015139051
10	0x3e16de27	0.14733182
11	0x3db03f93	0.08605876
12	0x3cccc564	0.024996467
13	0x3e06c83d	0.13162322
14	0x3d4894f4	0.048970178
15	0x3daa9f0f	0.08331119
16	0xbe0b2b04	-0.13590628
17	0x3d00e412	0.031467505
18	0xbd3c663a	-0.04599593
19	0x3d1a703d	0.037704695
20	0x3d3ec87a	0.046577908
21	0xbbbb8072	-0.005722099
22	0xbe266f56	-0.16253409
23	0xbbe1eabd	-0.006894438
24	0x3d9f6b23	0.077841066
25	0x3dffabbf	0.1248393
26	0x3e741ef8	0.23839939
27	0xbe340c6a	-0.1758286
28	0x3e0ce2d5	0.13758405
29	0xbe78fbed	-0.24314852
30	0xbde5affd	-0.11215208
31	0xbdb87640	-0.090069294
32	0xbdf858ac	-0.12126288
33	0x3d23e526	0.040013455
34	0x3c3ee6d2	0.011651712
35	0xbdc5c01c	-0.096557826
36	0x3c8d534c	0.017251633
37	0x3d240569	0.040044222
38	0xbde9a379	-0.11408133
39	0xbe0c29ac	-0.13687772
40	0x3d5fe0f6	0.0546579
41	0xbe9a7ccb	-0.30173334
42	0x3dce3544	0.10068753
43	0x3e36c6ee	0.17849323
44	0xbd2e89c9	-0.04261187
45	0xbc2c4918	-0.010515474
46	0xbe4b70f2	-0.19867304
47	0x3d6ab937	0.05730554
48	0x3c4ddf1f	0.012565403
49	0x38b0bec0	8.427864e-05
50	0xbe2e7b31	-0.17039181
51	0xbe123fc9	-0.14282145
52	0xbd31c9ea	-0.04340545
53	0x3e3143e1	0.1731105
54	0x3db68eb5	0.08913938
55	0xbd1a0fe6	-0.03761282
56	0x3e1ce9ad	0.15323515
57	0xbd591af8	-0.053004235
58	0x3ca5850b	0.020205041
59	0xbe65d24b	-0.22443502
60	0xbc34e914	-0.011041898
61	0x3dd77e23	0.105221055
62	0xbe06db59	-0.13169612
63	0x3e5a71a8	0.21332419
64	0x3e2a40bc	0.16626257
65	0xbddb23b8	-0.10700172
66	0xbd7f6113	-0.062348437
67	0xbe2c4021	-0.16821338
68	0xbd729b99	-0.05923042
69	0xbda833cb	-0.08213004
70	0x3def0af4	0.11672011
71	0x3da84835	0.082168974
72	0x3da91442	0.08255817
73	0xbdc07ca8	-0.09398776
74	0x3db5378e	0.08848487
75	0xbdcc6064	-0.099793226
76	0xbd88c27c	-0.0667772
77	0x3e683579	0.22676648
78	0xbc97de0e	-0.018538501
79	0xbde76c9e	-0.11300014
80	0x3e0b3ddf	0.1359782
81	0xbe2adde8	-0.16686213
82	0xbc2f7641	-0.010709346
83	0x3c9bf5bd	0.019038076
84	0xbe3d5a10	-0.18491387
85	0x3daf7f8c	0.085692495
86	0x3c88b8b1	0.01668963
87	0x3db225aa	0.0869859
88	0x3d80ec29	0.06295044
89	0xbcae15bb	-0.021250596
90	0xbade50cb	-0.0016961334
91	0xbddf3762	-0.10899235
92	0xbe0e1312	-0.13874462
93	0xbd9d3cc4	-0.07677606
94	0x3e0c45fb	0.1369857
95	0xbd79b8dd	-0.060967315
96	0x3d8333e0	0.06406379
97	0x3e25437c	0.16139024
98	0xbdca7e28	-0.09887344
99	0xbd58475f	-0.05280244
100	0xbd064bf3	-0.032787275
101	0x3d84780b	0.06468209
102	0xbb8d9d40	-0.004321724
103	0xbdf0698e	-0.11738883
104	0x3c6f20e9	0.014595249
105	0x3df49174	0.119418055
106	0xbd641579	-0.05568454
107	0x3e5bb0ef	0.21454214
108	0x3db01180	0.08597088
109	0x37b32cc0	2.1359301e-05
110	0xbd2123c2	-0.039340742
111	0x3cf1909c	0.0294879
112	0x3e134e51	0.14385344
113	0x3e0b0770	0.13577056
114	0x3e0c1102	0.13678363
115	0x3dbab8bb	0.09117266
116	0xbdb47519	-0.08811397
117	0xbe0dd529	-0.13850845
118	0xbddf80be	-0.109132275
119	0xbd462374	-0.048373654
120	0x3df9ad2f	0.12191235
121	0xbde42473	-0.11139765
122	0x3d048029	0.032348786
123	0x3d83b080	0.06430149
124	0xbc050650	-0.008119181
125	0x3d3e2fbb	0.046432238
126	0xbdd20fd3	-0.102569245
127	0x3d70e3b7	0.058810916
128	0xbda287df	-0.079360716
129	0x3d321436	0.043476306
130	0x3d0ad32e	0.033892803
131	0x3cea3aa5	0.028592417
132	0x3df75614	0.12076965
133	0xbe46c5cd	-0.19411393
134	0xbdb0ba8d	-0.08629332
135	0x3da20c7b	0.07912537
136	0xbc9bc61a	-0.01901536
137	0xbdcc9801	-0.0998993
138	0x3d6b7818	0.057487577
139	0xbd239005	-0.03993227
140	0x3d42e7eb	0.047584455
141	0xbd812ce6	-0.06307392
142	0x3c8fc36d	0.017549241
143	0x3d5ff64a	0.05467824
144	0xbdbdd81c	-0.09269735
145	0x3dae6890	0.085160375
146	0xbe05388b	-0.1300985
147	0x3d782aaa	0.060587563
148	0xbe06c692	-0.13161686
149	0x3d8858c1	0.066575535
150	0xbe4522c5	-0.19251545
151	0xbe0380f6	-0.12842163
152	0x3dd62326	0.10455923
153	0x3d5d91e0	0.054094195
154	0x3cbd847c	0.023134463
155	0x3d7f3309	0.06230453
156	0x3e121930	0.14267421
157	0x3e504f7c	0.20342821
158	0x3adca38a	0.0016833406
159	0xbbf3e5b8	-0.007443156
160	0xbe0263bd	-0.1273336
161	0x3d77bccd	0.06048279
162	0x3bf94e18	0.0076081865
163	0x3e03dcab	0.12877147
164	0xbdee8dcf	-0.116481416
165	0x3cda268e	0.026629712
166	0xbd819d18	-0.063287914
167	0x3e0d8b72	0.13822725
168	0x3c77055c	0.015076961
169	0x3dafb6ac	0.08579764
170	0x3b676684	0.0035308907
171	0x3d5e836b	0.05432455
172	0xbe30d01e	-0.1726689
173	0xbca0152d	-0.019541347
174	0x3e0a196c	0.1348626
175	0x3e08d299	0.13361587
176	0xbd6f7a00	-0.058465958
177	0x3d3dd7c9	0.046348367
178	0xbd0b867e	-0.03406381
179	0xbd146b67	-0.03623524
180	0x3d84d540	0.06485987
181	0xbc9ff360	-0.01952523
182	0xbdd1cb99	-0.10243911
183	0x3cfc30a1	0.030784907
184	0x3e2434d8	0.16035783
185	0xbcac1d2a	-0.02101
186	0xbd330e51	-0.043714825
187	0xbd23d737	-0.040000167
188	0xbe470959	-0.1943716
189	0x3d9231d3	0.071384095
190	0x3d7e7926	0.062127255
191	0x3c975287	0.01847197
192	0xbd75ed91	-0.060041014
193	0x3d51afcb	0.05119304
194	0x3cf5cea8	0.030005768
195	0xbdd43071	-0.10360802
196	0x3d3f5d58	0.04671988
197	0xbd37b069	-0.044845972
198	0x3d88569f	0.06657147
199	0xbba48c9f	-0.005021646
200	0xbce1032b	-0.02746733
201	0x3d936c9a	0.071984485
202	0xbd439f02	-0.047759064
203	0xbe202ee2	-0.15642884
204	0x3dd09a1d	0.10185645
205	0xbe13854d	-0.14406319
206	0xbb883fc6	-0.004157993
207	0x3decbb92	0.11559214
208	0x3d4eda27	0.050501015
209	0xbd266fc4	-0.04063393
210	0xbd243c29	-0.040096436
211	0xbe0b33e4	-0.13594013
212	0x3d1f8285	0.038942832
213	0x3dade9d7	0.08491867
214	0xbc35c252	-0.011093693
215	0xbb46da4c	-0.0030342517
216	0x3b8c9a98	0.00429089
217	0xbe12a845	-0.14322002
218	0x3ccfb2c5	0.025353799
219	0xbd969329	-0.07352287
220	0xbe0905b3	-0.1338108
221	0x3c96f4b0	0.018427223
222	0x3e09370f	0.1339991
223	0x3d9eb3b6	0.07749121
224	0xbe2082d0	-0.15674901
225	0xbd3de45a	-0.04636035
226	0xbd070d7c	-0.032971844
227	0xbe1ba5a4	-0.15199906
228	0x3cd245d4	0.025668062
229	0x3e6840d3	0.22680978
230	0xbdafa6d9	-0.085767455
231	0x3e1280ae	0.143069
232	0x3de0bccf	0.109735124
233	0xbe40fc79	-0.1884631
234	0x3e3ce77f	0.18447684
235	0x3e279765	0.16366346
236	0xbe409a47	-0.18808852
237	0xbe1b8a8c	-0.1518957
238	0xbc5c68f5	-0.013452758
239	0x3e380b44	0.17973047
240	0xbe07e2fe	-0.13270184
241	0x3dc8c0ac	0.09802374
242	0x3d3015ee	0.042989664
243	0x3d7053cb	0.05867366
244	0x3db11e2d	0.08648334
245	0x3d66f195	0.056382734
246	0x3e5bb2ef	0.21454976
247	0xbbac390f	-0.0052558254
248	0x3e6ed268	0.23322451
249	0x3e3e2ed3	0.1857255
250	0x3e001e4e	0.1251156
251	0xbb1b8630	-0.0023731105
252	0xbe4cfa20	-0.2001729
253	0x3de0e977	0.1098203
254	0x3e4c52e0	0.1995349
255	0x3cb88cdc	0.022528104

nn_fun1.6.bias f4 [30]
0	0xbe2db91d	-0.16965146
1	0xbdcfda68	-0.101490796
2	0x3df5614b	0.11981448
3	0x3d5986e6	0.053107165
4	0xbce6ae08	-0.028159156
5	0xbcca208a	-0.024673719
6	0xbd6d79f0	-0.057977617
7	0xbcdaa643	-0.026690608
8	0xbdfd9d85	-0.1238356
9	0xbdaa0d3d	-0.08303306
10	0xbc119eed	-0.0088879885
11	0xbe52330d	-0.20527287
12	0x3d5a5189	0.053300414
13	0x3d3c2173	0.045930337
14	0x3e1f6839	0.15567102
15	0x3d5e7793	0.054313254
16	0x3c5e3958	0.0135634765
17	0x3c848c8a	0.016180295
18	0xbd127146	-0.035752557
19	0x3d9940ea	0.074830845
20	0xbd5052ff	-0.0508604
21	0xbdcbdcaf	-0.099542014
22	0xbcd29a58	-0.025708362
23	0x3e408c36	0.18803486
24	0x3e058d54	0.13042194
25	0xbc749ceb	-0.01492999
26	0x3e36de1c	0.17858166
27	0xbd708b1b	-0.05872641
28	0x3e5d3b4e	0.21604654
29	0xbd4fe3bc	-0.050754294

nn_fun2.0.weight f4 [30, 2]
0	0xbef02b26	-0.4690792
1	0x3ec9fdca	0.39451438
2	0x3ee536fe	0.44768518
3	0x3f053e42	0.5204812
4	0x3d4f10e1	0.050553206
5	0xbd149023	-0.036270272
6	0x3dcbdf39	0.09954686
7	0xbedeedef	-0.43540904
8	0x3e55c2bf	0.20875071
9	0x3e0f76ba	0.14010134
10	0x3f1b93cc	0.60772395
11	0x3dc8742b	0.09787782
12	0xbf1d0779	-0.6133953
13	0xbe9af16d	-0.30262318
14	0x3f5238e4	0.8211806
15	0x3ebd6f09	0.36998776
16	0xbf544739	-0.8292118
17	0xbead2e6b	-0.33824477
18	0xbd5b0c1e	-0.053478353
19	0xbec15674	-0.3776127
20	0x3e365ff5	0.17810042
21	0x3ecab303	0.395897
22	0x3f16fe61	0.589819
23	0xbec75158	-0.38929248
24	0x3d86c66f	0.06580817
25	0x3ef6ce14	0.482041
26	0xbf288350	-0.65825367
27	0xbead9b53	-0.33907565
28	0xbeb19405	-0.34683242
29	0xbd66e8ba	-0.05637429
30	0x3eb7cd42	0.35898787
31	0x3f27b0c9	0.6550413
32	0x3ed361a5	0.41285434
33	0xbee337e0	-0.44378567
34	0x3e5c8668	0.21535647
35	0x3e8546cd	0.2603058
36	0xbf21658e	-0.63045585
37	0xbdb114ef	-0.08646571
38	0xbf14df00	-0.5815277
39	0x3ed06e2c	0.40709054
40	0xbeb910a0	-0.36145496
41	0xbedafe3a	-0.42772084
42	0xbdcf3b0f	-0.101186864
43	0xbe7f6798	-0.24941862
44	0x3f2e07e8	0.67980814
45	0x3e841016	0.25793523
46	0xbe66e463	-0.2254806
47	0xbe662380	-0.2247448
48	0xbcd25dcf	-0.025679497
49	0x3ee0cb97	0.43905327
50	0x3d806b0c	0.062704176
51	0x3f18f0d6	0.59742486
52	0x3e8e6d8b	0.2781795
53	0x3c8e5029	0.017372208
54	0x3e584b97	0.21122585
55	0xbf45e738	-0.77305937
56	0x3e3e466b	0.1858155
57	0x3df68e53	0.12038865
58	0xbf622a5e	-0.883459
59	0x3ee0b422	0.4388743

nn_fun2.0.bias f4 [30]
0	0x3e89b10d	0.26892892
1	0xbef06478	-0.46951652
2	0xbefb9b43	-0.49141893
3	0x3f27d7d6	0.65563715
4	0x3f07fc3f	0.5311927
5	0x3eaedb16	0.34151524
6	0xbe906638	-0.28202987
7	0xbf21ec3d	-0.63251096
8	0xbf2e34c7	-0.6804928
9	0x3dcbc0db	0.09948894
10	0x3e877722	0.2645808
11	0x3f508ccc	0.8146484
12	0xbf147898	-0.5799651
13	0xbe90d770	-0.28289366
14	0xbf0c7dad	-0.54879266
15	0xbed51311	-0.4161611
16	0x3f4de668	0.804297
17	0xbe1dc4bf	-0.15407084
18	0xbe16294c	-0.14664191
19	0xbf19a5b0	-0.60018444
20	0x3c175b77	0.0092381155
21	0x3d6254c5	0.055256624
22	0x3ec29814	0.3800665
23	0xbedfab88	-0.43685555
24	0xbe465cef	-0.19371389
25	0xbf20b261	-0.62772185
26	0x3e9fcbe3	0.3121024
27	0xbf206a60	-0.62662315
28	0x3d9d8ca2	0.07692839
29	0x3f0bab99	0.5455871
