models/neural_network_SAGEConv_dynamics_MAK_graph_size_2/neural_network.pth (torch, 18591 bytes, 10 tensors)

conv1.lin_l.weight f4 [30, 1]
-0.10127767 -0.15717815 -0.6727948 0.21262915 -0.11841839 0.23820122 0.6789039 -0.5100815
0.4709793 0.11073094 -0.34318563 -0.5034488 0.31137168 0.21338452 0.009039377 -0.4546666
0.39820313 0.1283217 -0.99537736 -0.1951635 -0.26910734 -0.4452644 -0.45353106 -0.6001067
0.84607494 -0.7395089 0.81145555 -0.75185245 -0.32058373 -0.49546596
00000000: ab6a cfbd 4ff3 20be 483c 2cbf 75bb 593e
00000010: 5785 f2bd 05eb 733e a5cc 2d3f b494 02bf
00000020: 3324 f13e e7c6 e23d 07b6 afbe 05e2 00bf
00000030: 1c6c 9f3e 7981 5a3e e519 143c 10ca e8be
00000040: 48e1 cb3e c466 033e 0dd1 7ebf f1d8 47be
00000050: 70c8 89be b2f9 e3be 3935 e8be 98a0 19bf
00000060: 5e98 583f 7550 3dbf 8dbb 4f3f 6779 40bf
00000070: 8d23 a4be b7ad fdbe

conv1.lin_l.bias f4 [30]
-0.2867482 0.23847397 0.54133654 -0.43996206 -0.49380437 0.38514408 -0.19920878 0.3619675
0.4775094 -0.28695062 -0.38792956 0.31361857 -0.32478344 -0.6976169 -0.5020287 -0.39017275
0.86307096 0.20059592 0.44192857 0.09242525 -0.6999543 0.72943956 -0.050860308 -0.12478302
0.7404 -0.21989919 0.05204209 -0.85797703 0.41084054 0.34877637
00000000: a9d0 92be 8532 743e 0895 0a3f b542 e1be
00000010: edd3 fcbe 9b31 c53e 63fd 4bbe ce53 b93e
00000020: 1d7c f43e 31eb 92be b49e c6be 9d92 a03e
00000030: 044a a6be 0597 32bf f484 00bf b9c4 c7be
00000040: 38f2 5c3f 0469 4d3e 7644 e23e 7349 bd3d
00000050: 3430 33bf 8dbc 3a3f e652 50bd 3d8e ffbd
00000060: db8a 3d3f 412d 61be 162a 553d 62a4 5bbf
00000070: b159 d23e d192 b23e

conv1.lin_r.weight f4 [30, 1]
-0.5006004 0.47739953 0.049413342 -0.33152932 0.861085 0.33800328 0.29959404 -0.2727599
-0.6305515 -0.4338923 0.51909834 0.20593603 -0.5004091 0.91107684 0.61903054 -0.34343627
0.42309922 -0.45024315 0.29236606 0.83956635 -0.85882854 -0.5145691 0.08552887 0.26000848
-0.9122348 -0.48298755 -0.24343432 -0.13908532 0.15702273 0.040176652
00000000: 5927 00bf b66d f43e a565 4a3d 36be a9be
00000010: 1170 5c3f c40e ad3e 6464 993e 30a7 8bbe
00000020: d36b 21bf 2227 debe a1e3 043f e5e0 523e
00000030: d01a 00bf 553c 693f c978 1e3f e1d6 afbe
00000040: 76a0 d83e 4586 e6be 01b1 953e d2ed 563f
00000050: 30dc 5bbf cdba 03bf c329 af3d d51f 853e
00000060: 3888 69bf 254a f7be d946 79be 626c 0ebe
00000070: 91ca 203e 4690 243d

conv2.lin_l.weight f4 [30, 30]
-0.1179355 0.10117194 0.06777988 -0.12260335 0.30411607 -0.06708836 -0.1418966 0.035223387
-0.09249994 -0.09910938 -0.114465974 0.06314889 0.06956872 0.20697168 -0.061701275 -0.04559993
0.17130382 -0.1834724 -0.12424457 -0.018731313 -0.16563174 -0.1799167 0.15273549 0.018129589
0.046538543 0.0711335 0.12411017 0.1212747 0.1311818 0.098025545 0.14478989 0.116302684
-0.033135243 0.021087198 -0.07918304 -0.14210072 0.16412929 -0.13101771 -0.15032102 -0.17073302
-0.1077204 0.04541615 0.09320196 -0.11830226 0.062711686 -0.1288821 0.029454881 0.083689466
-0.061987843 -0.0905581 0.12801692 -0.17808674 -0.024940697 -0.13528122 0.08735724 0.06528055
-0.09249671 0.13599032 0.17028984 0.074457005 -0.14537333 -0.038043678 0.24499136 0.12111986
-0.40027174 0.13977388 -0.12247725 0.07145627 0.18276133 0.036331456 -0.1656163 0.076696984
0.10737569 -0.046429243 -0.33249295 -0.05211085 0.015971811 0.19152346 0.10263879 -0.07657
0.041355666 0.5513382 -0.03331771 0.14062141 0.013062783 0.02431662 0.053098716 -0.08573149
0.013867426 0.07792746 0.05259667 -0.083484575 -0.05431457 -0.19400617 -0.1700566 0.07600297
0.16359821 -0.19040644 -0.05638496 0.103131294 -0.10825541 0.14039283 -0.0021557675 -0.18524672
-0.012765819 -0.12831362 0.054845072 -0.052375887 0.19256674 -0.068085685 0.099855624 -0.039363828
-0.16236827 0.061491314 0.11777708 -0.021731874 -0.14041962 -0.06941724 -0.1051937 0.0698907
0.007925029 0.14783221 0.16588916 -0.102757156 0.24951398 0.1487923 0.06081881 -0.21463048
-0.09797102 0.057179283 0.111842714 0.09859279 -0.005491613 -0.04451629 -0.13375896 -0.12807184
0.022293108 -0.12735765 0.059709463 -0.103627056 0.07194246 0.057791144 -0.19323517 -0.12650904
-0.01789996 0.011760447 0.19373643 0.01415592 0.1381615 0.13113832 0.14381497 -0.16996899
-0.07425483 -0.013947645 -0.13989903 0.015182613 0.1384034 0.18858084 -0.06206684 -0.07639855
0.023104317 0.03337573 0.12141744 -0.03388434 -0.0028387061 0.060315926 0.1391913 0.16086377
0.13364652 -0.13832578 0.12228841 0.11687872 -0.114136145 -0.016128208 0.1204545 -0.08460915
-0.030351082 0.060200743 0.13995162 0.012815596 -0.12188788 -0.08291384 -0.020237828 0.030425789
-0.07512213 0.14623816 0.022234881 -0.10927432 0.05965582 0.020833965 0.21500462 0.022536812
0.0017641964 -0.18620446 -0.06251209 0.017704267 0.13882613 -0.25155127 0.45674896 -0.11922184
-0.1304731 -0.15402016 -0.08556674 -0.11311196 -0.0937879 -0.008158517 0.054029223 0.105143644
-0.008734879 -0.009420406 -0.05358876 -0.13738784 0.22379136 0.14406486 -0.38876718 -0.15820158
-0.17663254 -0.0083361985 0.008062243 -0.12596767 0.0911252 0.048314303 -0.09870505 -0.305014
0.009602282 0.1654878 0.03800863 0.040491544 0.32062012 0.11092986 -0.04396988 0.4934622
-0.12823564 -0.017678363 0.15749502 -0.1292033 -0.056072634 -0.096044056 -0.044774026 0.25807586
0.09173369 -0.14769599 -0.02626622 -0.02662847 -0.232288 -0.07905688 -0.1765955 0.14582309
0.11801257 0.03958659 -0.057406552 -0.1379783 -0.02434575 -0.035409886 -0.17436202 0.12252703
00000000: 2b88 f1bd 3c33 cf3d 2dd0 8a3d 7717 fbbd
00000010: 1ab5 9b3e 9f65 89bd 584d 11be 6646 103d
00000020: 9c70 bdbd dcf9 cabd 236d eabd 3554 813d
00000030: 0c7a 8e3d 62f0 533e 7aba 7cbd fec6 3abd
00000040: 456a 2f3e 30e0 3bbe f073 febd 6972 99bc
00000050: 5e9b 29be 153c 38be b166 1c3e 8184 943c
00000060: 339f 3e3d 71ae 913d 792d fe3d df5e f83d
00000070: 8654 063e 9ec1 c83d cd43 143e 1a30 ee3d
00000080: d2b8 07bd 0fbf ac3c b82a a2bd da82 11be
00000090: 8211 283e 8229 06be c1ed 19be a3d4 2ebe
000000a0: 839c dcbd 4906 3a3d abe0 be3d 7548 f2bd
000000b0: fc6e 803d abf9 03be 5d4b f13c 6265 ab3d
000000c0: f7e6 7dbd 8676 b9bd de16 033e 5f5c 36be
000000d0: 6f50 ccbc 2987 0abe 5ae8 b23d cfb1 853d
000000e0: ea6e bdbd 0c41 0b3e 7660 2e3e ea7c 983d
000000f0: bfdc 14be b0d3 1bbd 04df 7a3e b00d f83d
00000100: 6bf0 ccbe e220 0f3e 5ad5 fabd aa57 923d
00000110: c925 3b3e 4bd0 143d 5297 29be 4f13 9d3d
00000120: c9e7 db3d 972c 3ebd 843c aabe 3072 55bd
00000130: 51d7 823c ba1e 443e 4934 d23d bbd0 9cbd
00000140: 8f64 293d 8024 0d3f 2778 08bd 0fff 0f3e
00000150: 4805 563c a633 c73c 0a7e 593d fe93 afbd
00000160: 3334 633c 6f98 9f3d 9b6f 573d f6f9 aabd
00000170: f478 5ebd 8ea9 46be 5123 2ebe 72a7 9b3d
00000180: 4a86 273e e8f9 42be eaf3 66bd 8036 d33d
00000190: 03b5 ddbd 23c3 0f3e c747 0dbb 51b1 3dbe
000001a0: ba27 51bc a564 03be 3aa5 603d 1988 56bd
000001b0: 3730 453e 8270 8bbd 1b81 cc3d f73b 21bd
000001c0: de43 26be 51de 7b3d 1c35 f13d 0b07 b2bc
000001d0: 29ca 0fbe a02a 8ebd cb6f d7bd db22 8f3d
000001e0: fbd7 013c 5461 173e d9de 293e 5872 d2bd
000001f0: 9880 7f3e 025d 183e 251d 793d 18c8 5bbe
00000200: 08a5 c8bd d334 6a3d cb0d e53d 04eb c93d
00000210: fdf2 b3bb b756 36bd 1cf8 08be 4425 03be
00000220: 09a0 b63c 0b6a 02be e991 743d 6c3a d4bd
00000230: 9256 933d 68b6 6c3d 71df 45be 968b 01be
00000240: f0a2 92bc e4ae 403c d862 463e 3bee 673c
00000250: 357a 0d3e 2049 063e 3b44 133e 5a0c 2ebe
00000260: eb12 98bd aa84 64bc b141 0fbe 7fc0 783c
00000270: 9fb9 0d3e 561b 413e cc39 7ebd d876 9cbd
00000280: 4445 bd3c fdb4 083d b5a9 f83d 4eca 0abd
00000290: 9609 3abb d50d 773d 2a88 0e3e 79b9 243e
000002a0: a2da 083e 46a5 0dbe 5972 fa3d 1c5e ef3d
000002b0: 36c0 e9bd 4e1f 84bc d9b0 f63d 9047 adbd
000002c0: d5a2 f8bc 0e95 763d 7a4f 0f3e 81f8 513c
000002d0: 5aa0 f9bd bbce a9bd cdc9 a5bc 813f f93c
000002e0: a2d9 99bd 75bf 153e ed25 b63c 37cb dfbd
000002f0: a959 743d feab aa3c 2c2a 5c3e 1f9f b83c
00000300: 9c3c e73a 62ac 3ebe 5706 80bd 8a08 913c
00000310: 7028 0e3e 54cb 80be 00db e93e 942a f4bd
00000320: be9a 05be 76b7 1dbe 9d3d afbd 3ea7 e7bd
00000330: df13 c0bd 4dab 05bc bf4d 5d3d 8d55 d73d
00000340: bd1c 0fbc 0c58 1abc e37f 5bbd 66af 0cbe
00000350: 9029 653e bd85 133e 7e0c c7be 98ff 21be
00000360: 29df 34be 8d94 08bc 8017 043c abfd 00be
00000370: d99f ba3d 38e5 453d e025 cabd cc2a 9cbe
00000380: e452 1d3c a275 293e f0ae 1b3d 76da 253d
00000390: 5228 a43e 322f e33d c319 34bd 14a7 fc3e
000003a0: 3450 03be 37d2 90bc 6046 213e df4d 04be
000003b0: 6bac 65bd bfb2 c4bd f864 37bd 8522 843e
000003c0: dfde bb3d 9e3d 17be 412c d7bc f323 dabc
000003d0: e8dc 6dbe 93e8 a1bd 73d5 34be a652 153e
000003e0: 93b0 f13d 8c25 223d 2223 6bbd 2f4a 0dbe
000003f0: bd70 c7bc f509 11bd f58b 32be 74ef fa3d

conv2.lin_l.bias f4 [30]
-0.05298265 -0.094241254 0.08518757 0.047522485 -0.15666586 0.065305404 -0.033446293 -0.064557336
0.16276897 -0.107542664 -0.1724095 -0.011650425 -0.10045467 -0.047121465 -0.124025784 -0.058660183
0.1219043 -0.1854032 -0.13219464 -0.058488213 -0.14601363 0.033170886 -0.041787393 0.13506912
-0.18660866 0.0070587243 0.084940225 0.020548848 -0.05168399 0.16328917
00000000: 5604 59bd 8f01 c1bd d276 ae3d f0a6 423d
00000010: 046d 20be d7be 853d fbfe 08bd a336 84bd
00000020: e9ac 263e 543f dcbd 1e8c 30be 6de1 3ebc
00000030: 2ebb cdbd 7002 41bd 3b01 febd a945 70bd
00000040: f6a8 f93d 56da 3dbe 085e 07be 5691 6fbd
00000050: 9984 15be 32de 073d 4229 2bbd 8f4f 0a3e
00000060: 5716 3fbe df4c e73b 24f5 ad3d 0f56 a83c
00000070: 97b2 53bd 4735 273e

conv2.lin_r.weight f4 [30, 30]
-0.1426356 0.1718105 0.03291476 0.08686344 0.1988236 0.020791655 0.034766812 -0.056918647
-0.15287006 0.07030195 0.123718396 0.07588549 -0.043844696 -0.09268098 0.0009547645 0.043826126
-0.14206049 0.1441278 -0.14899051 0.06363878 0.15920484 0.04184917 -0.11668024 0.051902115
0.12141806 0.08857156 -0.07130854 0.0153011 -0.12649846 -0.033164296 -0.11942256 0.09259811
0.12172308 -0.16514608 -0.08995722 -0.08222642 -0.13529962 0.1646127 -0.14505935 -0.08418279
-0.14564027 -0.045777597 -0.11556274 -0.13088275 0.18098846 0.087648556 0.072361626 0.098217115
0.021773767 0.010241069 -0.13041756 -0.006826607 -0.1410681 0.0036097544 -0.120481506 -0.09522918
-0.11451182 -0.08068739 -0.12579943 -0.15547098 -0.084334515 -0.15126199 0.26931888 0.0376705
-0.3885493 -0.16310355 -0.108163364 0.10583366 0.17016195 -0.038380157 0.104571775 -0.051990457
-0.048800606 -0.16413471 -0.360691 -0.017998695 0.07381015 0.22846316 0.12957658 -0.047991015
-0.0156647 0.4725772 0.047651112 -0.12264472 0.13875121 -0.18470682 -0.0725541 0.068344
-0.010092173 0.039302964 -0.19861259 0.14145255 0.016975159 0.070737116 -0.014735926 -0.117502026
-0.051667433 0.120138854 -0.07661589 -0.09772958 0.087427154 -0.06547142 0.01803792 -0.11386007
0.009414612 0.00031769142 -0.1255236 -0.08792209 0.15801248 -0.044346873 0.080349125 0.091669336
-0.070339456 -0.03966525 -0.07614305 0.07135357 0.1560316 -0.02280169 -0.09843744 0.1439334
0.12539192 0.14969927 -0.0057535986 0.02354783 0.101955384 -0.046990987 -0.1503321 -0.05528378
0.097005025 0.08068288 0.027773472 0.09822276 0.08523618 0.042731386 0.15929343 -0.027274104
-0.043698244 -0.18276493 -0.20672859 -0.106027834 0.017749734 0.069383524 0.0026713363 0.0008418663
-0.043491405 -0.094737485 -0.03346663 0.04063541 0.05112103 -0.06956765 0.0368943 -0.037530307
0.015440993 0.12913533 -0.24205786 0.16996758 -0.11386405 0.1907807 0.06607556 0.08287959
-0.0389248 -0.051292166 -0.12177961 -0.28404605 0.04181412 0.1773796 0.05560517 -0.0011873674
0.16682589 -0.020550186 -0.15858702 -0.009088876 0.07747241 -0.04187243 -0.05344557 -0.11088167
0.071259685 -0.09361647 -0.052491825 0.114718884 0.19601293 0.13404766 -8.3121995e-06 0.028652221
-0.237114 0.14370918 0.077228114 0.06305015 0.043962073 0.04998053 0.12774332 -0.010212248
-0.11252035 -0.1966293 -0.25051346 -0.04103387 -0.0069514313 0.29514983 -0.24606764 -0.16095033
0.09916668 -0.10561959 -0.01983232 0.034179263 -0.040285744 -0.08812611 -0.08156835 -0.062176906
-0.19409457 -0.26801082 -0.08314682 0.07838452 0.25539935 -0.022824736 -0.1351964 0.07625266
-0.14926225 -0.072194934 -0.034537207 -0.15520835 0.010065536 0.065683335 -0.14449692 -0.1792773
-0.32552516 0.16602257 0.12903357 0.09622865 0.31875047 -0.11539116 0.13620657 0.25715524
0.05687132 0.12609835 0.092761904 0.027792195 -0.016315352 -0.01745864 0.18265732 0.0073108124
-0.07923145 0.03933379 -0.016646331 -0.09178932 -0.20554565 0.15857796 0.06411212 -0.10329816
0.13132967 -0.07882054 0.026492337 0.039800465 0.12104133 -0.1581494 -0.2154734 -0.05775777
00000000: 110f 12be 17ef 2f3e a1d1 063d 76e5 b13d
00000010: 6a98 4b3e 4353 aa3c a567 0e3d 8723 69bd
00000020: f889 1cbe 78fa 8f3d 1260 fd3d da69 9b3d
00000030: 7f96 33bd 87cf bdbd 2949 7a3a 0683 333d
00000040: 4e78 11be 3d96 133e f890 18be 0c55 823d
00000050: 9806 233e 096a 2b3d 0df6 eebd 5097 543d
00000060: 08aa f83d 0265 b53d 360a 92bd 77b1 7a3c
00000070: d088 01be 49d7 07bd d193 f4bd 14a4 bd3d
00000080: f349 f93d 0e1c 29be 7e3b b8bd 5366 a8bd
00000090: fc8b 0abe 3b90 283e 708a 14be 0768 acbd
000000a0: b922 15be 4a81 3bbd 28ac ecbd 2106 06be
000000b0: 0a55 393e 1681 b33d 5532 943d 0e26 c93d
000000c0: e65e b23c 28ca 273c 2e8c 05be bbb1 dfbb
000000d0: 2874 10be a191 6c3b 02bf f6bd 8407 c3bd
000000e0: 2c85 eabd 6e3f a5bd 91d1 00be c933 1fbe
000000f0: 93b7 acbd 6ce4 1abe 2ae4 893e 624c 1a3d
00000100: efef c6be 9e04 27be c184 ddbd 51bf d83d
00000110: ef3e 2e3e 8334 1dbd ba29 d63d f2f3 54bd
00000120: 25e3 47bd ee12 28be 7eac b8be 0072 93bc
00000130: c729 973d 3ff2 693e b9af 043e 3a92 44bd
00000140: 4253 80bc a4f5 f13e d02d 433d 282d fbbd
00000150: cc14 0e3e c923 3dbe 3e97 94bd f0f7 8b3d
00000160: a459 25bc 25fc 203d 1961 4bbe f0d8 103e
00000170: 7d0f 8b3c 9fde 903d f46e 71bc e7a4 f0bd
00000180: 3ba1 53bd 5c0b f63d cbe8 9cbd 7226 c8bd
00000190: 020d b33d e115 86bd 43c4 933c 782f e9bd
000001a0: bf3f 1a3c d28f a639 4289 00be 7f10 b4bd
000001b0: 06ce 213e 11a5 35bd 158e a43d 22bd bb3d
000001c0: 220e 90bd 0778 22bd e3f0 9bbd d221 923d
000001d0: bfc6 1f3e 9cca babc 9299 c9bd 4763 133e
000001e0: bd66 003e c44a 193e af88 bcbb 61e7 c03c
000001f0: fccd d03d 9f79 40bd a8f0 19be 3f71 62bd
00000200: 92aa c63d 113d a53d 3185 e33c 0429 c93d
00000210: 4e90 ae3d 1b07 2f3d d11d 233e f16d dfbc
00000220: eefc 32bd bb26 3bbe a9b0 53be 1f25 d9bd
00000230: e467 913c f318 8e3d 9611 2f3b b1b0 5c3a
00000240: 0b24 32bd ba05 c2bd 4e14 09bd 5171 263d
00000250: 4964 513d 7c79 8ebd 7a1e 173d 61b9 19bd
00000260: 38fc 7c3c 0d3c 043e 04de 77be fb0b 2e3e
00000270: 8e31 e9bd 045c 433e a052 873d c6bc a93d
00000280: 9c6f 1fbd bc17 52bd 9767 f9bd 7c6e 91be
00000290: 4845 2b3d ffa2 353e 3fc2 633d 70a1 9bba
000002a0: 68d4 2a3e dd58 a8bc a364 22be 82e9 14bc
000002b0: dba9 9e3d 6d82 2bbd bee9 5abd ee15 e3bd
000002c0: 99f0 913d feb9 bfbd ab01 57bd bcf1 ea3d
000002d0: 9db7 483e ca43 093e a074 0bb7 10b8 ea3c
000002e0: 03ce 72be 8028 133e c629 9e3d 7020 813d
000002f0: 9311 343d 62b8 4c3d 25cf 023e 4651 27bc
00000300: 1271 e6bd 3159 49be 4d43 80be 2213 28bd
00000310: d5c8 e3bb e11d 973e 28f9 7bbe 2ad0 24be
00000320: e617 cb3d 154f d8bd 6477 a2bc 8eff 0b3d
00000330: aa02 25bd 767b b4bd 4f0d a7bd 36ad 7ebd
00000340: bac0 46be b738 89be e148 aabd 1088 a03d
00000350: b4c3 823e f1fa babc ed70 0abe 5b2a 9c3d
00000360: 34d8 18be f0da 93bd e376 0dbd f0ee 1ebe
00000370: ebe9 243c fc84 863d 00f7 13be 7894 37be
00000380: 3cab a6be d201 2a3e 6021 043e 8713 c53d
00000390: 4333 a33e 3352 ecbd bc79 0b3e daa9 833e
000003a0: e7f1 683d ed1f 013e f4f9 bd3d 75ac e33c
000003b0: c6a7 85bc 6c05 8fbc 850a 3b3e 8a8f ef3b
000003c0: 1944 a2bd 781c 213d e35d 88bc 0afc bbbd
000003d0: 8f7a 52be 4362 223e 374d 833d fc8d d3bd
000003e0: 497b 063e aa6c a1bd 7506 d93c d005 233d
000003f0: 84e4 f73d ebf1 21be 0fa5 5cbe 6993 6cbd

conv3.lin_l.weight f4 [30, 30]
0.03771823 -0.031181803 -0.13201801 -0.0061595095 0.13053973 -0.08076326 -0.05262904 0.03947147
-0.078229524 -0.0795659 0.05156072 0.14891578 0.029083623 -0.010106867 -0.16422932 0.111091584
0.007337686 -0.058820207 -0.0996136 -0.04373771 -0.13044217 0.0088504525 0.107706755 -0.026480053
0.07668574 -0.022939378 -0.10527186 -0.17997144 -0.11744814 0.16411339 0.12611678 0.20459569
-0.035162523 0.11643966 -0.03979714 0.20938668 -0.17514387 -0.03408347 -0.15314427 0.001770272
-0.15048343 -0.13804874 -0.0039213235 0.17975853 0.16018313 0.08683854 -0.006218622 0.0041729105
-0.1503015 0.14874133 0.07196212 0.15003103 -0.18240316 -0.06340555 -0.12816721 -0.084133804
-0.09078765 0.07970764 0.13306259 0.045440916 -0.059442263 0.08192112 0.21748635 0.03757169
-0.10327858 -0.11445326 0.12436486 0.03889141 -0.117144056 0.072370335 0.028905049 -0.09620694
-0.22684465 0.015853683 -0.01998403 -0.0754809 -0.052823182 0.11620719 0.093454495 0.0984075
0.07341271 0.063065894 0.19002539 -0.070320636 0.13706024 0.1350969 -0.12258119 0.1384393
0.005764358 -0.15769361 0.10893417 -0.1555192 0.109777845 -0.16968781 -0.036722466 -0.16864204
0.14394358 0.0648869 0.14167729 0.06587774 -0.09483263 0.026380654 0.13780934 -0.13345785
-0.11652843 -0.030213013 -0.12581743 -0.041215066 0.13395463 0.085678644 -0.15406995 -0.08873392
0.15963133 -0.0052824332 -0.065786354 0.0046177576 -0.033184424 0.06252139 -0.002412435 0.10441773
0.08598582 0.082783274 0.16037242 -0.03053917 -0.17037083 0.058854725 -0.11032165 -0.0654866
-0.15411551 -0.06915186 -0.13280925 0.016372573 0.028560841 0.12237402 -0.14457336 0.16159232
0.062233504 0.096189834 0.050052848 0.056665897 -0.06644651 0.17529619 -0.085265696 0.07420607
0.08505362 0.040481362 -0.037882827 -0.12509656 0.04628752 0.1259814 0.02062319 -0.054966547
-0.15341116 0.0030635276 0.09185199 0.008143469 0.023898885 -0.17990749 0.092911504 0.008644456
-0.13556091 0.16745983 0.1262919 -0.010535788 -0.060875475 0.14861637 0.17668116 0.04531551
0.20897962 0.067156725 0.103400744 -0.024049807 -0.048449323 0.10838391 -0.06977208 -0.12537096
0.10415694 -0.041384205 0.11288916 -0.018556418 -0.09838151 -0.023860883 -0.07603568 0.03335175
-0.14576384 -0.16952479 0.03132654 0.124235995 -0.10375414 -0.10034805 0.059271988 0.13403782
0.14833495 -0.05490748 -0.033603538 -0.15960395 0.16194817 0.11360571 0.08473119 -0.19139996
0.10364673 -0.11349257 -0.0063408813 0.0778443 0.010304151 -0.089978576 0.117259875 0.11371016
0.0031625095 -0.102581754 -0.08558753 -0.14982527 -0.12743792 -0.15039422 -0.02697005 -0.13626985
0.082952 -0.17931335 -0.116792105 -0.12388267 -0.018039133 0.082462154 0.11320441 0.17184114
-0.05134193 0.020513197 0.031771775 0.11358149 0.11946865 0.11026694 0.14037159 0.14746958
-0.019448606 0.0975782 -0.114978604 -0.011417492 -0.0488156 -0.035536952 0.01097782 -0.17409949
-0.0842827 -0.026000343 0.00064682204 0.11747976 -0.12907222 0.019462718 0.07519886 -0.15863006
0.031583935 -0.10696269 0.043440174 -0.08085069 -0.048419453 -0.07816974 0.13981548 0.041356374
00000000: 6e7e 1a3d fb70 ffbc bb2f 07be b6d5 c9bb
00000010: 35ac 053e 3567 a5bd 8c91 57bd d6ac 213d
00000020: cd36 a0bd 72f3 a2bd 5531 533d 617d 183e
00000030: c740 ee3c 4697 25bc bb2b 28be fc83 e33d
00000040: f970 f03b 75ed 70bd 3702 ccbd 5026 33bd
00000050: a292 05be 7d01 113c 5c95 dc3d b2ec d8bc
00000060: 6a0d 9d3d 5deb bbbc c698 d7bd 6f4a 38be
00000070: a788 f0bd 570d 283e c224 013e 8881 513e
00000080: 9406 10bd eb77 ee3d 5302 23bd 7669 563e
00000090: ea58 33be 1c9b 0bbd dad1 1cbe 7908 e83a
000000a0: 5418 1abe a65c 0dbe 727e 80bb 9f12 383e
000000b0: 0c07 243e 68d8 b13d 95c5 cbbb e9bc 883b
000000c0: a3e8 19be a64f 183e e060 933d bca1 193e
000000d0: e5c7 3abe c5da 81bd 443e 03be 584e acbd
000000e0: e0ee b9bd c23d a33d 8f41 083e 4120 3a3d
000000f0: bb79 73bd 43c6 a73d beb4 5e3e c6e4 193d
00000100: b883 d3bd 7966 eabd 01b3 fe3d 994c 1f3d
00000110: 39e9 efbd e636 943d 48ca ec3c 2508 c5bd
00000120: f749 68be 95df 813c 8cb5 a3bc bb95 9abd
00000130: 1f5d 58bd 09fe ed3d 1265 bf3d df89 c93d
00000140: 6759 963d b128 813d 0496 423e 4404 90bd
00000150: 8559 0c3e d756 0a3e d90b fbbd 08c3 0d3e
00000160: f1e2 bc3b 6f7a 21be e118 df3d 6d40 1fbe
00000170: 35d3 e03d a4c2 2dbe 4c6a 16bd 80b0 2cbe
00000180: f265 133e 6ce3 843d da13 113e e9ea 863d
00000190: 9c37 c2bd 3e1c d83c e41d 0d3e 2da9 08be
000001a0: 75a6 eebd 4881 f7bc 49d6 00be 21d1 28bd
000001b0: 672b 093e 4978 af3d 83c4 1dbe 21ba b5bd
000001c0: 6576 233e 4318 adbb ffba 86bd 8f50 973b
000001d0: 64ec 07bd 370b 803d f119 1ebb f6d8 d53d
000001e0: 5519 b03d 478a a93d ab38 243e 482d fabc
000001f0: b175 2ebe a711 713d 51f0 e1bd d71d 86bd
00000200: 75d0 1dbe 7e9f 8dbd 26ff 07be c61f 863c
00000210: 6df8 e93c 3b9f fa3d 0a0b 14be 7578 253e
00000220: 8fe8 7e3d 2dff c43d 3704 4d3d 801a 683d
00000230: 1c15 88bd d880 333e c89f aebd 5af9 973d
00000240: 9830 ae3d c9cf 253d 062b 1bbd 5019 00be
00000250: fc97 3d3d 4501 013e f7f1 a83c 9a24 61bd
00000260: d117 1dbe 77c5 483b e51c bc3d 2f6c 053c
00000270: 98c7 c33c ab39 38be 6348 be3d 7aa1 0d3c
00000280: 7bd0 0abe 977a 2b3e aa52 013e 4c9e 2cbc
00000290: 9058 79bd e42e 183e e8eb 343e c29c 393d
000002a0: c1fe 553e 7789 893d c5c3 d33d 1a04 c5bc
000002b0: cc72 46bd 62f8 dd3d aae4 8ebd 3f61 00be
000002c0: 3c50 d53d 7c82 29bd 6f32 e73d a103 98bc
000002d0: 3f7c c9bd e677 c3bc 98b8 9bbd d89b 083d
000002e0: 1e43 15be e897 2dbe 4250 003d 716f fe3d
000002f0: 0d7d d4bd 4783 cdbd 2fc7 723d 3641 093e
00000300: 1ee5 173e aae6 60bd dda3 09bd 386f 23be
00000310: bed5 253e 1caa e83d 8c87 ad3d 5afe 43be
00000320: bd44 d43d cb6e e8bd 2bc7 cfbb d56c 9f3d
00000330: bed2 283c b046 b8bd f225 f03d dfe0 e83d
00000340: 1b42 4f3b 6216 d2bd 8448 afbd cc6b 19be
00000350: 167f 02be f100 1abe 4bf0 dcbc 538a 0bbe
00000360: bde2 a93d eb9d 37be b330 efbd 33b6 fdbd
00000370: cec6 93bc ebe1 a83d b7d7 e73d 20f7 2f3e
00000380: ea4b 52bd 4b0b a83c 1f23 023d 6a9d e83d
00000390: fbab f43d a2d3 e13d 92bd 0f3e 4402 173e
000003a0: af52 9fbc 14d7 c73d e779 ebbd 6f10 3bbc
000003b0: def2 47bd 328f 11bd 50dc 333c 2347 32be
000003c0: 699c acbd acfe d4bc 7e8f 293a 3a99 f03d
000003d0: 822b 04be 4770 9f3c dc01 9a3d eb6f 22be
000003e0: 285e 013d 410f dbbd 53ee 313d 0c95 a5bd
000003f0: 7a53 46bd 7517 a0bd ca2b 0f3e 4d65 293d

conv3.lin_l.bias f4 [30]
-0.11835773 -0.071947046 0.040020056 -0.0857896 -0.10758928 0.07121702 0.027384182 0.053170923
0.06825993 -0.13665105 -0.06489409 -0.039279208 0.21036375 -0.10283579 -0.11438789 -0.06842131
0.07536827 0.1020366 0.07433429 0.12215029 0.0346427 0.17336069 0.084411375 0.08608703
-0.068709806 0.03308923 0.038719468 -0.17905092 -0.0760444 0.116779454
00000000: 8a65 f2bd f958 93bd 12ec 233d 75b2 afbd
00000010: c557 dcbd 3bda 913d cb54 e03c c1c9 593d
00000020: ddcb 8b3d 41ee 0bbe 31e7 84bd 3ce3 20bd
00000030: 9869 573e 929b d2bd 3344 eabd 7920 8cbd
00000040: ae5a 9a3d 91f8 d03d 943c 983d ee29 fa3d
00000050: 81e5 0d3d 7785 313e dfdf ac3d 664e b03d
00000060: bab7 8cbd 9388 073d 4e98 1e3d 2059 37be
00000070: 2bbd 9bbd 112a ef3d

conv3.lin_r.weight f4 [30, 30]
0.096514754 0.16209628 0.090831265 -0.010845504 0.15229174 0.014590459 -0.033209726 -0.1377034
0.10676618 0.08393439 0.15244673 -0.02654025 -0.14782892 0.04079098 0.0051502963 -0.10628635
0.017982803 -0.010276376 0.22210525 0.036584277 -0.12716961 0.13558184 0.0035116137 -0.011576146
0.05062536 0.17556223 0.06871161 -0.029197099 0.15467373 -0.04020211 0.17412904 -0.133875
-0.008294885 0.15734641 0.058861893 -0.034914084 0.147221 0.08412044 -0.14609012 -0.04786957
-0.08350765 -0.06196067 -0.045633238 -0.07223039 -0.06064628 0.09015503 -0.05195864 -0.21282232
0.08247961 -0.20180121 -0.19317459 0.13468096 0.1711228 -0.111727946 -0.13733461 0.08883422
-0.14786236 0.08427493 0.13765188 0.11130351 0.061735444 0.035179388 -0.102811486 -0.050359383
0.08285256 0.17876947 0.012465566 0.12325839 -0.14749542 0.09373122 -0.10769644 -0.12039769
0.13518979 -0.06264313 -0.061549 -0.015174939 0.14220865 0.12725428 0.020483205 0.07005731
0.122787215 -0.019496221 -0.13302106 -0.071421 -0.03339203 0.118998475 -0.0808119 -0.11274122
-0.11398425 -0.16535348 0.12716283 -0.17482309 0.018087903 -0.11169932 -0.05832905 -0.04733726
0.0799525 0.15465337 -0.046179265 0.018558677 -0.025208414 0.17414863 0.08626573 -0.037983492
0.1262407 -0.13861859 0.09089458 0.14214 -0.13898943 0.06533278 0.10877775 -0.1574448
0.04685423 0.14553724 0.030985678 -0.04815821 -0.07870322 -0.10280303 0.03843635 -0.19148165
-0.1773056 -0.036602102 -0.06897384 0.19260389 -0.06729582 -0.010014431 0.0631564 0.15963246
0.14323689 -0.09548574 -0.05189632 -0.15641843 -0.20685251 -0.056733944 0.057406444 -0.084460154
-0.030802632 0.019843254 -0.013571705 0.14199421 0.057653632 0.12370787 -0.054858264 0.042613473
-0.23402317 0.070615634 -0.074072234 0.07307462 -0.110291876 -0.071467385 0.11185578 -0.08368637
0.048719168 -0.03340991 0.14979398 0.16290775 -0.12557477 -0.098311335 -0.035337362 -0.07676744
0.07747109 -0.1648985 -0.09233653 -0.020947386 -0.17421688 -0.19163628 0.0761871 -0.13130426
0.14579228 -0.11224203 -0.0045247017 0.1150527 -0.19355774 -0.16091883 0.023489073 -0.06847312
0.07726023 0.06009133 0.006938105 0.06840828 0.1496366 0.032839578 0.07127232 -0.089594305
0.13127686 -0.032666467 0.06789834 -0.19574471 -0.10086293 -0.10752479 0.09532423 -0.012804561
-0.1610745 0.18565965 0.052762166 0.14027938 0.037089765 0.045288075 0.14663792 -0.1306926
0.17874692 -0.113518275 0.00712014 -0.10469054 -0.09655474 0.15615164 -0.055609077 -0.034697637
0.12942193 0.17242351 -0.16118698 0.008869995 0.016856609 0.17317842 -0.092594266 -0.051306114
-0.099124804 0.012132775 0.05123984 -0.017635537 0.011579472 -0.1380362 -0.07914442 -0.063321486
0.041278686 0.06823464 0.077222325 -0.13375366 0.017037647 -0.035426524 0.17431949 0.15169989
-0.13005291 -0.110041335 -0.14823483 -0.039140847 -0.15297434 0.0802829 -0.08010945 -0.09025566
0.010678565 -0.021514473 0.09115321 0.17764972 -0.18646479 0.09399703 -0.012052047 0.053857412
-0.06971772 -0.021481307 -0.0058428803 0.055746 0.100078195 0.091894366 0.013290171 -0.1562878
00000000: 87a9 c53d 91fc 253e be05 ba3d 57b1 31bc
00000010: 5ef2 1b3e d20c 6f3c ec06 08bd 1f02 0dbe
00000020: 3aa8 da3d cbe5 ab3d ff1a 1c3e f06a d9bc
00000030: 7760 17be 7114 273d d1c3 a83b a8ac d9bd
00000040: ac50 933c 3f5e 28bc 8f6f 633e 65d9 153d
00000050: c038 02be f7d5 0a3e 1a23 663b e0a9 3dbc
00000060: 8a5c 4f3d 96c6 333e acb8 8c3d c12e efbc
00000070: ca62 1e3e f8aa 24bd e24e 323e 8716 09be
00000080: 45e7 07bc 6b1f 213e 2b19 713d 1202 0fbd
00000090: 1ac1 163e 5647 ac3d a698 15be e212 44bd
000000a0: 0f06 abbd 79ca 7dbd ebe9 3abd 87ed 93bd
000000b0: 3c68 78bd 33a3 b83d 95d2 54bd 18ee 59be
000000c0: 12eb a83d faa4 4ebe 8fcf 45be cee9 093e
000000d0: d13a 2f3e 9fd1 e4bd 72a1 0cbe b7ee b53d
000000e0: 3b69 17be 5698 ac3d 9df4 0c3e 18f3 e33d
000000f0: 4ede 7c3d 4318 103d d48e d2bd a445 4ebd
00000100: 9aae a93d 580f 373e 603c 4c3c e56e fc3d
00000110: 0a09 17be 27f6 bf3d f38f dcbd 1093 f6bd
00000120: 316f 0a3e 0b4b 80bd ce1a 7cbd 4fa0 78bc
00000130: 259f 113e f24e 023e 65cc a73c 357a 8f3d
00000140: dd77 fb3d 8ab6 9fbc ac36 08be 2c45 92bd
00000150: 15c6 08bd 79b5 f33d b680 a5bd dee4 e6bd
00000160: 9370 e9bd 6c52 29be f936 023e d304 33be
00000170: 152d 943c 9dc2 e4bd 71ea 6ebd b7e4 41bd
00000180: 23be a33d 745d 1e3e 7826 3dbd 5e08 983c
00000190: e081 cebc 0554 323e 16ac b03d 9494 1bbd
000001a0: 3e45 013e 08f2 0dbe f026 ba3d 268d 113e
000001b0: 3f53 0ebe 31cd 853d dec6 de3d 3639 21be
000001c0: 39ea 3f3d b707 153e add5 fd3c 8b41 45bd
000001d0: 272f a1bd 658a d2bd 6f6f 1d3d c413 44be
000001e0: 998f 35be 16ec 15bd 2842 8dbd f439 453e
000001f0: 64d2 89bd 9113 24bc 2558 813d b176 233e
00000200: b1ac 123e 078e c3bd 3c91 54bd 272c 20be
00000210: 25d1 53be da61 68bd 0523 6b3d 72f9 acbd
00000220: cd55 fcbc 528e a23c db5b 5ebc ee66 113e
00000230: 3726 6c3d 8d5a fd3d 0fb3 60bd 778b 2e3d
00000240: c5a3 6fbe ee9e 903d 2fb3 97bd 25a8 953d
00000250: b5e0 e1bd 7e5d 92bd a514 e53d c263 abbd
00000260: c08d 473d d4d8 08bd 9863 193e 4ad1 263e
00000270: ac96 00be 7457 c9bd e9bd 10bd 3f38 9dbd
00000280: 2aa9 9e3d 27db 28be ef1a bdbd da99 abbc
00000290: e965 32be 4d3c 44be fb07 9c3d a074 06be
000002a0: 924a 153e 26df e5bd f343 94bb c0a0 eb3d
000002b0: 0034 46be e8c7 24be 286c c03c a33b 8cbd
000002c0: 9d3a 9e3d 5422 763d 0b59 e33b a419 8c3d
000002d0: 563a 193e cb82 063d 39f7 913d 387d b7bd
000002e0: 716d 063e 46cd 05bd 490e 8b3d 4d71 48be
000002f0: 3991 cebd f535 dcbd 5a39 c33d 39ca 51bc
00000300: b7f0 24be 901d 3e3e 241d 583d 66a5 0f3e
00000310: 70eb 173d fd7f 393d 4028 163e 48d4 05be
00000320: 6f09 373e 457c e8bd 1050 e93b fe67 d6bd
00000330: 7ebe c5bd 37e6 1f3e 58c6 63bd 1c1f 0ebd
00000340: 2f87 043e ca8f 303e 330e 25be 7553 113c
00000350: df16 8a3c af55 313e 10a2 bdbd 5c26 52bd
00000360: f201 cbbd 8cc8 463c dee0 513d 6778 90bc
00000370: d3b7 3d3c 5d59 0dbe 7816 a2bd b2ae 81bd
00000380: d713 293d 9abe 8b3d bd26 9e3d b8f6 08be
00000390: 8992 8b3c 671b 11bd cf80 323e 3757 1b3e
000003a0: 972c 05be 5a5d e1bd dfca 17be 2752 20bd
000003b0: 4ea5 1cbe 5c6b a43d 6c10 a4bd f6d7 b8bd
000003c0: 26f5 2e3c 1f3f b0bc 89ae ba3d cfe9 353e
000003d0: a0f0 3ebe 8481 c03d f375 45bc 9799 5c3d
000003e0: 2ac8 8ebd 91f9 afbc a275 bfbb eb55 643d
000003f0: ccf5 cc3d 1d33 bc3d 04bf 593c e909 20be

lin.weight f4 [1, 30]
-0.01964401 -0.08144224 0.00013748603 0.0077219773 -0.00031649283 -0.01503481 -0.00014940495 -0.086223684
-0.074658506 0.00025438197 -0.060303237 0.007113547 0.13042235 -0.0006844024 0.06668237 -0.059639726
9.245718e-05 -0.15306376 3.782421e-05 -0.099751815 0.07559465 -0.10966234 0.010581978 -0.05547013
0.0045254766 0.0005370806 0.00035658266 -0.012594579 0.042413194 0.0001726082
00000000: 7aec a0bc 30cb a6bd 202a 1039 a408 fd3b
00000010: f3ee a5b9 9054 76bc 96a9 1cb9 0b96 b0bd
00000020: 8fe6 98bd 925e 8539 8700 77bd c218 e93b
00000030: 708d 053e 7869 33ba c490 883d c948 74bd
00000040: 92e5 c138 bfbc 1cbe 70a5 1e38 ae4a ccbd
00000050: 5ed1 9a3d a696 e0bd 0860 2d3c a634 63bd
00000060: 734a 943b deca 0c3a b7f3 ba39 7e59 4ebc
00000070: 75b9 2d3d 29fe 3439
