models/neural_network_GATConv_single_dynamics_PD_graph_size_10/neural_network.pth (torch, 2703 bytes, 6 tensors)

conv1.att_src f4 [1, 1, 30]
00000000: 4d27 12bf 2d4e b2be 9617 763f a13a 673f
00000010: f56a 6abf c9ed 7e3e 0715 86bf ffe8 703f
00000020: 5341 593f 9113 58bf 4634 81bf b978 91be
00000030: aad2 ea3e 02af 5e3f 2288 71bf 17da 01be
00000040: a596 74be b1a2 14bf b593 133e 3f27 a8be
00000050: eb16 703f fa51 85bf 9821 8ebe 5b89 ee3e
00000060: 038b c4be dab5 693f 68f5 67be ab25 433f
00000070: 6eea 2a3f ff2e 83bf
-0.5709122 -0.34825268 0.9612974 0.90323836 -0.91569453 0.24895395 -1.0475167 0.94105524
0.848653 -0.84404856 -1.0094078 -0.28412417 0.4586385 0.8698579 -0.9434835 -0.12680851
-0.23885591 -0.5806075 0.14411815 -0.32842442 0.9378497 -1.0415642 -0.27760005 0.4658917
-0.38387308 0.9129311 -0.22652209 0.7622935 0.6676396 -1.0248717

conv1.att_dst f4 [1, 1, 30]
00000000: 78dd f23d 43d0 a43e 186a 9e3e 6944 c5be
00000010: 268f dabe 6774 093a cd5c 783e 2fcd 8d3e
00000020: e697 95be f92d 92bd 82be 6a3e 259a b7bd
00000030: f8f9 973d 47bf b83e 1612 99be 42b5 9a3e
00000040: e2fe dd3e 9512 9fbe fb49 b1be 0d1a 853d
00000050: 77ff b6be dd39 dabe 8199 883e 15fe 283e
00000060: b524 973e 28bd 053e 12e4 563e ef84 323d
00000070: 64f0 df3e 1a20 8ebe
0.11858648 0.3219014 0.30940318 -0.38528755 -0.4268734 0.00052434806 0.2425415 0.27695605
-0.29217452 -0.07137675 0.22924235 -0.089649476 0.07420725 0.36083433 -0.2989661 0.30216414
0.43358523 -0.31068864 -0.34626755 0.064991094 -0.3574178 -0.4262227 0.26679614 0.16503175
0.29520193 0.13060439 0.2098544 0.043583807 0.4373809 -0.27758867

conv1.bias f4 [30]
00000000: a770 03bd f31b 333d a947 833d 702f 0b3e
00000010: 9206 e1bd 7b29 e2bc 7a93 01be 047e 9d3d
00000020: 1c66 be3c 6e36 86bf b06d 103d f1d1 b6bd
00000030: fcc6 883e 2b69 75bd ddcd 2d3d 83f7 a6bb
00000040: f3e0 173d 0082 86be 0c29 47bc 49eb 16be
00000050: dd04 633d 43f7 e1be 0bd6 e0bd 0899 e8bc
00000060: 3850 acbe 496a 333d af4a 103c 6b0c e03d
00000070: bcb1 e93d 3c1c c03c
-0.032089856 0.043727826 0.064101525 0.13592315 -0.10987581 -0.02760767 -0.12653914 0.07690051
0.023242049 -1.0485361 0.035260856 -0.08926762 0.26714313 -0.05991475 0.042432655 -0.0050954237
0.037079763 -0.26271057 -0.012155782 -0.14738192 0.05542456 -0.44133958 -0.109783255 -0.028393283
-0.33654952 0.043802533 0.008806868 0.109398685 0.11410853 0.023450963

conv1.lin_src.weight f4 [30, 1]
00000000: 8d4e 3e3e 7625 af3e 60cd 7fbe f2e0 b1be
00000010: bb5b af3e 85bd adbd 3979 bb3e 0d72 85be
00000020: 4689 2abe 3d14 783f c013 363e 4cdc 8a3e
00000030: b0f7 c1be cf51 c6be 9a61 6c3e 7f79 293d
00000040: a1bb 823e 1636 c93e d86c 90bd 6bc4 9c3e
00000050: ed69 66be 6f7c f83e cbc0 a03e 6279 0abe
00000060: df4b da3e 336d 6fbe 45cc 9ebb ec8e a4be
00000070: 136a 96be 0d10 e73d
0.18584652 0.34208268 -0.24980688 -0.34741932 0.34249672 -0.084834136 0.36615923 -0.26063576
-0.16653928 0.9690588 0.17780972 0.27121198 -0.37884283 -0.3873429 0.23084107 0.041375633
0.25533774 0.39299077 -0.0705201 0.30618605 -0.22501345 0.48532435 0.3139709 -0.13522866
0.4263601 -0.233815 -0.004846128 -0.3214029 -0.29377803 0.11282358

conv1.lin_dst.weight f4 [30, 1]
00000000: 8d4e 3e3e 7625 af3e 60cd 7fbe f2e0 b1be
00000010: bb5b af3e 85bd adbd 3979 bb3e 0d72 85be
00000020: 4689 2abe 3d14 783f c013 363e 4cdc 8a3e
00000030: b0f7 c1be cf51 c6be 9a61 6c3e 7f79 293d
00000040: a1bb 823e 1636 c93e d86c 90bd 6bc4 9c3e
00000050: ed69 66be 6f7c f83e cbc0 a03e 6279 0abe
00000060: df4b da3e 336d 6fbe 45cc 9ebb ec8e a4be
00000070: 136a 96be 0d10 e73d
0.18584652 0.34208268 -0.24980688 -0.34741932 0.34249672 -0.084834136 0.36615923 -0.26063576
-0.16653928 0.9690588 0.17780972 0.27121198 -0.37884283 -0.3873429 0.23084107 0.041375633
0.25533774 0.39299077 -0.0705201 0.30618605 -0.22501345 0.48532435 0.3139709 -0.13522866
0.4263601 -0.233815 -0.004846128 -0.3214029 -0.29377803 0.11282358

lin.weight f4 [1, 30]
00000000: e0d5 96be 847d 723c f4c9 a53e e12f 433e
00000010: 38c2 7dbe aa77 98bc a7ec 6cbe c7d0 633e
00000020: 7d98 9f3e 2ca6 0abf 6f56 a23c d8d2 51be
00000030: 8967 333e 5e15 91bd 5f02 2e3d 272a cbbd
00000040: a422 af3b 0e2a d6bd dc7f 5e3d bd2a 21be
00000050: 66b5 9b3e 7f99 14be 8d9a 50be 99a8 8c3b
00000060: 646c 19be f3f8 743e 4a2e c73c aad6 5a3e
00000070: 8b3d 443e 93b2 cabc
-0.2946005 0.014800433 0.3238064 0.19061233 -0.2478112 -0.018611748 -0.2313715 0.22247611
0.31171027 -0.5415981 0.019816605 -0.20490587 0.17519964 -0.070841536 0.04248273 -0.09920149
0.0053447057 -0.1045724 0.054321155 -0.1573896 0.30411834 -0.14511679 -0.20371456 0.0042925593
-0.14982754 0.23923092 0.024314065 0.2137095 0.19164102 -0.024743354
