models/neural_network_SAGEConv_dynamics_SIS_graph_size_10/neural_network.pth (torch, 18591 bytes, 10 tensors)

conv1.lin_l.weight f4 [30, 1]
00000000: c24f 15be c9db 873f bfeb 13bf 8723 073f
00000010: 41a0 26bf df24 67bf 1149 71bf b339 503f
00000020: 885d 0e3f 26a1 063f 1f4c 6fbe 51a3 18bf
00000030: 6755 b1bd 16ad 1e3f cef2 5f3e 49e4 27bf
00000040: 76c1 30bf 204e ef3e af4f 17be e360 e53e
00000050: 5e4f 923e 820a 87bf 2baa 823f 0902 643e
00000060: 0e9e 00bf d689 0f3f d747 103f cf14 d0be
00000070: d09a 4cbf 2713 69bf
-0.14581206 1.0613948 -0.57781595 0.52788585 -0.6508828 -0.90290636 -0.94252115 0.8133804
0.5561147 0.52589643 -0.23368882 -0.596242 -0.08658867 0.6198286 0.21869966 -0.6558271
-0.690452 0.46739292 -0.1477649 0.4480048 0.28576177 -1.0550082 1.0208181 0.22266401
-0.5024117 0.56069696 0.5635962 -0.40640876 -0.79923725 -0.9104485

conv1.lin_l.bias f4 [30]
00000000: 51f5 23be 9ad7 a73d 2491 6fbe 0f27 6b3e
00000010: 8da7 dc3e 62d8 113f 6a37 213f 3c8d 7bbf
00000020: bd61 4d3f ea59 283f 03e6 83be 5d9b 713f
00000030: 7756 733f 5068 06bf ce92 2ebf 14a8 e43d
00000040: 7542 bb3e 8518 0bbf ad38 6cbf 9aaf b83e
00000050: 403b 0ebf 1c9e 033f 23c4 84be dc40 a4be
00000060: e2cf f63d 6990 69be 4c09 9a3e bd53 783f
00000070: 12cb 2abf 3273 ac3e
-0.1601155 0.081954196 -0.2339521 0.22964118 0.4309658 0.569708 0.6297518 -0.9826238
0.8022726 0.657622 -0.25761423 0.9437769 0.9505381 -0.5250292 -0.68192756 0.11164871
0.3657414 -0.5433429 -0.9227398 0.36071473 -0.5555916 0.5141313 -0.2593089 -0.32080734
0.12051369 -0.22808994 0.30085218 0.97002774 -0.6671611 0.33681637

conv1.lin_r.weight f4 [30, 1]
00000000: eaa8 4abf 99c0 d83d b3ce 4e3f db7f f0be
00000010: ffe5 73be 77cc 8c3e 959e 0c3f df20 3b3f
00000020: 59ed c1be 72fb 51bf 31be cb3e 79b8 52bf
00000030: 5eab 06be abd2 5bbf 0cf9 3e3f 16db 123f
00000040: 1884 4bbf 12a3 f1be 7e96 30bf 8b64 96bf
00000050: 9512 513f c152 583f 93ab 0bbe 0924 473f
00000060: dfb1 363f c14b 9e3e ae2a 08bf 115a 77bf
00000070: d04a 743f 828f 463f
-0.7916399 0.1058361 0.8078415 -0.46972546 -0.23818205 0.27499744 0.54929477 0.7309703
-0.37876394 -0.820243 0.39793542 -0.8231273 -0.13151309 -0.8586833 0.74598765 0.5736555
-0.79498434 -0.47194725 -0.6897963 -1.1749433 0.8166898 0.8450127 -0.13639669 0.7778936
0.7136516 0.3091717 -0.53190124 -0.96621805 0.95426655 0.77562726

conv2.lin_l.weight f4 [30, 30]
00000000: 84fd 3fbe 9fc4 393d 12b3 2c3f 49b3 86be
00000010: b096 45be 866f d63d 4118 093e f02b da3e
00000020: 28fd afbd bf0a 94be 65c9 cc3e 1732 8fbf
00000030: 91c1 fb3d 30d8 0dbe c522 de3f 580e a13f
00000040: 07c3 68bd 80b9 e0bd 5094 c7bd bc3c 2bbf
00000050: 63cf fe3e 9d23 9f3e a22e c83c 015c 9b3e
00000060: 39c1 0d3f e91a 62bd e9fa a3be b49f 03c0
00000070: bff3 f43d 0458 213f b024 bd3c 0ecc 08be
00000080: 0043 96be a84d a33d 8b2e 943c c162 053d
00000090: d473 16bd 0819 12bd a233 3c3d 50d6 0c3e
000000a0: 4dc5 36be 2e81 8c3e 457b 623d 25a2 53bc
000000b0: 267e 68be 92f0 72be 876d a1bd 9f75 933c
000000c0: ebdb 6e3d b756 d4bd b747 773d f054 cdbd
000000d0: 7e9a 9abd ca21 13be a141 80bd f68e 62bd
000000e0: 4e48 0d3d 3a7b c93e cc00 8cbd 696c 453d
000000f0: dba4 8cbd 9859 073e 4309 db3d f60d 463d
00000100: 4fae 60bd e6f6 363e f371 233d 072d 05be
00000110: be9b 9a3d 56dd 1e3d 17fa 7ebd 1f83 55be
00000120: d973 8ebd 3198 23be 1bc5 dd3b b3b7 de3e
00000130: 9046 ec3d de33 26be 1158 71bd f6a2 80be
00000140: 4812 a3bd 174e abbd dddb ad3d f30a 433e
00000150: 91bd b83d e655 36bd 60fa 86bb 4c3f aa3c
00000160: 6d22 403d b53a 1e3e 648f 2d3d ceff 64bd
00000170: 16b7 b23d 928d 843e a326 983c 086c 8a3d
00000180: 7274 973d 8b32 e23d 71b1 793e 6396 d23d
00000190: 6ea7 aa3d b477 c4bd a277 093c 9a27 12be
000001a0: 465b e43c dc24 93be 03e8 5bbd af3d 9a3d
000001b0: 64cc 53be ebf1 5c3d 411f 1e3e a857 793e
000001c0: 95de 383e ffa9 223e d83f 9c3d 88d7 353e
000001d0: 807a 643b 6cb1 bdbb 8faf 18be 3651 fb3c
000001e0: bca0 03be 8511 b9bd 8d26 1a3e fc6f d23d
000001f0: a441 4dbe 10d3 023d fb00 21bd a067 753e
00000200: 7526 81bc abe8 35bd e951 e73b ac8e d6be
00000210: e4f9 d4bd a6a4 09be 61a8 7b3f 20d6 e63d
00000220: 9e3f 20be da14 8abc 4aea f23d dcfd 91be
00000230: 2279 2d3e a5ef 0c3e 2a51 983d 7119 0d3e
00000240: 34cc 383e 3dee ef3c 8e64 f63c daa8 79bf
00000250: 80ee 473e f9d1 9e3c 8909 cc3d 0e77 c83d
00000260: 3a40 99bd 5f8e b83d 9f41 18bd cdbb e3bd
00000270: 2d87 5bbe 7a81 b83e 025e 88bb fde3 1cbe
00000280: fbc7 003e 70dd 04bf f6cd 3e3d 5d40 0dbd
00000290: 7d00 773f e40b 60be c861 9e3d 9c3e 86bc
000002a0: 1df0 cabd 64d3 43be c5b8 2c3e 1f38 19bc
000002b0: 6f59 113d 5aa8 123d 64cf 23be fc94 f33d
000002c0: 7ed1 bd3d 1da0 cdbf 48f0 8b3e e77d 85be
000002d0: 1a1c 073e c664 43be aa7d e73d 0ade 6bbe
000002e0: db76 383e fb1f bdbd 15dd c93d d871 02be
000002f0: d85f a0bc 39df 3bbd 6843 59bd 63ee 2fbb
00000300: 843c 87be 230a 4a3e 7520 82bc 1fcd b03d
00000310: fd95 3f3e 2dc2 c13d 3492 57bd b31f 963c
00000320: c6b4 15be 8a43 a1bd 76d8 56be 600f eebd
00000330: 4f72 77be 76e7 5cbe fee8 74be e3eb 0cbd
00000340: 0017 0d3e d490 52be 8213 603d a34e 8c3b
00000350: d1e2 45be 20b8 413e bb44 573d 2b13 ffbd
00000360: d5d2 ba3c 5d69 3f3e 1366 c83d 43b5 db3d
00000370: ddd6 02be ff11 db3d 3c53 09bd a075 ac3d
00000380: a2eb 01be 831d 55bf 1af8 213e 6c44 4d3e
00000390: 7c84 d23d dbe4 d93d 9413 653d aa40 4ebe
000003a0: ac77 3d3e 4551 d53d 90fc 3fbe 5b9b 213c
000003b0: 3c13 723d 7058 6dbe b67c 6e3d dd90 95bc
000003c0: c6d8 94be 8588 06be 2b01 4a3f c355 12be
000003d0: a25b f1bc a89b 3f3e 8d3b 313e 7f6f da3e
000003e0: 2486 abbd cee0 04be 3584 233e 47b8 81bf
000003f0: a03c c13c e0cc 28be 1756 af3f 325f 1040
-0.18749052 0.045353528 0.6746074 -0.2630866 -0.19295764 0.1047049 0.13388158 0.42611647
-0.085932076 -0.2891445 0.39997402 -1.1187161 0.12292779 -0.13852 1.7354361 1.2582502
-0.056826618 -0.10972881 -0.09745085 -0.6688955 0.49767599 0.31081858 0.024436299 0.3034363
0.5537296 -0.055201445 -0.32027367 -2.0566225 0.119605534 0.63024926 0.023088783 -0.1335909
-0.29347992 0.07973796 0.0180886 0.032564882 -0.036731556 -0.035668403 0.04594768 0.13753629
-0.17848702 0.27442306 0.05529334 -0.012917076 -0.22704372 -0.23724583 -0.07882219 0.018000422
0.0583152 -0.10368102 0.060371127 -0.10025966 -0.07548998 -0.14368358 -0.06262518 -0.05531212
0.034492783 0.39351827 -0.068360895 0.04819909 -0.06867381 0.13217771 0.10695126 0.048353158
-0.054853734 0.17867622 0.039903592 -0.13005458 0.07549237 0.0387853 -0.062250223 -0.208508
-0.0695569 -0.15976025 0.0067678816 0.43499526 0.11536896 -0.16230723 -0.058921877 -0.2512433
-0.07962471 -0.08364504 0.08489201 0.19047146 0.09020532 -0.044515513 -0.0041192025 0.020782135
0.04690783 0.15452082 0.042373076 -0.055908017 0.08726327 0.2588926 0.01857311 0.067588866
0.07395257 0.110447966 0.24384095 0.1028259 0.08332716 -0.09593144 0.008390339 -0.1427292
0.027875554 -0.2873906 -0.05368806 0.075312965 -0.20683438 0.05394165 0.1544161 0.24349844
0.18053658 0.15885161 0.07629365 0.17758 0.0034863055 -0.0057889726 -0.1491072 0.030678373
-0.12854284 -0.09036545 0.15053768 0.102752656 -0.20044571 0.031939566 -0.039307576 0.23965311
-0.015765408 -0.044411343 0.007059325 -0.41905725 -0.10399225 -0.13441715 0.983038 0.1127131
-0.15649268 -0.016855646 0.11861093 -0.28513992 0.1694074 0.13763292 0.07437356 0.13779236
0.18046647 0.029288406 0.030077245 -0.9752327 0.19524574 0.019387232 0.09962756 0.09788333
-0.07482953 0.0901153 -0.037171956 -0.111198045 -0.21438284 0.36036283 -0.004161597 -0.15321346
0.12576286 -0.51900387 0.04658314 -0.03448521 0.9648512 -0.21879536 0.07733494 -0.016387276
-0.09909079 -0.19123608 0.16867359 -0.009351759 0.03548568 0.035805084 -0.15997082 0.11893651
0.09268473 -1.6064488 0.27331758 -0.26072618 0.13194314 -0.19081411 0.113032654 -0.2303392
0.1801409 -0.092346154 0.09856621 -0.1273874 -0.019576952 -0.04586718 -0.0530428 -0.002684497
-0.26413357 0.1973043 -0.015884617 0.08632874 0.1870956 0.09460864 -0.052629665 0.018325662
-0.14619741 -0.0787421 -0.20981011 -0.11624026 -0.24164699 -0.2157267 -0.23917004 -0.034404647
0.13778305 -0.2056306 0.054706104 0.004281835 -0.19324805 0.18917894 0.05255578 -0.12454828
0.02280561 0.18692537 0.09785094 0.10727932 -0.12777276 0.10696792 -0.033526644 0.08420873
-0.12687543 -0.83248156 0.158173 0.20045632 0.10279176 0.10639354 0.055926874 -0.20141855
0.18502682 0.104158916 -0.18748689 0.0098637 0.059100375 -0.23178267 0.058224402 -0.018257553
-0.29071635 -0.13138016 0.7890803 -0.14290528 -0.02946264 0.18711722 0.17307873 0.4266319
-0.08375195 -0.12976381 0.15968402 -1.0134362 0.023588479 -0.16484404 1.3698148 2.2558103

conv2.lin_l.bias f4 [30]
00000000: 4c1d 9abd cae1 193e 2d11 efbd 8613 11ba
00000010: f650 dbbd f60c 21be 6dba 45bd 4c16 bd3d
00000020: 2881 0d3d a045 653d a4fa e1bd 0493 3d3e
00000030: 4718 1f3e 23fc b3bd c8a6 b9bc 03f6 2c3e
00000040: 7ea8 d9bd a8c2 30bc e7f6 163e 6da3 2bbe
00000050: e528 4d3e 3cdb 623c e7d8 2abe 8b62 123e
00000060: 91f0 f83d 1469 97bd 478b 7bbe 77cd 9fbd
00000070: ad8c 55be 34eb 55be
-0.07525119 0.15027538 -0.11673198 -0.000553422 -0.107088014 -0.157276 -0.048273493 0.092327684
0.034547 0.055974603 -0.11034134 0.18513113 0.15536605 -0.08788326 -0.022662535 0.16890721
-0.106278405 -0.010788597 0.14742623 -0.1676156 0.20035131 0.013846215 -0.16684304 0.14295404
0.121552594 -0.07393089 -0.24564849 -0.07802861 -0.20854445 -0.20890504

conv2.lin_r.weight f4 [30, 30]
00000000: 0497 9dbd ff24 a73c 66d7 84be bbcf c23e
00000010: e747 55be 8032 b5be 267a 0bbe 2ce2 e83e
00000020: 9b68 933e 176c a23d b3a7 70be 40da debe
00000030: a16c 94bd 9f95 3abd d140 403f 7611 93be
00000040: 4ae0 94bd 07e3 203e 3332 003e 13d5 e5bc
00000050: c15f 42bd 9aaf 63be 5cc1 d63e c7cd d23d
00000060: b0cb 2fbe 87a6 8f3e f072 383e 5aef 3ebf
00000070: e6a9 16be a991 87be 03e2 733e ce9e be3d
00000080: 2cbe d4be 7121 933e a74d 38bc a30e 06be
00000090: 446b 8f3d 45da d1be 4c62 863d c3ee 873e
000000a0: fe96 66bd 2f39 1c3f 7313 e9bd c5c7 553c
000000b0: fa22 fbbe 0134 94be 78d5 6d3e b049 203e
000000c0: 1469 bdbd 229b 943e ecaa a6be bad9 0bbe
000000d0: d6a1 083e 85f3 c2be eff9 b0be ff8c 3abe
000000e0: 2ad1 813e a887 b73e 6808 86bd db06 4dbe
000000f0: b8f3 9b3d a70f eebc 5539 d53e acb1 4dbe
00000100: 4025 94bd d478 dc3c 1203 e1bc c5b5 c43e
00000110: 3469 eebd a3a7 47bc a759 883e db59 fdbe
00000120: 666d debd 3b04 b63d 1ee0 2a3f a3d7 b13e
00000130: c884 66be da77 763b 9ffe 37bd 91df cfbe
00000140: 6c01 973e 23f4 36bd 5238 ef3d 4756 873c
00000150: 16b0 7b3e 6350 d3bd 9c72 103d 2e78 42bf
00000160: 3934 113e 04d7 363c 5245 88bd 0d44 5f3e
00000170: c955 a7bd 02c6 803e 3ae6 253d 0471 4f3e
00000180: a636 3e3e fd15 5ebd e70a ee3d 1baa 1ebd
00000190: 5cb0 613b f8c3 a63e 4bc5 b93d 9cd1 47bd
000001a0: eeff b9bd 3c8f 38be 9b24 69be 0a23 30be
000001b0: 996e 02be 1b55 36bc 64bc f73d 5b65 793e
000001c0: 95c5 c5bd c3fe b0bc 4e32 493c 7dc8 e8bc
000001d0: 7d0d b73c c396 2d3e 8565 7ebe 7d63 a7bc
000001e0: 332f 2abd f5da 443d ae6e babe 4b10 8b3e
000001f0: 013c 883d 991c 32be cbf4 a2bd 6d6a 42be
00000200: 150e 533e b0e0 9b3e b39b 5fbe a022 603e
00000210: c64c fa3c bb29 dd3d 18b5 a3be 5882 90be
00000220: 4498 a4bd 05af 8d3e 7a89 a53b 04a4 733e
00000230: 970b 39be 99c6 e0bd 66d5 583e 2bed 2fbe
00000240: e070 33be def2 d9bd d940 4f3e 8944 9e3e
00000250: 7a18 a7bd 920d 0abe 4c9c 423e abb4 6e3d
00000260: ed4c bebe fb61 133d 92d9 0e3e c9d4 65be
00000270: 3555 d7bd 0e15 08be 84eb b03d f631 bc3d
00000280: d400 5cbe 232b 023e c749 ce3d 77c1 6d3e
00000290: 3e0a 13be 27c9 2abf d027 963e f95e 873d
000002a0: 6fc9 0e3d 139b e03e 0b85 f6bd 0ecb 23be
000002b0: 3403 903d 710b 82be 6173 abbe 734a 6e3d
000002c0: 8771 263e 16e1 b63d da5e 6abe ce24 e1be
000002d0: 1a6b 113e c0c7 88bd fef2 c8bd 58b2 d03c
000002e0: 1a2c 603e f084 8b3d 02aa 82be 6124 983d
000002f0: 2919 063d 112e 58be 2650 69bd 4d74 15be
00000300: bc21 71be 3a44 193e 0418 4a3e fd54 d0bd
00000310: c915 333e 0594 d43d 28c2 a63d 8c3d 3cba
00000320: ec3a 453d 5293 21be 8f12 f9bb 008e d8bc
00000330: 5b81 b1bc ade9 973b 7ab3 21bc 7aca aa3c
00000340: 6f4e 553e 6248 9d3d 0cba 113e 3bd9 483d
00000350: 2f5d b3bd 0840 603e e1b5 023c c67a 5dbd
00000360: 61d8 32bd e212 19bf 5acd 243e 1350 803c
00000370: 8fae 4bbe dcb6 013f 1df0 d5bd 4001 1e3d
00000380: c7b9 13bf f3b6 88be 3c96 973e 7e50 163e
00000390: a29b 0cbd 657e 2d3e c59a 15be f177 84be
000003a0: 0776 86bd d14b 6abd 4e2d 8fbe 0626 e7bd
000003b0: 63c5 4d3e 6639 0a3f e8ae e4bd ec30 9dbd
000003c0: 65b9 9fbc 56eb 473e e418 203e 50f7 783e
000003d0: ffba 0cbf 4731 09bd 869b 013d acfa 4c3f
000003e0: 7347 1a3e 72e3 18bd d7ec d0bd 9faf 3fbf
000003f0: f937 9b3d 106b 49be e330 7e3f ff96 cbbe
-0.076948196 0.020403383 -0.25945586 0.3804911 -0.2082821 -0.3539009 -0.13620815 0.45485055
0.28790745 0.07930773 -0.23501472 -0.43525887 -0.07247282 -0.045552846 0.750989 -0.2872426
-0.07269342 0.15711604 0.1251915 -0.028055703 -0.0474546 -0.22234955 0.41944396 0.10293155
-0.17167544 0.28056738 0.18012595 -0.7458397 -0.14713249 -0.26478317 0.23816685 0.09307633
-0.4155134 0.2873645 -0.0112489825 -0.13091521 0.07002881 -0.4098684 0.065617174 0.26549348
-0.05629634 0.61024755 -0.11380663 0.013048117 -0.49050122 -0.28945926 0.23225963 0.1565311
-0.09248558 0.29024607 -0.32552278 -0.13657275 0.13342986 -0.38076416 -0.34565684 -0.18217848
0.25354892 0.35845685 -0.06544572 -0.20022146 0.07614845 -0.029060198 0.41645303 -0.20087308
-0.072336674 0.026913084 -0.027467284 0.3841993 -0.1164116 -0.012185964 0.266309 -0.49482617
-0.1086071 0.08887526 0.66748226 0.3473483 -0.2251159 0.0037608058 -0.04492056 -0.40600255
0.29493272 -0.04466642 0.11680664 0.016520632 0.2457889 -0.10318067 0.03526555 -0.7596463
0.14180078 0.011159662 -0.06653847 0.21803303 -0.08170659 0.25151068 0.040502764 0.20257956
0.18575534 -0.05422019 0.11623173 -0.038736444 0.0034437394 0.32571387 0.09070834 -0.048783883
-0.09082018 -0.1802339 -0.2276787 -0.17200866 -0.12737502 -0.011128689 0.120964795 0.2435507
-0.096568264 -0.021605855 0.01228006 -0.028415913 0.022345299 0.16952042 -0.24843414 -0.020433182
-0.04154892 0.048060376 -0.36412567 0.27160868 0.0665207 -0.17393722 -0.07956847 -0.1898591
0.2061084 0.3044486 -0.21836738 0.21888208 0.030554187 0.10798975 -0.319741 -0.28224444
-0.08036855 0.27672592 0.005051789 0.23793036 -0.18070827 -0.109753795 0.21175155 -0.17180316
-0.17523527 -0.10642026 0.20239581 0.30911663 -0.081589654 -0.13481739 0.19004935 0.058277767
-0.37168065 0.035982113 0.13950184 -0.22444452 -0.10514299 -0.13289282 0.08638671 0.09189217
-0.21484691 0.12711768 0.10072666 0.23218332 -0.14359376 -0.66713184 0.2932725 0.066099115
0.03486007 0.43868312 -0.12037095 -0.15995428 0.07031861 -0.25399354 -0.33486465 0.05817647
0.16254245 0.089296505 -0.22887745 -0.43973392 0.14201012 -0.06678724 -0.09811972 0.025475666
0.21891823 0.06812465 -0.2552033 0.07428814 0.03273884 -0.21111323 -0.0569612 -0.14595146
-0.23548025 0.14967433 0.19735724 -0.1017246 0.17488779 0.10379795 0.08142501 -0.0007180802
0.048151895 -0.15778854 -0.0076010893 -0.026434898 -0.021668127 0.0046360106 -0.009869451 0.020848501
0.20830701 0.076798216 0.14231128 0.049035292 -0.08758008 0.21899426 0.007977934 -0.054072164
-0.043663386 -0.5979444 0.1609396 0.015663182 -0.19890808 0.50669646 -0.104461886 0.03857541
-0.5770535 -0.2670208 0.29606807 0.14679143 -0.03432811 0.16942747 -0.14609821 -0.25872758
-0.06565481 -0.05720121 -0.27964252 -0.11286549 0.20094828 0.53993833 -0.11166173 -0.07675347
-0.019497583 0.19523367 0.15634495 0.24313092 -0.54972833 -0.03349426 0.03164246 0.80069995
0.15066318 -0.037326284 -0.102014236 -0.7487735 0.07579035 -0.19669747 0.99293345 -0.39763638

conv3.lin_l.weight f4 [30, 30]
00000000: 97fc 37be 2f18 453d bd73 073e 4127 333e
00000010: 1fe5 053e 572f 8d3e 525f 20be fc55 99bd
00000020: ca19 d7be f754 1f3e a210 613d d7f2 c63d
00000030: 7b26 4e3e ed81 f13e 44d7 223d c98b 54be
00000040: 9f83 303e ffe7 38bf fff5 36be 678a 563e
00000050: 0e50 d3bd 370e 56be e420 d6bd a392 afbe
00000060: d550 81bd 9a85 9cbd 3113 38be 5e92 30bd
00000070: fb3b 763f a0a8 2dbe af8d 8c3f 3376 a2be
00000080: c9fa 5a3e e01a 00bd 39e7 9c3e 8b94 0bbe
00000090: a1ad 4b3e 8321 8cbe eb62 8e3f 6cc0 b53e
000000a0: 5f06 843e 1bca 973d 7f32 4fbe de90 1b3d
000000b0: bf2a 83bc 5d96 6dbe 72cf 92bd ed5d 8a3c
000000c0: 7b2d 4cbe 61a4 983c 5f23 94bd 9aa6 c4bd
000000d0: ce2f 3c3e 5218 ca3b 9b43 42be a8cf adbe
000000e0: ff4b 8bbd e253 ee3d 02e6 91bd 8ba3 c03d
000000f0: cebc babf 9381 803e 9e92 58be 14eb 0cbe
00000100: fc9e e8be 0f12 9fbe eb31 883d 38c4 523e
00000110: c97b bdbf 1374 183e 0460 32be 862c e23d
00000120: 123e 17bd 4c25 943d 9ddd c8bc d477 d7bd
00000130: 6fd6 c53d aa05 02bf a8a6 80be c303 8b3e
00000140: 6ce3 143c 9dc7 c73e a4de fd3b 110d af3e
00000150: a03a d53d 769f e33c 0618 373e 25c7 72be
00000160: 6f15 85bd ed3e 063e 7b9a 65bf 6db6 293e
00000170: 41e1 cebd b504 35be 9d1b d2be 4402 5fbe
00000180: a658 643d d4e8 943e 2047 bcbf a0f7 cd3d
00000190: 01a7 d1bd 55cf 223e 0b56 c6bd fc0b d93e
000001a0: 2051 d23d d7fc 46be d70b fc3d 1b55 16bf
000001b0: d5d5 09bf ecbe a63e 68a9 93bd 4178 743e
000001c0: df1e 43bd c126 923e cf93 62bb 57c6 423e
000001d0: 67df 623e 559b a0bd 0b7d 0d3e 2723 833d
000001e0: b830 31bc f108 aabd 99e6 fdbc a13d fe3c
000001f0: fc6b 37be 2585 86be 21dc 3dbd 894d abbd
00000200: cbe0 f2bd a192 23bb 791e 413d 0c20 da3b
00000210: 511d 8d3e a6b1 dcbe 6218 7fbe 6dc6 cabc
00000220: 6492 bcbd a1f1 bd3e 5fcc b9bd bb0b 0fbe
00000230: 7737 153e 8e35 6a3e 23d0 8f3e c7da 0dbd
00000240: 04c2 8dbd f73c 1d3d 6e5d 613e f6f6 663e
00000250: 0cb0 09bf cd0e 65bb a1f4 ebbe b9ea 3a3e
00000260: e672 b1be 1ff4 b33e 6e42 8f3d f5b4 213e
00000270: bc86 693c e67f f63d 83ff a0be 4ba5 24be
00000280: 1aca 873e 0d56 edbc 53a0 863e f938 abbe
00000290: 5bca 363d 18f6 da3e f3e7 2e3e cef1 0ebd
000002a0: 2e8e ab3e f3be 8bbe 4a98 67bd 264e f8bd
000002b0: 5dfc 16be 8344 ae3c f8a7 793e f9ac 053f
000002c0: 344f 0bbd 4869 283e 0008 943e cdde 4ebe
000002d0: e552 e1be ac40 653e 1028 eb3d be86 fd3d
000002e0: deef 0dbe 0eb8 a3be 0a04 3a3d 9c18 a8bd
000002f0: 08f6 d9be 5567 1bbe 54cb 79be 8500 233e
00000300: ee0c 0abd e04b f4be 9b21 c4bd 9c07 013e
00000310: 77e6 04be 803a a3be 392f 0bbe 38ff 6b3d
00000320: cfcf 893d efd2 5a3e 99e4 87bd 0768 953e
00000330: abf8 1b3e 153d 8c3e 21fd c7bd f5fc 113e
00000340: 20e3 373e 205d 18be ced8 85bd 4bf6 5abd
00000350: 15bf 85bc 193e de3d 9311 e9bd e78a 03bd
00000360: daaf 113d 625f dabd 9684 5abe 9cd9 a13d
00000370: b416 17be 2bcd 2c3e 6017 5d3e 00cf 55be
00000380: 4ab2 8fbe 7ea3 573e 4a17 e6bd c604 763e
00000390: deb7 853e defd 06be 9e84 813e eb38 e33d
000003a0: 9be6 9a3d 46b7 823d f00f 233e 462b 8b3c
000003b0: 1daa 0b3e c493 0d3e ba0e c1be d135 fc3c
000003c0: 76cf 943e 7887 78be c124 713e 1b1d b43d
000003d0: 6990 bcbc af29 b53e 2413 85bd 7ed7 a0be
000003e0: afdb 573f f95d 87bd 9e5a 57bd 9b66 883e
000003f0: a8a3 68bc d2b0 1ebf 1df0 2e3d 5db7 893b
-0.17967449 0.048118766 0.13227744 0.17495443 0.13075684 0.2757518 -0.15661362 -0.07487103
-0.42011863 0.15559755 0.054947503 0.09714287 0.20131867 0.47169438 0.039756075 -0.20756449
0.1723771 -0.72229 -0.17867278 0.20951234 -0.103180036 -0.2090386 -0.10455492 -0.34291562
-0.063142456 -0.0764267 -0.17976071 -0.043108337 0.9618527 -0.16958857 1.0980738 -0.31730804
0.2138473 -0.03127563 0.3064516 -0.13630883 0.19890453 -0.27369317 1.1123937 0.3549837
0.2578611 0.074115954 -0.20234106 0.037979953 -0.016011594 -0.2320189 -0.07168473 0.01689049
-0.19939224 0.01863307 -0.07233309 -0.09602089 0.18377611 0.00616745 -0.18971102 -0.33947492
-0.068016045 0.11637093 -0.07123949 0.09406193 -1.4588869 0.25098857 -0.2114968 -0.1376155
-0.45433795 -0.31068465 0.06650146 0.20582664 -1.4803401 0.14888029 -0.1741944 0.110436484
-0.03692443 0.07233676 -0.024519736 -0.10520902 0.096600406 -0.5078989 -0.2512715 0.27151307
0.009087425 0.3901948 0.007747488 0.34189656 0.104115725 0.027785998 0.17880258 -0.2370878
-0.06498229 0.13109942 -0.89688843 0.16573496 -0.101015575 -0.17677577 -0.41036692 -0.21778208
0.055748604 0.29083884 -1.4709206 0.10056996 -0.102369316 0.15899403 -0.0968438 0.42391956
0.102693796 -0.19432388 0.12306946 -0.5872361 -0.53841907 0.32567537 -0.07210046 0.23873998
-0.047636863 0.28545192 -0.0034572964 0.19020973 0.22155534 -0.07842127 0.13817231 0.06403189
-0.010814838 -0.08302487 -0.030993747 0.031035246 -0.17912287 -0.26273456 -0.04635251 -0.08364398
-0.11859282 -0.0024959224 0.0471482 0.0066566523 0.2756143 -0.43104285 -0.24911645 -0.02475282
-0.09207609 0.3709841 -0.09072184 -0.13969319 0.1457194 0.22871992 0.28088483 -0.03463247
-0.06921771 0.03838822 0.22008297 0.22555146 -0.5378425 -0.003495145 -0.46085075 0.18253602
-0.34657973 0.35147187 0.06995092 0.15791686 0.014253315 0.120361134 -0.3144494 -0.1607868
0.2652138 -0.028971696 0.26294193 -0.33441904 0.044626575 0.4276588 0.17080669 -0.03489857
0.33506912 -0.2729412 -0.05654172 -0.12124281 -0.14744706 0.021272903 0.24380481 0.5221706
-0.03401108 0.16446412 0.28912354 -0.20202179 -0.44008556 0.22387952 0.11482251 0.12379216
-0.13861033 -0.3197636 0.04541401 -0.08207819 -0.4257052 -0.15176137 -0.2439397 0.15918167
-0.033703737 -0.47714138 -0.09576722 0.12600559 -0.1297854 -0.3188057 -0.13592233 0.057616442
0.067290895 0.21369527 -0.066353984 0.2918093 0.15231578 0.27390352 -0.097650774 0.14256652
0.17957735 -0.14879274 -0.06535493 -0.05345754 -0.016326467 0.10851688 -0.11380305 -0.03211489
0.035568096 -0.10662724 -0.2133964 0.07902834 -0.14754754 0.1687514 0.21590948 -0.20879745
-0.2806571 0.21058461 -0.11234911 0.24025258 0.26116842 -0.1318278 0.2529649 0.110948406
0.07563516 0.06382613 0.15924048 0.016988408 0.13639112 0.138259 -0.37706548 0.03078738
0.2906453 -0.24270427 0.23549177 0.08794614 -0.023018079 0.35383365 -0.064977914 -0.31414407
0.84319586 -0.06609721 -0.052576654 0.26640782 -0.014199175 -0.61988556 0.04270946 0.004202767

conv3.lin_l.bias f4 [30]
00000000: 7768 c6bd edbb a73d 650f 8dbc 124d 093e
00000010: 14c1 c23d 9b47 8b3e 61f9 483e bde5 533e
00000020: 7bf6 99bd ae0b c13b 5d3d 6ebc 9fc6 a63c
00000030: dbad 3fbd d478 833a 7151 e3bd 6941 f83b
00000040: 75fb f73b be18 6e3d 8489 583e 0ba2 55bd
00000050: 77b5 57be 78c3 353e dd35 1fbe 8f6c e63d
00000060: ff6c 2cbd b624 fb3d 2bce 9abd 3cdc 01bd
00000070: 7000 0b3d 7245 b73d
-0.09687894 0.08190141 -0.017219255 0.13408306 0.09509483 0.27203068 0.1962638 0.20693107
-0.075177155 0.005891285 -0.014540997 0.020358382 -0.04679666 0.0010030516 -0.11099518 0.007576157
0.007567818 0.058129065 0.21146208 -0.05215649 -0.21065317 0.17750347 -0.15547891 0.11251175
-0.042096134 0.122628614 -0.07558855 -0.031704172 0.033935964 0.089487925

conv3.lin_r.weight f4 [30, 30]
00000000: 467d 3bbb e958 1ebd 4559 d3bc da27 efbc
00000010: 498e f3bc 1a3d 46bd 5a10 92bd 0721 b03d
00000020: 764f e3bd 2b62 a43c 7ff7 313d 6a3a 373e
00000030: 9832 5e3e ed9b 2cbe 29e4 713d 34ed e4bc
00000040: 25c4 953e 9531 b33e 605e 6c3e b109 963d
00000050: b197 7f3e d6d1 3bbe 58ea f0bd 72a2 33be
00000060: 61c5 0b3d 23c2 883d 98d1 69be ff64 8e3e
00000070: 625b dd3d 748d 4abd 0225 8abe 232e d2be
00000080: 2a8e e53d 2c01 0bbe f4de 8abe b830 4dbc
00000090: 438b efbd fc65 84be cdce 46bd cf3a cb3e
000000a0: 259e 9d3e 32c3 673b 17ec 12be 030a 4c3e
000000b0: a15a 3fbe ec70 71bd 699c 9ebe e6b2 00bf
000000c0: fe1b cebe 9f58 703e 95cb 87be 9329 0c3d
000000d0: c1f7 253e 758d 603e c2a8 773d 2293 48be
000000e0: f118 953e 7073 bdbd df9e c23e c2c2 363e
000000f0: 1cd5 333e 7c18 e33e f20d 90be 448b b8bd
00000100: 8c67 b23d 1656 533d 6757 783e db62 993d
00000110: 46d2 1abe 3f23 f5be ec14 83be 817a 27be
00000120: e82f 1dbd ebd3 243f 3b20 8a3e 56f6 c83e
00000130: 823a 8d3e 0dc0 a43e 98c5 cf3e 5cbe a1be
00000140: 5a26 973e 2595 a4be 8c07 9bbe 3219 0fbd
00000150: 8ccd a0bd a193 593e 4be4 a4be bf8b 9f3e
00000160: 0dca f13d 04ab 70bd 0386 a83e c0d2 2a3e
00000170: e094 123e 7eb8 433c 50eb 493d e480 adbd
00000180: a5c7 923d 36eb d63d 194f 883e 7247 c2be
00000190: 281c fabd 1bfd 14be 939e d13d 6c22 063f
000001a0: 5d40 073e ad9d 3b3e 8c4f 24bd d6e0 093e
000001b0: 7f32 6d3e b972 52be 544d d33d d8e9 aebe
000001c0: f0b2 9a3e cb46 41be f39d 91bd da5f 52be
000001d0: 2840 babe 36a1 6b3e fe61 e03a 29cc 533e
000001e0: f3b6 9a3a 9255 473e 43f9 30be 24b9 323e
000001f0: 0568 733e 40dd 59be 41a4 7e3d f04d f7b9
00000200: d8cf 393e dd9f 00bd 173b ad3d 9731 893e
00000210: 8052 a23c 9258 ff3d c5c0 fcbd 9e65 983e
00000220: 7833 073d 96ef 133f 4585 a03d 50a1 ddbe
00000230: 804e b93e 5336 dbbd df9d 2ebe 32b9 c83c
00000240: 799b 183e 581e 043e 47df a4be f8a3 e63e
00000250: 9ae6 e73d ff3b a1bc 4059 ff3d 96ae 34be
00000260: 295b bebd 0b1f 463e 3248 28bd 059a 523d
00000270: 6cf9 49bd 2012 f1bd e5a1 e2bd 1326 8e3c
00000280: 5963 c0be 3107 833e 22d0 9e3e 083d 1abd
00000290: 51f3 38bd fb4f 57bd 7d4c 3c3c 2877 633d
000002a0: a4ee 0fbe df97 a2bd 6d30 9d3d 4a94 013a
000002b0: fcb9 83bd 6be8 60be 2a52 873d 05c8 373d
000002c0: dea4 f3bd 8c21 65bc 11c8 683a 33e6 b2bd
000002d0: 1af2 a83d 4c82 183e 6d43 b0bd 01ae 21bd
000002e0: 110b 6c3d 4ebf 46be 4144 e53c 1ec8 89bd
000002f0: 1966 9abd b9f7 df3c 2eb4 b3be f6bf 773c
00000300: c3f1 2f3d 87aa 46be a0fc 203e e0f1 fa3d
00000310: bed0 803c 25e8 293c e363 003d 9fed 12bd
00000320: 046d 683e 32f2 efbb 72b2 173d bf65 043e
00000330: c03b 133e 8a06 813d 1e2d 05be cd8e 9f3d
00000340: 7703 3dbe 2462 ef3d d2a5 c5bd 0a27 73bb
00000350: 9246 783c a938 0d3e 7360 093e 5e20 6c3c
00000360: c760 2d3c 474b 873e 8403 453e c5ac f7bd
00000370: 14af 23bd 62d7 74bd a50a 713e 3f2a 033d
00000380: be9b f63c a611 8e3e d5e7 e93d f266 d93e
00000390: 3bfc 9b3e 5807 42be c8fe 093f 422b 6abd
000003a0: 213d 0ebe 7687 ed3c 5532 83bd a9d9 333e
000003b0: e2f0 58be 10ed b83e c532 023d 0478 bcbd
000003c0: d1a0 a9bd e769 afbe b192 843e 6426 963d
000003d0: 6920 7bbe b6bf 9ebd a48b 3cbe 941e d9be
000003e0: 9a35 06be 305f 9b3e 0037 9cbe bcef 923d
000003f0: 0857 a13e 8f6b e2be b631 cabe 1375 8bbe
-0.0028608604 -0.03865901 -0.025799403 -0.029193807 -0.029730933 -0.048398115 -0.07132025 0.086000495
-0.1109914 0.020066341 0.04344892 0.17893377 0.21698987 -0.16856356 0.05905548 -0.027945139
0.2925121 0.34998766 0.23082876 0.07326067 0.2496021 -0.18341765 -0.117634475 -0.17542437
0.034123782 0.06677654 -0.2283386 0.2781143 0.108084455 -0.049451306 -0.2698136 -0.41050825
0.11208756 -0.13574666 -0.27123225 -0.0125238225 -0.11696484 -0.25859058 -0.048537064 0.39693305
0.30784717 0.0035364148 -0.14347874 0.19925694 -0.18686916 -0.05894558 -0.30978706 -0.5027298
-0.4025573 0.23471306 -0.26522508 0.034219336 0.16207792 0.21928962 0.060463674 -0.19587377
0.2912059 -0.092505336 0.38011834 0.17847732 0.17561764 0.44354618 -0.2813564 -0.09010938
0.08711156 0.05159577 0.24252091 0.07489558 -0.15119275 -0.47878453 -0.256019 -0.16355325
-0.038375765 0.6438586 0.26977715 0.3925044 0.275837 0.32177773 0.4058044 -0.31590545
0.29521447 -0.32145038 -0.30279195 -0.034936137 -0.07851705 0.21247722 -0.32205424 0.31161305
0.11806116 -0.058756843 0.32914743 0.16681957 0.14314604 0.011945842 0.049296677 -0.084718496
0.071669854 0.10494082 0.26622847 -0.37945133 -0.12212402 -0.14549677 0.10235324 0.52396274
0.13208146 0.18321867 -0.040114924 0.13464674 0.23163794 -0.20551576 0.103174835 -0.34162784
0.30214643 -0.18874662 -0.071102045 -0.20544377 -0.36377072 0.23010716 0.0017119048 0.2068335
0.0011803791 0.19466236 -0.17282586 0.17453438 0.23770149 -0.21275806 0.062168363 -0.0004716958
0.18145692 -0.031402458 0.08458536 0.26795647 0.01981473 0.12468065 -0.12341455 0.29765028
0.03300807 0.57787454 0.07837919 -0.43287134 0.36192703 -0.10703721 -0.1705241 0.02450237
0.14903058 0.129022 -0.32201597 0.45046973 0.11323281 -0.019681929 0.12468195 -0.17644724
-0.09294731 0.1934778 -0.041084476 0.051416416 -0.049310133 -0.11771035 -0.11066035 0.01735214
-0.37575796 0.25591424 0.31018168 -0.03765586 -0.04515392 -0.05256651 0.011492846 0.055533558
-0.14055878 -0.07939123 0.07675252 0.0004943056 -0.06431958 -0.2196366 0.066074684 0.044868488
-0.1189668 -0.013985049 0.000887991 -0.08735313 0.08249302 0.14893454 -0.086066104 -0.039472584
0.05762774 -0.19408914 0.027986648 -0.067276224 -0.07539005 0.027339803 -0.35098404 0.015121451
0.04295517 -0.19400989 0.15721369 0.12253165 0.015724536 0.010370289 0.03134526 -0.035871144
0.22697836 -0.007322573 0.037035413 0.12929438 0.14378262 0.06300075 -0.13005492 0.07790909
-0.18458353 0.11688641 -0.09650768 -0.0037102127 0.015153544 0.13791145 0.13415699 0.014412014
0.010582156 0.2642462 0.19239622 -0.120935 -0.03996189 -0.059775718 0.23539217 0.03202271
0.03010356 0.2774784 0.114211716 0.42461354 0.30465874 -0.18948114 0.5390439 -0.05717016
-0.13890506 0.028995257 -0.064060844 0.175635 -0.2118564 0.36118364 0.0317867 -0.09202579
-0.082826264 -0.34260485 0.25893167 0.07331541 -0.24524082 -0.0775141 -0.18412644 -0.42406142
-0.13106385 0.3034606 -0.30510712 0.07174632 0.31511712 -0.44222686 -0.3949105 -0.27237758

lin.weight f4 [1, 30]
00000000: 8bae 1a3f a6dc f7be 53c3 f83e 74c6 da3e
00000010: fb2e b13e 9054 053f 1d81 103f 540b ab3e
00000020: 4015 ffbe 20cb 3a3f 2e03 473f adbc f73e
00000030: 7daf ce3e 7b10 043f b3c9 c7be 8802 09bf
00000040: a7af 37bf 1136 cc3e c201 2d3f 5941 37bf
00000050: 06a0 25bf 7b12 c13e 62ad d1be 72aa ee3e
00000060: e774 f63e 7087 bfbe 57cd b23e f0ea 3cbf
00000070: 751b f73e 8e8e 02bf
0.6042258 -0.4841053 0.4858652 0.42729533 0.34606156 0.5208216 0.5644701 0.3340708
-0.498209 0.72966194 0.77739227 0.48386136 0.40368262 0.5158765 -0.39021072 -0.5351949
-0.717524 0.39885 0.6758081 -0.7158409 -0.646973 0.37709412 -0.40952593 0.46614414
0.48136064 -0.37408018 0.34922287 -0.73795986 0.48263136 -0.5099877
