models/neural_network_GATConv_single_dynamics_MM_graph_size_10/neural_network.pth (torch, 2703 bytes, 6 tensors)

conv1.att_src f4 [1, 1, 30]
000000 aa 51 82 3e 6c ef dc 3d 6d ad c9 3d ce ef d0 bd
       0.2545293 0.107878536 0.098475315 -0.10201989
000010 c6 43 8b 3d 74 24 b7 be f3 9f 88 be 0c 33 dc 3d
       0.06800036 -0.3577 -0.26684532 0.10751924
000020 e9 49 3e 3e 4f 4b 67 3e e5 5b f0 3e 41 10 b3 bc
       0.18582882 0.22587322 0.4694511 -0.021858336
000030 9d 1e 98 be 42 a2 a9 3e 8f fc 73 3e a2 8b 72 3e
       -0.29710856 0.33131605 0.23826812 0.23686078
000040 a9 cc 08 3e af 60 fa 3e a2 f3 d7 3d 21 e6 75 3e
       0.13359322 0.4890189 0.10544516 0.24013568
000050 25 b9 37 3c 9d 79 26 be 70 be a0 be fd e1 fa be
       0.0112135755 -0.1625733 -0.31395292 -0.4900054
000060 ed 1d 58 be 25 32 06 bf 7c e6 be 3e be 51 8b 3e
       -0.21105166 -0.52420264 0.3728522 0.27210802
000070 2a 94 6a 3e 12 14 07 be
       0.22908083 -0.1319125

conv1.att_dst f4 [1, 1, 30]
000000 27 9e bc bf 3d ed 51 3f 9f 56 a0 bf 26 6b 7b 3f
       -1.4735764 0.8200262 -1.2526435 0.9821037
000010 68 3b aa 3f 12 98 6a 3f 96 7a ab 3f dc 7c 54 3f
       1.3299379 0.9163829 1.3396785 0.8300302
000020 15 7a 44 3f f9 b3 8d bf 39 2c aa 3f e3 12 ba 3f
       0.7674878 -1.1070548 1.3294746 1.4537014
000030 b3 9e 55 3f 4c 9b 52 bf e4 47 a1 3f 80 7b 8a 3f
       0.8344528 -0.82268214 1.2600064 1.0818939
000040 e7 ff 65 bf 4e 96 a1 bf 98 ae 77 bf cf 40 b9 3f
       -0.898436 -1.2623994 -0.96750784 1.4472903
000050 7d f3 bc 3f b3 2c 52 bf f6 40 93 bf 5a 1d 45 bf
       1.4761807 -0.82099456 -1.15042 -0.7699791
000060 8a 3c 4b 3f 18 b1 96 3f dc 02 65 bf ba 94 9b 3f
       0.7938925 1.1772795 -0.8945749 1.2154763
000070 36 8a ad bf 24 54 b2 bf
       -1.3557804 -1.3931928

conv1.bias f4 [30]
000000 db ae ee bd 00 43 e3 3d 76 0e eb bd ea 26 ac 3d
       -0.11654445 0.110967636 -0.114773676 0.0840586
000010 6b 47 5e be 3e 35 ef 3d df 49 a4 3d c0 24 d0 3d
       -0.21706931 0.11680077 0.08021902 0.101632595
000020 6e 00 a1 bd 90 cc cd 3d 65 59 b5 3c 16 82 e8 3d
       -0.0786141 0.10048783 0.022137353 0.11352937
000030 4a 4b d1 3d a7 bc ed bd aa e4 65 be 01 37 d5 3c
       0.102194384 -0.11608248 -0.2245051 0.026027204
000040 fd eb c3 bd cb 1e 58 bd fd f4 67 3e 13 44 4f be
       -0.095664956 -0.05276374 0.2265205 -0.20240812
000050 b3 ad d0 bc bb b3 f0 3d f2 f9 cd bd bb 97 28 3e
       -0.025473451 0.11753031 -0.10057439 0.1646413
000060 85 20 d0 3d 8c b6 d5 3d 95 3a 0c 3e 58 2c a2 3d
       0.101624526 0.10435209 0.13694222 0.07918614
000070 39 f5 6d 3e 09 f2 3b 3e
       0.23238076 0.18354048

conv1.lin_src.weight f4 [30, 1]
000000 b1 dc 91 be 07 26 aa 3e 70 41 a1 be b9 89 0b 3f
       -0.28488687 0.33232138 -0.31495237 0.54507023
000010 ad 06 96 3e 58 f2 94 3e 62 00 e5 3e 31 34 d7 3e
       0.29301968 0.29091144 0.44726855 0.42032006
000020 2e 04 0c 3f e3 e6 ef be 9a bc a7 3e ee 19 ad 3e
       0.5469388 -0.4685584 0.3276108 0.33808845
000030 81 f9 c1 3e fb bc 9e be 02 78 cc 3e 7e 2e 1d 3f
       0.3788567 -0.31003556 0.3993531 0.61399066
000040 30 5a e6 be 56 5a 90 be 6c 36 a8 be 27 5a 6f 3e
       -0.44990683 -0.2819392 -0.3285402 0.23374234
000050 52 19 03 3f 72 0d f4 be 62 11 ce be 9e 8b 3a be
       0.5121051 -0.47666508 -0.40247637 -0.18217322
000060 a0 8f b8 3e 48 c6 5b 3e 64 fc d8 be ad 55 1a 3f
       0.36047077 0.21462357 -0.4238006 0.6028698
000070 0d 0a ba be cb da 1a be
       -0.36335793 -0.15122525

conv1.lin_dst.weight f4 [30, 1]
000000 b1 dc 91 be 07 26 aa 3e 70 41 a1 be b9 89 0b 3f
       -0.28488687 0.33232138 -0.31495237 0.54507023
000010 ad 06 96 3e 58 f2 94 3e 62 00 e5 3e 31 34 d7 3e
       0.29301968 0.29091144 0.44726855 0.42032006
000020 2e 04 0c 3f e3 e6 ef be 9a bc a7 3e ee 19 ad 3e
       0.5469388 -0.4685584 0.3276108 0.33808845
000030 81 f9 c1 3e fb bc 9e be 02 78 cc 3e 7e 2e 1d 3f
       0.3788567 -0.31003556 0.3993531 0.61399066
000040 30 5a e6 be 56 5a 90 be 6c 36 a8 be 27 5a 6f 3e
       -0.44990683 -0.2819392 -0.3285402 0.23374234
000050 52 19 03 3f 72 0d f4 be 62 11 ce be 9e 8b 3a be
       0.5121051 -0.47666508 -0.40247637 -0.18217322
000060 a0 8f b8 3e 48 c6 5b 3e 64 fc d8 be ad 55 1a 3f
       0.36047077 0.21462357 -0.4238006 0.6028698
000070 0d 0a ba be cb da 1a be
       -0.36335793 -0.15122525

lin.weight f4 [1, 30]
000000 1c 81 99 3e cf 71 9d be 05 05 a2 3e 2b d2 b8 be
       0.29981315 -0.30750892 0.31644455 -0.36097845
000010 3a 17 4c be dc cf 9c be 6a 7f 86 be 82 7d ae be
       -0.19930735 -0.30627334 -0.26269084 -0.3408013
000020 85 ad 6f be d4 72 78 3e 5c 79 76 be de 98 ac be
       -0.23406036 0.24262553 -0.24069732 -0.33710378
000030 e6 29 99 be fb 9a a4 3e ef ac 2d be 71 d2 75 be
       -0.29914778 0.3214949 -0.169605 -0.24006058
000040 52 b9 a9 3e e0 1c 36 3e 1f 8a 82 3e 19 13 44 be
       0.331492 0.17784452 0.25496003 -0.1914791
000050 da 98 76 be 25 50 71 3e de a6 a0 3e 83 82 22 3e
       -0.24081746 0.23565729 0.3137731 0.15870099
000060 5b f2 8e be 9e a6 52 be 37 03 84 3e 97 39 cd be
       -0.27919278 -0.20571372 0.25783703 -0.40083
000070 10 e3 7b 3e a1 96 05 3e
       0.24598336 0.13045742
