results/FHN_celegans_directed_wcc_multiple_nn_True_1/neural_network.pth (torch, 38491 bytes, 26 tensors)

g.0.weight f4 [30, 2]
0	0xbe60b280	-0.21943092
1	0xbe5ab2ad	-0.21357222
2	0xbdb3f0e8	-0.087861836
3	0x3d32b4a6	0.04362931
4	0xbf1b8ee5	-0.60764915
5	0xbe5dd9b4	-0.21665078
6	0x3f0124c3	0.5044672
7	0x3e6ef31f	0.23334931
8	0xbf2ba574	-0.67049336
9	0xbe8c6c01	-0.2742615
10	0x3e5d0321	0.21583225
11	0x3e399fc0	0.18127346
12	0x3eece8d3	0.4627138
13	0x3ea5e4ac	0.32401025
14	0x3da3e0b4	0.08001843
15	0x3f0aea40	0.5426369
16	0x3c12b6b3	0.008954692
17	0x3d68dbde	0.056850307
18	0x3eed2c4a	0.46322852
19	0x3e838301	0.25685886
20	0xbf1199f6	-0.5687555
21	0xbf0a1160	-0.5393276
22	0x3f121e1d	0.570772
23	0x3ed9a88e	0.4251141
24	0x3f0c16ff	0.5472259
25	0xbce0c30d	-0.027436757
26	0xbf0941b8	-0.53615904
27	0x3e2e621a	0.1702961
28	0x3de022f2	0.10944165
29	0x3efa3b6b	0.48873457
30	0x3e12fc6c	0.14354104
31	0xbdfc0547	-0.12305694
32	0x3e9a6e24	0.30162156
33	0xbdf84db1	-0.121241935
34	0x3f13891f	0.57631105
35	0x3d9db4ee	0.07700525
36	0x3e996806	0.29962176
37	0x3eb0621f	0.3444986
38	0x3e37001e	0.17871138
39	0xbc1382cf	-0.009003355
40	0x3eca6e0a	0.39537078
41	0xbee5026f	-0.4472842
42	0xbea791a5	-0.32728305
43	0xbd5c1a53	-0.053736042
44	0xbea9c1de	-0.3315572
45	0x3ef2ef7a	0.4744833
46	0xbe0d3e1e	-0.13793227
47	0xbd0b5d0a	-0.034024276
48	0x3e3abf3a	0.1823701
49	0x3e294c7d	0.16533084
50	0x3f06d0ec	0.5266254
51	0x3eaa9d1a	0.33322984
52	0xbe4f2e23	-0.20232444
53	0xbed34ab2	-0.41267926
54	0xbe822379	-0.25417688
55	0xbf20d812	-0.628297
56	0xbeb5ef47	-0.35534117
57	0xbe1e9bf3	-0.15489177
58	0x3d158f47	0.036513593
59	0xbee8264a	-0.45341712

g.0.bias f4 [30]
0	0xbed0e80e	-0.40802044
1	0xbf012803	-0.5045168
2	0x3f2c65e0	0.6734295
3	0x3b828ce5	0.003984081
4	0xbf0f9c48	-0.5609784
5	0x3f1bd3dc	0.60870147
6	0x3f2d3661	0.676611
7	0xbf17a292	-0.5923244
8	0xbeb37e0a	-0.35057098
9	0x3f2c769a	0.6736847
10	0x3e9d30a0	0.3070116
11	0x3ec240be	0.3794002
12	0x3f2b8835	0.6700471
13	0xbe4254b2	-0.18977621
14	0xbeb2f231	-0.34950402
15	0xbe3dc12d	-0.18530722
16	0x3ed7626c	0.42067277
17	0xbef869b9	-0.4851816
18	0xbde7e312	-0.11322607
19	0x3eab3469	0.33438423
20	0x3f28752f	0.6580381
21	0x3ebf7cc7	0.37399885
22	0xbd8501d6	-0.06494491
23	0xbe465b4d	-0.19370766
24	0x3e6468a5	0.22305544
25	0xbe665c0f	-0.22496055
26	0x3ed88b14	0.42293608
27	0x3e2d1798	0.16903532
28	0xbeef5b95	-0.4674956
29	0xbdb4c4c4	-0.088265926

g.2.weight f4 [30, 30]
0	0x3db973eb	0.09055313
1	0x3e00ccd7	0.1257814
2	0x3e40dafd	0.18833537
3	0xbd541e07	-0.05178645
4	0x3e0aec4c	0.13566703
5	0x3d3b3749	0.04570702
6	0xbe2551f4	-0.16144544
7	0x3db947e1	0.09046913
8	0xbe5412d7	-0.20710312
9	0xbe45442d	-0.19264288
10	0xbd4c6d96	-0.049909197
11	0xbcdfe28e	-0.02732971
12	0xbe0ec401	-0.13941957
13	0xbd0bdecc	-0.034148023
14	0xbd9be896	-0.076127216
15	0x3db5077e	0.0883932
16	0x3d6b1411	0.057392184
17	0xbceefa09	-0.02917196
18	0x3dafc5be	0.08582638
19	0xbe171c91	-0.14756991
20	0xbe2ec474	-0.17067128
21	0xbde1e750	-0.110304475
22	0x3e5033fa	0.20332327
23	0xbe326d3d	-0.17424484
24	0xbd9a93b8	-0.07547706
25	0xbd7e95ff	-0.062154766
26	0xbd329a44	-0.04360415
27	0xbe2ebee0	-0.17065
28	0xbd51ca91	-0.051218573
29	0x3d3c1c77	0.045925584
30	0x3d8bd029	0.06826813
31	0x3ca51792	0.02015284
32	0x3dd3adb4	0.103358656
33	0xbdd0a5b2	-0.10187854
34	0x3dddb71b	0.1082594
35	0xbd58bf06	-0.05291655
36	0xbdac6768	-0.08418161
37	0xbe5fb508	-0.21846402
38	0x3dd3b106	0.10336499
39	0x3dafe3db	0.08588382
40	0x3e830a47	0.25593778
41	0xbd9fc905	-0.07802013
42	0xbda8af88	-0.08236605
43	0x3df42416	0.11920945
44	0xbe417440	-0.18892002
45	0xbe0e2692	-0.13881901
46	0x3de522ed	0.11188302
47	0x3bcc635d	0.006237431
48	0xbe6c04f1	-0.2304876
49	0x3d91897a	0.071063
50	0xbdd4f3fe	-0.103981
51	0xbc8310bb	-0.015999189
52	0x3d754ff4	0.059890702
53	0xbd0ca3bf	-0.034335848
54	0x3d7b0d2e	0.061291866
55	0xbe14d347	-0.14533721
56	0x3e0c3408	0.13691723
57	0xbd831e12	-0.0640222
58	0x3dc0968a	0.09403713
59	0x3d1c5fa9	0.038177166
60	0xbe1a1a80	-0.15049171
61	0xbda5a81f	-0.08088707
62	0xbb625d80	-0.0034540594
63	0x3dd6c209	0.10486228
64	0x3e05f4cf	0.13081668
65	0xbd1da5ef	-0.038488325
66	0x3cce3558	0.02517192
67	0xbe1e309a	-0.15448228
68	0xbcfbce1c	-0.030737929
69	0xbe09425f	-0.13404225
70	0xbdec8fcf	-0.11550867
71	0xbde733e8	-0.11289197
72	0xbdb8cae4	-0.09023073
73	0xbcbd4f6a	-0.023109157
74	0xbdd10614	-0.102062374
75	0x3d6f585f	0.058433887
76	0x3d90baec	0.070669025
77	0xbd2e793f	-0.042596098
78	0x3da84ab5	0.08217374
79	0x3d26f5d0	0.04076177
80	0xbe6088a9	-0.21927132
81	0x3aa90b59	0.0012897059
82	0x3cd8398a	0.026394624
83	0xbe0e55b0	-0.13899875
84	0xbe4c12d4	-0.19929057
85	0x3d9fcf35	0.078031935
86	0xbddfa315	-0.10919777
87	0x3d85101f	0.064972155
88	0xbdffa075	-0.124817766
89	0x3c05be84	0.008163098
90	0xbe4201be	-0.18945977
91	0x3c39f2f5	0.011349429
92	0x3d07e9be	0.0331819
93	0xbe0f7ae0	-0.14011717
94	0x3db954d7	0.09049385
95	0xbd81ffc2	-0.0634761
96	0xbd94eee8	-0.0727213
97	0x3e0927c8	0.13394082
98	0xbdc7efe1	-0.0976255
99	0xbda8ca90	-0.08241761
100	0xbe12c2ab	-0.14332072
101	0xbd0b81ed	-0.034059454
102	0xbde18e96	-0.11013524
103	0xbc223110	-0.009899393
104	0x3d8ba2b6	0.06818144
105	0xbe649ab9	-0.22324647
106	0xbd0d89e0	-0.034555316
107	0xbddf9fb6	-0.10919134
108	0x3d977b8e	0.07396613
109	0x3d852447	0.0650106
110	0x3d0c5597	0.034261312
111	0xbd801dd6	-0.06255691
112	0x3e407d18	0.1879772
113	0x3cc42e79	0.023947941
114	0xbe537c18	-0.20652807
115	0xbc49c393	-0.012314695
116	0xbdaf1ddc	-0.08550617
117	0xbd7cbe08	-0.061704665
118	0x3dcb86d9	0.099378295
119	0xbd97b8ae	-0.07408272
120	0xbd6d85ad	-0.05798881
121	0x3c9cb041	0.019127013
122	0xbe2dd0d2	-0.1697419
123	0x3e3d8cf6	0.18510804
124	0xbcdf9cfa	-0.027296532
125	0x3de920e0	0.113832235
126	0x3b382a58	0.002810141
127	0xbe07733d	-0.13227554
128	0xbdec037d	-0.11524103
129	0xbc0c79f2	-0.008573996
130	0x3d4af287	0.0495477
131	0xbdc6d715	-0.097089924
132	0x3e51343d	0.20430084
133	0xbe0c69c5	-0.13712223
134	0xbcc366c9	-0.023852723
135	0x3da8e19b	0.08246156
136	0x3e7a658b	0.24452798
137	0xbddbaf84	-0.10726836
138	0xbd0fac00	-0.03507614
139	0x3e56a78f	0.20962356
140	0xbccccdf8	-0.025000557
141	0xbe545ab3	-0.20737724
142	0xbe6c9b01	-0.23106004
143	0xbdd84887	-0.105607085
144	0xbdc92433	-0.098213576
145	0x3d8b9f4b	0.06817492
146	0xbda70ba6	-0.08156519
147	0x3de8ce8b	0.1136752
148	0x3d9e8cfe	0.07741736
149	0xbd2d2824	-0.04227461
150	0xbd4031f0	-0.046922624
151	0xbd8dc417	-0.06922167
152	0x3e461525	0.19344003
153	0xbe483096	-0.19549784
154	0x3d9ae76c	0.075636715
155	0x3b8cbba7	0.004294831
156	0xbe14ddb3	-0.14537697
157	0x3d899a48	0.0671888
158	0xbe3fcc65	-0.18730314
159	0xbd87f9e0	-0.06639457
160	0x3de00199	0.10937805
161	0xbdb000fa	-0.08593936
162	0x3d8ffdfe	0.07030867
163	0x3e2839fb	0.16428368
164	0x3cf8ef68	0.030387595
165	0xbca5f9fb	-0.020260802
166	0xbe33f02e	-0.1757209
167	0xbe599f3f	-0.21252154
168	0xbe68d50f	-0.22737525
169	0x3db47b75	0.0881261
170	0x3e042d17	0.12907825
171	0xbc0fa08b	-0.008766304
172	0x3d6fe242	0.058565386
173	0xbc1e524a	-0.009663174
174	0xbdbc08c2	-0.09181358
175	0xbe0a8ddf	-0.13530682
176	0x3ddcf231	0.10788382
177	0x3e079b87	0.13242923
178	0xbd109b18	-0.03530416
179	0xbdc8f63e	-0.09812592
180	0x3bf3f61f	0.0074451114
181	0x3c1571f6	0.009121409
182	0x3c80ca82	0.015721563
183	0x3e14afa0	0.1452012
184	0xbe0a23d7	-0.13490234
185	0xbded6e43	-0.115932964
186	0xbd8ae6e0	-0.06782317
187	0xbad27fd5	-0.0016059825
188	0x3d66b262	0.056322463
189	0xbe1b74f7	-0.15181337
190	0x3ceafd37	0.028685195
191	0x3e246e38	0.1605767
192	0x3dc99b72	0.09844102
193	0x3df39289	0.11893184
194	0xbd83ca03	-0.06435015
195	0x3d23c65f	0.039984103
196	0x3ab85d06	0.0014065809
197	0xbd5339d6	-0.05156883
198	0xbe0ee7db	-0.13955633
199	0x3d811dea	0.06304534
200	0xbdd39862	-0.10331799
201	0x3df72750	0.12068045
202	0xbd5917e4	-0.0530013
203	0x3e0d1126	0.13776073
204	0xbe04fbab	-0.12986629
205	0x3e2d614c	0.16931647
206	0x3e1a6591	0.15077807
207	0xbe0969d6	-0.1341928
208	0xbd57a6d8	-0.05264935
209	0x3da41aa8	0.08012897
210	0xbd0d2a69	-0.034464274
211	0x3e2471a7	0.1605898
212	0x3e017cf9	0.1264533
213	0xbde63f6c	-0.112425655
214	0x3cc7f40c	0.024408363
215	0xbded8fc6	-0.11599688
216	0x3d49cfb8	0.04927036
217	0x3df8e906	0.12153821
218	0x3e2533a6	0.16132984
219	0x3c8b7a3c	0.01702606
220	0x3e49764e	0.19674036
221	0x3d2d9976	0.04238268
222	0x3dba06f9	0.09083361
223	0xbdb5ec5b	-0.08882972
224	0xbdd0db2a	-0.10198052
225	0xbdb12901	-0.08650399
226	0xbc9fe585	-0.019518623
227	0xbe1ca882	-0.15298656
228	0x3d91d0be	0.071198925
229	0xbd4dddf0	-0.050260484
230	0xbe290add	-0.1650805
231	0xbde2790c	-0.11058244
232	0xbe1564d8	-0.1458925
233	0xbd9b6f82	-0.07589628
234	0xbdfc5533	-0.12320938
235	0xbdfbd3a1	-0.122962244
236	0x3e06e12c	0.13171834
237	0xbe09a46a	-0.13441625
238	0xbda973d9	-0.08274049
239	0x3d9e7a53	0.07738175
240	0x3da4cb8c	0.08046636
241	0x3d497206	0.049181007
242	0xbe0ebcd8	-0.13939226
243	0xbd884b1f	-0.06654953
244	0x3d95fa7e	0.07323168
245	0x3df6a156	0.12042491
246	0x3d06c6c2	0.032904394
247	0x3e0372ee	0.12836811
248	0xbd8617a8	-0.06547481
249	0x3e29d3b2	0.16584662
250	0xbd91c92c	-0.071184486
251	0xbbf4cae4	-0.0074704755
252	0x3e37a4d1	0.17933966
253	0xbe104f58	-0.14092767
254	0xbe1bba55	-0.15207799
255	0xbda796a9	-0.08183033

g.2.bias f4 [30]
0	0x3d93fc74	0.07225886
1	0xbc0ebaa4	-0.008711491
2	0x3d3cfd09	0.04613975
3	0xbe032a42	-0.12809089
4	0xbd54c274	-0.051943257
5	0x3d82b5bb	0.063823186
6	0x3d8fbeb4	0.070187956
7	0xbe012f93	-0.12615804
8	0x3d90a432	0.07062568
9	0xbdde2127	-0.10846167
10	0x3bf16614	0.007366905
11	0x3e05d35b	0.13068907
12	0xbdf66322	-0.12030627
13	0xbdd057a2	-0.10172965
14	0x3d330bd6	0.04371246
15	0xbddeca9c	-0.108784884
16	0xbd4af3c2	-0.04954887
17	0xbe162cfe	-0.146656
18	0xbd98c682	-0.07459737
19	0x3c6e4abe	0.014544187
20	0xbcb98292	-0.022645269
21	0xbdd27c2d	-0.10277591
22	0xbde09a59	-0.109669395
23	0xbcdf692d	-0.027271831
24	0x3d5e7f81	0.054320816
25	0xbd5f10dc	-0.054459438
26	0xbdfffff4	-0.12499991
27	0x3dce12b9	0.10062165
28	0x3e0456df	0.12923764
29	0xbbd0e1d2	-0.006374576

g.4.weight f4 [30, 30]
0	0xbdc2df3e	-0.09515236
1	0x3e1abc8f	0.15110992
2	0xbdbc8863	-0.09205701
3	0xb92de1b0	-0.00016582641
4	0x3dea8625	0.11451367
5	0x3bc8e025	0.0061302357
6	0xbd84eb56	-0.06490199
7	0xbe32ae82	-0.17449382
8	0x3e416be9	0.1888882
9	0x3e258319	0.16163291
10	0x3e111948	0.141698
11	0x3cfb314d	0.030663157
12	0xbe11b483	-0.14229016
13	0x3db198aa	0.086716965
14	0x3e1ca7c9	0.1529838
15	0x3d8dd75e	0.06925844
16	0x3d3d678c	0.046241328
17	0x3d9bed52	0.07613625
18	0x3d49815a	0.049195625
19	0xbd3760a2	-0.04476989
20	0xbe095c10	-0.13414025
21	0x3d97dfcc	0.07415733
22	0x3d8b7340	0.068090916
23	0xbbabfaaa	-0.0052483873
24	0xbd06e9af	-0.0329377
25	0x3d760c0f	0.060070094
26	0x3c198000	0.0093688965
27	0x3e075d07	0.13219081
28	0xbd504acb	-0.050852578
29	0xbc96befd	-0.018401617
30	0xbd589218	-0.0528737
31	0xbcbbaf0c	-0.022910617
32	0x3df579fe	0.11986159
33	0xbe32d78d	-0.17465039
34	0x3e09dbf0	0.13462806
35	0x3cc7d766	0.024394702
36	0xbdd03662	-0.10166623
37	0x3e29d9f1	0.16587044
38	0x3e32a856	0.17447028
39	0x3bb5f716	0.0055531366
40	0x3d831047	0.06399589
41	0xbdbb9ecf	-0.0916115
42	0xbd6a4d3b	-0.05720256
43	0xbe262d44	-0.16228205
44	0x3db07dd6	0.08617751
45	0x3d0db62b	0.034597557
46	0x3e1a32a5	0.15058382
47	0xbd54fbbf	-0.051997896
48	0x3e1bb1dd	0.15204568
49	0xbdc73587	-0.097270064
50	0xbbaea724	-0.0053299833
51	0x3d30abf6	0.043132745
52	0x3ccec135	0.025238613
53	0x3da1710e	0.078828916
54	0xbd3bc352	-0.04584057
55	0x3da8b637	0.0823788
56	0xbd4e8344	-0.050418153
57	0x3e330e8b	0.17486016
58	0x3d9ffd76	0.07812016
59	0x3c4d4936	0.012529662
60	0x3e0488f3	0.12942867
61	0xbe0ca88d	-0.13736172
62	0x3de08e3c	0.10964629
63	0x3e1412d4	0.14460307
64	0x3e1c9822	0.15292409
65	0xbdb13869	-0.086533375
66	0x3d4976e0	0.049185634
67	0xbd995015	-0.074859776
68	0x3df0970a	0.117475584
69	0x3bb9a30e	0.0056651896
70	0x3ddedd87	0.10882097
71	0x3e00394d	0.12521859
72	0xbe2a9f02	-0.16662219
73	0x3d07b132	0.03312797
74	0xbdad8141	-0.08471919
75	0x3dd344bc	0.103158444
76	0x3cbeb0d2	0.023277674
77	0xbe18782f	-0.14889596
78	0x3de97b3a	0.11400457
79	0xbe3f7d6b	-0.18700187
80	0xbdcac830	-0.09901464
81	0x3e826cc1	0.25473598
82	0xbcf68c4b	-0.030096194
83	0xbe33c84f	-0.1755688
84	0x3dcf5b4c	0.10124835
85	0x3e21b6b0	0.15792346
86	0xbda4f7b3	-0.080550574
87	0x3de70bbc	0.11281535
88	0x3daf0a22	0.085468546
89	0x3d04d3ee	0.032428674
90	0xbd8b6f98	-0.06808394
91	0x3b478067	0.0030441524
92	0x3dac956e	0.08426939
93	0xbe1e7b53	-0.15476732
94	0x3e2cc915	0.16873582
95	0xbe51e137	-0.20496069
96	0xbe212f22	-0.15740636
97	0xbd941767	-0.07231026
98	0x3e0653c8	0.13117898
99	0x3db6e0db	0.089296065
100	0xbe0878f5	-0.13327391
101	0xbd59cee9	-0.05317584
102	0x3dc5ece3	0.09664323
103	0x3e1c6a7a	0.15274993
104	0x3ddbfbdf	0.107414
105	0x3d82613e	0.06366204
106	0x3d423a30	0.047418773
107	0xbc96349d	-0.018335635
108	0x3d7f96e9	0.06239978
109	0xbc6e6029	-0.014549294
110	0xbca1f575	-0.019770363
111	0x3d5015a9	0.050801907
112	0xbe30d2c5	-0.17267902
113	0x3dde0e14	0.10842529
114	0xbdd5cca1	-0.104394205
115	0xbd4dde06	-0.050260566
116	0xbe1ffe21	-0.15624286
117	0xbdb64a31	-0.0890087
118	0xbc18bde6	-0.009322619
119	0x3c98b533	0.01864109
120	0x3e156396	0.1458877
121	0xbdbfe07a	-0.093689874
122	0xbd3062fc	-0.04306315
123	0x3d30aa45	0.04313113
124	0x3d194985	0.03742363
125	0xbe0183d3	-0.12647943
126	0x3c2fcd45	0.010730092
127	0xbe031b3e	-0.12803361
128	0xbc714229	-0.0147252465
129	0x3dd0139b	0.101599894
130	0xbd23cf30	-0.03999251
131	0x3d80319d	0.06259463
132	0xbd8e3ac5	-0.06944803
133	0xbdb12866	-0.086502835
134	0x3d576741	0.052588705
135	0xbe0662f6	-0.13123688
136	0xbd638dc9	-0.05555514
137	0x3e3af069	0.18255772
138	0xbe0e5d9d	-0.13902898
139	0xbcb63d21	-0.022245945
140	0xbe02ea92	-0.12784794
141	0xbe1e784f	-0.15475582
142	0xbca56155	-0.020188013
143	0x3e052cef	0.13005422
144	0x3ddd62b6	0.10809843
145	0x3c152a61	0.009104342
146	0xbd889a5f	-0.06670069
147	0xbb706642	-0.0036682044
148	0xbdaed35e	-0.08536409
149	0x3d7636d6	0.06011089
150	0xbdb82c66	-0.08992843
151	0xbdf432c6	-0.11923747
152	0x3d349bb1	0.04409379
153	0x3e47990e	0.1949198
154	0xbe159b28	-0.14609969
155	0x3de1befc	0.110227555
156	0xbd815657	-0.06315296
157	0x3e302444	0.17201334
158	0x3cacda41	0.021100165
159	0x3daa239e	0.08307575
160	0xbc99620d	-0.018723512
161	0x3e21ee12	0.15813473
162	0x3e32b04a	0.17450061
163	0x3da79329	0.081823654
164	0xbce44241	-0.027863624
165	0x3d03b0c0	0.032150984
166	0xbd821275	-0.06351177
167	0x3d5f01ac	0.054444954
168	0xbe66ef47	-0.22552215
169	0xbdc4d225	-0.096103944
170	0x3df7b154	0.120943695
171	0xbd7c4b04	-0.061594978
172	0x3d3578fb	0.04430483
173	0xbdf0c237	-0.117557935
174	0xbdf8556a	-0.121256664
175	0x3dc854af	0.09781777
176	0x3cd006b6	0.025393825
177	0x3ddae705	0.10688595
178	0xbe20d2e1	-0.15705444
179	0xbe568caa	-0.20952097
180	0xbdd4c642	-0.10389377
181	0x3e2ffeb5	0.17187007
182	0x3df64921	0.12025667
183	0x3de7727b	0.11301132
184	0xbe0ee544	-0.13954645
185	0x3cd6c2c4	0.026215918
186	0xbaf09a64	-0.0018356559
187	0x3d852229	0.06500656
188	0x3e14097e	0.14456746
189	0x3d3adce4	0.045620814
190	0xbe23f328	-0.16010725
191	0x3e41d689	0.18929495
192	0xbe1d02fb	-0.15333168
193	0xbe28f502	-0.16499713
194	0x3d4d428d	0.050112296
195	0xbe03bd55	-0.12865193
196	0x3e31a8f5	0.17349608
197	0x3e1ee811	0.15518214
198	0xbe64ddb5	-0.223502
199	0xbd1dbe85	-0.03851177
200	0x3e162ca4	0.14665467
201	0x3d037b42	0.03209997
202	0xbd208b18	-0.03919515
203	0x3df6a379	0.12042899
204	0x3d3224e8	0.043492228
205	0x3dec631d	0.11542342
206	0x3e1a6dd2	0.15080956
207	0xbced66af	-0.028979627
208	0x3df52a6e	0.119709834
209	0xbe12bb8d	-0.14329357
210	0xbe088085	-0.13330276
211	0xbd90fc2b	-0.07079347
212	0x3d6bfae8	0.05761233
213	0x3d004031	0.031311218
214	0x3d4ebba1	0.050471906
215	0x3930e464	0.0001686975
216	0x3cbf32c1	0.023339631
217	0x3e0f602d	0.14001532
218	0x3d6ee8a8	0.058327347
219	0xbe2b76b0	-0.16744494
220	0x3e3b809c	0.1831078
221	0x3c1b4e2e	0.009479089
222	0xbd7c6562	-0.061620124
223	0xbbb22e21	-0.005437628
224	0xbdb5c41a	-0.08875294
225	0xbd110995	-0.03540953
226	0x3d0e0d38	0.034680575
227	0x3d6ee3a8	0.05832258
228	0x3e11da6f	0.14243482
229	0x3da18576	0.07886784
230	0x3c0f4622	0.008744748
231	0x3c0aaf40	0.008464634
232	0x3dc83963	0.09776571
233	0xbdf47d24	-0.11937931
234	0x3cf048a7	0.029331518
235	0x3d170f53	0.03687985
236	0x3d9a3c09	0.07530982
237	0x3d9a3bd2	0.07530941
238	0x3dd557ec	0.104171604
239	0xbdfe9f5c	-0.12432739
240	0xbe2beaf4	-0.16788846
241	0xbe4107da	-0.18850651
242	0x3dff6059	0.12469549
243	0xbc449f3f	-0.012000858
244	0x3e1ab172	0.15106753
245	0xbd4de7d8	-0.05026993
246	0xbe25c02d	-0.1618659
247	0x3d311271	0.043230478
248	0xbb7d5ea5	-0.003866115
249	0x3d92783d	0.0715184
250	0x3e18287e	0.14859197
251	0xbc48f1ec	-0.01226471
252	0x3e08f68e	0.13375303
253	0xbdd00360	-0.10156894
254	0xbceda2a1	-0.029008212
255	0xbda4a742	-0.080397144

g.4.bias f4 [30]
0	0x3dd0cf59	0.101957984
1	0xbd25d2ff	-0.040484425
2	0xbded5bc6	-0.1158977
3	0x3d83a244	0.06427434
4	0xbd230088	-0.03979543
5	0x3a93e59e	0.0011283641
6	0xbe2150d8	-0.15753496
7	0x3cc5e96d	0.024159158
8	0x3d9a311e	0.075288996
9	0x3c298520	0.010346681
10	0x3e224e5f	0.15850209
11	0x3d80b530	0.06284559
12	0xbb3672de	-0.0027839462
13	0xbd2062e9	-0.039156828
14	0xbd7a44d7	-0.061100807
15	0xbd5be549	-0.05368546
16	0xbda46d4b	-0.080286585
17	0xbe16f0e4	-0.1474033
18	0x3db1e770	0.08686721
19	0x3d9ec85c	0.07753059
20	0x3de7110a	0.11282547
21	0x3d0c486c	0.034248754
22	0xbe3e848a	-0.18605247
23	0x3e3a3f8b	0.18188302
24	0xbc688e65	-0.014194106
25	0x3c996e86	0.01872946
26	0x3e0dc6ed	0.13845415
27	0xbd55326e	-0.052050047
28	0xbcc5ec19	-0.024160432
29	0xbd174403	-0.036930095

g.6.weight f4 [2, 30]
0	0xbd1499a2	-0.03627933
1	0x3976ef2c	0.00023549487
2	0xbdd1d357	-0.10245388
3	0xbddc0aba	-0.107442334
4	0xbda36781	-0.07978726
5	0xbd29e99c	-0.041482553
6	0x3d29db0f	0.041468676
7	0xbdd718e5	-0.10502795
8	0xbca299ec	-0.019848786
9	0x3cd8c195	0.026459495
10	0x3da9642c	0.082710594
11	0xbcc63386	-0.02419449
12	0x3e04ea75	0.12980063
13	0x3dbdc1cc	0.092654794
14	0xbbc8482c	-0.006112119
15	0x3ac2339a	0.0014816404
16	0x3ce23591	0.027613433
17	0xbe036eeb	-0.1283528
18	0xbddbc8b0	-0.107316375
19	0xbdbcd1b3	-0.092196845
20	0xbca86a7b	-0.020558586
21	0x3ca5ddc1	0.020247342
22	0xbce1def5	-0.027572135
23	0x3ddae0bf	0.10687398
24	0xba2c1ac7	-0.00065652694
25	0xba99978b	-0.0011718137
26	0x3e0177c7	0.12643348
27	0x3bdbfed0	0.0067137256
28	0x3b35d18b	0.0027743306
29	0xbcb77a4d	-0.022397185
30	0x3e1a9489	0.15095724
31	0x3dcc01af	0.099612586
32	0x3cfdb8d2	0.030971918
33	0x3dd9d7e3	0.1063688
34	0xbca96605	-0.02067853
35	0xbe222ef7	-0.15838228
36	0xbe01c83f	-0.12674044
37	0x3e1308ba	0.14358798
38	0x3e146866	0.1449295
39	0x3c9837dd	0.018581325
40	0xbe41a2aa	-0.18909708
41	0xbd15ebff	-0.036602017
42	0xbceebeae	-0.029143658
43	0xbc3bbf9c	-0.011459257
44	0xbc333ec8	-0.010940261
45	0x3a913d5d	0.001108091
46	0xbdc781a6	-0.09741525
47	0x3c9f47bd	0.019443387
48	0xbe04ee46	-0.12981519
49	0xbdd15cc8	-0.10222775
50	0x3b8fdb72	0.0043901736
51	0x3b87afd7	0.004140835
52	0xbe21ab85	-0.15788086
53	0x3cad75a7	0.021174265
54	0x385e0464	5.2933014e-05
55	0x39f0144f	0.00045791498
56	0xbdf8ff4b	-0.12158068
57	0x3a41185b	0.0007365995
58	0xbabf4f92	-0.0014595857
59	0x3c5c59da	0.013449157

g.6.bias f4 [2]
0	0xbe14322f	-0.14472269
1	0xbd97d1e0	-0.07413077

nn_fun1.0.weight f4 [30, 2]
0	0x3f3f4755	0.7471822
1	0xbeb779c2	-0.3583508
2	0x3f08bdc1	0.5341454
3	0x3f70604f	0.93896955
4	0x3d4e7fab	0.050414722
5	0xbf0529b9	-0.5201679
6	0x3f338128	0.7011895
7	0xbc47a192	-0.012184517
8	0xbd7856ef	-0.06062978
9	0xbe61d3ec	-0.22053498
10	0xbeca6703	-0.39531717
11	0x3f3ff6a2	0.74985707
12	0x3ee40c82	0.44540793
13	0x3f6d952e	0.92805755
14	0xbf2f6cce	-0.685254
15	0x3ca64785	0.020297775
16	0x3f01265c	0.50449157
17	0x3ea8c034	0.3295914
18	0xbedbb7b4	-0.42913592
19	0x3f84808b	1.0351728
20	0xbe896799	-0.2683685
21	0xbf07b2dc	-0.5300729
22	0xbf42ec2d	-0.76141626
23	0x3e846a04	0.25862134
24	0xbefef3bc	-0.4979533
25	0x3e379e67	0.1793152
26	0x3e21cad5	0.1580003
27	0x3f287821	0.658083
28	0xbe9cf9ae	-0.3065924
29	0x3f3243f3	0.6963493
30	0xbc1f0e50	-0.009708002
31	0x3ef4f76b	0.47845015
32	0xbf0da127	-0.55324024
33	0xbdc81457	-0.097695045
34	0xbe9b5c67	-0.30343935
35	0x3ed3cfd8	0.4136951
36	0xbe06eb8c	-0.13175792
37	0xbe8941d3	-0.26808032
38	0xbcd5585c	-0.02604311
39	0x3e7afebf	0.2451124
40	0xbec738ae	-0.3891043
41	0x3dbda5c3	0.09260132
42	0xbec8c621	-0.3921366
43	0x3e6d82fb	0.23194496
44	0x3edbfbfc	0.42965686
45	0xbef589db	-0.47956738
46	0x3f0c8ffb	0.54907197
47	0x3df79969	0.120898075
48	0xbea0d2dc	-0.31410873
49	0xbefe5f11	-0.49681905
50	0x3ecdec83	0.40219507
51	0xbeffe53b	-0.49979576
52	0xbed17dd6	-0.40916318
53	0x3ef71d04	0.48264325
54	0x3f4bd587	0.7962269
55	0xbe25320d	-0.16132374
56	0x3e9f8c8b	0.31161913
57	0x3e29eda2	0.16594556
58	0xbedd2031	-0.43188623
59	0xb8fc6170	-0.000120344455

nn_fun1.0.bias f4 [30]
0	0xbd0b9e83	-0.034086715
1	0xbece7409	-0.40322903
2	0x3f1d312c	0.61403155
3	0xbe584d08	-0.21123135
4	0xbdd18f34	-0.10232392
5	0x3ea91c62	0.33029467
6	0xbdf3edd7	-0.11910599
7	0x3f245169	0.6418672
8	0xbed4bfd1	-0.41552594
9	0x3e5a3c04	0.21311957
10	0x3ec0bc64	0.3764373
11	0xbe67236d	-0.22572108
12	0x3e1b67ac	0.15176266
13	0x3ecdb82a	0.4017957
14	0x3e5f55d8	0.2181009
15	0x3e99e19b	0.30054936
16	0xbf1aa045	-0.604008
17	0xbed8c1a7	-0.42335245
18	0xbf0578a2	-0.52137196
19	0x3f0d1c56	0.5512136
20	0xbe3120f1	-0.17297722
21	0xbe91de7d	-0.28490058
22	0x3f1007ea	0.56262076
23	0x3dd53d50	0.10412085
24	0x3e8c9dd6	0.2746417
25	0x3f05c42c	0.5225246
26	0xbebe642f	-0.3718581
27	0x3e344a31	0.17606427
28	0x3acc6e91	0.0015596916
29	0xbe98d277	-0.29848072

nn_fun1.2.weight f4 [30, 30]
0	0xbd08e3e8	-0.033420473
1	0xbdf95245	-0.12173895
2	0x3c1e08c7	0.009645647
3	0x3e10b358	0.14130914
4	0xbbc11c48	-0.005893264
5	0xbd198f30	-0.03749007
6	0xbd8e175a	-0.06938048
7	0x3dfba3de	0.122871146
8	0xbd8e8d9f	-0.06960606
9	0x3c5f03e3	0.0136117665
10	0xbe1604bb	-0.14650242
11	0xbdf8b248	-0.121433794
12	0xbdb445b5	-0.08802358
13	0x3dc5e2a4	0.09662369
14	0x3e254f56	0.16143546
15	0xbe078d11	-0.13237406
16	0xbdc1c2c7	-0.09460979
17	0x3d9baa0a	0.07600792
18	0xbd9ecbf4	-0.07753745
19	0xbe01229a	-0.12610856
20	0x3d374565	0.044743914
21	0x3e1e6986	0.15469941
22	0xbdff74f8	-0.12473482
23	0xbe37d435	-0.17952044
24	0x3dac7b99	0.08422012
25	0x3df2a206	0.1184731
26	0x3c49d5d4	0.012319047
27	0xbdbeabce	-0.09310113
28	0xbe0427fd	-0.1290588
29	0x3d6ecef1	0.058302823
30	0x3e48cd3d	0.19609542
31	0xbd932ed8	-0.07186669
32	0x3e2469d3	0.16055994
33	0xbbf982bd	-0.007614462
34	0xbe30527d	-0.17218967
35	0xbc8db95a	-0.017300297
36	0x3c282504	0.010262731
37	0xbe6d2c15	-0.23161347
38	0x3cad7d3f	0.021177886
39	0x3c9cedbe	0.019156333
40	0x3cf8cdfd	0.03037166
41	0xbe8d1f77	-0.27563068
42	0xbdc45946	-0.0958734
43	0x3e333cb9	0.17503633
44	0x3ba81697	0.005129646
45	0x3dd46d26	0.10372381
46	0xbce8068f	-0.02832344
47	0xbe89490f	-0.26813552
48	0xbd5392f0	-0.051653802
49	0xbde22469	-0.11042101
50	0xbb32c2ae	-0.0027276683
51	0xbe1cd822	-0.15316823
52	0x3e72ccad	0.2371089
53	0x3e8f37f5	0.2797238
54	0xbcc6c477	-0.024263604
55	0x3cfad34a	0.030618329
56	0xbbeb30f9	-0.007177469
57	0x3e43caef	0.19120382
58	0x3e2670be	0.16253945
59	0xbde363dd	-0.11103032
60	0xbdf5cb29	-0.1200164
61	0x3e86868c	0.26274526
62	0xbe188e4e	-0.14898035
63	0xbe03caa9	-0.12870277
64	0xbe1113ab	-0.14167659
65	0xbc912569	-0.017718034
66	0x3e85caa9	0.2613118
67	0xbe483324	-0.19550759
68	0x3d50be02	0.050962456
69	0xbe8bf438	-0.27334762
70	0xbe84fda8	-0.25974774
71	0x3e81cb25	0.253503
72	0xbdeaea8e	-0.11470519
73	0x3e3861ab	0.18006007
74	0xbdf3d59d	-0.11905978
75	0xbd854f4a	-0.06509264
76	0xbe111796	-0.14169154
77	0xbd050da3	-0.032483708
78	0xbd71ce24	-0.05903448
79	0x3d443550	0.047902405
80	0x3e20f4c9	0.15718378
81	0x3e3a67f8	0.18203723
82	0x3d7fbb2a	0.062434353
83	0xbdd72fc7	-0.1050716
84	0xbe8b1609	-0.2716525
85	0xbe3be474	-0.18348867
86	0x3d5284ce	0.051396184
87	0x3dab2189	0.08356006
88	0x3d62c2db	0.05536161
89	0x3d9ac0b2	0.07556285
90	0x3e22c0d8	0.15893877
91	0xbd84eb5d	-0.064902045
92	0x3e09ff3b	0.13476269
93	0x3e40ed97	0.18840633
94	0x3cc5c7d7	0.024143143
95	0xbd95a934	-0.073076636
96	0x3e4d45c3	0.20046143
97	0xbe0406b4	-0.12893182
98	0x3e120cd9	0.14262713
99	0xbdfd9506	-0.123819396
100	0x3dcf6baf	0.10127961
101	0xbe821d70	-0.25413084
102	0xbd821b22	-0.063528314
103	0xbbcf47c0	-0.006325692
104	0x3a8b56e5	0.0010630755
105	0xbdeb9c93	-0.115044735
106	0xbe0e8a51	-0.13919951
107	0xbd9f41a7	-0.07776194
108	0xbe348e14	-0.17632324
109	0xbdc46566	-0.09589653
110	0x3dcc164a	0.09965189
111	0xbc13afda	-0.009014094
112	0x3df5f5a5	0.120097436
113	0x3cac067d	0.020999188
114	0x3db61286	0.08890252
115	0x3d9eea9a	0.077595904
116	0xbe5e051c	-0.21681637
117	0xbd2c0e52	-0.042005844
118	0x3d132ac3	0.035929453
119	0xbe0a00a8	-0.13476813
120	0xbda56355	-0.08075587
121	0x3e1fa9f8	0.15592182
122	0x3c0846fe	0.008317707
123	0x3d9fa0a5	0.077943124
124	0xbdba1dec	-0.090877384
125	0xbd892f2d	-0.06698451
126	0x3e1eff1d	0.15527005
127	0xbe29a78f	-0.16567825
128	0x3d5f4bce	0.054515652
129	0xbeb0b071	-0.34509614
130	0xbe72568b	-0.23665826
131	0xbd1e68a3	-0.038674008
132	0x3e08999c	0.13339847
133	0x3e172201	0.14759065
134	0xbc11bff6	-0.008895865
135	0x3da84e03	0.082180046
136	0x3de41dea	0.11138518
137	0x3d1c8644	0.038213983
138	0xbe3b24c6	-0.18275747
139	0x3dc5e040	0.09661913
140	0xbe1aab9c	-0.15104526
141	0xbd1b319f	-0.03788912
142	0xbe30c2df	-0.17261837
143	0x3e0eeb9e	0.13957068
144	0x3de7bcac	0.11315283
145	0xbe21cf7d	-0.15801807
146	0x3de6a262	0.11261441
147	0xbb250eff	-0.002518594
148	0xbbe3699d	-0.0069400803
149	0xbaeb4e82	-0.0017952474
150	0x3e98cb8c	0.29842794
151	0x3e58a22f	0.21155618
152	0xbd01b2ff	-0.031664845
153	0x3d93df88	0.072203696
154	0x3d80d2ae	0.06290184
155	0xbe186663	-0.14882807
156	0x3ca86b7a	0.020559061
157	0xbb981f78	-0.0046424232
158	0x3e82718b	0.2547725
159	0x3e212cbd	0.15739723
160	0xbdaa2ba1	-0.08309103
161	0xbe97cb3c	-0.29647243
162	0xbd298786	-0.04138901
163	0x3e59fa26	0.2128683
164	0xbe1b8f1d	-0.15191312
165	0xbdb8cb6e	-0.09023176
166	0xbe83f9e6	-0.25776595
167	0xbe944efd	-0.28966513
168	0xbe183707	-0.14864741
169	0x3dfb4b29	0.12270195
170	0xbe0ae164	-0.13562542
171	0xbe28a8b9	-0.16470613
172	0x3e920000	0.28515625
173	0x3e96198c	0.29316366
174	0xbd438b11	-0.047740046
175	0xbbe40e8d	-0.0069597424
176	0xbe97b7d4	-0.29632437
177	0x3eb536c4	0.35393345
178	0x3e0a4831	0.13504101
179	0xbea634ba	-0.32462102
180	0x3e6f130e	0.23347113
181	0x3e6bd443	0.2303019
182	0xbe1f84ea	-0.15578046
183	0x3da99efa	0.082822755
184	0x3c2e991f	0.010656624
185	0xbe99d1f4	-0.30042994
186	0x3d1be869	0.03806344
187	0xbe8dcf77	-0.27697346
188	0x3e204923	0.156529
189	0xbeb13fec	-0.3461908
190	0xbe737957	-0.23776756
191	0x3e1379f4	0.1440199
192	0xbc8626e4	-0.016375966
193	0xbe40bef7	-0.18822847
194	0x3d614ed1	0.055006806
195	0x3ce31c1a	0.02772336
196	0xbc9e7545	-0.019343028
197	0x3debfbef	0.11522662
198	0x3bbd8284	0.005783381
199	0x3d37afe5	0.04484548
200	0xbe1ed82b	-0.15512149
201	0xbc90c728	-0.01767309
202	0x3e30235a	0.17200986
203	0xbd4926c0	-0.04910922
204	0xbe29fc05	-0.16600044
205	0xbe20ba43	-0.15696053
206	0xbca23675	-0.019801358
207	0x3b80820a	0.003921752
208	0x3e00eccd	0.12590332
209	0x3da72902	0.081621185
210	0xbbf9c886	-0.007622781
211	0xbc7ebb90	-0.015547648
212	0x3de33cf4	0.1109561
213	0xbe699e74	-0.22814351
214	0x3d31cd16	0.043408476
215	0x3e2543e1	0.16139175
216	0x3e146046	0.1448985
217	0x3df1b6cc	0.11802444
218	0xbe28b409	-0.16474928
219	0x3e90112d	0.28138104
220	0x3db1ad55	0.086756386
221	0xbd504441	-0.050846342
222	0x3c76da04	0.015066627
223	0xbc6b2bf6	-0.014353743
224	0x3ea3c553	0.31986484
225	0x3dcd7aa1	0.10033155
226	0xbdd222ff	-0.10260581
227	0x3df7ec55	0.12105624
228	0xbd5290a7	-0.051407482
229	0xbd5762e8	-0.05258456
230	0x3d1896f7	0.037253346
231	0xbc14815e	-0.009064047
232	0xbd08fb08	-0.033442527
233	0x3d54834a	0.05188302
234	0xbd761de9	-0.06008712
235	0xbccbf3c5	-0.024896512
236	0x3c0c35b3	0.008557725
237	0x3da51f99	0.080626674
238	0x3de80cc9	0.113305636
239	0x3de224f9	0.11042208
240	0xbd3ab78a	-0.045585193
241	0xbe0f7f26	-0.14013347
242	0x3d41b3fc	0.047290787
243	0x3e1f12c7	0.15534507
244	0xbc377133	-0.011196422
245	0x3e8befff	0.2733154
246	0xbd0ed321	-0.034869317
247	0x3e777d67	0.24168931
248	0xbb239ad1	-0.0024964104
249	0x3e649d29	0.22325577
250	0xbd948c49	-0.0725332
251	0xbe1e8875	-0.15481742
252	0x3e423a82	0.18967631
253	0xbde359a4	-0.11101082
254	0x3c365fa1	0.011131198
255	0x3d82a71d	0.063795306

nn_fun1.2.bias f4 [30]
0	0xbe350617	-0.17678104
1	0xbcfe7dd5	-0.03106586
2	0x3ddbc736	0.10731356
3	0xbde1bda0	-0.11022496
4	0xbe11f9a6	-0.1425539
5	0xbdbdac96	-0.09261434
6	0x3da86397	0.0822212
7	0xbe664653	-0.22487764
8	0xbcf29d0a	-0.029615898
9	0xbe0f8bcf	-0.14018176
10	0xbe17dcad	-0.14830275
11	0xbaadf726	-0.0013272509
12	0xbd61383d	-0.054985274
13	0x3d3c0e8e	0.045912318
14	0xbdab89c9	-0.0837589
15	0x3e1ad677	0.15120874
16	0xbe603146	-0.21893796
17	0xbde0b73a	-0.10972448
18	0x3de51040	0.1118474
19	0x39a81410	0.00032058405
20	0x3d7fc325	0.062441964
21	0x3e39e4cc	0.18153685
22	0xbe3f7572	-0.18697146
23	0x3d5738f9	0.052544568
24	0x3d86ad3a	0.06576009
25	0xbd9b5568	-0.07584649
26	0x3cd9cc1e	0.026586588
27	0xbe16fe20	-0.14745378
28	0xbe156327	-0.14588605
29	0x3d26834b	0.040652554

nn_fun1.4.weight f4 [30, 30]
0	0x3dada57e	0.08478831
1	0xbe834c5b	-0.25644192
2	0xbe2b6c9d	-0.16740651
3	0x3dee69d8	0.11641282
4	0xbe88cfd8	-0.26721072
5	0xbe748275	-0.2387789
6	0xbd888639	-0.06666226
7	0xbe56e5aa	-0.20986047
8	0xbb499dea	-0.003076429
9	0x3d9383ab	0.07202848
10	0xbe60e703	-0.21963124
11	0x3e9f8617	0.3115699
12	0x3dc64eef	0.09683024
13	0x3db33223	0.08749797
14	0x3d8af276	0.06784527
15	0xbe7722e5	-0.24134405
16	0x3c9d95f4	0.019236542
17	0x3e8f0e80	0.2794075
18	0xbe985d0d	-0.29758492
19	0x3c9d9037	0.019233806
20	0xbe647600	-0.22310638
21	0x3d9aa9f5	0.07551948
22	0x3dd44047	0.103638224
23	0x3e98fd40	0.29880714
24	0xbd982f42	-0.07430889
25	0x3ea01660	0.3126707
26	0xbe8d988d	-0.2765545
27	0xbd1daa82	-0.038492687
28	0x3e182cb3	0.14860801
29	0x3dced873	0.10099878
30	0xbc139569	-0.00900779
31	0x3e73c245	0.23804577
32	0xbe0445ec	-0.12917298
33	0x3e7c6f10	0.24651742
34	0x3d519869	0.05117074
35	0x3dc91e45	0.098202266
36	0xbdbcd330	-0.09219968
37	0xbd777c62	-0.060421355
38	0x3d1f73e3	0.038928878
39	0xbe3ae322	-0.18250707
40	0x3e1f50a0	0.155581
41	0x3e08fa6e	0.13376781
42	0x3e493b54	0.19651538
43	0xbe37015b	-0.17871611
44	0x3e03dbea	0.1287686
45	0x3dfa49d0	0.1222111
46	0x3d8209aa	0.063494995
47	0x3e5cb9c5	0.2155524
48	0x3c8a7c13	0.016904866
49	0xbe4ce660	-0.20009756
50	0x3d6701a3	0.056398045
51	0x3e40c914	0.18826705
52	0x3e2a3238	0.1662072
53	0xbd3d04e7	-0.046147253
54	0x3e069138	0.13141334
55	0xbde181d9	-0.110110946
56	0xbccd1c9c	-0.025038056
57	0xbd730629	-0.059332047
58	0x3dbb112a	0.09134133
59	0x3dbec2b6	0.09314482
60	0x3d1ea20f	0.03872877
61	0xbdc58872	-0.096451655
62	0x3dd04463	0.10169294
63	0x3e1a0a45	0.1504298
64	0xbc9a6cac	-0.018850647
65	0xbd983a3d	-0.07432983
66	0xbd80a01f	-0.06280541
67	0xbe18212e	-0.14856407
68	0xbe4f118a	-0.20221534
69	0xbe17fe60	-0.1484313
70	0x3da16dca	0.07882269
71	0x3be61dc0	0.0070225894
72	0x3c7d9802	0.015478136
73	0x3e38cd5a	0.18047085
74	0xbbc1c64d	-0.005913532
75	0xbd5d55ec	-0.05403702
76	0x3d172fce	0.036910824
77	0xbe17262a	-0.14760652
78	0x3e4e20a2	0.20129636
79	0xbdc262fc	-0.09491536
80	0x3d19ac78	0.037517995
81	0x3e1b0a91	0.1514075
82	0x3d02cbc6	0.031932615
83	0x3e0db4ae	0.13838455
84	0xbdde5ac5	-0.10857157
85	0xbce3ab22	-0.027791563
86	0x3e167394	0.14692527
87	0xbda93739	-0.08262486
88	0xbd532157	-0.051545467
89	0xbde8697f	-0.11348247
90	0xbe1bf61c	-0.15230602
91	0xbe2830c3	-0.16424851
92	0x3e8a523a	0.2701586
93	0xbd4f86d8	-0.050665706
94	0xbdef06ac	-0.116711944
95	0x3d87edd9	0.06637163
96	0x3cf743c3	0.030183678
97	0xbe14dd0b	-0.14537446
98	0xbd9769fa	-0.0739326
99	0xbda296fd	-0.07938955
100	0x3e7d886a	0.24759069
101	0xbc9f00ab	-0.019409498
102	0xbd9bdb48	-0.07610184
103	0xbe323563	-0.17403178
104	0xbe6b20a5	-0.22961672
105	0x3df66b73	0.12032213
106	0xbdf3125f	-0.118687384
107	0xbd997a35	-0.07494012
108	0x3d81e574	0.06342593
109	0x3e19af02	0.15008166
110	0xbe121864	-0.14267117
111	0xbd5cba17	-0.053888407
112	0xbe1a9d80	-0.15099144
113	0x3d828415	0.06372849
114	0x3dc2ee04	0.09518054
115	0xbdf72dc5	-0.12069277
116	0xbdc39cb2	-0.09551372
117	0x3da0d3f9	0.078529306
118	0x3e48c96f	0.19608091
119	0x3d8d20fb	0.06891056
120	0xbc9e6b97	-0.019338412
121	0x3dfcd3e5	0.12345103
122	0x3d37050f	0.04468256
123	0xbdb50ef5	-0.088407435
124	0xbe34d498	-0.17659223
125	0x3e58f4e9	0.21187176
126	0xbd87a5a9	-0.06623394
127	0xbd565346	-0.05232551
128	0xbc2430f7	-0.01002144
129	0xbe107c51	-0.14109923
130	0xbb0c81c7	-0.0021439658
131	0xbd849f89	-0.064757414
132	0x3e14218b	0.1446592
133	0xbe51b0cf	-0.20477603
134	0xbd82ce4f	-0.063870065
135	0x3d9460bb	0.072450124
136	0xbdde49e7	-0.108539395
137	0x3db42657	0.08796375
138	0x3e4bb301	0.19892503
139	0xbcb7aa50	-0.022420079
140	0x3ca9ca7a	0.020726431
141	0x3cd2f752	0.025752697
142	0xbe10b384	-0.1413098
143	0x3d5199bb	0.051172
144	0x3dbd43f6	0.09241478
145	0xbdb803ab	-0.089850746
146	0x3e2312d9	0.15925159
147	0x3d850446	0.06494956
148	0x3cf639eb	0.030056914
149	0xbd38af65	-0.045089144
150	0x3da9a0bb	0.0828261
151	0xbcfa1aa3	-0.03053028
152	0xbd9d341b	-0.07675954
153	0xbc25ed59	-0.010127389
154	0xbd5cb87c	-0.053886876
155	0x3e397bf1	0.18113686
156	0x3cefafaa	0.029258568
157	0xbd453107	-0.04814246
158	0xbc712bd7	-0.014719925
159	0x3dc05849	0.09391839
160	0xbe22a864	-0.15884548
161	0xbd75ef71	-0.060042802
162	0xbdb0e4e3	-0.08637407
163	0x3c584e3c	0.013202246
164	0x3e58d689	0.21175589
165	0xbd346209	-0.044038806
166	0x3e4189ed	0.18900271
167	0xbc5d8b56	-0.01352199
168	0xbe85b547	-0.26114866
169	0x3c5b3951	0.0133803645
170	0xbd917dc1	-0.07104064
171	0x3db13546	0.08652739
172	0x3c06d38a	0.008229146
173	0xbdd6bd45	-0.10485319
174	0xbd91d7c1	-0.0712123
175	0x3e1bcefc	0.15215677
176	0xbc53ae09	-0.012919911
177	0x3d0b609e	0.03402769
178	0xbdbd5d7f	-0.092463486
179	0x3e16a4aa	0.14711252
180	0x3e19e4e3	0.1502872
181	0xbd387aa6	-0.04503884
182	0x3e00229f	0.12513207
183	0x3cf72a40	0.030171514
184	0x3e1a5e11	0.15074946
185	0xbe40912e	-0.18805382
186	0x3dcd7992	0.10032953
187	0xbcb4b6f5	-0.022059897
188	0xbdce499a	-0.10072632
189	0xbde3b31a	-0.11118145
190	0x3dcd9209	0.100376196
191	0xbe0c022c	-0.13672704
192	0x3e1ab842	0.15109351
193	0x3d49f3c6	0.049304746
194	0xbda186f6	-0.0788707
195	0x3c0274a2	0.007962378
196	0x3dc8599d	0.097827174
197	0xbd3beb19	-0.045878503
198	0x3e6a277f	0.22866629
199	0x3e088394	0.13331443
200	0xbd5dc1c3	-0.054139864
201	0xbc85b370	-0.016320914
202	0x3d92668d	0.07148466
203	0x3e4c76ee	0.19967243
204	0xbd8311c8	-0.06399876
205	0xbc847d06	-0.016172897
206	0xbe051768	-0.1299721
207	0x3e39f17c	0.18158525
208	0x3d3449c6	0.04401567
209	0x3d2e6e89	0.042585883
210	0xbd89a649	-0.067211695
211	0x3e183e23	0.14867453
212	0x3e0e30cf	0.13885807
213	0x3e064609	0.13112654
214	0xbdaaa9d3	-0.08333173
215	0xbd9b7e6b	-0.07592472
216	0x3e83ac30	0.25717306
217	0xbda0f1a0	-0.07858586
218	0xbe471332	-0.19440916
219	0x3d04b6d8	0.032400936
220	0xbe2506f6	-0.16115937
221	0x3d3df7f0	0.04637903
222	0xbde1db51	-0.110281594
223	0x3d76e983	0.060281288
224	0xbd7a2e30	-0.061079204
225	0x3d681870	0.05666393
226	0xbd7068e6	-0.05869379
227	0x3d4b592a	0.04964558
228	0x3e37a571	0.17934205
229	0xbd223057	-0.03959688
230	0xbdc4479c	-0.09583971
231	0x3cb4c290	0.02206543
232	0x3dffdab8	0.12492889
233	0x3e25f19e	0.16205451
234	0xbd3bf1ef	-0.045885023
235	0xbe0576a6	-0.13033542
236	0xbda8b136	-0.08236925
237	0x3de808d2	0.11329807
238	0x3c409ea3	0.011756572
239	0x3ae01700	0.0017096698
240	0x3dd4cfea	0.10391219
241	0x3db839d3	0.08995404
242	0x3dbc32ed	0.09189401
243	0xbe239fcc	-0.15978926
244	0x3d515e90	0.051115572
245	0xbe95ded0	-0.29271555
246	0xbe40749d	-0.18794484
247	0x3da2973e	0.079390034
248	0xbca58b5e	-0.020208057
249	0x3d4650cb	0.048416894
250	0xbceb0121	-0.028687062
251	0x3e749dde	0.23888347
252	0x3e4d7add	0.200664
253	0x3e460c6a	0.19340673
254	0x3e5f9ea5	0.21837862
255	0xbd02c7b8	-0.031928748

nn_fun1.4.bias f4 [30]
0	0x3db75001	0.089508064
1	0x3e315034	0.17315751
2	0xbda8123c	-0.08206603
3	0x3e86e7a3	0.263486
4	0x3d76beab	0.06024043
5	0xbdadc69c	-0.08485147
6	0x3e04c6ff	0.12966536
7	0x3e62a45d	0.22133012
8	0x3e2c4a2d	0.16825171
9	0xbc582122	-0.013191493
10	0x3dd75d80	0.105158806
11	0xbd168cd5	-0.0367554
12	0xbd39b963	-0.045342814
13	0x3e31c6d4	0.17361003
14	0x3dd0d51b	0.10196897
15	0xbd7ee4e8	-0.06223002
16	0xbe8fab76	-0.28060502
17	0x3c795b28	0.015219487
18	0x3d20274b	0.039099973
19	0x3df21a3b	0.11821409
20	0x3e392838	0.18081748
21	0xbbeccd10	-0.007226594
22	0xbc462b48	-0.01209528
23	0xbd2abbbc	-0.041682944
24	0xbcb62083	-0.0222323
25	0xbdcfa0e1	-0.10138107
26	0xbe3547e2	-0.17703202
27	0x3e3a831c	0.18214077
28	0x3d86045f	0.065438025
29	0xbe279558	-0.16365564

nn_fun1.6.weight f4 [30, 30]
0	0x3de81ad2	0.113332406
1	0xbe23ebaf	-0.16007875
2	0x3e079519	0.1324047
3	0xbc90816d	-0.01763984
4	0xbdb69d38	-0.08916706
5	0xbe27aeee	-0.16375324
6	0xbdabf7a2	-0.083968416
7	0xbd958caf	-0.07302224
8	0xbd8729b2	-0.065997496
9	0x3d8abc95	0.067742504
10	0xbd9aad32	-0.07552566
11	0x3d9ac3c0	0.075568676
12	0xbd8c6616	-0.06855409
13	0x3dc1940e	0.09452067
14	0xbca2d77b	-0.01987814
15	0x3e106b94	0.14103538
16	0xbe2e9b94	-0.17051536
17	0x3bc709bf	0.00607416
18	0x3e1536c3	0.14571671
19	0xbded1ee2	-0.11578156
20	0x3d4b3094	0.049606875
21	0x3c0681b9	0.008209639
22	0xbd52bb9d	-0.051448453
23	0x3daa59ab	0.08317884
24	0x3de569b7	0.11201804
25	0x3da77ff8	0.08178705
26	0x3e67663e	0.22597596
27	0xbdcec525	-0.10096196
28	0x3d2c17ed	0.042015005
29	0x3ca81999	0.020520018
30	0x3d202005	0.039093036
31	0xbbf8524b	-0.0075781695
32	0x3d41853b	0.0472462
33	0x3e3178ec	0.17331284
34	0xbd820a9f	-0.06349682
35	0x3e0e8492	0.13917759
36	0x3ce70bef	0.028203933
37	0x3c8bc8e7	0.017063571
38	0xbd0fb7c1	-0.03508735
39	0x3d892067	0.066956334
40	0x3d1eb412	0.038745947
41	0x3d242986	0.040078662
42	0x3e1a9c8a	0.15098777
43	0x3d4a1b00	0.049342155
44	0x3e111a45	0.14170177
45	0x3e5fbf47	0.2185031
46	0x3d33cf63	0.04389895
47	0x3c1881ed	0.0093083205
48	0x3dfd6c94	0.12374225
49	0xbe1cd7c7	-0.15316688
50	0x3db615d2	0.08890881
51	0x3dfe2359	0.12409086
52	0x3e0ca427	0.13734494
53	0xbd7d2f21	-0.061812524
54	0x3cf1f151	0.029534014
55	0x3e0a63b1	0.13514592
56	0xbd5409c5	-0.05176713
57	0xbcd7dfd4	-0.026351847
58	0x3cccbdc2	0.024992827
59	0x3e3c15d3	0.183677
60	0x3daa2a02	0.083087936
61	0xbe4d4b98	-0.20048368
62	0x3d6cb629	0.05779091
63	0x3ded1c58	0.11577672
64	0x3cf2d984	0.029644735
65	0x3d7413d9	0.05958924
66	0x3cc08835	0.023502449
67	0x3dd4934b	0.103796564
68	0x3e0f60d4	0.14001781
69	0xbd7bce48	-0.061476022
70	0x3dab4b3d	0.0836396
71	0x3d83af7a	0.06429954
72	0xbe18ad51	-0.14909865
73	0xbdc4a38f	-0.09601509
74	0x3d15178b	0.036399405
75	0xbe2065da	-0.15663853
76	0xbe104d3a	-0.1409196
77	0x3e275548	0.16341126
78	0xbdc2d398	-0.095130146
79	0x3d0bffd9	0.034179542
80	0x3c45f14b	0.0120814545
81	0xbd6a696a	-0.057229437
82	0xbe2b39c7	-0.16721259
83	0x3dbe6d11	0.092981465
84	0xbe4104d4	-0.18849498
85	0x3d82c5b1	0.06385363
86	0xbddfb845	-0.109238185
87	0xbc409e14	-0.011756439
88	0x3dd87e5e	0.10570978
89	0x3e137c70	0.14402938
90	0x3e7f48f6	0.24930176
91	0xbd9fb5fa	-0.07798381
92	0x3d964cb5	0.073388495
93	0x3d51a183	0.05117942
94	0xbdfb9c07	-0.12285619
95	0xbe265c96	-0.16246256
96	0xbd227f95	-0.039672453
97	0xbc2052b0	-0.009785339
98	0x3dd5e035	0.10443155
99	0x3d900335	0.07031862
100	0xbe13ac9f	-0.14421318
101	0xbd27092c	-0.04078023
102	0xbd23b0bc	-0.03996347
103	0xbc64ac0d	-0.013957036
104	0x3d57b194	0.052659586
105	0x3d966d68	0.07345086
106	0x3e570270	0.20997024
107	0x3de9c497	0.1141445
108	0xbe50fd89	-0.20409216
109	0x3d6cdcf8	0.05782792
110	0x3de6c350	0.11267722
111	0xbe067b75	-0.13133033
112	0xbda5cdf9	-0.08095927
113	0xbe0086ab	-0.12551372
114	0xbb909e0a	-0.004413371
115	0xbca13ae9	-0.01968141
116	0xbd519e26	-0.051176213
117	0x3cfe0655	0.031008879
118	0x3e0186b5	0.12649043
119	0xbd97a44d	-0.07404385
120	0xbdcaec64	-0.09908369
121	0xbd4cbf4c	-0.049987122
122	0xbd0c119c	-0.03419648
123	0x3caaf0ee	0.020866837
124	0xbd5e7bbe	-0.05431723
125	0x3e2ead3f	0.17058276
126	0xbe442be6	-0.19157371
127	0xbdfd5726	-0.12370138
128	0xbe4d629b	-0.20057146
129	0x3d8ffe9d	0.070309855
130	0xba697692	-0.0008905913
131	0x3c9be52a	0.019030172
132	0x3e2aa940	0.16666126
133	0xbe5686e5	-0.20949896
134	0x3de0265b	0.10944816
135	0x3e515836	0.20443806
136	0xbe4b14a4	-0.19832093
137	0x3d3f6cbf	0.046734568
138	0x3d5d0873	0.053963136
139	0xbe4f8df8	-0.20269
140	0x3b63a904	0.0034738192
141	0xbdb1f887	-0.08689981
142	0xbe18c441	-0.14918615
143	0xbe4628fb	-0.1935157
144	0xbe052901	-0.13003923
145	0x3cd698bf	0.026195882
146	0xbcefd111	-0.029274495
147	0xbd8bbbbd	-0.068229176
148	0xbe2afb87	-0.16697513
149	0x3df02f92	0.11727823
150	0x3e8c047e	0.27347177
151	0x3cf99068	0.030464366
152	0x3c565ebf	0.013084113
153	0x3e5be807	0.2147523
154	0xbd124c38	-0.03571722
155	0xbe8e6115	-0.27808443
156	0x3d525f74	0.051360562
157	0xbdcf1d2d	-0.10112987
158	0x3db4b657	0.08823841
159	0x3d618107	0.05505469
160	0x3e4e81d6	0.20166716
161	0xbc856f52	-0.016288433
162	0xbe7829f9	-0.24234761
163	0x3e6f9cbc	0.23399633
164	0xbe3057f0	-0.17221045
165	0xbe682406	-0.22669992
166	0xbd6c1b93	-0.057643484
167	0x3e5b4ee9	0.2141682
168	0xbd816456	-0.06317966
169	0x3e716ddf	0.23577069
170	0xbdadc592	-0.08484949
171	0xbe460cf0	-0.19340873
172	0xbd025c69	-0.03182641
173	0xbe257c18	-0.1616062
174	0xbdb6bee6	-0.0892313
175	0xbe396767	-0.18105851
176	0x3b9aaafc	0.00472009
177	0x3e54f2ca	0.20795742
178	0x3e86275a	0.26201898
179	0xbda4bdca	-0.08044012
180	0xbde8a988	-0.113604605
181	0xbdc21ddb	-0.09478351
182	0xbdfe42c8	-0.12415081
183	0x3c8d42fe	0.017243858
184	0xbe0bf1b0	-0.13666415
185	0x3de482de	0.111577734
186	0x3c77ebf6	0.015131941
187	0x3d00733d	0.0313599
188	0x3e490ae1	0.19633056
189	0xbe1adb66	-0.15122756
190	0xbd3f4a90	-0.046701968
191	0x3dc4686d	0.0959023
192	0x3d941691	0.07230867
193	0xbe094230	-0.13404155
194	0xbcc3113b	-0.023811927
195	0xbc914555	-0.017733255
196	0xbd2e295d	-0.042519916
197	0xbd9c1c43	-0.07622578
198	0xbe520e34	-0.2051323
199	0x3e22a9cc	0.15885085
200	0x3e5673c4	0.20942599
201	0x3e45b79d	0.19308324
202	0xbe256b08	-0.1615411
203	0xbe15f96e	-0.14645931
204	0x3d172a09	0.036905322
205	0x3c85f3da	0.016351629
206	0xbe829f73	-0.25512275
207	0xbe01538e	-0.1262953
208	0x3dcee2f9	0.10101885
209	0x3d524960	0.051339507
210	0x3e393913	0.18088178
211	0xbdeb9f0d	-0.11504946
212	0xbd951135	-0.072786726
213	0xbe14deff	-0.14538191
214	0x3db81ad3	0.08989491
215	0x3cc4ea47	0.024037493
216	0x3df0dc27	0.11760741
217	0x3e098ba8	0.13432181
218	0x3e86a87c	0.26300418
219	0xbda09546	-0.07840972
220	0x3d81a832	0.06330909
221	0x3cb93999	0.022610473
222	0xbe39f4fa	-0.18159857
223	0x3e334ed2	0.17510536
224	0x3e0e8b06	0.1392022
225	0xbc959a72	-0.018262122
226	0xbda15ad5	-0.07878653
227	0x3e471f0c	0.19445437
228	0x3e00154c	0.12508124
229	0x3e2f8791	0.17141558
230	0x3c98202e	0.018570032
231	0x3e3348b3	0.17508201
232	0x3cd70417	0.026247067
233	0xbc3e8de9	-0.011630514
234	0x3dab3616	0.083599254
235	0x3d80648b	0.06269177
236	0xbe1b3962	-0.15158609
237	0x3e293ad2	0.16526344
238	0x3e801518	0.25016093
239	0x3d819ae4	0.06328371
240	0xbe313699	-0.17305984
241	0x3e223b1d	0.15842862
242	0x3d237f23	0.03991617
243	0x3dd6285f	0.10456919
244	0xbd808b71	-0.06276596
245	0xbd1e0dcf	-0.038587388
246	0x3e13b0d3	0.14422922
247	0x3d847721	0.064680345
248	0xbd7aaa5c	-0.061197624
249	0xbd3aaa9d	-0.045572866
250	0xbddaa912	-0.10676779
251	0xbe505997	-0.20346676
252	0x3c42f3cf	0.011898949
253	0x3e16bc60	0.14720297
254	0xbd7b2eb2	-0.06132383
255	0x3e39d45e	0.18147418

nn_fun1.6.bias f4 [30]
0	0x3d982d2a	0.07430489
1	0x3e4d8545	0.2007037
2	0x3dcdafb4	0.10043278
3	0xbe6c5d18	-0.23082387
4	0x3dfe7e1e	0.12426399
5	0xbc6cfa87	-0.014464027
6	0x3cc49bb0	0.024000019
7	0x3e5c26b1	0.21499135
8	0x3dda6527	0.106638245
9	0x3dcdd745	0.10050825
10	0xbe4f8bbf	-0.20268153
11	0x3d30036e	0.04297202
12	0xbcf1a783	-0.029498821
13	0x3e7d82a2	0.24756864
14	0x3dcefc95	0.1010677
15	0x3ce45456	0.027872246
16	0x3e897384	0.26845944
17	0xbcbbb5fd	-0.022913927
18	0x3d6ea138	0.05825922
19	0xbb6f7274	-0.0036536725
20	0x3cb79bf7	0.022413237
21	0x3d926415	0.071479954
22	0xbdf95c4b	-0.121758066
23	0xbdbe109a	-0.0928051
24	0xbd59f1ec	-0.05320923
25	0xbc62095a	-0.013796175
26	0xbe36bc3b	-0.17845242
27	0x3e725cda	0.23668233
28	0xbe5df071	-0.21673752
29	0xbd851490	-0.064980626

nn_fun2.0.weight f4 [30, 2]
0	0xbbaa8887	-0.0052042636
1	0xbee73bfb	-0.4516295
2	0x3f00c55c	0.50301147
3	0xbe8ff294	-0.2811476
4	0x3efb96fd	0.49138632
5	0x3f579f89	0.84227806
6	0xbeec626d	-0.46168843
7	0xbde84f21	-0.11343218
8	0xbf8144c2	-1.0099108
9	0x3d0a6975	0.033791978
10	0x3e2a29aa	0.16617456
11	0x3f60b5ea	0.8777758
12	0xbcb76716	-0.022388022
13	0x3edee066	0.43530577
14	0x3eeb0efa	0.45909864
15	0xbe90063d	-0.2812976
16	0xbf305121	-0.6887379
17	0xbecd48c4	-0.40094578
18	0xbf025753	-0.50914496
19	0xbd39878b	-0.04529528
20	0xbef56ab1	-0.47932962
21	0xbee3eea6	-0.44518012
22	0x3d2f735c	0.042834625
23	0x3f26fb43	0.65227145
24	0x3f01ebd1	0.5075045
25	0xbe1f95da	-0.15584508
26	0x3ec50f7c	0.38488376
27	0x3f17d42d	0.5930813
28	0x3f334686	0.70029485
29	0x3d89ccc9	0.06728513
30	0x3f2651f0	0.64968777
31	0x3ea83e58	0.32860065
32	0xbf19bb29	-0.6005121
33	0xbf2de75e	-0.67931163
34	0x3f4ccc6d	0.7999943
35	0x3ed24d87	0.41074774
36	0x3f2cc7d1	0.67492396
37	0x3eb8549e	0.36002058
38	0x3ea65185	0.3248407
39	0x3ec8b4b0	0.39200354
40	0xbe7882d2	-0.24268654
41	0x3e61e93c	0.22061628
42	0x3f02bf25	0.51072913
43	0x3f104f49	0.5637098
44	0xbdffc9aa	-0.12489636
45	0x3e2d0093	0.1689475
46	0x3f21fb90	0.6327448
47	0xbbb6c8e1	-0.005578146
48	0xbf3df9ab	-0.7420909
49	0x3f024d0d	0.5089882
50	0x3f03af7d	0.5143965
51	0x3f2dfd2a	0.6796442
52	0xbf11c7e7	-0.5694565
53	0x3dceabfa	0.10091396
54	0xbeef57a5	-0.46746555
55	0xbf34ac8b	-0.7057578
56	0xbe6c95f4	-0.23104078
57	0xbf251800	-0.64489746
58	0x3f3ba941	0.73305136
59	0x3e35c92d	0.17752524

nn_fun2.0.bias f4 [30]
0	0xbded41bc	-0.115848035
1	0x3f3de298	0.7417388
2	0xbda915a4	-0.08256081
3	0xbe90677b	-0.2820395
4	0x3ecd2668	0.40068364
5	0x3eb695d0	0.35661173
6	0xbf2e6a53	-0.6813099
7	0xbf15ad77	-0.5846781
8	0xbed637b7	-0.41839382
9	0xbf09215a	-0.53566515
10	0xbe6c953f	-0.23103808
11	0x3ee4f6f0	0.44719648
12	0xbf3727c4	-0.7154505
13	0xbeadbb22	-0.33931834
14	0xbe48db6a	-0.1961495
15	0x3e009447	0.12556563
16	0x3d95ed83	0.073206924
17	0x3edb092c	0.42780435
18	0x3ee0f0ec	0.4393381
19	0xbe86c5d6	-0.26322812
20	0xbeefb740	-0.46819496
21	0xbea4f5da	-0.3221882
22	0x3e3e6e7c	0.18596834
23	0x3ec153f4	0.37759364
24	0xbe8d480d	-0.27594033
25	0xbeec1693	-0.46110973
26	0x3ef561a2	0.4792605
27	0x3e1533b0	0.14570498
28	0xbe9a58f9	-0.30146006
29	0x3f227e89	0.6347433
