results/FHN_celegans_directed_wcc_multiple_nn_True_14/neural_network.pth (torch, 38491 bytes, 26 tensors)

g.0.weight f4 [30, 2]
0.11912566 -0.2277938 -0.58406705 0.18616723 0.36968884 0.29693142 -0.47181892 -0.1638865
-0.69958925 0.4097431 -0.6659186 0.49675637 0.55917305 0.21300119 0.21337949 -0.71989477
-0.4115341 0.17634478 0.4616399 -0.16235529 -0.01634113 0.5966582 0.4749834 0.21500082
-0.33313057 -0.008007341 0.33814618 -0.12983644 -0.46210334 -0.08950688 0.23450907 -0.2223747
-0.48494977 -0.09077543 0.59056574 -0.11134012 0.51051295 -0.052942984 0.09868305 0.43474907
-0.23396145 -0.5464489 -0.12586032 0.57853866 0.3824465 0.028755972 0.36396602 0.060050786
0.5352748 0.2705989 0.707846 0.57158154 -0.5787801 -0.5729504 -0.007042272 -0.43880522
0.29749894 0.3223446 0.49273014 0.5529767
00000000: 27f8 f33d c742 69be 6b85 15bf 9fa2 3e3e
00000010: db47 bd3e 6507 983e 4092 f1be ddd1 27be
00000020: 4818 33bf d9c9 d13e a479 2abf da56 fe3e
00000030: f725 0f3f fc1c 5a3e 2780 5a3e 064b 38bf
00000040: 99b4 d2be ba93 343e 115c ec3e 7740 26be
00000050: d5dd 85bc 97be 183f 0631 f33e 2d29 5c3e
00000060: 1790 aabe 3931 03bc 7f21 ad3e d8f3 04be
00000070: cf98 ecbe 624f b7bd 2523 703e 31b6 63be
00000080: 564b f8be 78e8 b9bd 512f 173f 4a06 e4bd
00000090: fab0 023f beda 58bd 571a ca3d 6e97 de3e
000000a0: 9793 6fbe 13e4 0bbf 87e1 00be 1c1b 143f
000000b0: 07d0 c33e a591 eb3c c159 ba3e d0f7 753d
000000c0: c507 093f f08b 8a3e 6535 353f 2b53 123f
000000d0: ef2a 14bf e1ac 12bf dcc2 e6bb 14ab e0be
000000e0: c851 983e 5a0a a53e 2047 fc3e e28f 0d3f

g.0.bias f4 [30]
0.14844726 -0.47971293 -0.2815706 0.12451663 -0.6001189 -0.46664682 0.5822513 0.18482529
-0.51707613 -0.10037122 0.42184472 -0.38180786 -0.3547441 -0.2151253 -0.4621484 0.58221734
-0.38099658 0.09448377 0.232139 -0.32313016 0.40400642 -0.42243183 -0.4469434 0.39482698
0.13078511 -0.0014866444 0.45870432 0.6551924 0.00589852 -0.05330898
00000000: 8f02 183e ef9c f5be 062a 90be 9302 ff3d
00000010: 64a1 19bf 55ec eebe 6c0e 153f d742 3d3e
00000020: 1a5f 04bf 6d8f cdbd 08fc d73e 527c c3be
00000030: 05a1 b5be cf49 5cbe b79e ecbe 320c 153f
00000040: fc11 c3be b580 c13d d9b5 6d3e 5171 a5be
00000050: eed9 ce3e fc48 d8be c4d5 e4be c326 ca3e
00000060: 88ec 053e 82db c2ba 4bdb ea3e b0ba 273f
00000070: 5f48 c13b 845a 5abd

g.2.weight f4 [30, 30]
-0.086684495 -0.09120091 0.010281492 -0.00666625 0.08421729 -0.0480526 0.10549679 -0.012500591
-0.152688 0.07153615 0.023546608 -0.03667364 0.051166605 -0.021324497 0.07266473 0.030806785
0.20493077 -0.13233304 -0.05406094 -0.08713381 -0.15973869 -0.0716914 0.1663868 -0.03509609
0.12741041 -0.19132228 -0.12802519 0.06942644 0.1202832 -0.07592387 -0.02810917 0.2032526
-0.054175034 -0.17276944 0.11776993 0.08753878 -0.008201235 -0.016758412 -0.028547047 -0.16599466
-0.12725747 -0.15778258 -0.09281569 0.0039049014 0.04321121 0.047966503 0.005442911 0.107181005
0.01621042 -0.11994053 0.084707975 -0.122366555 0.14129083 -0.0037809047 0.11357797 0.12342698
-0.10781924 -0.13340881 -0.043119494 0.026257189 -0.022287982 -0.078394115 0.022039967 0.023644788
-0.019899316 0.062008396 -0.024667807 -0.010600975 0.032614388 -0.015858144 0.03783473 -0.0073926556
0.08380517 -0.092017226 0.08691806 -0.09405344 -0.07672305 -0.0649862 -0.03635073 0.083236724
-0.120820716 -0.15780537 0.11373133 0.18229586 0.023428423 -0.016861778 0.05862389 0.0458291
0.21011406 -0.106464624 0.14710677 -0.046779957 0.14760533 -0.25527543 0.120422155 0.11265229
0.25492007 0.0025444063 -0.013083915 0.09891947 0.09397071 -0.0060596457 -0.20349774 0.11587713
-0.14519519 0.15345362 -0.12155491 -0.026728684 0.1038962 0.1820527 -0.22767045 0.06456736
0.10649163 0.09788114 -0.045984045 0.280429 -0.1912638 -0.13300127 0.12990656 0.18556546
-0.13411127 0.11622848 0.16567504 0.045461792 0.16929288 -0.13936973 -0.1104193 -0.01595563
0.09557868 0.05381698 0.040600065 -0.110220484 0.0016279926 0.02123208 0.024064321 0.16457812
-0.15857598 -0.041838776 0.17611377 0.002792369 0.14658476 -0.061999097 -0.17607583 0.07373879
-0.043901667 -0.023358798 -0.16344135 0.034856085 0.018731475 0.015518833 0.08773326 0.06528548
-0.035241224 0.21726541 -0.0057649957 -0.008845558 -0.09728079 0.13115638 -0.007222628 -0.05838809
-0.08815001 -0.021499928 0.082248725 -0.0032630702 0.0894423 -0.09478465 -0.047011487 -0.13569148
-0.106460765 -0.23238423 -0.04363545 -0.18885268 -0.1793882 0.08535979 -0.32869324 -0.2474315
0.11958997 0.10466977 -0.13661832 -0.17594448 0.12917458 0.064208515 -0.09387567 0.13170809
-0.037227187 0.05808441 -0.08107849 0.14406806 -0.15126133 0.109687656 0.13390665 0.064817354
-0.029312603 -0.08095967 0.058607325 -0.039169632 0.09244079 -0.21335423 0.14181885 0.059977546
-0.104488514 -0.06528152 0.039897762 0.14095815 -0.14386983 0.015834058 -0.061258737 -0.033838518
0.12924184 0.07237586 -0.07561311 -0.05718743 -0.06956175 0.09651563 -0.10103109 0.009605837
-0.14317721 -0.02828944 -0.18073119 0.15723936 0.10529804 0.063543044 -0.00936326 -0.13028678
-0.03210667 -0.06582381 -0.10073298 0.16121411 0.14734152 0.060880896 0.11526108 0.026525175
-0.11361524 0.17172383 0.20839265 0.17749716 -0.05079949 0.15719114 -0.08953454 -0.09873464
-0.0065614665 0.13416658 -0.17847212 -0.087557465 -0.10938407 0.17239597 -0.0043795425 -0.025347967
0.09497855 -0.08614755 -0.006903977 0.036748383 0.06146406 0.1796555 -0.1812233 0.12355363
00000000: a487 b1bd 8bc7 babd b473 283c 8f70 dabb
00000010: 1d7a ac3d ced2 44bd b30e d83d 47cf 4cbc
00000020: 3e5a 1cbe 8c81 923d d1e4 c03c 1937 16bd
00000030: 1394 513d b6b0 aebc 3fd1 943d 835e fc3c
00000040: 5fd9 513e 5082 07be 016f 5dbd 3673 b2bd
00000050: 8a92 23be f1d2 92bd 4d61 2a3e ebc0 0fbd
00000060: e077 023e fde9 43be 0919 03be 732f 8e3d
00000070: 0a57 f63d f97d 9bbd 3445 e6bc 7321 503e
00000080: a4e6 5dbd 79ea 30be 5c31 f13d 8847 b33d
00000090: 795e 06bc f048 89bc 7fdb e9bc 81fa 29be
000000a0: c84f 02be c291 21be 2716 bebd 60e9 7f3b
000000b0: 3dfe 303d 8678 443d 725a b23b b781 db3d
000000c0: b7cb 843c 61a3 f5bd 607b ad3d 519b fabd
000000d0: 8bae 103e 0ec9 77bb 919b e83d 49c7 fc3d
000000e0: 55d0 dcbd 529c 08be 119e 30bd 5119 d73c
000000f0: 4995 b6bc 188d a0bd 298d b43c b7b2 c13c
00000100: e403 a3bc 84fc 7d3d 2414 cabc b6af 2dbc
00000110: aa96 053d f0e8 81bc 97f8 1a3d 173e f2bb
00000120: 0ca2 ab3d 8773 bcbd 1902 b23d 179f c0bd
00000130: f920 9dbd 7c17 85bd 81e4 14bd 0478 aa3d
00000140: da70 f7bd bb97 21be f9eb e83d c4ab 3a3e
00000150: f7ec bf3c b621 8abc 9b1f 703d 4bb7 3b3d
00000160: 2428 573e 200a dabd 28a3 163e 579c 3fbd
00000170: da25 173e 76b3 82be e49f f63d 3eb6 e63d
00000180: e284 823e 0ec0 263b eb5d 56bc 4b96 ca3d
00000190: b773 c03d fe8f c6bb b661 50be fd50 ed3d
000001a0: 0cae 14be f222 1d3e c8f1 f8bd 1df6 dabc
000001b0: 88c7 d43d 066c 3a3e 7122 69be e43b 843d
000001c0: 4918 da3d e875 c83d c459 3cbd 6494 8f3e
000001d0: a8da 43be 7c31 08be 3a06 053e df04 3e3e
000001e0: 7754 09be 3309 ee3d b8a6 293e 2536 3a3d
000001f0: 1d5b 2d3e f0b6 0ebe 8423 e2bd 62b5 82bc
00000200: c1be c33d 326f 5c3d 414c 263d 47bb e1bd
00000210: 5e62 d53a e6ee ad3c 8a22 c53c 2b87 283e
00000220: be61 22be 235f 2bbd 2b57 343e 2e00 373b
00000230: 511a 163e c4f2 7dbd 394d 34be 5d04 973d
00000240: 3cd2 33bd f35a bfbc 2b5d 27be 41c5 0e3d
00000250: c072 993c b442 7e3c 7fad b33d 65b4 853d
00000260: 1a59 10bd d37a 5e3e 4ae8 bcbb f6ec 10bc
00000270: 273b c7bd dc4d 063e ccab ecbb 5a28 6fbd
00000280: fe87 b4bd 9e20 b0bc 0572 a83d 3cd9 55bb
00000290: 862d b73d 741e c2bd 1e8f 40bd b5f2 0abe
000002a0: 1a08 dabd 22f6 6dbe 16bb 32bd 9962 41be
000002b0: 8ab1 37be 1dd1 ae3d 7b4a a8be af5e 7dbe
000002c0: 96eb f43d 1b5d d63d ace5 0bbe ca2a 34be
000002d0: 5746 043e c17f 833d e341 c0bd 7cde 063e
000002e0: 897b 18bd ebe9 6d3d 7b0c a6bd 9486 133e
000002f0: 40e4 1abe eca3 e03d d31e 093e f6be 843d
00000300: fc20 f0bc 2fce a5bd 3c0e 703d 5670 20bd
00000310: 9951 bd3d 8879 5abe f638 113e 04ab 753d
00000320: 13fe d5bd 51b2 85bd d66b 233d 5557 103e
00000330: 9d52 13be 6db6 813c 71ea 7abd 429a 0abd
00000340: f957 043e cb39 943d 0cdb 9abd 5e3d 6abd
00000350: 6476 8ebd fda9 c53d 63e9 cebd cd61 1d3c
00000360: 0c9d 12be 41bf e7bc 9911 39be 5b03 213e
00000370: 80a6 d73d db22 823d 5c68 19bc e669 05be
00000380: 4982 03bd a2ce 86bd 184d cebd 5015 253e
00000390: b2e0 163e 3f5e 793d 000e ec3d 534b d93c
000003a0: 1baf e8bd 5fd8 2f3e e264 553e d1c1 353e
000003b0: 2013 50bd b7f6 203e e35d b7bd 6335 cabd
000003c0: 9201 d7bb f762 093e 65c1 36be 5451 b3bd
000003d0: c104 e0bd 9288 303e 4482 8fbb 8aa6 cfbc
000003e0: 1d84 c23d 206e b0bd c23a e2bb 7985 163d
000003f0: bdc1 7b3d 9df7 373e 9a92 39be b009 fd3d

g.2.bias f4 [30]
0.024369225 0.09973524 -0.047100633 -0.16705458 -0.1159029 0.15454498 -0.026643546 -0.062529705
-0.046445284 -0.13073622 -0.01669393 0.2091006 -0.069757484 -0.15288095 0.026070723 -3.0813535e-05
-0.10361215 0.07488986 -0.14114779 0.096482866 0.026418956 0.028518496 -0.14820616 0.04760701
-0.11085433 0.11725007 0.003687336 -0.054172263 0.081165396 0.09193379
00000000: f8a1 c73c fd41 cc3d 98ec 40bd 5b10 2bbe
00000010: 805e edbd 0a41 1e3e 9143 dabc 930f 80bd
00000020: 693d 3ebd b7df 05be b5c1 88bc 781e 563e
00000030: 03dd 8ebd d38c 1cbe 4592 d53c c83d 01b8
00000040: 9b32 d4bd db5f 993d 0c89 10be cf98 c53d
00000050: 916c d83c 9f9f e93c 5bc3 17be 91ff 423d
00000060: 9807 e3bd ce20 f03d 3ca7 713b bce3 5dbd
00000070: 0b3a a63d c847 bc3d

g.4.weight f4 [30, 30]
-0.06954619 -0.025276998 0.12505195 -0.07344046 -0.13756701 0.0026993863 0.12750177 0.10922399
-0.082898624 0.10588154 -0.18879531 0.078519054 -0.18091579 -0.034205623 -0.09132531 0.060711924
-0.0497357 -0.016507445 0.17591782 0.101819806 0.123867236 -0.20008661 0.13574758 0.16435367
0.021634256 0.025402227 0.16142046 -0.17230228 -0.07623111 0.037023745 0.0035324749 0.20441088
0.14598148 -0.026504004 -0.119106516 0.06978501 0.16735147 0.0037364822 0.09871455 0.01917013
-0.015333077 0.025448617 0.02310567 -0.05517343 -0.15024847 -0.13428263 -0.15626684 0.054276586
-0.1250706 0.1435269 -0.13948733 0.036349785 0.14358318 -0.006886479 -0.058741067 -0.07566705
0.103516445 0.2093811 -0.09349055 -0.1680153 -0.12559035 -0.11689152 0.0152430395 0.11417398
0.11899544 -0.024555206 0.038068715 0.14912903 0.15293014 -0.05073326 -0.0053816773 0.02817248
-0.042196963 -0.015004335 0.16272773 -0.11894155 -0.09725576 0.0029811803 -0.09678207 -0.008232462
0.011271418 -0.032322 0.06287606 -0.10241238 -0.12284119 0.0949233 -0.00057162147 0.15575196
0.12812449 -0.11601533 0.16482545 -0.081521526 -0.08603587 0.06761689 0.06945914 -0.08443012
-0.04440372 0.01025256 0.0032813586 0.10582117 0.18009958 -0.08369404 0.060614772 0.11116437
0.12463762 0.08751988 -0.15512083 -0.12016554 -0.167458 0.008742978 -0.11421307 -0.048406277
-0.031631652 0.0017539297 -0.13678661 -0.02253636 0.012527318 -0.08159373 0.033511583 -0.13696367
-0.06029789 0.15283489 0.18144031 0.013896705 0.06481865 0.06751992 0.14472666 0.14918548
-0.1815451 0.17302686 0.034227867 0.0904188 0.14434193 -0.065130785 -0.017197128 0.11103686
0.008692314 0.043937847 0.08731572 0.11536624 -0.107764214 0.011881913 0.027252138 0.20119575
0.06568132 0.06322803 -0.046280473 0.15407474 -0.10896991 -0.08807107 0.13995163 -0.052386157
0.16520664 0.16064468 -0.048655763 0.049231663 -0.09960997 -0.020338785 -0.046373367 -0.16569187
-0.09705105 -0.0073792716 0.12543805 0.078023046 -0.1693171 -0.047068402 0.15161948 0.13399257
0.019663176 0.014247026 -0.17808723 0.086883366 -0.13345192 -0.11589064 0.09475406 0.1503942
0.039175358 -0.0055331783 0.1895126 -0.05825318 -0.12230803 0.0013212368 -0.10358087 0.17613459
-0.027290216 -0.08107575 -0.047883593 0.17728966 -0.06037057 0.10684033 0.018292539 -0.12034717
-0.02270876 0.056670617 0.14317445 -0.18690296 0.12881216 -0.033221174 0.19577904 -0.079549156
-0.19037607 -0.11025595 -0.15854238 0.0744828 -0.07309473 0.2145904 -0.022348728 0.09681812
-0.07322779 -0.17511688 -0.10324835 0.22971341 -0.059014395 -0.0007919458 -0.014029555 -0.014986552
-0.046402574 -0.0036055096 -0.021946376 -0.03349563 0.06370744 -0.12837638 0.16778225 -0.10583514
-0.17190734 0.19533148 0.005247303 0.084490106 0.045683675 0.058191407 -0.080262095 -0.046101127
0.09445588 0.14992172 -0.01870725 -0.00150314 0.046761453 0.17393999 0.13171707 0.076502636
0.057206765 0.12326068 0.08899102 0.10921447 0.018836098 -0.105802804 0.06346342 -0.13224776
0.02370407 -0.06899699 0.14083557 0.04514985 -0.012766848 -0.07271748 0.0718775 0.0017415162
00000000: 3c6e 8ebd b511 cfbc 9e0d 003e f467 96bd
00000010: 5ede 0cbe 30e8 303b d38f 023e d4b0 df3d
00000020: c1c6 a9bd 6cd8 d83d 8f53 41be 99ce a03d
00000030: fd41 39be 321b 0cbd c408 bbbd 11ad 783d
00000040: a9b7 4bbd 9f3a 87bc cd23 343e e786 d03d
00000050: 1bae fd3d 81e3 4cbe 6a01 0b3e 544c 283e
00000060: 533a b13c 5518 d03c 684b 253e 0270 30be
00000070: 0e1f 9cbd 36a6 173d 1881 673b 1651 513e
00000080: 2b7c 153e ed1e d9bc 1eee f3bd 71eb 8e3d
00000090: 2f5e 2b3e c5df 743b db2a ca3d ad0a 9d3c
000000a0: 9637 7bbc 9e79 d03c 1a48 bd3c 89fd 61bd
000000b0: bcda 19be 6381 09be 6a04 20be 2051 5e3d
000000c0: 8212 00be b7f8 123e c4d5 0ebe 83e3 143d
000000d0: 7807 133e f9a7 e1bb 799a 70bd 54f7 9abd
000000e0: 6e00 d43d 0068 563e f977 bfbd 340c 2cbe
000000f0: c29a 00be d264 efbd f1bd 793c 0cd4 e93d
00000100: e2b3 f33d 0028 c9bc f1ed 1b3d 48b5 183e
00000110: b899 1c3e aecd 4fbd c858 b0bb f9c9 e63c
00000120: b9d6 2cbd bed4 75bc 19a2 263e a197 f3bd
00000130: 072e c7bd e85f 433b ae35 c6bd 73e1 06bc
00000140: c1ab 383c 1364 04bd 2ac5 803d 95bd d1bd
00000150: 2994 fbbd 2667 c23d ded8 15ba 717d 1f3e
00000160: 1133 033e 7299 edbd 01c8 283e c2f4 a6bd
00000170: 9333 b0bd b97a 8a3d 9840 8e3d b3e9 acbd
00000180: ade0 35bd 5afa 273c 100c 573b c5b8 d83d
00000190: 066c 383e c867 abbd 3247 783d 25aa e33d
000001a0: 0242 ff3d 9f3d b33d ffd7 1ebe 5a19 f6bd
000001b0: 1c7a 2bbe b53e 0f3c 8be8 e9bd a945 46bd
000001c0: 3190 01bd 1de4 e53a ca11 0cbe 2c9e b8bc
000001d0: 613f 4d3c 9d1a a7bd 7143 093d 3440 0cbe
000001e0: ecfa 76bd c080 1c3e 7dcb 393e 01af 633c
000001f0: a4bf 843d e247 8a3d 3a33 143e 14c4 183e
00000200: f5e6 39be f42d 313e 8532 0c3d 7e2d b93d
00000210: 5fce 133e 4a63 85bd fee0 8cbc 4b67 e33d
00000220: 356a 0e3c 2cf8 333d 96d2 b23d 2345 ec3d
00000230: 7cb3 dcbd 5bac 423c e03f df3c 4206 4e3e
00000240: ee83 863d b37d 813d 9890 3dbd c5c5 1d3e
00000250: 9e2b dfbd 9b5e b4bd 7b4f 0f3e de92 56bd
00000260: ee2b 293e 0a80 243e 444b 47bd 24a7 493d
00000270: 5000 ccbd 869d a6bc 00f2 3dbd 21ab 29be
00000280: b3c2 c6bd d1cd f1bb d572 003e 8cca 9f3d
00000290: 7661 2dbe ccca 40bd 2342 1b3e 5935 093e
000002a0: ab14 a13c 5c6c 693c 805c 36be e8ef b13d
000002b0: 9fa7 08be 1258 edbd 6b0e c23d f000 1a3e
000002c0: 5776 203d aa4f b5bb 970f 423e e39a 6ebd
000002d0: a27c fabd 5a2d ad3a 3522 d4bd a05c 343e
000002e0: bb8f dfbc 0b0b a6bd 9621 44bd 6c8b 353e
000002f0: 2147 77bd 1acf da3d 3cda 953c 9478 f6bd
00000300: b907 babc 731f 683d 539c 123e 7d63 3fbe
00000310: 56e7 033e ed12 08bd 4d7a 483e abea a2bd
00000320: f2f1 42be dfcd e1bd ef58 22be 708a 983d
00000330: b1b2 95bd 96bd 5b3e ae14 b7bc 9448 c63d
00000340: 74f8 95bd d751 33be df73 d3bd fe39 6b3e
00000350: 14b9 71bd 959a 4fba 38dc 65bc 288a 75bc
00000360: a010 3ebd 6a4a 6cbb e3c8 b3bc b732 09bd
00000370: 0c79 823d 1975 03be 1ccf 2b3e 18c0 d8bd
00000380: 7a08 30be fa04 483e 91f1 ab3b 2609 ad3d
00000390: ce1e 3b3d 1d5a 6e3d 7460 a4bd 89d4 3cbd
000003a0: 1672 c13d 1485 193e f23f 99bc 0205 c5ba
000003b0: f088 3f3d 531d 323e d7e0 063e 6aad 9c3d
000003c0: a451 6a3d 1870 fc3d ed40 b63d d6ab df3d
000003d0: 294e 9a3c 24af d8bd 1cf9 813d f56b 07be
000003e0: 0a2f c23c 4b4e 8dbd 3337 103e 0def 383d
000003f0: 0b2c 51bc e7ec 94bd 8334 933d 9643 e43a

g.4.bias f4 [30]
-0.071922675 0.18568343 0.040840067 0.055992335 0.016746206 0.09730069 0.016889147 -0.023282627
0.09531225 -0.13483874 0.0880142 -0.17290798 0.16770329 -0.010458998 0.021588085 0.081023626
-0.08514101 0.1645657 -0.11022552 0.037892073 -0.06853056 0.021889795 -0.017858313 -0.040870074
0.021504724 -0.17966905 -0.1357882 -0.011333663 -0.12636499 0.09772314
00000000: 324c 93bd cc23 3e3e ea47 273d 3858 653d
00000010: 572f 893c 9645 c73d 1c5b 8a3c 35bb bebc
00000020: 1233 c33d 2b13 0abe ca40 b43d ca0e 31be
00000030: 69ba 2b3e 385c 2bbc 7fd9 b03c b7ef a53d
00000040: 695e aebd e983 283e ebbd e1bd b834 1b3d
00000050: c059 8cbd 3a52 b33c 994b 92bc 6167 27bd
00000060: ad2a b03c 2afb 37be 100c 0bbe d4b0 39bc
00000070: d365 01be 1223 c83d

g.6.weight f4 [2, 30]
0.009789686 0.07695661 0.012482295 -0.03627251 0.008258466 -0.057782203 -0.09700412 -0.0003697935
-0.069679946 -0.14793782 0.031623643 0.08812762 0.09523234 -0.022006974 0.0751733 -0.01116013
-0.0012780466 0.029965635 0.08205852 -0.0002652581 -0.022157913 -0.16722359 0.09171095 0.015082022
-0.15386656 -0.10785811 -0.08628172 -0.0028031338 -0.065530464 -0.07481561 -0.014287593 0.099884585
0.12349703 0.05007976 -0.005940945 -0.059176553 -0.08984205 -0.0011045595 -0.074647374 0.1585603
-0.0756282 -0.07138043 -0.027103676 0.059645947 -0.06801472 0.003925057 0.0055616195 0.123484015
-0.11802295 0.0015621268 0.04261718 0.022239186 0.15069169 -0.008503811 0.071672454 -0.057293225
-0.037448138 0.001958213 -0.10930517 0.14179528
00000000: eb64 203c 6d9b 9d3d 8a82 4c3c 7c92 14bd
00000010: 844e 073c 08ad 6cbd 19aa c6bd d8e0 c1b9
00000020: 5cb4 8ebd 037d 17be cb87 013d 417c b43d
00000030: 2c09 c33d f847 b4bc 76f4 993d fad8 36bc
00000040: 2184 a7ba 7e7a f53c 4c0e a83d 5712 8bb9
00000050: 8384 b5bc a93c 2bbe f3d2 bb3d 961a 773c
00000060: 328f 1dbe b6e4 dcbd 78b4 b0bd c8b4 37bb
00000070: d634 86bd ed38 99bd 8216 6abc 4a90 cc3d
00000080: 03ec fc3d 6f20 4d3d 42ac c2bb 1d63 72bd
00000090: 1cff b7bd dec6 90ba b9e0 98bd a25d 223e
000000a0: f5e2 9abd e72f 92bd 8708 debc 4f4f 743d
000000b0: 4d4b 8bbd c49d 803b 3f3e b63b 30e5 fc3d
000000c0: 04b6 f1bd 47c0 cc3a 5a8f 2e3d f42e b63c
000000d0: ec4e 1a3e 9253 0bbc 02c9 923d 4dac 6abd
000000e0: 3863 19bd 5d55 003b 64db dfbd c832 113e

g.6.bias f4 [2]
-0.084333904 -0.083823934
00000000: 41b7 acbd e2ab abbd

nn_fun1.0.weight f4 [30, 2]
-0.6506382 0.20786598 -0.123368464 0.07901646 0.14673397 0.6409477 -0.20542443 0.5842531
0.43005234 0.1329934 0.6138129 0.32529235 -0.10833459 0.48592386 -0.22174382 -0.6922363
-0.25511524 -0.2965161 -0.36168295 -0.39622733 0.58882827 0.80700356 -0.8379702 -0.48033875
0.4557846 0.12735057 -0.7706334 -0.31455022 0.9104692 -0.6219874 0.25689024 -0.25766098
-0.29012308 0.77058166 0.33977336 -0.08331225 0.70982814 -0.23201974 0.15017594 -0.21534082
-0.65223634 0.26412463 -0.5951293 -0.29197863 0.14288974 0.13884145 0.37585807 0.09179106
0.19898537 -0.22020055 0.17495759 -0.38677377 0.23483177 0.29338676 -0.88521034 0.45222694
0.20937707 0.16383174 0.16491926 -0.05847422
00000000: 3a90 26bf d2da 543e 9ba8 fcbd 62d3 a13d
00000010: 6e41 163e 2615 243f c85a 52be 9c91 153f
00000020: d22f dc3e 6c2f 083e d822 1d3f b88c a63e
00000030: 87de ddbd 03cb f83e d010 63be 6636 31bf
00000040: 779e 82be f5d0 97be 822e b9be 4fde cabe
00000050: 73bd 163f c997 4e3f 3785 56bf f6ee f5be
00000060: 995c e93e 3068 023e 3b48 45bf ba0c a1be
00000070: 8214 693f 913a 1fbf 1e87 833e 24ec 83be
00000080: 038b 94be d744 453f c6f6 ad3e 9d9f aabd
00000090: 4cb7 353f 9596 6dbe b9c7 193e 4e82 5cbe
000000a0: f6f8 26bf 583b 873e 655a 18bf 397e 95be
000000b0: b051 123e 742c 0e3e 7870 c03e f4fc bb3d
000000c0: d2c2 4b3e 417c 61be 1528 333e 3607 c6be
000000d0: bd77 703e ca36 963e 259d 62bf 4a8a e73e
000000e0: f166 563e 82c3 273e 98e0 283e aa82 6fbd

nn_fun1.0.bias f4 [30]
0.07400917 -0.25237146 -0.39852488 -0.9201846 -0.007790771 0.20066227 -0.294674 0.44693747
-0.30707565 0.23339243 -0.60174805 -0.5234621 0.5005496 -0.5334563 0.31968522 0.6920754
0.5493041 0.33413053 0.49719712 0.24847253 0.56364655 -0.3984442 0.008264223 -0.23673704
-0.7252991 0.2126182 -0.40111387 0.64264363 -0.15337786 -0.6778228
00000000: 1f92 973d d536 81be 740b ccbe 3891 6bbf
00000010: b949 ffbb 697a 4d3e 83df 96be fdd4 e43e
00000020: 0539 9dbe 6dfe 6e3e 290c 1abf 9d01 06bf
00000030: 0524 003f 9890 08bf c8ad a33e da2b 313f
00000040: 329f 0c3f 2813 ab3e 9f90 fe3e 956f 7e3e
00000050: 244b 103f e100 ccbe aa66 073c 326b 72be
00000060: 34ad 39bf 96b8 593e cc5e cdbe 4b84 243f
00000070: 160f 1dbe cc85 2dbf

nn_fun1.2.weight f4 [30, 30]
-0.23185576 0.003068597 -0.02260424 0.060343936 0.061157204 -0.009964451 0.18143238 -0.18767461
-0.10652535 -0.017952453 -0.0871258 0.1334768 -0.2489487 0.19996634 0.20758839 -0.10489122
0.09164296 0.017848082 0.045252115 0.11463025 0.039122727 0.058677733 0.110156335 -0.07777401
0.14139296 -0.13474353 -0.037138473 -0.14229643 0.023797862 -0.13536434 -0.00047367433 0.21646999
0.023182295 0.2788316 0.009714825 -0.14156212 -0.12565923 -0.040492605 -0.024044387 -0.01008578
-0.12174583 0.30334187 -0.58426094 0.3046006 -0.02799171 -0.20960876 0.08853287 -0.04988133
-0.09730638 -0.17199653 -0.21703994 0.07968316 -0.11813428 -0.08357378 0.18847427 -0.11489938
-0.11251368 -0.14722417 -0.1367351 0.13690278 0.23838712 0.12533502 0.018872198 -0.005438731
-0.08159854 -0.29423845 0.21014395 -0.04646703 0.15552233 -0.045091126 0.033286117 0.21141289
0.015657796 0.2558947 -0.36076644 -0.11569959 -0.051054884 -0.17668992 -0.24465187 -0.3020871
0.02359206 0.16910608 0.06493236 -0.19682702 -0.04951035 0.010665895 -0.034832925 -0.1249021
-0.027317237 -0.023453064 -0.022259232 -0.084252775 0.04194359 0.04721215 -0.008982552 0.15778112
-0.10210492 -0.087939054 -0.102864996 0.09313382 -0.007979055 -0.019949593 0.05050576 0.0026522493
-0.08762952 0.05260027 -0.096957184 -0.06230398 -0.07606188 0.07820162 0.018071307 -0.16954051
-0.063397504 -0.020055851 -0.05871031 0.22658737 0.17087075 0.061618887 0.23890114 0.21513656
0.13875706 0.0153254755 0.01971461 0.13480723 0.14794122 0.119873285 -0.12417212 -0.08803714
0.08602914 -0.13201524 0.37470606 0.11783428 0.049702153 0.073980875 0.06495221 0.03474495
0.1837985 -0.024148509 0.26837376 0.0192945 -0.014256856 0.043487985 0.11183221 -0.024053222
-0.20970285 0.022303788 0.13527228 0.13298859 0.10978815 -0.02201023 -0.028952505 0.045761887
-0.032480694 -0.3131603 0.17271313 -0.04630584 0.06570803 0.14650993 0.05067329 -0.11209893
0.05963423 0.095172785 0.17896974 -0.22347492 0.20800146 0.07390103 0.06440967 -0.07958999
-0.0075467424 -0.08693187 -0.1887329 0.107489645 -0.028224934 0.22597192 0.14424321 0.14280277
-0.10880652 -0.08726932 -0.030993003 -0.07950515 0.09440417 0.016593203 0.13740158 -0.093993396
-0.09974787 -0.019058194 -0.12498871 -0.18646537 0.014516195 0.0515585 0.14802493 0.060408473
0.28951818 -0.07070912 0.079960816 0.0047198376 -0.024443567 0.19159973 0.17446068 -0.1538049
-0.053301413 -0.21859273 0.060523022 -0.16041976 0.0642624 0.121068865 -0.1293909 0.16956598
0.09621 -0.18852773 -0.24557568 0.16113473 -0.06312566 0.18520132 -0.08350282 0.06565023
0.074989885 0.19277002 -0.024353242 -0.0076680146 -0.27371842 -0.18282251 -0.124690264 0.06919924
-0.0130898915 -0.15165557 0.038031947 -0.087190434 0.01984885 -0.12559813 -0.16337913 -0.06483792
-0.044081844 0.19294374 0.14456192 -0.0029591431 -0.076947406 -0.14834502 -0.1112489 -0.043033063
-0.14199904 0.03292514 -0.184632 -0.2284809 0.18831946 0.31210917 -0.09454563 0.13024198
-0.029628627 -0.049297772 -0.039505854 -0.37944677 0.59708434 -0.4593946 -0.18833448 -0.020751975
00000000: 996b 6dbe 841a 493b 872c b9bc 342b 773d
00000010: fa7f 7a3d f041 23bc 69c9 393e c62d 40be
00000020: f629 dabd 0611 93bc 036f b2bd 24ae 083e
00000030: 68ec 7ebe fac3 4c3e 0d92 543e 35d1 d6bd
00000040: 4eaf bb3d 2436 923c 485a 393d 44c3 ea3d
00000050: 273f 203d 1058 703d a599 e13d fb47 9fbd
00000060: 51c9 103e 35fa 09be 831e 18bd 28b6 11be
00000070: bcf3 c23c f39c 0abe 7e57 f8b9 4faa 5d3e
00000080: cce8 bd3c 04c3 8e3e ee2a 1f3c a9f5 10be
00000090: d0ac 00be 93db 25bd bcf8 c4bc d43e 25bc
000000a0: e155 f9bd a04f 9b3e 2092 15bf 9cf4 9b3e
000000b0: df4e e5bc aea3 56be b950 b53d 5e50 4cbd
000000c0: 9148 c7bd dc1f 30be b83f 5ebe ed30 a33d
000000d0: 63f0 f1bd bb28 abbd 66ff 403e 5e50 ebbd
000000e0: 926d e6bd efc1 16be 4904 0cbe 3e30 0c3e
000000f0: c11b 743e d357 003e de99 9a3c 6237 b2bb
00000100: 231d a7bd 6ca6 96be fa2f 573e 3654 3ebd
00000110: 3f41 1f3e 79b1 38bd 0657 083d 9f7c 583e
00000120: c744 803c a104 833e 61b6 b8be e8f3 ecbd
00000130: ed1e 51bd 34ee 34be 0586 7abe 29ab 9abe
00000140: 2344 c13c 252a 2d3e 42fb 843d 068d 49be
00000150: 5dcb 4abd 02c0 2e3c f8ac 0ebd accc ffbd
00000160: 66c8 dfbc a420 c0bc fe58 b6bc b88c acbd
00000170: 0bcd 2b3d 8761 413d 8e2b 13bc 6091 213e
00000180: 621c d1bd 6419 b4bd e2aa d2bd f2bc be3d
00000190: 95ba 02bc 546d a3bc 21df 4e3d 5cd1 2d3b
000001a0: 1b77 b3bd 6173 573d 7d91 c6bd 7532 7fbd
000001b0: 55c6 9bbd 2c28 a03d 470a 943c 079c 2dbe
000001c0: 8dd6 81bd 2b4c a4bc 397a 70bd 8506 683e
000001d0: bef8 2e3e 1664 7c3d 80a2 743e c24c 5c3e
000001e0: 5516 0e3e b417 7b3c 8980 a13c e80a 0a3e
000001f0: e77d 173e 2080 f53d f44d febd d14c b4bd
00000200: 0c30 b03d 012f 07be 79d9 bf3e 1953 f13d
00000210: 7c94 4b3d 4983 973d aa05 853d b850 0e3d
00000220: ad35 3c3e 18d3 c5bc 4968 893e 800f 9e3c
00000230: 9795 69bc 7520 323d 4908 e53d 430b c5bc
00000240: 58bc 56be 6fb6 b63c d184 0a3e 292e 083e
00000250: 9cd8 e03d cc4e b4bc ce2d edbc d170 3b3d
00000260: 7a0a 05bd 8c56 a0be b6db 303e 31ab 3dbd
00000270: ee91 863d b306 163e cc8e 4f3d 2094 e5bd
00000280: 0643 743d f3e9 c23d d843 373e 9cd6 64be
00000290: 56fe 543e 6c59 973d 38e9 833d 1400 a3bd
000002a0: aa4a f7bb 5609 b2bd 3343 41be 8823 dc3d
000002b0: fa37 e7bc 2f65 673e 7eb4 133e e43a 123e
000002c0: f4d5 debd 42ba b2bd 0ae5 fdbc 99d3 a2bd
000002d0: f956 c13d 78ee 873c 00b3 0c3e 9c7f c0bd
000002e0: 9c48 ccbd ee1f 9cbc 15fa ffbd c7f0 3ebe
000002f0: 56d5 6d3c 012f 533d d993 173e e06e 773d
00000300: ba3b 943e f1cf 90bd 7fc2 a33d dea8 9a3b
00000310: e03d c8bc b832 443e d2a5 323e 087f 1dbe
00000320: 9552 5abd c6d6 5fbe fde6 773d 1445 24be
00000330: 019c 833d f4f2 f73d 0c7f 04be b4a2 2d3e
00000340: c009 c53d 6a0d 41be 3178 7bbe 8100 253e
00000350: 0748 81bd 6aa5 3d3e 8703 abbd a173 863d
00000360: 4c94 993d 8165 453e 7380 c7bc f843 fbbb
00000370: d224 8cbe d335 3bbe 9c5d ffbd 55b8 8d3d
00000380: fc76 56bc 994b 1bbe 63c7 1b3d e690 b2bd
00000390: 0e9a a23c cc9c 00be dc4c 27be bec9 84bd
000003a0: 2a8f 34bd 0b93 453e 0a08 143e 2fee 41bb
000003b0: 9a96 9dbd c2e7 17be 77d6 e3bd 7043 30bd
000003c0: 3268 11be 83dc 063d 2c10 3dbe e6f6 69be
000003d0: d1d6 403e c6cc 9f3e 24a1 c1bd 275e 053e
000003e0: bcb7 f2bc 76ec 49bd e4d0 21bd d946 c2be
000003f0: 85da 183f c535 ebbe c1da 40be 0c00 aabc

nn_fun1.2.bias f4 [30]
0.06630349 -0.091278054 -0.19352281 0.06860639 0.0032890069 0.08251286 0.0106412135 0.012259036
-0.08053325 0.030927407 -0.18571989 0.004201882 -0.062291212 0.02849066 -0.08110321 -0.1538197
-0.140358 0.065063246 -0.16735686 -0.1369694 -0.09748647 -0.086237825 0.05391371 0.0016999388
0.01437211 -0.1281507 0.004994576 -0.089240424 0.17802219 0.08453377
00000000: 20ca 873d fdef babd d82a 46be 8281 8c3d
00000010: 618c 573b 81fc a83d 7c58 2e3c 20da 483c
00000020: 9eee a4bd 795b fd3c 5b2d 3ebe f1af 893b
00000030: 1225 7fbd 3f65 e93c 7119 a6bd e982 1dbe
00000040: 02ba 0fbe e13f 853d 995f 2bbe b541 0cbe
00000050: fda6 c7bd 759d b0bd 9fd4 5c3d 7bd0 de3a
00000060: 0079 6b3c f039 03be 8aa9 a33b afc3 b6bd
00000070: 734b 363e 0b20 ad3d

nn_fun1.4.weight f4 [30, 30]
-0.18457296 -0.14448877 -0.13398144 0.12532723 0.036386114 0.037322525 -0.13819818 -0.20107618
0.19201866 -0.19215892 0.10953992 -0.12507078 -0.1336567 -0.019282421 -0.19556788 -0.035050143
-0.10040454 -0.015068604 0.12868208 -0.2818963 -0.047988072 -0.17570722 -0.18123358 0.3255114
-0.24189292 0.07246137 -0.017791836 -0.25278705 0.19324702 -0.17523079 0.04304625 -0.101065524
-0.18744914 0.121320605 0.1099069 0.16863936 0.08369508 -0.013405223 -0.0311519 -0.15588757
0.10477414 0.09246625 -0.18224262 0.10349367 -0.043767042 0.19449243 -0.15890715 -0.094289765
-0.101738386 0.06896391 -0.31827638 -0.046061687 -0.13049504 -0.092390865 0.13180968 -0.1630791
-0.020867856 0.11168488 0.22007877 0.17767228 0.055030223 -0.07643953 0.008694588 0.098127
0.031224051 0.06282499 -0.05567879 -0.1272417 -0.021671375 0.07671015 0.09791037 -0.07997804
-0.133508 0.009159724 -0.1497694 -0.2197853 -0.05350471 -0.0070446134 -0.062964104 0.036055442
-0.27496395 0.032242846 0.1595963 -0.25561482 -0.18686482 -0.19234575 -0.15745772 -0.122442506
-0.056440283 0.14325638 0.06953266 0.053044256 0.19593926 0.07675856 0.07910123 -0.14623389
0.07779923 -0.11936354 0.070143774 0.045767155 -0.010429752 0.0026903013 0.01290447 0.074089564
0.052861612 0.14011362 -0.106184706 0.057428297 -0.08637641 -0.10335288 -0.037631128 -0.08652175
-0.038301554 -0.041910328 0.09579083 0.0031971761 -0.0063208058 0.09444904 0.04713017 -0.053248316
-0.22183838 -0.50751895 -0.18964066 -0.16012686 -0.09758462 0.10415508 0.18801321 -0.0223147
0.6073839 -0.036140125 0.14965202 -0.103415415 -0.18466917 -0.031252977 -0.06755941 -0.16302137
0.012227583 -0.25105137 -0.015623029 -0.32146046 -0.049384914 -0.38609305 -0.15806194 0.18714683
-0.2511886 -0.17936338 0.3032946 -0.34179863 0.39400837 -0.15364745 -0.059708197 0.12340486
0.0668959 -0.008022918 -0.14598712 -0.102883145 -0.09764643 -0.1409318 0.09023512 0.05432315
0.16371304 0.032550864 0.20746194 0.028596602 -0.05625216 0.20423934 0.00795303 0.1548747
-0.059108406 0.15711077 0.15371303 -0.11509249 0.13185637 0.14537549 0.19896007 0.17859209
0.18353043 0.018127153 0.04148451 -0.25009832 -0.08765441 -0.039781228 0.14216572 0.106757455
0.13312678 -0.22376685 -0.1660982 0.024893172 0.15383434 0.14333269 -0.024937544 0.03593456
-0.0014684654 -0.13706924 0.08068478 -0.11329898 0.05098748 0.011857014 0.09544154 -0.042035174
0.36857983 0.03542072 0.04681879 -0.13967052 -0.1528116 0.21506906 -0.1513079 -0.15708815
-0.2048789 0.23330157 -0.06603505 -0.07785824 0.0017093823 -0.06259954 -0.0051656724 -0.14808956
-0.0029634493 0.104988486 0.17843905 0.0043161213 0.16564965 -0.020682199 0.043866266 -0.1755124
0.21240084 -0.13701847 0.14672509 0.028284675 -0.022854747 -0.054190274 -0.024875252 -0.10992592
0.0909416 0.10405802 -0.08025618 -0.13859913 0.13177052 -0.10082225 0.09031565 -0.25696245
-0.11812357 0.08532908 0.12967125 -0.1318829 -0.2066978 0.113577664 -0.19710141 0.24274084
0.12721887 0.130642 0.15558344 0.06318123 0.16378538 0.08407783 0.07801187 -0.084764116
00000000: b200 3dbe ddf4 13be 6e32 09be c855 003e
00000010: 9b09 153d 81df 183d d383 0dbe eae6 4dbe
00000020: 8aa0 443e 4fc5 44be 7756 e03d 8e12 00be
00000030: 4ddd 08be 2bf6 9dbc f242 48be bd90 0fbd
00000040: e5a0 cdbd 4ee2 76bc 3cc5 033e b654 90be
00000050: 248f 44bd 98ec 33be 4c95 39be 6ea9 a63e
00000060: c7b2 77be a066 943d 2fc0 91bc 4e6d 81be
00000070: 8ce2 453e b36f 33be 4451 303d 71fb cebd
00000080: abf2 3fbe f076 f83d de16 e13d ccaf 2c3e
00000090: 5368 ab3d 95a1 5bbc 4532 ffbc fea0 1fbe
000000a0: d393 d63d f25e bd3d cf9d 3abe 7df4 d33d
000000b0: 1245 33bd 0629 473e 8eb8 22be fe1a c1bd
000000c0: 375c d0bd f33c 8d3d 1ff5 a2be 2eab 3cbd
000000d0: 7ea0 05be 6c37 bdbd 1ef9 063e 35fe 26be
000000e0: 11f3 aabc 0bbb e43d 545c 613e b9ef 353e
000000f0: 5f67 613d 548c 9cbd bf73 0e3c cff6 c83d
00000100: 95c9 ff3c 63aa 803d 710f 64bd a64b 02be
00000110: 2b88 b1bc 361a 9d3d 3b85 c83d 87cb a3bd
00000120: 52b6 08be ab12 163c 265d 19be 660f 61be
00000130: c127 5bbd 80d6 e6bb 53f3 80bd dfae 133d
00000140: 13c8 8cbe 1311 043d 366d 233e f2df 82be
00000150: 7e59 3fbe 49f6 44be 993c 21be 23c3 fabd
00000160: ed2d 67bd cdb1 123e 2467 8e3d ef44 593d
00000170: 4da4 483e 9833 9d3d d3ff a13d 56be 15be
00000180: 3455 9f3d df74 f4bd 8aa7 8f3d 5776 3b3d
00000190: 8de1 2abc c44f 303b 456d 533c 45bc 973d
000001a0: 6b85 583d f279 0f3e 5e77 d9bd ef39 6b3d
000001b0: 1ee6 b0bd adaa d3bd 1923 1abd 5132 b1bd
000001c0: 17e2 1cbd 2aaa 2bbd fc2d c43d b787 513b
000001d0: c31e cfbb 806e c13d 910b 413d e81a 5abd
000001e0: 9a29 63be c3ec 01bf 2931 42be 4cf8 23be
000001f0: 72da c7bd 424f d53d 8986 403e 51cd b6bc
00000200: 837d 1b3f ab07 14bd 613e 193e 76cb d3bd
00000210: ea19 3dbe 1f03 00bd 975c 8abd 13ef 26be
00000220: 3356 483c ce89 80be bcf7 7fbc 7796 a4be
00000230: d647 4abd fdad c5be fdda 21be 6ba3 3f3e
00000240: cb9b 80be 09ab 37be 6e49 9b3e 3b00 afbe
00000250: 77bb c93e c255 1dbe 9590 74bd b0bb fc3d
00000260: b800 893d 8f72 03bc a67d 15be 66b4 d2bd
00000270: dafa c7bd 6d50 10be 31cd b83d f481 5e3d
00000280: 64a4 273e 0e54 053d e770 543e 6c43 ea3c
00000290: aa68 66bd 1e24 513e 6d4d 023c 7997 1e3e
000002a0: a81b 72bd a5e1 203e f366 1d3e 9db5 ebbd
000002b0: 5b05 073e 50dd 143e 30bc 4b3e d8e0 363e
000002c0: 67ef 3b3e 657f 943c a9eb 293d e30c 80be
000002d0: 2884 b3bd a4f1 22bd e493 113e a7a3 da3d
000002e0: 6352 083e 2323 65be a615 2abe c4ec cb3c
000002f0: c086 1d3e cec5 123e d249 ccbc 1e30 133d
00000300: 8679 c0ba e15b 0cbe 103e a53d 4c09 e8bd
00000310: 3fd8 503d ec43 423c db76 c33d 132d 2cbd
00000320: 7fb6 bc3e 5115 113d 0fc5 3f3d ca05 0fbe
00000330: a57a 1cbe 103b 5c3e 75f0 1abe b7db 20be
00000340: c6cb 51be 9be6 6e3e 623d 87bd 2474 9fbd
00000350: 5a0d e03a 3034 80bd cd44 a9bb caa4 17be
00000360: 6e36 42bb 3404 d73d bab8 363e 406e 8d3b
00000370: 10a0 293e b76d a9bc 1dad 333d 86b9 33be
00000380: 9b7f 593e 924e 0cbe 1a3f 163e 43b5 e73c
00000390: e139 bbbc 9ff6 5dbd 2fc7 cbbc d720 e1bd
000003a0: 973f ba3d 5f1c d53d 5a5d a4bd eeec 0dbe
000003b0: daee 063e e57b cebd 69f7 b83d 9590 83be
000003c0: c5ea f1bd 03c1 ae3d 8ac8 043e 500c 07be
000003d0: 97a8 53be 689b e83d f4d4 49be 0e91 783e
000003e0: aa45 023e 04c7 053e 4451 1f3e 2965 813d
000003f0: 5bb7 273e ff30 ac3d b0c4 9f3d cf98 adbd

nn_fun1.4.bias f4 [30]
0.028102398 -0.100559436 -0.13498987 -0.014135607 -0.04299641 0.10846404 0.0817205 -0.23427193
0.0013840336 -0.18400286 0.08243564 -0.13447277 -0.12855345 -0.2583767 0.16295846 -0.06453148
0.12767588 -0.083679326 -0.13365275 0.121788874 -0.05109929 -0.069800004 -0.02298024 0.10869245
0.0011977761 0.18095966 -0.096622474 -0.16211896 -0.12084026 -0.14714833
00000000: 0037 e63c 1bf2 cdbd c93a 0abe 0899 67bc
00000010: 011d 30bd 6522 de3d 145d a73d fbe4 6fbe
00000020: 7668 b53a 3f6b 3cbe 04d4 a83d 3bb3 09be
00000030: 84a3 03be f349 84be 95de 263e 1529 84bd
00000040: 77bd 023e 1160 abbd 44dc 08be 726c f93d
00000050: 7d4d 51bd 4ef3 8ebd 0e41 bcbc 269a de3d
00000060: b2fe 9c3a 7d4d 393e 01e2 c5bd 8302 26be
00000070: 197b f7bd 0dae 16be

nn_fun1.6.weight f4 [30, 30]
0.059702285 0.102789275 -0.072220474 -0.049690973 -0.023388851 0.15279776 0.0433953 -0.051484343
-0.11295911 0.06907498 -0.18257171 0.08992104 -0.12022425 0.06749277 0.22440764 0.0012496441
0.20698853 0.036617123 0.1417952 -0.05892913 -0.16473012 -0.048882272 0.15032563 -0.1862645
-0.04002083 -0.1337249 -0.16661918 -0.21718834 0.027900955 -0.031828918 -0.2075459 0.027913636
-0.062437344 -0.11401527 -0.08440838 0.036029313 -0.04493081 -0.07591027 -0.14093302 -0.01012262
0.14779127 -0.10929332 0.13912326 0.21081261 0.12321921 -0.13539247 -0.13190266 -0.041657586
0.01210026 -0.039598495 0.05055821 -0.09351317 0.12607767 0.057058964 0.032446917 -0.07557523
-0.08251397 0.03366123 0.10194187 -0.09036016 0.16197328 -0.010136074 0.035864837 0.12635759
0.123017974 0.12213036 0.10052578 0.0043050926 0.16434108 0.14832732 0.07837435 0.07179677
-0.016548218 -0.2021816 -0.17128213 -0.0126590375 -0.11196281 -0.109547436 -0.05122143 0.13879725
-0.08661887 -0.054609597 0.06319021 0.06365417 -0.028031396 0.1287983 0.059814647 0.12968801
0.06347205 0.22591123 -0.050265517 0.17243598 0.024336554 0.14333545 0.034098078 -0.14981754
0.23116393 -0.075977 -0.17060098 0.10548266 0.043979418 0.06087879 -0.1272705 0.20451894
0.17888336 0.1543573 0.03879755 -0.13052654 0.033445485 -0.14938647 0.026909806 0.19660139
0.17013337 0.16514377 0.039134506 -0.025746 0.0943558 -0.04065598 0.14740762 -0.071110934
0.004859876 -0.09953013 -0.076603234 -0.0679859 0.165225 0.0336475 -0.035427134 -0.072684355
0.033467367 0.10975248 0.043574803 -0.08177359 0.008845019 0.12861863 -0.09378592 0.12915336
0.13359867 -0.12052071 -0.18879402 -0.12321246 0.12110173 0.17329843 -0.12943019 -0.033969633
-0.14558254 -0.11335871 0.19968882 -0.030057628 -0.12228651 -0.05101206 -0.05061386 0.18215461
-0.061585996 -0.029018821 -0.0075385687 0.046572424 0.14974251 -0.20412478 -0.030571263 0.06426797
0.1534653 0.07986141 0.09788337 -0.07426499 0.09050133 0.06716586 0.078165546 -0.03740816
0.012724938 0.07219149 -0.11790225 -0.0289816 0.18902916 0.07615175 -0.055304877 -0.2544391
0.048257846 -0.054561473 -0.17733136 0.11718949 -0.01935117 -0.14434572 0.0804345 -0.020432727
0.133457 -0.007716131 0.0049992534 0.05571925 0.088962026 0.17956388 0.13915741 -0.058418043
-0.10114177 0.012168183 -0.13974057 -0.2515574 0.23859656 -0.054888923 -0.12043891 0.13260823
-0.026515905 -0.1401481 0.11241879 0.074664384 0.2672471 0.14288794 -0.0074036415 -0.19545199
-0.17870499 0.15410511 0.017565526 -0.16806236 -0.08928824 0.021848539 0.045419686 0.07142948
0.10257271 -0.19354755 0.030340081 0.035105012 0.24792211 -0.005247128 -0.035127565 -0.29789633
-0.10337747 0.08413524 0.066721864 -0.0356473 0.13783349 0.14647575 0.16839448 -0.026293183
0.04470801 0.029089078 -0.12392505 -0.07485233 0.1695807 0.11754147 -0.09149727 -0.037736323
-0.025345135 0.01957969 -0.124408506 0.030707827 -0.15333669 -0.05101366 -0.10845437 -0.05555914
0.058871325 -0.117361814 -0.2622725 -0.19032712 -0.050945852 -0.010693739 -0.0016552482 0.0075155925
00000000: 628a 743d 2f83 d23d 54e8 93bd c388 4bbd
00000010: fa99 bfbc 0477 1c3e 45bf 313d 3fe1 52bd
00000020: 1b57 e7bd 2f77 8d3d 14f4 3abe 8628 b83d
00000030: 2238 f6bd a639 8a3d 1ecb 653e 19cb a33a
00000040: cdf4 533e d6fb 153d c332 113e ac5f 71bd
00000050: 03af 28be c738 48bd f6ee 193e 1fbc 3ebe
00000060: e2ec 23bd 2eef 08be 389e 2abe 9f66 5ebe
00000070: 8b90 e43c 0a5f 02bd ea86 54be 23ab e43c
00000080: 4dbe 7fbd d680 e9bd 4dde acbd 7993 133d
00000090: 5e09 38bd d876 9bbd bf50 10be 58d9 25bc
000000a0: 9856 173e 2dd5 dfbd 5476 0e3e 43df 573e
000000b0: 5a5a fc3d 53a4 0abe 7e11 07be 25a1 2abd
000000c0: 2b40 463c 0832 22bd 2016 4f3d d583 bfbd
000000d0: 811a 013e a9b6 693d 0fe7 043d 30c7 9abd
000000e0: 16fd a8bd 5ce0 093d e6c6 d03d bf0e b9bd
000000f0: 53dc 253e c711 26bc 02e7 123d e263 013e
00000100: d9f0 fb3d 7b1f fa3d 76e0 cd3d bc11 8d3b
00000110: 0749 283e 1ee3 173e bb82 a03d 2f0a 933d
00000120: 2190 87bc b108 4fbe 9564 2fbe da67 4fbc
00000130: c24c e5bd 685a e0bd 90cd 51bd de20 0e3e
00000140: 3c65 b1bd 50ae 5fbd de69 813d 1e5d 823d
00000150: 19a2 e5bc b4e3 033e 3400 753d efcc 043e
00000160: a2fd 813d 4655 673e 37e3 4dbd 0f93 303e
00000170: 745d c73c 87c6 123e 6daa 0b3d c569 19be
00000180: 3db6 6c3e d499 9bbd 06b2 2ebe 4b07 d83d
00000190: c323 343d 0a5c 793d 3353 02be 6a6d 513e
000001a0: 332d 373e d70f 1e3e 2eea 1e3d c0a8 05be
000001b0: 22fe 083d c4f8 18be f471 dc3c e051 493e
000001c0: 7137 2e3e 731b 293e 814b 203d 47e9 d2bc
000001d0: 9d3d c13d e386 26bd 06f2 163e 9ca2 91bd
000001e0: 983f 9f3b 74d6 cbbd 28e2 9cbd 313c 8bbd
000001f0: be30 293e f6d1 093d 0b1c 11bd 89db 94bd
00000200: 1415 093d e9c5 e03d 7e7b 323d e978 a7bd
00000210: b3ea 103c 9ab4 033e d512 c0bd c740 043e
00000220: 17ce 083e 90d3 f6bd 3853 41be d056 fcbd
00000230: 2f04 f83d 2575 313e 5989 04be be23 0bbd
00000240: 9713 15be 9d28 e8bd 3a7b 4c3e 6a3b f6bc
00000250: 5a71 fabd 06f2 50bd 7b50 4fbd bd86 3a3e
00000260: 9941 7cbd e1b8 edbc 1906 f7bb bac2 3e3d
00000270: 1a56 193e 1606 51be 9670 fabc ed9e 833d
00000280: 0226 1d3e 618e a33d 1477 c83d 3e18 98bd
00000290: c358 b93d 418e 893d 4215 a03d 4c39 19bd
000002a0: 427c 503c 22d9 933d bc76 f1bd d26a edbc
000002b0: dc90 413e 73f5 9b3d 5e87 62bd d745 82be
000002c0: 05aa 453d da7b 5fbd 5a96 35be 0b01 f03d
000002d0: 5886 9ebc 5dcf 13be d8ba a43d 8962 a7bc
000002e0: f4a8 083e 99d7 fcbb c7d0 a33b de39 643d
000002f0: b931 b63d 98df 373e 487f 0e3e c247 6fbd
00000300: 6b23 cfbd 0f5d 473c 2718 0fbe 22cc 80be
00000310: a852 743e 35d3 60bd ada8 f6bd 74ca 073e
00000320: e237 d9bc fc82 0fbe d33b e63d a4e9 983d
00000330: 9dd4 883e 3751 123e 3f9a f2bb 9124 48be
00000340: 71fe 36be bbcd 1d3e 94e5 8f3c 8a18 2cbe
00000350: c1dc b6bd b5fb b23c fe09 3a3d 9f49 923d
00000360: a411 d23d 5431 46be c38b f83c 46ca 0f3d
00000370: 4bdf 7d3e 1af0 abbb ece1 0fbd de85 98be
00000380: 91b7 d3bd 194f ac3d 79a5 883d e702 12bd
00000390: 3924 0d3e bdfd 153e 9a6f 2c3e cd64 d7bc
000003a0: bf1f 373d 384c ee3c 6bcc fdbd 2e4c 99bd
000003b0: 90a6 2d3e 95b9 f03d ec62 bbbd 6791 1abd
000003c0: 9aa0 cfbc 9665 a03c e3c9 febd fb8e fb3c
000003d0: 4b04 1dbe b3f3 50bd 531d debd fb91 63bd
000003e0: 0f23 713d 645b f0bd 9548 86be 1de5 42be
000003f0: 99ac 50bd cb34 2fbc eaf4 d8ba 5c45 f63b

nn_fun1.6.bias f4 [30]
-0.014431954 -0.15901373 0.07122158 -0.13704126 -0.13917162 -0.004054088 -0.13664639 -0.09001253
-0.049153134 0.22516954 0.17451228 -0.08963728 0.13695912 0.08159976 -0.061549336 0.041134987
0.039534677 0.02110386 -0.016635954 0.042505816 -0.17012319 0.14528765 0.05952987 0.078750096
0.08604925 -0.03836771 -0.06568473 0.1428621 -0.17925048 -0.0030453762
00000000: 0174 6cbc 7fd4 22be 9fdc 913d 8b54 0cbe
00000010: 0183 0ebe 28d8 84bb 08ed 0bbe 7d58 b8bd
00000020: cc54 49bd d892 663e 59b3 323e c093 b7bd
00000030: 033f 0c3e c61d a73d 281b 7cbd 297d 283d
00000040: 1def 213d 01e2 ac3c 2048 88bc 941a 2e3d
00000050: c634 2ebe 49c6 143e 98d5 733d bb47 a13d
00000060: 973a b03d 7627 1dbd b785 86bd 714a 123e
00000070: 708d 37be ef94 47bb

nn_fun2.0.weight f4 [30, 2]
0.28933412 0.5069069 0.64526844 0.47709054 -0.7185523 0.45808482 0.62050486 0.29880613
-0.54991966 -0.29052317 0.16618468 -0.17932226 0.7297429 -0.12449412 -0.9613597 0.17275216
0.12036541 -0.04336062 -0.42967963 -0.42877856 0.68493414 -0.69151205 0.09559836 0.6051246
0.50566345 0.12830728 -0.53934264 0.32894343 0.3239882 -0.06673967 -0.31890374 -0.087122284
0.2458456 0.3669009 0.33840954 0.067501105 -0.9717082 0.44636703 0.22529222 0.13815679
-0.44611427 -0.47242877 -0.017048363 -0.16355099 0.7251232 -0.18861474 0.111753695 0.53429615
-0.2945554 -0.27419853 -0.42666328 0.8193689 0.9342956 0.1233075 0.14641766 -0.08858412
-0.59831786 -0.20709015 0.7454503 0.7836407
00000000: 9a23 943e a7c4 013f 5030 253f 3645 f43e
00000010: 0bf3 37bf 188a ea3e 68d9 1e3f 1efd 983e
00000020: 89c7 0cbf 74bf 94be 512c 2a3e 41a0 37be
00000030: 6ed0 3a3f c6f6 febd ab1b 76bf f1e5 303e
00000040: 2482 f63d e89a 31bd f8fe dbbe dd88 dbbe
00000050: d857 2f3f ef06 31bf 13c9 c33d 72e9 1a3f
00000060: 2973 013f fc62 033e 5c12 0abf 466b a83e
00000070: c8e1 a53e cfae 88bd 5a47 a3be 2b6d b2bd
00000080: f3be 7b3e 6fda bb3e 0444 ad3e 053e 8a3d
00000090: dec1 78bf 388a e43e 01b3 663e f978 0d3e
000000a0: 1769 e4be 2fe2 f1be 02a9 8bbc e979 27be
000000b0: ada1 393f 3924 41be 1fdf e43d a2c7 083f
000000c0: f7cf 96be c063 8cbe 9c73 dabe 29c2 513f
000000d0: ff2d 6f3f a488 fc3d 83ee 153e 976b b5bd
000000e0: 5c2b 19bf 710f 54be d5d5 3e3f ad9c 483f

nn_fun2.0.bias f4 [30]
-0.04747252 -0.689888 -0.45552334 0.30215544 0.47870454 0.2621756 -0.047320183 -0.0021839102
-0.27287486 -0.11903373 -0.6859682 0.6232669 0.35986638 -0.3753063 -0.13632263 0.39142755
-0.14451303 -0.19294523 -0.15774797 -0.5843711 0.41109198 -0.031592306 0.46349466 0.5236564
0.1755093 0.20551893 -0.034419484 0.040200662 0.45969024 -0.2711263
00000000: 8c72 42bd 809c 30bf 5b3a e9be 1eb4 9a3e
00000010: c318 f53e e13b 863e cfd2 41bd ef1f 0fbb
00000020: 41b6 8bbe f5c7 f3bd 9d9b 2fbf 6b8e 1f3f
00000030: 6840 b83e 2628 c0be 2998 0bbe 3169 c83e
00000040: 39fb 13be 6f93 45be af88 21be 5899 15bf
00000050: a67a d23e ef66 01bd 2c4f ed3e 590e 063f
00000060: b6b8 333e 8e73 523e 72fb 0cbd 73a9 243d
00000070: 855c eb3e 11d1 8abe

nn_fun2.2.weight f4 [30, 30]
-0.14006166 -0.11364553 0.1056742 0.08908983 -0.09772597 0.004925306 -0.079197064 -0.0564322
-0.2081359 -0.1266005 0.22939435 -0.06229525 0.0007212858 0.19364099 -0.076769106 0.03799693
-0.06475139 0.028451107 -0.075898916 -0.004641839 -0.06872157 0.13354011 0.06440147 -0.07120624
-0.058832888 -0.20016932 -0.1102647 -0.1478561 -0.18725538 -0.095194705 -0.15661646 0.2220575
-0.32782882 0.13764039 0.068612166 0.15944736 0.23939012 -0.096726865 -0.05137521 0.16029994
0.07520923 -0.1762196 0.03313136 -0.25264356 0.3275457 -0.11791836 0.14841251 0.105357565
-0.17820625 0.049060497 -0.08447527 -0.04726614 0.22197567 0.06079743 -0.12219094 -0.2362424
0.20417541 0.042973742 -0.13679875 0.07184801 0.08385445 0.041033965 -0.0460639 -0.05544116
-0.11657806 0.018800143 -0.012331778 -0.03994734 0.12165398 0.21781555 -0.19731247 0.048666187
0.1906363 -0.2313289 0.015401498 0.06162614 -0.04948807 0.15396212 -0.22467531 -0.1929248
-0.055486884 0.041359767 0.25791517 0.10566628 0.12298079 -0.09342565 -0.036782976 0.041013308
-0.060902346 -0.009450122 -0.03837028 -0.08897058 0.0124470545 -0.17071389 0.033349093 -0.28604352
-0.080509745 -0.2898681 -0.09902292 -0.055894032 -0.029384995 -0.063045315 -0.18309644 -0.12326781
0.11852165 0.06375235 -0.013221166 -0.102024116 -0.049664017 0.13076924 -0.03977725 -0.20044473
-0.06299612 0.15793788 -0.020006124 0.10567572 0.18312429 -0.21363911 0.042868603 -0.14121084
0.26265407 0.1366737 -0.2641409 -0.047757667 -0.25793853 0.06611164 0.14272678 -0.19050474
0.04949142 -0.18847726 0.14877078 -0.078917965 0.037092242 -0.21848123 0.032252185 -0.04378855
-0.06165356 -0.014645764 -0.036286976 0.14151265 -0.20952226 0.008987268 0.27573907 0.14313406
-0.052409887 0.088965185 0.29287344 0.0916568 -0.23110685 0.076788194 -0.22047503 0.018267049
-0.14055194 -0.034692828 -0.15008892 -0.15422004 0.13020754 0.055744268 0.037093826 0.11547041
0.06258953 -0.06775494 0.1244489 -0.100722276 0.1188313 -0.16095504 -0.16401748 0.15622894
-0.09856172 0.19859934 -0.12635618 -0.14231391 -0.069390334 -0.112826 -0.16078871 -0.08291629
-0.12663968 -0.15049432 -0.13931517 -0.087740205 -0.08842272 -0.043086793 0.2586582 -0.2066468
0.0004510663 -0.14503439 -0.23248854 0.36626756 -0.004064102 0.06456272 0.030122243 -0.21769486
-0.15057163 0.28599405 -0.21013533 0.1283492 -0.2287805 -0.09221376 0.016627653 0.046413362
-0.0029077472 0.049557757 -0.031758014 -0.052526724 0.18704788 -0.08646038 -0.35755134 0.031022461
0.20180732 -0.030286167 -0.029350387 0.09041416 0.30120793 -0.24143854 0.06332746 -0.0461687
-0.40420386 0.40055898 0.05317634 0.0954738 -0.16713361 -0.17259292 -0.16955076 0.35174945
-0.19208416 0.043733902 0.0943381 -0.065734304 0.08363426 0.13270305 0.14655794 0.086004846
-0.41664106 0.071577385 0.061537877 0.1076754 -0.26212713 -0.008589929 0.092556454 -0.22505075
0.1361334 0.20564692 -0.094151564 0.04351202 -0.13061573 0.20949881 -0.07633559 0.26212147
0.13305078 0.12764385 0.05729593 -0.049615115 -0.031037468 -0.14655276 -0.0854883 0.076701544
00000000: 536c 0fbe fdbe e8bd b76b d83d bb74 b63d
00000010: 8e24 c8bd 7664 a13b 1232 a2bd 7325 67bd
00000020: 9421 55be 90a3 01be 5ae6 6a3e 4e29 7fbd
00000030: ac14 3d3a d349 463e 1f39 9dbd aba2 1b3d
00000040: 609c 84bd 4c12 e93c e470 9bbd 911a 98bb
00000050: e5bd 8cbd bdbe 083e ebe4 833d 94d4 91bd
00000060: c1fa 70bd 30f9 4cbe 76d2 e1bd 9767 17be
00000070: e0bf 3fbe 71f5 c2bd 1160 20be 0b63 633e
00000080: 2ed9 a7be 9af1 0c3e 8984 8c3d 2b46 233e
00000090: af22 753e bc18 c6bd d06e 52bd ab25 243e
000000a0: 4c07 9a3d e972 34be c0b4 073d 7f5a 81be
000000b0: 12b4 a73e 2e7f f1bd 73f9 173e b5c5 d73d
000000c0: b37b 36be a9f3 483d 5f01 adbd 249a 41bd
000000d0: 974d 633e ba06 793d 3e3f fabd 87e9 71be
000000e0: 5c13 513e 3c05 303d f914 0cbe 0d25 933d
000000f0: e2bb ab3d 3b13 283d 80ad 3cbd 4516 63bd
00000100: 7ac0 eebd c202 9a3c 3a0b 4abc d29f 23bd
00000110: b925 f93d 0a0b 5f3e 480c 4abe 3256 473d
00000120: 2a36 433e 7ce1 6cbe 9156 7c3c b16b 7c3d
00000130: 01b4 4abd 3fa8 1d3e 4911 66be 148e 45be
00000140: 3746 63bd dc68 293d 750d 843e 9067 d83d
00000150: 5add fb3d f255 bfbd bfa9 16bd 92fd 273d
00000160: bd74 79bd afd4 1abc 282a 1dbd 3536 b6bd
00000170: bbee 4b3c 9fcf 2ebe 0f99 083d 4c74 92be
00000180: 4be2 a4bd 9769 94be 87cc cabd 24f1 64bd
00000190: cdb8 f0bc e71d 81bd a27d 3bbe d573 fcbd
000001a0: 7bbb f23d 9890 823d 979d 58bc 05f2 d0bd
000001b0: 7f6c 4bbd 5fe8 053e 78ed 22bd 6241 4dbe
000001c0: 1c04 81bd 78ba 213e e2e3 a3bc 836c d83d
000001d0: ef84 3b3e 36c4 5abe fd96 2f3d 9399 10be
000001e0: 987a 863e 31f4 0b3e 7a3d 87be 8b9d 43bd
000001f0: 8510 84be 8a65 873d f826 123e ad13 43be
00000200: 84b7 4a3d 2f00 41be 5e57 183e be9f a1bd
00000210: 09ee 173d 8bb9 5fbe de1a 043d 9f5b 33bd
00000220: 7188 7cbd c9f4 6fbc a7a1 14bd b1e8 103e
00000230: 018d 56be 563f 133c ac2d 8d3e bc91 123e
00000240: c0ab 56bd 6133 b63d 82f3 953e 8fb6 bb3d
00000250: 46a7 6cbe 2143 9d3d 35c4 61be c7a4 953c
00000260: d9ec 0fbe 111a 0ebd e9b0 19be dceb 1dbe
00000270: 2055 053e 1a54 643d b2ef 173d c07b ec3d
00000280: f12e 803d 1ac3 8abd 11df fe3d 7b47 cebd
00000290: d35d f33d 66d1 24be 33f4 27be 7bfa 1f3e
000002a0: bada c9bd a05d 4b3e 8463 01be bdba 11be
000002b0: 851c 8ebd 5111 e7bd cca5 24be 04d0 a9bd
000002c0: d5ad 01be 2f1b 1abe a3a8 0ebe 23b1 b3bd
000002d0: f916 b5bd c77b 30bd d96e 843e 389b 53be
000002e0: 187d ec39 e583 14be 7a11 6ebe 6c87 bb3e
000002f0: 292c 85bb 7639 843d ecc2 f63c 67eb 5ebe
00000300: 732f 1abe d06d 923e b72d 57be f96d 033e
00000310: 6f45 6abe 91da bcbd b736 883c f01b 3e3d
00000320: e78f 3ebb 13fd 4a3d b114 02bd 4326 57bd
00000330: 7b89 3f3e 2412 b1bd f810 b7be d122 fe3c
00000340: 94a6 4e3e b21a f8bc 3970 f0bc 0f2b b93d
00000350: ed37 9a3e aa3b 77be d4b1 813d 641b 3dbd
00000360: cff3 cebe 1116 cd3e 6fcf 593d c587 c33d
00000370: 1325 2bbe 33bc 30be b79e 2dbe 8118 b43e
00000380: b6b1 44be 5222 333d 5534 c13d b59f 86bd
00000390: 7048 ab3d 4fe3 073e 4913 163e 4f23 b03d
000003a0: fa51 d5be 2a97 923d 240f 7c3d ec84 dc3d
000003b0: 8735 86be c6bc 0cbc 3d8e bd3d b473 66be
000003c0: 8e66 0b3e 1b95 523e 89d2 c0bd a939 323d
000003d0: 21c0 05be db86 563e d555 9cbd c934 863e
000003e0: 773e 083e 12b5 023e 23af 6a3d 3839 4bbd
000003f0: 4a42 febc ed11 16be 7d14 afbd b315 9d3d

nn_fun2.2.bias f4 [30]
0.19566187 -0.14047122 -0.16998735 0.08192524 0.099558815 0.15735729 -0.16157281 -0.061338834
0.1916243 0.13377222 -0.07975339 -0.01699519 0.040313028 -0.12969953 0.026614385 0.013341339
-0.039464694 0.042160243 0.002052876 -0.060249183 -0.090910316 0.123825215 -0.10369831 0.18971583
0.2873924 -0.19599465 -0.16788608 0.012530992 0.14733988 -0.0636826
00000000: 965b 483e b0d7 0fbe 2a11 2ebe 6cc8 a73d
00000010: 7ee5 cb3d 4522 213e 5873 25be 6e3e 7bbd
00000020: 2939 443e 96fb 083e bf55 a3bd 7f39 8bbc
00000030: 461f 253d f4cf 04be 6906 da3c a295 5a3c
00000040: bba5 21bd 38b0 2c3d 8b89 063b d9c7 76bd
00000050: 302f babd 1398 fd3d c85f d4bd de44 423e
00000060: 1925 933e d2b2 48be 54ea 2bbe ca4e 4d3c
00000070: 44e0 163e 066c 82bd
