models/neural_network_GraphConv_single_dynamics_MM_graph_size_10/neural_network.pth (torch, 2316 bytes, 4 tensors)

conv1.lin_rel.weight f4 [30, 1]
0.17641555 -0.11330724 1.409174 0.055865005 0.10252778 0.8359598 -0.33250833 -1.3146
-0.002557321 -0.0688805 0.2008384 0.089064665 -0.6953781 0.052477498 0.46186054 0.49188048
-0.27965796 0.60502005 -0.111382194 3.3415097e-05 -0.09899249 0.8339405 -1.2630463 -0.09987627
-0.09127794 1.1232488 1.1018336 1.0697109 -0.1304256 0.044511184
00000000: 47a6 343e a00d e8bd d05f b43f b4d2 643d
00000010: 16fa d13d 7601 563f 883e aabe d044 a8bf
00000020: ba98 27bb 3811 8dbd 95a8 4d3e 8967 b63d
00000030: 4d04 32bf a5f2 563d fc78 ec3e c2d7 fb3e
00000040: 542f 8fbe 98e2 1a3f 591c e4bd 3027 0c38
00000050: 93bc cabd 207d 553f 80ab a1bf ee8b ccbd
00000060: eeef babd 9ec6 8f3f e208 8d3f 49ec 883f
00000070: 4a8e 05be 5c51 363d

conv1.lin_rel.bias f4 [30]
0.84076333 0.13565847 -0.07310729 -0.407037 0.39560947 -0.3731578 0.14159815 -0.45217136
0.15276416 -0.9341595 0.75572395 0.24454513 0.36420062 -1.2129887 -0.40673998 0.023112185
-0.11913212 1.0073287 -0.010809185 -0.73609525 0.3613938 1.324443 0.013668902 -0.90160954
0.114352636 -0.26939243 -0.44252264 -0.7752672 0.9119534 0.1623828
00000000: 443c 573f 0eea 0a3e 46b9 95bd 2767 d0be
00000010: 538d ca3e 8a0e bfbe 1bff 103e 0183 e7be
00000020: 356e 1c3e 1425 6fbf 2077 413f 0a6a 7a3e
00000030: 8178 ba3e 3743 9bbf 3940 d0be c455 bd3c
00000040: 8afb f3bd 26f0 803f 0219 31bc bd70 3cbf
00000050: 9c08 b93e 5987 a93f 88f3 5f3c e2cf 66bf
00000060: b731 ea3d ceed 89be 5492 e2be e977 46bf
00000070: c775 693f ad47 263e

conv1.lin_root.weight f4 [30, 1]
-1.3705508 1.1475213 -1.1748666 0.7672135 -0.06272772 -0.095705725 1.1350309 -0.41895524
-0.76677346 -0.22085264 -0.42907593 -1.0256509 -0.6490366 1.2349352 -0.17708111 0.27745244
-0.19708319 1.164488 -0.5323984 1.0257598 0.88784003 -0.282128 -0.73959154 1.3108023
1.0125378 1.2910697 -0.38029274 -0.17844102 0.6052461 0.63915175
00000000: 356e afbf fae1 923f 0762 96bf 1b68 443f
00000010: 6477 80bd 5d01 c4bd b148 913f 4d81 d6be
00000020: 444b 44bf 3227 62be d7af dbbe 8748 83bf
00000030: 4327 26bf 5b12 9e3f c054 35be 3f0e 8e3e
00000040: 2dd0 49be f10d 953f 434b 08bf 194c 833f
00000050: 7c49 633f 1573 90be df55 3dbf 5fc8 a73f
00000060: d79a 813f c641 a53f bbb5 c2be 3eb9 36be
00000070: 69f1 1a3f 739f 233f

lin.weight f4 [1, 30]
0.17763667 -0.33025005 0.15105473 -0.16357197 0.010552281 -0.08094983 -0.26602924 0.20323752
0.70349663 0.20176262 -0.09033361 0.41932213 -0.0582772 -0.47453085 -0.10857008 -0.17136241
0.056120574 -0.13225901 0.09147723 -0.18089268 -0.33045164 -0.20667857 0.18746667 -0.7064529
-0.38873193 -0.2548516 0.09212627 0.103230454 -0.30386493 -0.31433356
00000000: 63e6 353e 8916 a9be 17ae 1a3e 697f 27be
00000010: 79e3 2c3c 06c9 a5bd fc34 88be 7f1d 503e
00000020: 5b18 343f dc9a 4e3e d400 b9bd 64b1 d63e
00000030: 13b4 6ebd b5f5 f2be fd59 debd a179 2fbe
00000040: b0de 653d e86e 07be 6a58 bb3d ee3b 39be
00000050: f530 a9be 8ca3 53be 43f7 3f3e 19da 34bf
00000060: df07 c7be e97b 82be b3ac bc3d 7d6a d33d
00000070: 2f94 9bbe 54f0 a0be
