models/neural_network_GraphConv_dynamics_PD_graph_size_10/neural_network.pth (torch, 18655 bytes, 10 tensors)

conv1.lin_rel.weight f4 [30, 1]
000000 d7 63 99 bd 81 ae 5c be f0 4c 65 bf 16 70 be bd
       -0.07489746 -0.21550943 -0.8957052 -0.092987224
000010 23 f5 08 bd ec 55 76 3f 43 42 a5 be ac de 58 bf
       -0.033436906 0.96224856 -0.32277116 -0.8471477
000020 9d a7 55 3f bd 44 29 bf d5 a0 c5 bd 8d b5 88 3e
       0.8345888 -0.6612051 -0.09649817 0.26701012
000030 87 ec 30 3f 3f a3 f9 bd dd ff 00 bf 42 3b cc be
       0.6911091 -0.1218934 -0.50390416 -0.3988896
000040 b2 e7 5c 3e 8c d0 67 bf fb 2a 1c 3f 02 a4 8c bf
       0.2157276 -0.9055259 0.61003083 -1.0987551
000050 9b b0 34 3d bb 7f f9 ba 65 3a d5 3e ff 3a 04 3f
       0.044113737 -0.0019035259 0.41646114 0.5165252
000060 08 5c e3 be 81 d5 82 3f bc b6 4c bd e3 34 92 bf
       -0.44406152 1.0221406 -0.049978957 -1.142239
000070 c7 fc 4d 3f 0a cf 4a 3f
       0.8046383 0.79222167

conv1.lin_rel.bias f4 [30]
000000 87 9a 1a bf 61 2f 3d 3f e0 60 3e 3f 27 5a c8 be
       -0.6039204 0.7390042 0.7436657 -0.3913128
000010 be 3e 62 3e 88 0c 45 bf c8 27 74 be 2a 11 e3 3d
       0.22094247 -0.76972246 -0.238433 0.11087258
000020 71 60 84 3f c0 08 52 3f 9c 2b 3f bf 61 b3 6a 3f
       1.0341932 0.820446 -0.7467592 0.9167996
000030 1f 25 7c 3f 54 75 21 3f 99 2e 5b bf c8 04 eb 3e
       0.9849414 0.63069654 -0.8561798 0.45902085
000040 f7 04 e5 3e d3 d4 1e 3f ef 41 16 bf 75 2d 09 bf
       0.4473035 0.62043494 -0.58694357 -0.53584987
000050 a3 3a 3d bf fb d0 8e 3d 88 d8 82 bf 89 95 1d 3f
       -0.739176 0.069734536 -1.022233 0.615563
000060 99 46 32 3f 39 00 8f 3f 90 b8 15 3f 93 db 6e be
       0.69638973 1.1171943 0.58484745 -0.23325948
000070 6c ab 41 bf a0 18 90 3e
       -0.75652194 0.28143787

conv1.lin_root.weight f4 [30, 1]
000000 61 52 9b 3f 56 f9 07 bf d7 d8 d7 bc 39 c7 85 3f
       1.2134515 -0.5311483 -0.026348514 1.0451423
000010 52 36 53 bf da 6d 97 bb a9 c5 50 bf 19 25 a2 bc
       -0.8250476 -0.0046212496 -0.81551605 -0.01979308
000020 a5 fd 25 3f a8 f8 65 3f 3d 37 f2 be 47 fe 2b 3f
       0.64840156 0.89832544 -0.47307768 0.6718487
000030 ff 83 7c be bf 30 1f 3f f3 e8 35 3e ed 60 ad be
       -0.24659728 0.62183756 0.17764644 -0.3386301
000040 e0 bc 9c 3c 47 b8 7d bd ad 6d 0e be ca 43 90 bf
       0.019133031 -0.06194332 -0.13909025 -1.1270688
000050 80 b7 75 3f db 59 28 3f 76 04 8d 3e dc c3 f0 bd
       0.95983124 0.6576211 0.27542466 -0.11756107
000060 71 b2 82 3f fc 0f 2c be 0d 5a 13 bf d9 34 29 bf
       1.0210706 -0.16802973 -0.5755928 -0.66096264
000070 70 40 7b 3f 98 3a 9a bd
       0.981452 -0.07530707

conv2.lin_rel.weight f4 [30, 30]
000000 10 a7 9d 3d 3f ae b7 3d 26 e2 c7 bd af 0b 14 be
       0.0769788 0.08968782 -0.09759931 -0.14457582
000010 f6 94 12 3e 5e bb 16 3e 02 86 0f be 25 fa b1 bd
       0.14314637 0.14719912 -0.14015964 -0.086902894
000020 03 6a af bd 95 2f 06 be ab 16 b4 3d 8b 26 c7 3d
       -0.08565142 -0.13104089 0.08793386 0.09724148
000030 27 1a 03 3e 85 27 fd 3d 08 dd df bd 3d db 2b 3e
       0.12802945 0.123610534 -0.1093083 0.16782852
000040 30 d8 1b be 75 c1 18 be ad fa 34 bd af ac 17 be
       -0.15219188 -0.14917548 -0.044184376 -0.14811967
000050 b2 79 48 be 7f 71 fe bd b4 fe 7c 3d 46 32 0d 3e
       -0.19577673 -0.124239914 0.06176634 0.13788709
000060 b6 b2 cd bd 69 df 88 bd ff 09 15 bd 12 48 d2 b9
       -0.10043852 -0.06683237 -0.036386486 -0.00040108018
000070 4c ac f3 3d b2 7f 9e 3d 7d 86 cf bd 80 54 a5 bc
       0.118980974 0.077392 -0.101330735 -0.020181894
000080 04 5d cd 3d c9 83 49 be f0 e8 54 bc 65 63 08 bc
       0.10027507 -0.19679178 -0.01299499 -0.008324479
000090 b2 83 bc bd 64 c5 14 bd e6 24 0b be 9e 8e 16 be
       -0.092048064 -0.03632106 -0.13588294 -0.14702842
0000a0 4f 27 3d 3e 3f bb b7 bd fc d2 b8 3c 6a 08 04 be
       0.18472026 -0.08971261 0.022561543 -0.12893835
0000b0 b2 43 0d bd 12 9c 33 3e ff f8 2b be 68 46 ab 3d
       -0.034488387 0.17540005 -0.16794203 0.08363038
0000c0 27 9e bf bd 0e d2 f3 3d 10 ed 02 be fc f8 11 be
       -0.09356337 0.11905299 -0.12785745 -0.14255136
0000d0 b2 46 4c be 98 e8 0d 3d eb 79 19 3e 06 01 b7 bc
       -0.19948843 0.034645647 0.14987914 -0.022339355
0000e0 24 84 15 3d fe 66 17 be c2 60 46 3d 10 49 06 be
       0.036502972 -0.14785382 0.04843212 -0.13113809
0000f0 2d f1 ca bb 53 f4 ca 3d 3c 32 45 3e 91 65 4a bd
       -0.006193301 0.099098824 0.19257444 -0.049413268
000100 2f d5 d0 3c 99 5e ed bd 4e 7a f7 ba af c1 b8 bd
       0.025492279 -0.11590309 -0.0018881054 -0.09021317
000110 3e 9a eb 3d da e6 55 3e 79 a6 8b bd 0c 6b ee 3d
       0.11504029 0.20888844 -0.068188615 0.11641511
000120 2a 75 07 be c5 ff 20 be 66 1d 49 bd 29 7d 65 bd
       -0.13228288 -0.15722568 -0.049100302 -0.056027565
000130 ee 8b 04 3e 1a a2 ad 3b f9 c2 81 3d 25 8b 98 3d
       0.12944004 0.005298865 0.06336016 0.07448415
000140 ec 03 14 3d fa a9 bb bd ae bd 46 be 0c 19 dc 3c
       0.036136553 -0.0916328 -0.19408295 0.026867412
000150 92 e4 0c 3d fe 67 18 be 78 f1 22 3e 17 c7 d1 3d
       0.03439767 -0.1488342 0.15912426 0.102430515
000160 ff b2 a2 bd e3 f8 43 be a1 0b 8e 3d 83 8a 74 3e
       -0.07944297 -0.19137911 0.06935812 0.23880963
000170 32 09 b3 bd 5c 09 bf 3d e3 27 bf bd 52 7e fa bd
       -0.08741988 0.09327957 -0.0933378 -0.12231125
000180 61 dc a8 bd 13 b5 38 3d 91 be cb 3d d5 6e 38 3e
       -0.08245159 0.04509456 0.09948457 0.18011029
000190 a2 7d 2c 3e 44 ee 51 3d ee 2c 27 be 40 95 1d bd
       0.168448 0.05125262 -0.16325733 -0.038472414
0001a0 db b8 48 3e 97 06 f7 3d e5 78 6d be 1c d5 41 3e
       0.19601767 0.12061804 -0.23190649 0.18928951
0001b0 59 23 82 bc b0 24 43 bd 40 f7 98 3c ac 03 0b be
       -0.015885996 -0.04764241 0.018672585 -0.1357562
0001c0 52 d4 ee bd b0 fa a8 bd cb 02 78 3d 6b e8 5e be
       -0.11661591 -0.0825094 0.06054954 -0.21768348
0001d0 89 86 fe bc 2b 69 0f 3e ff 5a 66 bc ef 5b 47 be
       -0.03107001 0.14004962 -0.014059781 -0.19468664
0001e0 8e 17 87 3c eb e6 1a 3e 0e b6 ba bd c7 9d 28 be
       0.016490724 0.1512715 -0.091167554 -0.16466437
0001f0 71 03 65 bc 12 e5 2b 3e a5 c8 bf bd ca 1a 87 3d
       -0.013977871 0.16786602 -0.09364442 0.065969065
000200 51 10 3e 3e 6f 0c 25 be 17 5d 1c 3c 02 8e 87 bc
       0.18560912 -0.16118024 0.009543679 -0.016547207
000210 8e d0 d8 3d a1 0e 2e bd 37 01 21 3d 06 eb 2e 3d
       0.10586654 -0.04249442 0.0393078 0.042704605
000220 7f 06 c4 bd 36 76 0a bc 04 db d2 3d c6 07 0d 3d
       -0.095715515 -0.008451035 0.1029568 0.03443124
000230 cc 97 67 3d 80 40 a7 3d 6c d3 01 3c 95 53 f3 3d
       0.05654125 0.08166599 0.007923942 0.118811764
000240 0b 93 1d 3c aa 6c 51 3e b8 be c2 bd 17 bc 0a bd
       0.009617577 0.20451608 -0.09509033 -0.033870783
000250 80 ba 18 bd e3 aa 55 3e 5e af 2c 3e f6 ec f9 3d
       -0.037287235 0.2086597 0.16863772 0.122034
000260 88 91 51 3e af 2a 12 bd 36 91 ec 3c 96 1b bc 3d
       0.20465672 -0.035685237 0.028877836 0.09184949
000270 d8 e8 34 3e e8 6d 07 3e 1d bb 4e be b8 51 03 3e
       0.17666948 0.1322552 -0.20188566 0.12824142
000280 ee e0 3f 3e 15 c9 dd bd c8 c3 23 be 5a b0 eb bd
       0.18738148 -0.10829369 -0.15992653 -0.11508246
000290 93 04 c5 bd 39 ff a1 3d 23 3e 10 be df 7f 0f 3e
       -0.09620013 0.07910008 -0.14086203 0.14013623
0002a0 0b c7 1f be 37 94 8a 3d 09 f5 28 be 66 30 70 bd
       -0.15603273 0.06766551 -0.16499723 -0.058639906
0002b0 6a 15 f7 bd 54 01 25 be 89 43 38 3e 15 94 10 bc
       -0.12064631 -0.16113788 0.17994513 -0.008824368
0002c0 e2 f5 08 3e 3a 11 81 3d a2 f9 c5 3c 02 af d7 bb
       0.13375047 0.06302114 0.024166886 -0.006582142
0002d0 a4 2b 28 3e 59 80 e8 bd d8 fa 0f 3e d8 e8 04 bc
       0.16422898 -0.113526054 0.14060533 -0.008112155
0002e0 87 ad 30 3e ef 8f 3b 3d 31 1f da bd a5 aa a3 3d
       0.17253695 0.045791563 -0.106504805 0.07991532
0002f0 2c af a5 3c 8d d8 03 3e f6 24 7e 3d 0d af 23 be
       0.02022513 0.12875576 0.062046967 -0.15984745
000300 d6 10 ca bc d1 3c be bd d7 7e f0 3d 64 fa e2 bd
       -0.024666231 -0.092889436 0.11742943 -0.110829145
000310 4d 64 14 be 30 43 1b bd 74 fa 45 be 72 5c 57 3e
       -0.14491387 -0.037905872 -0.19333822 0.21031359
000320 6b cd 1d bd ee 66 e1 3d ea 8c de bd 99 82 f8 bd
       -0.03852598 0.110059604 -0.10866721 -0.121342845
000330 81 cd 47 bd 7a c5 29 be 4c f5 8b bd 03 ef bf 3d
       -0.04877997 -0.16579238 -0.06833896 0.0937176
000340 45 1b e9 bd 0e d2 5e 3d 5f 46 bc bd b8 c3 16 3e
       -0.113821544 0.054399543 -0.0919311 0.14723098
000350 9a 8c f6 bd 05 4b 14 3c 9e 12 06 3e 33 d8 12 be
       -0.12038536 0.009051089 0.1309304 -0.14340286
000360 4c 94 fc 3c a8 3f de 3d b4 f5 a0 3d 9c 3e 07 3e
       0.030832432 0.10851985 0.07859364 0.13207477
000370 28 9b 6f bc 01 9d 14 be f4 1b 50 bd 2f 67 f0 3d
       -0.0146243945 -0.14513017 -0.05080791 0.11738431
000380 70 04 23 3d a5 80 1a 3e 74 5a 4f 3d b4 aa ac bb
       0.039799154 0.15088136 0.050623372 -0.005269373
000390 d1 3e 83 bd b0 e7 f3 bd 00 8b 99 bd 93 7b d1 3d
       -0.06408466 -0.11909425 -0.07497215 0.10228648
0003a0 fd 6b b3 bc d6 30 e8 bd 5e 86 a0 bd 5d 53 45 3d
       -0.021902079 -0.1133744 -0.078381285 0.048175205
0003b0 74 94 e6 bd f5 42 8d 3d 6e f0 34 3e 1f b9 1d 3e
       -0.11258784 0.06897537 0.17669842 0.1540265
0003c0 e0 f9 c9 bb 7a 06 5a 3e 9b 50 67 bd 74 98 8b 3e
       -0.0061638206 0.21291533 -0.056473356 0.2726475
0003d0 7b e2 3c 3e 87 91 1e be 4f 4f ab 3d bb c3 bc bc
       0.1844577 -0.15485202 0.08364736 -0.02304255
0003e0 0c 4c 31 be 95 ad fb bc fc 36 13 3e 72 25 be bc
       -0.17314166 -0.030722419 0.14376444 -0.023211215
0003f0 0f 17 7b 3d 15 ca 1d 3d 16 dc fc bd 6f 72 08 bc
       0.061301287 0.0385228 -0.123466656 -0.008328064

conv2.lin_rel.bias f4 [30]
000000 97 5d dc 3c 45 bf 36 bd 20 ae c2 3d 12 b8 38 be
       0.026900096 -0.044616003 0.09505868 -0.18038967
000010 29 93 00 3e 84 99 b4 bd 37 54 5a bd f3 31 2c be
       0.12556137 -0.08818343 -0.05330297 -0.16815929
000020 6d 98 a6 bd d2 91 93 bd af 91 37 bd 4a 8d 32 3e
       -0.08134542 -0.072055474 -0.04481667 0.1743671
000030 34 95 ff 3d 72 ca 08 3d 71 3d 03 bc df b2 d4 bc
       0.1247963 0.033396192 -0.008010254 -0.025964199
000040 8e 46 3c 3d 86 6c 9d bd a6 6a ba 3d 60 2b e0 bd
       0.045965724 -0.07686715 0.09102373 -0.10945773
000050 b8 64 1f be b2 87 1c be 93 be 25 bd 7a 6e 16 3d
       -0.15565765 -0.15286139 -0.04046495 0.036726452
000060 2a d6 4b 3d 87 3d c6 3c eb 47 43 3d 45 a1 8a bd
       0.04976479 0.02419926 0.04767601 -0.06769041
000070 42 6a 36 3e 56 d7 34 bb
       0.17813972 -0.002759417

conv2.lin_root.weight f4 [30, 30]
000000 0e b8 a8 3e 9d ca 9a bd 20 14 2a 3d ed 04 13 3f
       0.32952923 -0.07558177 0.0415231 0.5742939
000010 6c 7b 1f 3e f9 76 3f be 7e eb 10 3d 1d ce c4 bd
       0.15574425 -0.18697728 0.035380833 -0.096096255
000020 f0 8b 15 be de 2e b5 3e 57 c8 03 3e 89 6f 8f bc
       -0.14604163 0.3538732 0.12869392 -0.017509239
000030 63 a9 0a bd 9d fb 31 3e d2 12 16 3e 74 dd fc bd
       -0.033852946 0.17381139 0.14655617 -0.12346926
000040 2b 52 16 3c 32 de 3e 3d 44 71 06 be 58 d5 e8 bd
       0.009174864 0.04659862 -0.13129145 -0.11368817
000050 53 1f 0d 3e 02 25 11 3e 66 3e e2 bd 08 1f 22 be
       0.1378148 0.14174274 -0.11047058 -0.1583215
000060 89 8c 8a 3e 01 c7 27 be 1f 34 f2 3d 38 a1 8e bd
       0.27060345 -0.16384508 0.118263476 -0.06964344
000070 1d 8f 13 bc a7 ce 17 be e2 cd 19 3e 2b 46 83 3d
       -0.009006289 -0.14824925 0.15019944 0.06409868
000080 81 6d 4c bc 8f e0 7a 3e 72 28 16 be c6 52 d1 bd
       -0.01247728 0.24499725 -0.14663866 -0.10220866
000090 be e4 df bd 38 d1 37 3e a4 8e 64 3c c5 b8 ae 3e
       -0.10932301 0.17950904 0.013950024 0.34125343
0000a0 a5 57 15 bd 8e 27 ca bd 5e ed 66 3d 8e 3c c5 3d
       -0.036460537 -0.09870826 0.056378715 0.096306905
0000b0 a5 c3 b3 bd d1 f6 88 bd 82 41 16 be 0d d2 25 3e
       -0.087775506 -0.066877015 -0.14673427 0.1619341
0000c0 86 02 85 3d bf ce 10 3e 70 86 4c 3e e4 fe 50 3d
       0.06494622 0.14141367 0.19973159 0.051024333
0000d0 af 12 f8 be c9 fa 36 3d 95 5a 9d 3e c0 0f 2e be
       -0.48451754 0.04467276 0.3073317 -0.16998196
0000e0 3a 24 1c be fc 7a 2b be 45 08 3c bd 4e d8 f5 bd
       -0.15248194 -0.16746134 -0.045906324 -0.120041475
0000f0 c9 34 64 bd fc a9 89 bd 3a e0 d0 3a 6b 09 c2 bd
       -0.055714402 -0.06721875 0.0015935965 -0.094744526
000100 86 0f 75 3d e9 c4 9b bd 5e 43 95 bd bf 52 36 bd
       0.059829257 -0.07605917 -0.0728824 -0.044512507
000110 ad 8a 41 3d 7f 20 3d 3d 7d 38 53 3d c0 37 17 be
       0.047251392 0.04617357 0.051567543 -0.1476736
000120 e3 92 12 be 73 dd 38 be cc 9e c9 3d 40 d2 17 3d
       -0.14313845 -0.18053226 0.09844741 0.037065744
000130 70 65 a9 3d 41 a3 48 3e 5c 18 42 3d bb f7 97 3c
       0.08271301 0.19593526 0.047386512 0.018550744
000140 00 9a 7e bc 4c 72 b8 bc a1 d3 d8 3d 7d 8d 11 3e
       -0.015539646 -0.022515438 0.1058724 0.1421413
000150 15 b9 24 be 9f c1 57 bc 41 22 03 be d5 80 0b 3e
       -0.16086228 -0.013168721 -0.12806036 0.13623364
000160 4e b1 11 be 1b c3 33 be da 77 16 3d 2e e2 8f 3d
       -0.14227793 -0.17554896 0.036735393 0.07025562
000170 8b 01 c7 3d f5 5e 39 bd b5 d6 77 3d c8 a7 4d be
       0.09717091 -0.045256574 0.060507495 -0.20083535
000180 13 cf 10 3e a2 37 2c 3e 3d 53 d8 3c 4d c1 58 be
       0.14141493 0.16818097 0.026406879 -0.21167488
000190 6d 07 b8 bc 51 1f 37 3d aa 20 ab 3c 62 e4 34 be
       -0.022464478 0.0447076 0.020889599 -0.17665246
0001a0 e7 35 cf bc 26 58 bd bd ea e7 93 bd 19 86 3b bc
       -0.025294257 -0.092453286 -0.072219685 -0.011445546
0001b0 a2 8b 18 be 95 a5 72 3d c8 dd 19 be b3 c3 a1 3d
       -0.14897016 0.059239943 -0.15026009 0.07898655
0001c0 86 c6 a1 bd 13 e1 58 be 72 b0 1d 3b f9 db 09 be
       -0.078991935 -0.21179609 0.0024061468 -0.13462819
0001d0 b2 84 71 3e 7d cd 60 3e d1 7d 8c 3d 3a 89 94 3c
       0.23585775 0.21953388 0.06859935 0.018131841
0001e0 d1 95 02 be 6d ef 7c 3d 9c 30 16 3e 73 3b d6 bd
       -0.12752463 0.06175177 0.1466698 -0.10460558
0001f0 a3 2a 0d be 79 b6 10 be 47 a0 1d be 0d 05 06 3e
       -0.13785796 -0.14132108 -0.15393172 0.13087864
000200 60 45 10 3d 74 e3 06 be c6 48 2c bd 85 24 48 3e
       0.03522241 -0.13172704 -0.04206159 0.19545181
000210 81 85 b4 3d e6 fb 98 3d f7 65 ea 3d ac d3 78 3d
       0.08814526 0.07469921 0.114452295 0.06074874
000220 4d f4 fb b7 41 a0 4e 3d c8 4b bf 3d 7d be d2 3d
       -3.0035293e-05 0.0504458 0.09340626 0.10290239
000230 16 3d 64 bc 53 6e 8a bd a5 e4 04 be 41 87 1b 3e
       -0.01393058 -0.06759324 -0.12977846 0.15188314
000240 39 58 0f be 36 7f 37 3e 61 1e b6 bc 66 79 84 3d
       -0.13998498 0.17919621 -0.022231283 0.064684674
000250 44 85 06 3e 94 ab 01 be 75 de fc 3b 39 cd c0 bc
       0.13136774 -0.12663108 0.0077169486 -0.023535358
000260 2b d9 b5 3d 91 13 0e 3e 3c 9e 50 3c 28 73 68 be
       0.08879312 0.13874651 0.0127330385 -0.22700179
000270 15 6b 1b 3e 99 36 73 3e ed 4f 5a be dc cb d9 3d
       0.15177567 0.23751296 -0.21319552 0.10634586
000280 57 9a 13 3e 67 c8 22 be ed 9d cd bd ca 71 d8 bd
       0.14414345 -0.1589676 -0.100398876 -0.105685785
000290 47 82 ab 3d 2e 4b 44 3e 47 3c 63 be 70 fa df bc
       0.08374458 0.19169304 -0.22190963 -0.027341098
0002a0 13 b4 c3 3d a0 c3 95 3d d7 c7 03 be ff dd 40 bd
       0.09555831 0.07312703 -0.12869202 -0.047086712
0002b0 ba 0b 60 3e 4e 97 c7 bd 73 69 c5 3d cf 9b b9 bd
       0.21879473 -0.09745656 0.096392535 -0.09062921
0002c0 da 36 25 be 80 2d 8c bc 68 62 cf 3d 59 7f eb bc
       -0.16134205 -0.01711154 0.101261914 -0.028747248
0002d0 ef 8c dc bd eb ba 21 3e 0f 51 ec bc 8e 73 22 3e
       -0.107690684 0.1579396 -0.028847245 0.15864393
0002e0 38 98 18 3e 78 ed 57 be ba 98 33 3e ec 49 3b 3e
       0.14901817 -0.21086681 0.1753873 0.18289918
0002f0 b8 b3 92 3c 1b cc 51 3e ab 60 27 3e a1 ce 1a be
       0.017907962 0.20488016 0.1634547 -0.15117885
000300 11 d5 01 3e 63 06 b0 bd 16 b9 1b 3e 0f 30 31 bd
       0.12678935 -0.08594968 0.15207323 -0.043258723
000310 e5 d5 36 be 6a 63 84 3c a8 2d 13 be e4 6c a2 3d
       -0.17855032 0.016160686 -0.14372885 0.079309255
000320 3c ed 28 3c 47 52 a3 bd be 40 98 3d b1 b5 91 3c
       0.010310467 -0.079746775 0.074342236 0.017786833
000330 af 05 84 3e 8e 80 ce 3d b8 dd 3b 3d 9a a9 9b 3d
       0.25785586 0.100831136 0.045865744 0.07600708
000340 5a ff 09 3c 9e 22 21 bd 46 5a 74 be 8e 21 4a 3e
       0.008422697 -0.039339654 -0.23862562 0.19739363
000350 bf e0 c6 bb ff f6 c3 be 7d f0 65 3d d0 8f 0a be
       -0.0060692723 -0.3827438 0.05613755 -0.13531423
000360 ba 3e 06 be 57 1b 0d 3e 86 3e 36 bd 9d a6 f6 bd
       -0.13109866 0.1377996 -0.04449322 -0.12043498
000370 01 7c 08 3e 05 61 fa 3d 18 71 49 be 27 59 8b be
       0.13328554 0.12225536 -0.19672048 -0.27216455
000380 90 39 56 bd 3f 5d 7d 3d cd 5d 39 bd 60 e8 ea b9
       -0.05230099 0.061856505 -0.04525547 -0.0004480509
000390 bc 22 16 bd 41 ed b0 bd d3 f9 3e be 31 68 4b be
       -0.03665422 -0.086390026 -0.18649988 -0.19863965
0003a0 51 52 96 3d db bd 21 3d 33 df 16 be 81 71 6e 3d
       0.07339919 0.0394877 -0.14733581 0.058213715
0003b0 67 63 e8 3e 2e ea 25 bd fd ee c3 bd 4a 86 22 be
       0.45388338 -0.040506534 -0.09567068 -0.1587154
0003c0 6c 5d ff bd 59 ab c5 3b ea 6a 55 bc ac 64 07 3e
       -0.12468991 0.006032389 -0.013025979 0.13221997
0003d0 fc e4 f0 bd 15 09 3d 3e a1 47 8a 3d 8f dd 3e be
       -0.11762425 0.18460496 0.067519434 -0.18639205
0003e0 28 cd b3 bd 18 d8 7c 3e b2 98 11 3d 51 59 e6 bd
       -0.08779365 0.24691808 0.035546012 -0.112475045
0003f0 30 b2 a8 bc d3 4a 18 3c 2a 74 bc 3d 0f 20 0a be
       -0.020592779 0.009295183 0.09201844 -0.13488792

conv3.lin_rel.weight f4 [30, 30]
000000 8c 69 28 3e e8 41 dc bd fa 89 ad bd 97 06 8e bd
       0.16446513 -0.10754758 -0.084735826 -0.06934851
000010 05 e1 8c bd bd 18 2a 3e a1 13 5d bd e2 d0 eb 3b
       -0.068788566 0.16611 -0.053973798 0.0071965316
000020 1e 64 42 3e e5 27 e0 3d a5 8c 3f bd 46 8a 14 bd
       0.18983504 0.10945109 -0.04676499 -0.03626468
000030 a9 06 0b 3e 7f 88 90 bd 2e f1 ad bc 24 54 db 3d
       0.1357676 -0.070572846 -0.021233167 0.10709408
000040 c8 fb 3b be 8d e2 0c 3e b6 50 25 3e fa 43 80 3d
       -0.18357766 0.13758297 0.1614407 0.062629655
000050 8f d2 90 3e 6c 58 7d bd dc 5f fd 3c 06 8f 52 bd
       0.28285643 -0.061851904 0.030929498 -0.05140593
000060 de 4e 69 bc 0e e0 84 3d 02 87 93 3d 56 bc 1a 3e
       -0.014239995 0.064880475 0.07203485 0.15110907
000070 a7 c0 ec 3c b2 45 09 3d c7 f5 21 3e 86 97 23 be
       0.028900458 0.033513732 0.15816413 -0.1597577
000080 fb da e2 bd 2a 18 7d 3d 65 81 01 3e 53 30 18 be
       -0.110769235 0.061790623 0.12647016 -0.14862184
000090 bd e3 90 bb e1 ec d3 3d bf fc 3e be 44 fc 24 3d
       -0.00442168 0.103479154 -0.18651102 0.04027964
0000a0 9f dd 41 3d 41 0b 1f 3e 55 f4 d1 3d 43 3c 8b 3d
       0.047330495 0.15531637 0.10251681 0.067986034
0000b0 ca 0a 33 bc 0c a5 9f bd d0 a8 7a bd 21 59 06 3d
       -0.010927865 -0.07795152 -0.06119615 0.032799844
0000c0 96 db 5b 3e 8d 68 45 3e bc 2a 17 bd 0a 9e 78 bd
       0.21470484 0.19278164 -0.03690599 -0.060697593
0000d0 97 3f 8f 3d da f6 8d 3d 5e 2d d8 bd cd 0a 12 be
       0.06994551 0.06931849 -0.10555528 -0.14261933
0000e0 87 bc cd 3d 40 e4 e3 bd 56 8a a0 bc b0 cb a5 bd
       0.10045724 -0.111275196 -0.019597214 -0.08095491
0000f0 22 76 e1 3d 8c e9 25 3e b5 ac 0d be 6c 91 95 3c
       0.1100886 0.16202372 -0.13835414 0.01825782
000100 33 5a 14 be d6 0f 04 b9 1c 49 8c 3d 42 14 c3 3a
       -0.14487533 -0.000125944 0.06849882 0.0014883357
000110 66 d3 44 bb 32 34 02 be b3 e0 97 bd d0 03 c3 3d
       -0.003003323 -0.12715223 -0.07415905 0.095222116
000120 0e fc 06 3e f2 85 4c be 0b 1d 9c 3d 15 9e 1c be
       0.13182089 -0.19972971 0.07622727 -0.15294679
000130 0e c5 e2 bd 11 01 d1 3d 57 bb f3 bd 8c f1 20 3d
       -0.110727414 0.102052815 -0.119009666 0.039292857
000140 f7 1d d9 bd 1d f3 07 be 93 d0 22 be 84 01 57 be
       -0.106014185 -0.13276334 -0.15899877 -0.20996672
000150 fb 86 81 3d dc d9 a8 bd b6 94 c2 3d 98 70 2d 3d
       0.063245736 -0.082446784 0.095010206 0.042343706
000160 c0 85 30 be 8b 46 0e bb 4b 10 69 bd c8 cd c5 bd
       -0.17238522 -0.0021709527 -0.056900304 -0.0965839
000170 75 d7 35 bc da be df 3d 8a f7 34 3d 16 d9 2e bc
       -0.011098732 0.10925074 0.044181384 -0.0106718745
000180 87 d9 95 3d 5b 84 97 3d 94 43 d4 3c fa f4 2a 3d
       0.07316881 0.07398292 0.02591113 0.041737534
000190 33 54 f5 bd dc 47 51 bc 0d 49 fa bd 59 a4 95 bd
       -0.1197895 -0.01277348 -0.122209646 -0.073067375
0001a0 49 76 b3 bc 22 64 e0 3d d3 b9 9f 3d 82 ad 2f 3d
       -0.021906989 0.10956599 0.07799115 0.04289008
0001b0 da 5f 1b be bc 8a a5 bd 85 f2 c7 3d 6f b7 72 3d
       -0.15173283 -0.08083102 0.09763054 0.059256967
0001c0 87 05 d5 bd bb a2 05 be c9 2a 9e 3d 42 9a 0e be
       -0.10401445 -0.13050358 0.07723004 -0.13926032
0001d0 21 65 25 be 7b 6c 38 be 66 2f ba bd 9d 66 1a be
       -0.16151859 -0.18010132 -0.09091072 -0.15078206
0001e0 4a 83 d3 3d 20 48 1c be cc b1 ab 3d 3e 47 e3 bc
       0.10327776 -0.15261889 0.083835214 -0.027743932
0001f0 3d b9 c7 3c cb b2 10 3e 60 f7 a6 bd e7 77 98 bd
       0.02438032 0.14130704 -0.08152652 -0.074447446
000200 8b bf 93 3d e0 2f 15 3e 24 f0 1f be e5 17 4a bd
       0.07214268 0.14569044 -0.1561895 -0.049339194
000210 a0 98 97 3d 01 49 9b 3b 62 6e 98 bd 82 9c 25 be
       0.07402158 0.0047389274 -0.07442929 -0.16172984
000220 45 63 87 3d 06 7c 17 3e 37 3d 33 be 75 d1 f8 3d
       0.06610731 0.14793405 -0.1750382 0.12149326
000230 42 ee 52 be 31 57 33 3e 24 57 ff 3d 88 63 e7 bd
       -0.205987 0.1751373 0.12467793 -0.11298281
000240 ea cd 35 3b 12 55 42 3e b9 6c 70 bd ed 29 3e bd
       0.0027741143 0.18977764 -0.058697436 -0.046426702
000250 9e 0d 02 be 38 5e 75 39 26 4b db 3d d8 d4 17 3e
       -0.12700507 0.0002340012 0.10707693 0.14827287
000260 20 1d 21 3d 87 88 0a 3e 7e a1 02 3c e2 75 12 3d
       0.039334416 0.13528644 0.007973073 0.035756953
000270 c0 71 00 3e 33 a5 54 3d 25 92 a5 bd 5e fd 05 bd
       0.12543392 0.05191536 -0.080845155 -0.032712333
000280 44 92 24 be 2a 0d 6f 3d 1b 68 f8 bd c8 f6 ee bd
       -0.16071421 0.058362164 -0.121292315 -0.116681635
000290 58 ec 0f bd 89 04 22 3e 97 0b 12 be 8c 44 d6 3d
       -0.035137504 0.15822043 -0.14262234 0.10462293
0002a0 c3 fb e8 bd 93 d4 b4 bd d4 32 c2 be ae 87 3d be
       -0.11376145 -0.08829608 -0.37929404 -0.18508789
0002b0 de cd d0 bd 24 e6 ee bb da 81 91 3d a6 f9 aa bd
       -0.10195516 -0.0072906185 0.07104845 -0.08348398
0002c0 83 4f 9e bc fe 80 0d bb 52 e1 0d 3e f6 15 55 be
       -0.019325024 -0.0021591778 0.13855484 -0.20809159
0002d0 02 bf 08 be 45 38 d5 3d 19 b5 c3 3d 39 9f 89 3d
       -0.13354114 0.10411123 0.09556026 0.067198224
0002e0 fc a4 ff 3d 42 25 2b 3d d1 7e 5a 3e 8b 3c 7e bd
       0.1248264 0.04178358 0.21337439 -0.062069457
0002f0 64 61 df 3c 86 e6 15 3e d2 c5 ac bd 7a d1 87 3d
       0.02726812 0.14638719 -0.08436169 0.06631751
000300 e3 12 d6 bd 24 e6 56 3d ae d4 26 be a5 58 0b be
       -0.10452821 0.052465573 -0.16292068 -0.13608034
000310 c8 5d 37 3c 8c 49 1d bd f8 de 88 bd 44 20 09 be
       0.011191793 -0.038400218 -0.06683153 -0.13391215
000320 fc 88 83 3d 2a b6 d1 bd 18 f2 78 bd c9 4c 6d 3d
       0.06422612 -0.10239823 -0.060777754 0.057934556
000330 dd 3d e3 bd 90 a8 5a bd 11 ce 0d 3b 3a 90 53 be
       -0.11095784 -0.05338341 0.0021637718 -0.20660487
000340 ba a2 9d 3d 30 be e4 bd 77 ac 29 be 1c 2b 2b bd
       0.07697053 -0.11169088 -0.16569696 -0.04178916
000350 a8 7a 4c 3e 5b b9 65 bd f3 6b 1f 3d 3a dc bc 3d
       0.19968665 -0.056084972 0.038921308 0.092216924
000360 68 17 ae 3c 2a 2d 7c bc 64 51 b1 bd 44 b5 e5 3d
       0.021251395 -0.015391627 -0.08658102 0.11216214
000370 66 51 0c be 1d b6 09 3e a2 6c 19 be e0 74 a3 bd
       -0.13702926 0.13448377 -0.14982846 -0.079812765
000380 11 01 26 be ef af 32 be b5 10 82 3d 7b ec 09 be
       -0.16211344 -0.17449926 0.06350843 -0.13469116
000390 f1 1c 20 3d 68 09 14 3e cc 25 12 be 89 6d 81 3d
       0.0390901 0.14456713 -0.14272231 0.0631972
0003a0 01 4c f2 bd 2b cf 24 be d1 0a 15 3e 0e 6e b7 3c
       -0.11830903 -0.16094653 0.14554907 0.022391345
0003b0 a4 1a a9 3d 8c 39 05 3e ad 92 dd 3d 30 ce 52 be
       0.082570344 0.13010234 0.10818992 -0.20586467
0003c0 20 e3 5e bc 17 73 06 3e e6 ce 3f 3d 47 a1 c0 3d
       -0.0136039555 0.13129841 0.046828173 0.09405761
0003d0 66 84 28 be 7d c8 9a bd 8f 26 d2 bc df 0d 78 bc
       -0.16456756 -0.07557771 -0.025653152 -0.015140026
0003e0 1a 2f fe bd a1 b8 0d 3e f2 82 14 3e 7c ca bd bd
       -0.12411328 0.13839962 0.14503077 -0.092671365
0003f0 57 07 78 bd f5 db 73 3d 40 e8 d6 bd cf 00 8e bd
       -0.060553875 0.05953594 -0.10493517 -0.06933748

conv3.lin_rel.bias f4 [30]
000000 ca 32 bf 3d 7a d3 11 be 10 ab 38 be f7 c3 1a be
       0.09335859 -0.14240828 -0.18034005 -0.15113817
000010 ca 1a 7b 3e f5 85 15 bd 27 03 e5 bd dd 38 e8 3d
       0.24521938 -0.036504705 -0.11182242 0.11338971
000020 33 9f c8 3c a3 e8 5b bd e3 a6 1f 3d 31 0a 8c bd
       0.024489975 -0.053688657 0.038977515 -0.06837881
000030 63 d8 d0 3c 24 c0 7c bd 28 b8 07 bb 93 ef db 3c
       0.025493806 -0.061706677 -0.002070913 0.026847636
000040 8e 4c 22 3e 14 f0 09 be 0f ac 5b 3e 94 2b 84 3c
       0.15849516 -0.13470489 0.21452354 0.01613406
000050 e2 8e 61 3d 9a 61 dc bd f8 57 c2 bc ef 9c b7 bd
       0.055067904 -0.107608035 -0.023723587 -0.089654796
000060 c0 a9 ce 3c 6a 55 79 3d c3 a2 11 be 85 bb 19 bd
       0.025227427 0.060872473 -0.14222245 -0.03753235
000070 6f 1b 14 3e 07 29 f5 bb
       0.1446359 -0.0074816975

conv3.lin_root.weight f4 [30, 30]
000000 bd 1d b2 be f4 d2 88 3d f3 c4 fa 3d 63 4b 0e 3e
       -0.34788314 0.06680861 0.12244596 0.13895945
000010 ee aa 3c be 2d 72 f7 3d 7a 38 3b 3e 4e c6 fb bd
       -0.1842458 0.12082324 0.18283263 -0.12293683
000020 09 52 39 3e d9 29 f5 bd 6b bb 1e 3e 57 f4 35 be
       0.180977 -0.119708724 0.15501182 -0.1776899
000030 9e 58 ef 3d a6 00 e1 bc 79 e7 46 be 7c 6d 4d be
       0.11686824 -0.02746613 -0.19424237 -0.20061296
000040 4a 3b 3b be cd 78 14 be 3d 4f f0 3d 2f ce 3b bd
       -0.18284336 -0.14499207 0.117338635 -0.04585093
000050 12 b8 8e bf a5 34 4c 3e 71 37 08 3e 24 98 ac bd
       -1.1149924 0.19941957 0.13302399 -0.08427456
000060 76 d7 d6 3d b5 a1 79 3d 2c 49 1d be 3c 97 a5 bd
       0.10490315 0.06094523 -0.15359944 -0.08085486
000070 64 2f 1e be 8b d6 5d bf f2 b1 01 3e 32 31 fa bd
       -0.15447766 -0.8665549 0.12665537 -0.122164145
000080 56 05 d9 bc 46 61 3c 3d c0 0f f1 3b 6d 6c 4f bc
       -0.026491802 0.045991205 0.007356614 -0.012660128
000090 96 ed 10 be 2e 41 c0 3d a2 68 ad 3d 2b 0a 8b 3d
       -0.14153132 0.09387432 0.08467223 0.06789049
0000a0 02 b0 71 bc 70 e4 31 bc c9 d9 08 be b7 5b 22 3d
       -0.014751436 -0.010857686 -0.13364328 0.039638247
0000b0 a4 53 a9 bd 20 26 fe 3d f5 5c f0 3d 37 05 19 be
       -0.08267906 0.124096155 0.1173648 -0.14943396
0000c0 3a 56 1b bd ac d6 1c 3e 6d da 77 bd e6 1c b7 bc
       -0.03792403 0.15316266 -0.06051104 -0.022352647
0000d0 ba a4 f2 bd c7 06 fe bd 3f 48 9c bd 48 2d 59 bd
       -0.11847825 -0.124036364 -0.07630967 -0.0530217
0000e0 c2 ff ae 3d 05 16 03 be c7 65 d3 3d ab 63 60 3d
       0.08544876 -0.12801369 0.10322147 0.05478255
0000f0 e7 3c f5 3d 06 43 35 3e 40 da 31 3e 05 f6 c0 3d
       0.11974507 0.17701349 0.17368412 0.094219245
000100 eb 53 fd bb 2d 07 f9 3d 59 75 08 bd 0b 1d ac 3d
       -0.007730951 0.12159572 -0.033315036 0.08403977
000110 3c 95 e4 3c 65 83 07 be 98 e2 64 bd 24 74 0c 3e
       0.027903192 -0.13233717 -0.05588016 0.13716179
000120 f5 bd af 3d 69 fa c5 bd 4f 01 dc bd 54 65 49 be
       0.08581153 -0.096669026 -0.10742437 -0.1966756
000130 57 c8 d4 bd 7a d8 5b 3d 1a b7 71 bd 4b 0d af 3c
       -0.10389774 0.053673245 -0.05901251 0.021368643
000140 c8 49 92 3d 88 fc d5 bd 7a 65 63 3d 7c 61 4f be
       0.07142979 -0.10448557 0.055516697 -0.20252031
000150 e4 64 7e 3d 3f a6 06 3e ca 74 a4 bd 3d 2c 9f bd
       0.062107936 0.13149355 -0.08030088 -0.0777211
000160 7a 60 0c be fa 05 2c be dd 99 b7 bd c6 ca 0b 3e
       -0.13708678 -0.16799155 -0.08964894 0.1365157
000170 e8 6f 24 be 2a d6 2d 3e 0e d1 9b 3d e2 b0 22 3d
       -0.16058314 0.16976228 0.076082334 0.03971947
000180 57 cc 19 be 47 b9 42 3e f0 d2 b4 3d fe a3 92 b8
       -0.15019356 0.1901599 0.08829296 -6.9923684e-05
000190 7d 83 51 bd 8b 32 bd bd 6b 8a 2f 3b 4e 5e 44 be
       -0.051150788 -0.09238156 0.0026785384 -0.191766
0001a0 13 ab fa 3d 66 e9 16 3e 56 dc b7 bd 89 67 08 bd
       0.12239661 0.14737472 -0.089775726 -0.033301864
0001b0 07 36 c5 bd f0 d0 6a 3d e0 10 27 be 33 b4 aa 3d
       -0.096294455 0.057328165 -0.16315031 0.083351515
0001c0 54 fd 19 be ca 85 4f 3d 60 4f 8c bd 2b 0f 8a bd
       -0.15038043 0.0506647 -0.06851077 -0.06741174
0001d0 11 7c 61 be 31 09 a3 bd 3c 2b 14 3e 82 b6 73 3d
       -0.22019984 -0.079607375 0.14469618 0.059500225
0001e0 00 2c 84 3e d0 57 62 be 92 5b 47 bd ca 7b bd 3d
       0.2581482 -0.2210381 -0.048671313 0.092521265
0001f0 06 02 41 3e 93 71 5f be 30 0e 89 bd f9 b2 5c be
       0.18848428 -0.21820669 -0.06692159 -0.21552648
000200 68 a4 0d be ac d4 40 be a0 37 46 be 2f 97 08 3e
       -0.13832247 -0.18831128 -0.19357157 0.13338922
000210 c4 e2 0e 3e 97 29 82 3c 82 39 4d 3e f7 b3 0b 3e
       0.13953692 0.015888972 0.20041469 0.1364287
000220 17 cf 79 3d 80 6b 1f bc 7d d8 0a 3e 8b 13 44 3e
       0.060988512 -0.00973022 0.13559146 0.1914808
000230 7a 66 74 3f 85 bb 65 be 16 c9 03 be 2d e0 23 3e
       0.95468867 -0.22434814 -0.12869677 0.16003485
000240 2f ff 17 be e4 dc 2f 3e 94 c0 e4 3d 75 f4 19 3c
       -0.14843439 0.17174107 0.11169544 0.009396662
000250 1e 7c e0 bd 34 62 37 3f c8 b4 88 3d 35 e9 a3 3d
       -0.109611735 0.7163422 0.06675106 0.08003465
000260 9f bf fc bc ba f7 91 bc 34 17 12 be b8 3e f0 3c
       -0.03085309 -0.01781832 -0.14266664 0.029326782
000270 03 cb 29 be 75 1f 94 3d 12 46 01 be d0 74 cc bd
       -0.16581349 0.072325625 -0.12624386 -0.09983218
000280 9d ca 91 3d c6 93 30 be de 8a b6 3d 64 65 57 be
       0.071187235 -0.17243871 0.089132056 -0.21034771
000290 20 04 de bd 3c f4 f6 3d 1f 44 f6 3d aa 9a 1a be
       -0.108406305 0.12058303 0.12024712 -0.15098062
0002a0 8c 90 fe bd 27 72 1d 3e 96 e6 90 3e 24 4a f7 3d
       -0.12429914 0.15375577 0.28300923 0.12074688
0002b0 ff e0 c8 bd cc 08 33 3e f8 49 f5 3d f6 27 24 be
       -0.098085396 0.17483824 0.11976999 -0.16030869
0002c0 6e aa 7d 3d aa d7 f4 3d f1 fb 06 be 85 ee be 3e
       0.061930113 0.11955197 -0.13182046 0.3729135
0002d0 de 0f 30 bb 6f e7 34 3e 57 5d ab 3d 0a fd 3e 3e
       -0.0026864926 0.1766641 0.083674125 0.18651214
0002e0 57 2b af 3d 87 1d 32 bd 82 ed e5 bc d0 3d 5a 3e
       0.08553188 -0.04348519 -0.028067354 0.21312642
0002f0 e1 c0 f8 bd 7f 83 4e 3e fc ad 34 3d 72 44 14 be
       -0.12146164 0.2016735 0.044111237 -0.14479235
000300 7e 09 fe bd e9 82 f3 3c dc 6a 4d 3d be 79 5b bd
       -0.12404154 0.029725509 0.050150737 -0.0535829
000310 0f 00 a4 bd 06 5e 3b 3d 06 ce ad bd 53 db 12 bd
       -0.08007824 0.045743965 -0.084865615 -0.035853695
000320 27 ab 91 3c 24 ff 4a 3e 8d c4 87 bb 09 ab 14 bd
       0.017781807 0.19823891 -0.0041433037 -0.036295924
000330 b8 b1 39 3d 2b 26 0f be 4e ec a2 3c bf 90 bc 3d
       0.0453355 -0.13979404 0.01988807 0.092072956
000340 83 68 10 3e 05 1b cd bd 36 31 eb 3d e5 08 0c 3e
       0.14102368 -0.10014919 0.114839956 0.13675268
000350 9f 03 4b 3b 41 ed 22 bd 27 0e b8 bd 19 8b 05 3e
       0.00309775 -0.039777044 -0.08987074 0.13041343
000360 38 cc 43 be 4e f0 2b be cd e4 ca bd 54 29 43 be
       -0.19120872 -0.16790888 -0.099069215 -0.19058734
000370 c4 6c 31 be 42 82 00 be 88 a6 d2 3c 29 3d d7 3d
       -0.17326647 -0.1254969 0.025714174 0.10509712
000380 20 e5 f4 3d 7a ae 95 3b fd c9 06 3e ad f6 65 3d
       0.119577646 0.0045679184 0.1316299 0.05614345
000390 c2 cf a2 bd 58 16 ad 3c fe 91 80 3f 86 fc 1b 3e
       -0.07949783 0.021128818 1.0044553 0.15233049
0003a0 6d c0 0f be 89 50 07 3d 59 f3 f1 3d 91 90 a3 bd
       -0.14038248 0.03303579 0.11813993 -0.07986558
0003b0 70 78 02 be 14 9b 27 3d ba 28 ff ba e5 72 64 3f
       -0.12741256 0.04091938 -0.0019467094 0.89237815
0003c0 32 7c ad bc 5a 74 74 bc a8 21 ff bc 14 f1 d8 bd
       -0.021177385 -0.0149203185 -0.031143978 -0.10592857
0003d0 b3 53 29 bc c0 80 9a 3d e1 8a da 3d 7e d9 c7 bd
       -0.010334897 0.07544088 0.1067102 -0.0975828
0003e0 69 e0 cb 3d ed c9 06 3d 5a f1 69 bd 09 ab 12 be
       0.09954912 0.032907415 -0.057114936 -0.14323057
0003f0 d1 01 28 be 15 69 65 bd 1e a5 82 3d 1d b0 ee 3d
       -0.16406943 -0.056008417 0.0637915 0.11654685

lin.weight f4 [1, 30]
000000 b9 7a cb 3d 85 ea 08 be 0d 34 73 3d ec de 21 3d
       0.09935517 -0.13370712 0.05937581 0.039519235
000010 bd 5f 83 be e7 e5 18 be e1 0e 4c 3d 8b 16 05 be
       -0.2565898 -0.14931451 0.049818877 -0.1299688
000020 2f 05 d1 3d 89 89 7e be db e2 17 be 86 9d 80 3e
       0.10206067 -0.24857153 -0.14832632 0.2512018
000030 bf df 55 bd 80 b3 39 3e 6b 77 e7 ba 51 e5 6a 3d
       -0.052215334 0.1813488 -0.0017659491 0.0573476
000040 43 7a 99 3d 0e 16 5f be c5 0a 03 bd ef 1d 85 3c
       0.07494023 -0.21785757 -0.031992693 0.016249625
000050 ab 3e 9f bd 36 19 f7 b8 99 c2 13 be 05 28 5e 3e
       -0.07775625 -0.00011782574 -0.14429702 0.21694954
000060 0f 6d 83 bb cd b7 37 3e 9f e2 0d 3e 25 58 ef 3d
       -0.0040108035 0.17941208 0.1385598 0.11686734
000070 59 fa e1 3c b6 34 f6 3d
       0.027585195 0.120217726
