models/neural_network_GraphConv_single_dynamics_MAK_graph_size_10/neural_network.pth (torch, 2316 bytes, 4 tensors)

conv1.lin_rel.weight f4 [30, 1]
00000000: 0625 41bf fd78 563e 6dac ab3f 6b52 b8be
00000010: 9164 5d3d 14ed b43e f346 8cbe 8329 c43f
00000020: c46b 0c3f 9845 8dbe be11 9a3e 6411 723f
00000030: 8fba 8c3d 6113 b53f 16fd aabe e25a 8abe
00000040: 747a 0e3d b4c8 423e 68a8 1d3e 2a14 283f
00000050: 08cf abbf 5fc6 5e3e b1be 7ebd e1c8 303f
00000060: dd00 ab3e dc2b 2abe c613 98be 0be5 68bd
00000070: 2281 6b3e 19b3 84bf
-0.7544712 0.20944591 1.3411995 -0.3600038 0.054050986 0.35337126 -0.2739788 1.5325168
0.5485194 -0.27592158 0.3009166 0.94557786 0.06871521 1.4146539 -0.33396214 -0.27022463
0.03478475 0.19021875 0.15396273 0.6565577 -1.3422556 0.2175536 -0.062193576 0.69056517
0.33399096 -0.16618294 -0.29702586 -0.056859057 0.22998479 -1.0367156

conv1.lin_rel.bias f4 [30]
00000000: 7c89 7cbf e3a1 5bbf 907f c03f 5785 4d3e
00000010: e00f 0e3f 405d 65bf 229b bd3f 17ce bb3f
00000020: 4568 dabf 21ca ce3e 3796 8abf b214 f83c
00000030: dcb5 933f 2c35 9c3e 4ec8 843f f924 563f
00000040: e410 f2be 5ac7 f7bf 28e8 dfbf 105e 7d3f
00000050: 6f90 1ebf f81b 81bf 4efa 5b3f 5b43 c13e
00000060: 1cb4 83be 8bd2 b23f e96a ff3e 9efb ae3e
00000070: 568a d2bf f708 a2bf
-0.98647285 -0.85793895 1.5038929 0.20070396 0.55492973 -0.89595413 1.4812968 1.4672269
-1.706307 0.40388587 -1.0827092 0.030283306 1.1539874 0.30509317 1.0373628 0.83650166
-0.47278512 -1.9357712 -1.7492723 0.98971653 -0.6193914 -1.008666 0.8592881 0.377467
-0.2572335 1.3970503 0.49886253 0.34176344 -1.6448467 -1.2658986

conv1.lin_root.weight f4 [30, 1]
00000000: ac78 0cbf 6752 acbf 96d5 203e 53f2 2d3f
00000010: 0116 83bf 46eb 04bf 7fc7 99be 43b5 b13e
00000020: 3249 aa3f fddb f53f a51e 0ebe 9d2d aabf
00000030: 161a 1f3e eee1 843f 3b11 ab3e 8b6a 1a3e
00000040: 42aa 183f bc81 9c3f 256d 983f fa02 643e
00000050: fa00 8abf e7de 3a3e 77ed 3dbf 19c7 a9bf
00000060: e7ec 0ac0 5328 3fbf 4a3e 0a40 c1d8 dfbe
00000070: da29 2f3f edb9 d43e
-0.5487163 -1.3462647 0.15706477 0.6794788 -1.024109 -0.519215 -0.30035016 0.34708604
1.3303587 1.920776 -0.13878877 -1.329517 0.15537295 1.0381448 0.33411583 0.15079705
0.5963479 1.2227092 1.1908308 0.2226676 -1.0781548 0.18249093 -0.7419047 -1.3263885
-2.1707094 -0.74670905 2.1600518 -0.43720058 0.68423235 0.415481

lin.weight f4 [1, 30]
00000000: a290 603d 4d85 913e d11f bfbe d973 863e
00000010: 34a5 5c3e b6e9 7bbe 7920 dc3e 01e7 31be
00000020: 4c44 9f3e aea2 b5be 0e4e 85be 72ba 45be
00000030: d0ec cdbe 5e1e f0bd 6900 9d3e f292 1c3e
00000040: 5198 2abe 52ec 3dbf f749 32bf 625f babd
00000050: fbd1 933d 5afc 62be 9f8f c33e 7b2c 82be
00000060: b0a2 973e f90f 1e3f ce5b 8abe b2bb 3e3e
00000070: 8d3e b7be 7b0a cb3e
0.054825433 0.28422013 -0.37328961 0.2626026 0.21547395 -0.24600872 0.42993525 -0.17373277
0.31106794 -0.35475677 -0.26036114 -0.19309404 -0.40219736 -0.11724542 0.30664375 0.1529043
-0.16659667 -0.7418872 -0.6964411 -0.09100224 0.07217785 -0.22166577 0.38195512 -0.2542456
0.29616308 0.6174312 -0.27023166 0.18626288 -0.3578991 0.39656433
