results/FHN_celegans_directed_wcc_multiple_nn_True_4/neural_network.pth (torch, 38491 bytes, 26 tensors)

g.0.weight f4 [30, 2]
0	0xbdd846a5	-0.105603494
1	0xbc464537	-0.012101463
2	0xbeda356f	-0.42618892
3	0x3ed3a45c	0.41336334
4	0x3d6d85bc	0.057988867
5	0xbf21bf68	-0.6318269
6	0xbecbc064	-0.3979522
7	0xbe5f9788	-0.21835148
8	0xbe83c780	-0.25738144
9	0x3e8f4f29	0.27990082
10	0x3ef407cd	0.47662202
11	0xbea67590	-0.32511568
12	0x3df3ce7e	0.1190462
13	0x3c92e9bf	0.017933724
14	0xbf0a337d	-0.53984815
15	0x3ef60e60	0.48057842
16	0x3ea2913d	0.31751433
17	0xbdc7e1de	-0.097598776
18	0xbf145eb1	-0.5795699
19	0x3d410e38	0.0471327
20	0xbe5cea44	-0.2157374
21	0x3e3824e4	0.17982823
22	0xbe8ee396	-0.2790801
23	0xbdb3b1e3	-0.087741636
24	0xbe35c13e	-0.17749497
25	0xbe1d8265	-0.15381773
26	0xbf43f421	-0.76544386
27	0x3e55d41f	0.20881699
28	0x3f488001	0.7832032
29	0xbe87d4a6	-0.26529425
30	0xbf04b658	-0.51840734
31	0xbf17a75d	-0.5923975
32	0xbea38531	-0.31937554
33	0x3ebe8487	0.37210485
34	0xbe3056af	-0.17220567
35	0x3f1174e0	0.5681896
36	0xbcfd8f28	-0.030952051
37	0xbf159f2a	-0.5844599
38	0x3f09c956	0.5382284
39	0xbc71b3df	-0.014752357
40	0x3ef05987	0.46943304
41	0xbe381f58	-0.17980707
42	0x3f080db9	0.5314594
43	0xbe9e3dc1	-0.3090649
44	0x3ea79dba	0.32737523
45	0x3eda4c5d	0.42636386
46	0xbef086a7	-0.46977732
47	0xbee17933	-0.4403778
48	0x3e2fd44e	0.17170832
49	0xbf0ee783	-0.5582201
50	0xbe56b792	-0.20968464
51	0xbd165f40	-0.03671193
52	0x3f3c6e8b	0.73606175
53	0xbd14cac5	-0.03632619
54	0x3e63c97d	0.2224483
55	0x3e205de8	0.15660822
56	0x3ec465e1	0.38358977
57	0x3ecc1989	0.39863232
58	0xbef1bf78	-0.47216392
59	0x3d96acb0	0.07357156

g.0.bias f4 [30]
0	0xbf0f60b2	-0.5600692
1	0x3d56875f	0.052375194
2	0xbe82752f	-0.2548003
3	0xbe4dc648	-0.2009517
4	0x3e80e8ed	0.25177708
5	0xbeb6849a	-0.35648042
6	0x3e1ca682	0.15297893
7	0xbe903f31	-0.2817321
8	0x3f274a46	0.6534771
9	0xbf1d366b	-0.6141116
10	0xbd5140ac	-0.051087067
11	0xbf02a007	-0.5102543
12	0xbea95a51	-0.33076718
13	0x3f10fc05	0.5663455
14	0x3d4e46c1	0.050360445
15	0xbe02fa68	-0.12790835
16	0xbe884504	-0.26615155
17	0xbe049339	-0.12946786
18	0xbf111ad8	-0.56681585
19	0xbf0f58a7	-0.5599465
20	0x3ed54f75	0.41662183
21	0x3e001227	0.12506925
22	0x3f2c6cf8	0.67353773
23	0x3d2adf0b	0.041716617
24	0xbe710979	-0.2353877
25	0xbe9c2234	-0.30494845
26	0x3e0ef439	0.13960351
27	0x3ecc4f8d	0.39904442
28	0xbf202cf8	-0.62568617
29	0xbc23fd98	-0.010009192

g.2.weight f4 [30, 30]
0	0x3b693afc	0.0035588136
1	0xbce07437	-0.027399166
2	0x3da29e2e	0.07940327
3	0xbd88f417	-0.066871814
4	0xbd6b8773	-0.05750222
5	0x3d9b1165	0.07571677
6	0x3c375430	0.011189505
7	0x3d82a849	0.06379754
8	0xbcf35dc7	-0.029707802
9	0xbe2da065	-0.16955717
10	0xbdbd2d3e	-0.09237145
11	0xbdc2ee20	-0.09518075
12	0x3b1109a4	0.002213099
13	0xbc6f1d5f	-0.014594405
14	0xbe12ac06	-0.14323434
15	0xbcb02b05	-0.021504888
16	0x3df4ca1b	0.11952611
17	0xbd8a4f4f	-0.06753408
18	0xbb8226ac	-0.003971895
19	0x3c591799	0.013250255
20	0xbd9b8f9c	-0.07595751
21	0xbd643a87	-0.05571988
22	0xbd9f57ea	-0.0778044
23	0xbe28e97a	-0.16495314
24	0x3d07c855	0.033150036
25	0xbe235b7e	-0.1595287
26	0xbd748a25	-0.059702057
27	0x3e0530fe	0.1300697
28	0xbde47031	-0.11154211
29	0x3e187b10	0.14890695
30	0x3dff2a3f	0.1245923
31	0x3d8bf025	0.06832913
32	0xbe06e250	-0.13172269
33	0x3b7ef5b0	0.0038903765
34	0x3e088060	0.13330221
35	0x3d1ea410	0.03873068
36	0xbbf4ef08	-0.007474784
37	0xbd1796ac	-0.037008926
38	0xbd74bf32	-0.05975265
39	0x3df597f1	0.11991871
40	0x3dd8266d	0.10554204
41	0x3dd639a3	0.10460212
42	0x3de17e2d	0.11010394
43	0x3dd716af	0.105023734
44	0xbc8e4e0f	-0.017371206
45	0x3ca18c91	0.019720348
46	0x3cd54ac2	0.026036624
47	0x3d83e6bd	0.06440494
48	0xbd8a0b3d	-0.06740425
49	0x3d5971f5	0.053087194
50	0x3e67aec0	0.22625256
51	0x3e0fcd07	0.14043055
52	0xbde26187	-0.11053758
53	0x3d42865b	0.047491413
54	0x3e0ea621	0.1393056
55	0x3d7c2519	0.061558817
56	0x3daeb971	0.08531464
57	0x3ddb525e	0.1070907
58	0xbc017163	-0.007900569
59	0x3d5604db	0.052250724
60	0x3c8006cb	0.01562824
61	0x3e362658	0.17788064
62	0xbdece686	-0.11567406
63	0x3d3dec5e	0.046367995
64	0x3e074f6c	0.13213891
65	0xbd7f3a85	-0.062311668
66	0xbe1a2aa7	-0.15055333
67	0xbcad5695	-0.02115945
68	0xbdbe75f3	-0.09299841
69	0xbe049ff7	-0.12951647
70	0xbd6f4f9a	-0.058425523
71	0x3c34578f	0.011007204
72	0x3df76bed	0.12081132
73	0x3dd94be5	0.10610179
74	0x3e2884a6	0.16456851
75	0x3dac0889	0.084000655
76	0xbb0fa74d	-0.0021919787
77	0x3cc16692	0.02360848
78	0x3dfb4176	0.12268345
79	0xbe08a966	-0.1334587
80	0x3e06438e	0.13111708
81	0x3dd50d09	0.10402877
82	0xbd9ed8ec	-0.07756218
83	0xbe495fce	-0.19665453
84	0xbd5a7f44	-0.053344026
85	0x3de88686	0.11353783
86	0x3e04696c	0.1293084
87	0x3d14fb7d	0.03637265
88	0xbe14d27e	-0.14533421
89	0x3d97e95a	0.07417555
90	0xbd8e4e20	-0.06948495
91	0x3d93368c	0.07188138
92	0xbe10bbbb	-0.14134113
93	0xbe1c8ae8	-0.15287364
94	0xbe427dad	-0.18993254
95	0xbdac8c4c	-0.08425197
96	0x3d9a06ef	0.07520854
97	0xbdea11c5	-0.114291705
98	0xbbd1bc40	-0.006400615
99	0xbdd0b5c3	-0.10190918
100	0x3dd2f08f	0.10299789
101	0xbcc8b25d	-0.024499113
102	0x3daf664b	0.08564433
103	0x3e2afa52	0.16697052
104	0xbe30ea8c	-0.17276973
105	0xbc9ac4a2	-0.01889259
106	0xbb5bcbfe	-0.0033538337
107	0x3c0a79ab	0.0084518595
108	0x3dad8acd	0.0847374
109	0xbdd66dda	-0.10470171
110	0xbe356fc0	-0.1771841
111	0x3d1f10ec	0.038834497
112	0xbe2be353	-0.16785936
113	0x3d05fcc2	0.03271175
114	0x3cb76e70	0.022391528
115	0xbe3c4a91	-0.1838782
116	0x3d1ba9c4	0.038003698
117	0x3d460000	0.048339844
118	0x3e199bbf	0.15000819
119	0x3de586e2	0.112073675
120	0x3dda9fcd	0.10675011
121	0xbe0a9d4c	-0.13536566
122	0x3c46ffec	0.0121459775
123	0x3dad45f7	0.0846061
124	0x3d3d7f4c	0.046263978
125	0xbdfa8ca4	-0.12233856
126	0x3e67d037	0.22638021
127	0x3d079d45	0.03310897
128	0xbcb18945	-0.0216719
129	0xbe4251c2	-0.189765
130	0xbd5b20c0	-0.05349803
131	0x3c457c73	0.012053597
132	0xbddf435b	-0.10901519
133	0xbdc8c339	-0.09802861
134	0x3de083c6	0.10962634
135	0xbe3cf0e9	-0.18451275
136	0x3d8535b8	0.06504387
137	0x3d852f01	0.06503106
138	0xbe3e3a12	-0.1857684
139	0x3e068ac3	0.13138871
140	0x3cc1465a	0.023593117
141	0x3dbba022	0.09161402
142	0xbd1c78ac	-0.03820102
143	0x3c1c4242	0.0095372815
144	0x3ddfaa7b	0.109211884
145	0xbdd90b74	-0.10597888
146	0x3dfa1fc9	0.12213094
147	0xbe00f238	-0.12592399
148	0xbdba1a7e	-0.09087084
149	0xbd74cc0a	-0.0597649
150	0xbe414092	-0.18872288
151	0x3a1ceaef	0.00059859356
152	0x3d967094	0.07345691
153	0x3ce6c208	0.028168693
154	0xbe034e60	-0.12822866
155	0x3cfcbbf4	0.030851342
156	0xbdfbeecd	-0.12301407
157	0xbdbde385	-0.092719115
158	0xbce4f4cb	-0.027948758
159	0xbd792aaf	-0.060831722
160	0xbe07f368	-0.13276446
161	0x3c05bd6e	0.008162839
162	0xbe3ac1ec	-0.18238038
163	0xbcef095b	-0.029179266
164	0xbdc2e2b8	-0.095158994
165	0xbe087c0f	-0.13328575
166	0x3d5af9a4	0.053460732
167	0x3e014752	0.12624863
168	0xbd350fd5	-0.04420455
169	0xbe199ea9	-0.1500193
170	0x3d0c32c8	0.034228116
171	0xbdc5609b	-0.09637567
172	0xbc086308	-0.008324392
173	0xbdd7f06a	-0.10543902
174	0x3de9b8ae	0.11412178
175	0x3dbc7291	0.09201539
176	0xbd584e33	-0.05280895
177	0x3c7490d4	0.014927108
178	0xbe3887a7	-0.18020497
179	0xbd0af1e5	-0.033922095
180	0x3d2af272	0.04173512
181	0x3e2eb89d	0.17062612
182	0x3d488ac4	0.048960462
183	0x3cfed691	0.031108173
184	0xbdf7464a	-0.120739534
185	0xbd0b79ee	-0.034051828
186	0xbdd7bf81	-0.10534573
187	0xbddf13d5	-0.108924545
188	0xbdd771d0	-0.10519755
189	0x3dfb4fe0	0.12271094
190	0xbdcdc7f7	-0.10047906
191	0xbe23863d	-0.15969177
192	0x3d968267	0.07349091
193	0xbdfffcc8	-0.12499386
194	0x3d2e0264	0.04248275
195	0xbe1211c7	-0.14264594
196	0xbca2e6e5	-0.01988549
197	0x3e38f989	0.1806394
198	0x3bc774f3	0.0060869395
199	0xbe2378f5	-0.1596411
200	0x3d0e2b14	0.03470905
201	0x3dc52fa9	0.09628231
202	0x3e0eeeaa	0.1395823
203	0x3e365302	0.17805102
204	0x3d4b6d89	0.049665008
205	0x3d262fee	0.040573053
206	0x3dcdefae	0.10055481
207	0xbe0c9f3e	-0.13732621
208	0xbdbfb257	-0.093601875
209	0x3d0a08b0	0.03369969
210	0xbd595e61	-0.053068522
211	0x3d91f3a0	0.07126546
212	0xbdee674b	-0.11640795
213	0xbe37a7e4	-0.17935139
214	0xbd915f06	-0.070982024
215	0xbdfa658b	-0.12226399
216	0xbb9fa8d1	-0.0048724194
217	0xbdf9da70	-0.12199867
218	0xbd5012e1	-0.050799254
219	0xbc748dae	-0.014926357
220	0xbd495ccc	-0.049160764
221	0xbb8e7619	-0.0043475744
222	0xbd08b060	-0.03337133
223	0xbdc6eddc	-0.09713337
224	0xbdd06bf0	-0.101768374
225	0xbdd0c26e	-0.101933345
226	0xbe3b38a3	-0.18283324
227	0x3db614f5	0.08890716
228	0x3e50d99e	0.20395514
229	0x3d9276bc	0.07151553
230	0x3d01b6b8	0.031668395
231	0xbd8e4f4a	-0.06948717
232	0xbe3ff106	-0.18744287
233	0xbe4c14aa	-0.19929758
234	0xbdbda441	-0.092598446
235	0xbe21c75f	-0.1579871
236	0xbe02a365	-0.12757643
237	0xbd9fa621	-0.077953584
238	0xbde3ae3e	-0.111172184
239	0x3dd84443	0.10559895
240	0xbdbfcfd5	-0.09365813
241	0xbe14129a	-0.14460221
242	0xbe0fc915	-0.1404155
243	0xbd7523a9	-0.05984846
244	0x3cee05a1	0.029055418
245	0x3e27b9cb	0.16379468
246	0xbe96aca4	-0.2942859
247	0xbd308e71	-0.043104593
248	0x3d9ae0ce	0.07562409
249	0xbd64d8d4	-0.055870846
250	0x3c906686	0.017627012
251	0x3d9bb560	0.07602954
252	0xbd3be27f	-0.0458703
253	0x3e24b7cb	0.16085736
254	0xbce538b8	-0.027981147
255	0x3df67ca9	0.12035496

g.2.bias f4 [30]
0	0xbd3cb37f	-0.04606962
1	0xbc4a4abf	-0.012346922
2	0xbe0ac54d	-0.13551827
3	0xbe2f4d40	-0.17119312
4	0xbde72104	-0.11285594
5	0xbe0d47e8	-0.13796961
6	0x3ceacb0e	0.028661277
7	0x3d3703d0	0.04468137
8	0xbdd631c6	-0.10458712
9	0xbdc05f27	-0.09393149
10	0x3e0b0aae	0.13578293
11	0xbc73f8b4	-0.014890838
12	0xbdd729af	-0.105059974
13	0xbe126e89	-0.14299978
14	0x3e0df187	0.13861667
15	0x3de4957a	0.11161323
16	0xbdf5abe1	-0.11995674
17	0xbdfc5482	-0.12320806
18	0xbdbe3a3b	-0.0928845
19	0xbdba9c7f	-0.091118805
20	0xbd5ea002	-0.054351814
21	0x3d8178c1	0.0632186
22	0xbdf09b0c	-0.11748323
23	0xbcbe95be	-0.023264762
24	0x3dc3942f	0.09549748
25	0x3dd3168d	0.103070356
26	0xbd6d2ada	-0.057902195
27	0x3c4ff03f	0.0126915565
28	0x3e1f8d20	0.15581179
29	0xbc4d9252	-0.0125470925

g.4.weight f4 [30, 30]
0	0xbd8020b6	-0.06256239
1	0x3e3dfc4d	0.18553276
2	0xbdb4ffb4	-0.08837834
3	0x3e148aaf	0.14506029
4	0x3e104788	0.14089787
5	0x3dfaf551	0.12253822
6	0x3e0cc231	0.13745953
7	0x3e039b37	0.12852179
8	0x3d7b01d1	0.06128103
9	0x3d24dcb9	0.04024956
10	0x3e01792c	0.1264388
11	0x3dd02b20	0.101644754
12	0x3d44093f	0.04786038
13	0xbda13923	-0.07872226
14	0x3d61698e	0.055032305
15	0xbd6b911f	-0.057511445
16	0x3de8e404	0.113716155
17	0xbd26b729	-0.04070202
18	0xbe363456	-0.17793402
19	0x3d803cb6	0.0626158
20	0xbdcedb44	-0.10100415
21	0x3e00c4cf	0.12575077
22	0x3d456604	0.048192993
23	0xbd7f5403	-0.06233598
24	0xbc16e6b9	-0.009210282
25	0xbd347ade	-0.044062488
26	0xbd046291	-0.032320563
27	0xbdebd1e7	-0.11514645
28	0x3d3a4db9	0.04548428
29	0xbd898b84	-0.067160636
30	0xbd37f6d2	-0.04491312
31	0x3da31d01	0.079645164
32	0xbce22ea8	-0.027610138
33	0xbce0fea2	-0.027465168
34	0x3cfe5cd1	0.031050118
35	0x3e0274e9	0.1273991
36	0x3d9cf0c8	0.07663113
37	0xbd18cbad	-0.037303615
38	0xbc7d6a5b	-0.015467252
39	0xbdf53294	-0.11972538
40	0x3e09f03d	0.1347055
41	0xbda0f122	-0.078584924
42	0x3d55fe73	0.052244615
43	0x3d6cfe0b	0.05785946
44	0x3e31e956	0.17374167
45	0x3d83ddd1	0.064387925
46	0xbe3b869b	-0.18313067
47	0xbe1692f3	-0.14704494
48	0x3dfe10b1	0.124055274
49	0x3d517481	0.051136497
50	0x3dd4a09e	0.10382198
51	0xbe57cfe6	-0.210754
52	0x3e377542	0.17915824
53	0xbc81467c	-0.01578068
54	0x3cb0c36e	0.021577563
55	0xbc937e99	-0.018004702
56	0xbe1ebb86	-0.15501222
57	0x3ca390b3	0.019966459
58	0xbdc07463	-0.09397199
59	0x3c949a25	0.018139908
60	0x3e1738f8	0.14767826
61	0x3d852b21	0.06502367
62	0x3e1f5447	0.15559493
63	0x3df879df	0.1213262
64	0x3ddd7b2b	0.10814508
65	0xbc04cb96	-0.008105179
66	0x3e042d06	0.129078
67	0x3d85cbc7	0.06533008
68	0xbcac98b9	-0.021068918
69	0xbe40266c	-0.18764657
70	0x3dfb820a	0.12280662
71	0x3cbf5073	0.02335379
72	0xbbf119d0	-0.0073578134
73	0x3e18288e	0.1485922
74	0x3dd96656	0.10615222
75	0xbdc38b56	-0.095480606
76	0x3d336b70	0.043803632
77	0x3d71a1c3	0.05899216
78	0xbdcff35a	-0.101538375
79	0xbda5c6b5	-0.08094541
80	0xbda33b2b	-0.0797027
81	0xbddd3bfe	-0.10802458
82	0xbcb92c0d	-0.022604013
83	0x3e2c5f68	0.1683327
84	0xbb911ca4	-0.004428463
85	0xbe0cf922	-0.13766912
86	0xbd0ddf12	-0.034636565
87	0x3d2becec	0.041973993
88	0x3dd48c2f	0.103783004
89	0xbd9c604d	-0.076355554
90	0x3d855722	0.0651076
91	0x3e12d865	0.1434036
92	0xbd9f0672	-0.07764901
93	0x3e0cca9d	0.13749166
94	0xbe0ab958	-0.13547266
95	0xbe1f0a4c	-0.15531272
96	0xbd3066ea	-0.043066896
97	0x3e271931	0.16318204
98	0xbe13443b	-0.14381497
99	0xbca53a3b	-0.020169368
100	0x3d901446	0.07035117
101	0xbd1d9b48	-0.038478166
102	0x3d28062b	0.041021507
103	0xbe09de83	-0.13463788
104	0xbe123ff5	-0.1428221
105	0x3e40cbcb	0.18827741
106	0xbe015094	-0.12628394
107	0x3e1ba1a8	0.15198386
108	0x3cd72899	0.026264476
109	0xbe4ae50f	-0.19813941
110	0x3de5d5e4	0.11222437
111	0xbd11d2f6	-0.03560158
112	0x3c23c171	0.0099948505
113	0xbe2ba873	-0.16763477
114	0xbb8e07f4	-0.004334444
115	0x3d88ccae	0.066796646
116	0xbe0dca36	-0.13846669
117	0x3e062319	0.13099326
118	0xbe36b5a2	-0.17842725
119	0xbe2503a3	-0.16114669
120	0xbd2be1a7	-0.041963246
121	0xbbda7aa2	-0.006667451
122	0x3de86880	0.11348057
123	0xbd5a7922	-0.053338178
124	0x3d8ffbd8	0.07030457
125	0x3e09c23a	0.13452998
126	0xbcb34fc7	-0.021888627
127	0x3e215b64	0.15757519
128	0xbe032a3a	-0.12809077
129	0x3e0ea930	0.13931727
130	0x3dda45e5	0.106578626
131	0x3ba3ade4	0.0049950946
132	0x3e1569c4	0.14591128
133	0x3dc7defc	0.09759328
134	0x3d81538e	0.06314765
135	0x3e385ce4	0.18004185
136	0x3e5227b6	0.20522961
137	0xbdc1da92	-0.09465517
138	0x3de42d3b	0.111414395
139	0xbd606e44	-0.054792657
140	0x3e3ee81f	0.18643235
141	0x3e34fc7c	0.1767444
142	0xbe2c2384	-0.16810423
143	0x3aacce7f	0.0013184099
144	0xbd3db3b6	-0.046313964
145	0xbcbd2aee	-0.02309176
146	0x3dce55d1	0.10074962
147	0xbc91fe9c	-0.017821603
148	0x3d86fb7b	0.06590935
149	0x3d85d24d	0.06534252
150	0x3cb0e192	0.021591935
151	0xbd74d6c6	-0.059775136
152	0xbd799334	-0.0609314
153	0x3d9bddb4	0.07610646
154	0x3d9acd89	0.07558734
155	0xbdf332c2	-0.11874916
156	0xbe2c55d9	-0.16829623
157	0xbdf75bd2	-0.1207806
158	0xbc278932	-0.010225581
159	0xbd801dc9	-0.06255681
160	0xbdb1c529	-0.086801834
161	0xbd98a7c9	-0.074538775
162	0x3e3edead	0.18639632
163	0xbd9117db	-0.07084628
164	0xbd9af895	-0.075669445
165	0xbc294f87	-0.010333902
166	0xbd363750	-0.044486344
167	0xbe20c55a	-0.15700284
168	0xbe1b9cf0	-0.15196586
169	0x3de6b218	0.112644374
170	0xbe1fc2dc	-0.15601677
171	0x3e015cd8	0.12633073
172	0x3d26a57e	0.04068517
173	0xbe41b840	-0.18917942
174	0x3d597993	0.053094458
175	0xbdce04ca	-0.10059507
176	0x3e1f1287	0.15534411
177	0x3e294286	0.16529283
178	0xbba4f2bc	-0.005033819
179	0xbe1b9902	-0.15195087
180	0xbe10ca99	-0.14139785
181	0x3d30f2a9	0.04320017
182	0x3da03ece	0.07824479
183	0x3b3196e0	0.0027097985
184	0x3e512398	0.20423734
185	0xbde719a9	-0.11284191
186	0xbc918068	-0.017761424
187	0xbdbfe259	-0.09369344
188	0x3d169bf9	0.03676984
189	0xbd277255	-0.04088052
190	0x3d870098	0.0659191
191	0xbc9af3a8	-0.018915012
192	0xbe0971fc	-0.13422388
193	0xbdc269ad	-0.09492812
194	0x3e515c75	0.20445426
195	0xbd4391ff	-0.047746655
196	0x3dfdbac7	0.123891406
197	0xbe10beaa	-0.14135233
198	0x3cf891d5	0.030342976
199	0xbccc18af	-0.024914114
200	0xbc6461ef	-0.013939365
201	0xbe2e5e65	-0.17028196
202	0xbdf14885	-0.1178141
203	0xbe38054a	-0.17970768
204	0xbcd12ba2	-0.025533501
205	0xbddc08c7	-0.10743862
206	0xbe3ab260	-0.18232107
207	0x3d01f9d7	0.031732406
208	0x3d9792a9	0.0740102
209	0xbdf0bf53	-0.11755242
210	0xbd38bc19	-0.04510126
211	0x3da694bc	0.081338376
212	0xbbacc8c2	-0.0052729556
213	0x3d9e6642	0.07734348
214	0xbe13c657	-0.1443113
215	0xbd948ab7	-0.0725302
216	0x3e4e8414	0.20167571
217	0x3c93d22e	0.018044557
218	0x3dfda9e2	0.12385918
219	0xbd45ac32	-0.04825992
220	0xbcceddef	-0.02525231
221	0x3dc27e8e	0.09496795
222	0x3dc0ec51	0.09420074
223	0x3e31e2b6	0.1737164
224	0xbdd0cb0e	-0.101949796
225	0xbe46b165	-0.19403608
226	0xbe55e8bd	-0.20889564
227	0x3da1db6c	0.079031795
228	0x3e140f1a	0.14458886
229	0xbd74bf11	-0.059752528
230	0x3d570c1f	0.052501794
231	0x3e646683	0.2230473
232	0xbd087873	-0.033317994
233	0xbe2844db	-0.16432516
234	0xbdf251b9	-0.118319936
235	0xb9700a7b	-0.00022892088
236	0xbd1fbbc8	-0.03899744
237	0x3bb4b70d	0.0055149854
238	0x3e498a39	0.19681634
239	0x3c6522ff	0.0139853945
240	0x3e27a2c8	0.1637069
241	0x3d255151	0.040360752
242	0xbd4b027b	-0.049562912
243	0x3c8fa3ff	0.017534254
244	0xbe01b751	-0.12667586
245	0x3e08d506	0.13362512
246	0xbc9e0036	-0.01928721
247	0xbd9c62f5	-0.07636062
248	0x3da08d10	0.078394055
249	0x3d2aa97f	0.04166555
250	0x3b99e401	0.0046963696
251	0x3d9c559e	0.07633518
252	0x3d8c59d1	0.068530686
253	0x3aa63f76	0.0012683708
254	0xbc224480	-0.009904027
255	0xbd8eb7a6	-0.06968622

g.4.bias f4 [30]
0	0x3d2c95c8	0.04213503
1	0xbd6278a8	-0.055290848
2	0xbb667c85	-0.0035169434
3	0x3c2937ba	0.010328228
4	0xbded3a0c	-0.11583337
5	0xbe1e85ac	-0.1548068
6	0x3cb002ca	0.021485705
7	0x3d92e0bd	0.07171772
8	0xbd78d8af	-0.06075352
9	0xbcb5043c	-0.022096746
10	0x3d43b20a	0.047777213
11	0x3da7c385	0.08191589
12	0x3d807705	0.06272701
13	0x3e24fdbe	0.1611242
14	0xbd7b2581	-0.061315063
15	0x3d19b412	0.037525244
16	0xbd38aa4e	-0.04508429
17	0xbdab5046	-0.0836492
18	0xbdd7731c	-0.10520002
19	0xbcf972ae	-0.030450191
20	0x3ce2e269	0.027695851
21	0x3cd94626	0.026522707
22	0xbd01ac86	-0.03165867
23	0x3dea0fde	0.11428808
24	0xbdb0fd14	-0.08642021
25	0x3e2c230a	0.16810241
26	0xbe1bbfe9	-0.15209927
27	0xbd3113d3	-0.043231796
28	0x3e1f6ae4	0.1556812
29	0xbdca9985	-0.09892563

g.6.weight f4 [2, 30]
0	0x3c02e766	0.00798974
1	0x3ba900ef	0.005157582
2	0xbdda7e55	-0.10668627
3	0x3d2f8926	0.042855404
4	0xbd9fb9d3	-0.07799115
5	0x3d027349	0.031848226
6	0x3dd8bbe9	0.10582716
7	0x3e00922d	0.12555762
8	0x3cc561d4	0.0240945
9	0x3caef042	0.021354798
10	0xbd404440	-0.04694009
11	0x3ab281c0	0.0013618991
12	0x3d516be8	0.051128298
13	0x3cc7009c	0.024292283
14	0xb8360220	-4.339416e-05
15	0x3a7600ee	0.0009384294
16	0x3c62c4b5	0.013840844
17	0xbd304247	-0.043031957
18	0xbc953357	-0.018212957
19	0x3db0770f	0.086164586
20	0x3e079c40	0.13243198
21	0xb9eb3a13	-0.00044865962
22	0xbd5df253	-0.054186177
23	0xbc60e5e1	-0.013726682
24	0xbda2c101	-0.07946969
25	0xbd0e1737	-0.03469011
26	0x3d84c9d5	0.06483809
27	0xbb109e3b	-0.002206697
28	0xbdc352d4	-0.095372826
29	0xbd02890a	-0.031868972
30	0xbc3bee59	-0.011470401
31	0x3e2fc7ac	0.17166013
32	0x3e0c5949	0.13705935
33	0xbd300e72	-0.042982526
34	0xbdb8e15f	-0.09027361
35	0xbe0a618d	-0.13513775
36	0x3e3d6d8e	0.18498823
37	0xbd885083	-0.066559814
38	0xbc658b60	-0.01401028
39	0xbd8325b8	-0.06403679
40	0x3d16350c	0.036671683
41	0x3b800132	0.0039063925
42	0xbc36ed44	-0.011164967
43	0x3ce8bd4b	0.028410574
44	0x3da652be	0.081212506
45	0xbdcabd94	-0.098994404
46	0x3c050c5e	0.008120624
47	0xbc3bf56c	-0.011472087
48	0xbdcce94f	-0.100054376
49	0xbc5890fa	-0.013218159
50	0xbe1f8a1b	-0.15580027
51	0x3b34ba2c	0.0027576787
52	0xbd973a82	-0.07384206
53	0x3d08f029	0.03343216
54	0x3bd29fd5	0.006427745
55	0x3deffa1e	0.11717628
56	0xbdce70d0	-0.10080111
57	0x3b1770d9	0.0023108034
58	0xbe03cc6c	-0.1287095
59	0xbdc39dc6	-0.09551577

g.6.bias f4 [2]
0	0x3dd9e1a7	0.10638743
1	0xbe149dd2	-0.14513329

nn_fun1.0.weight f4 [30, 2]
0	0x3f41be28	0.7568078
1	0x3dfacf11	0.12246526
2	0x3eec0651	0.4609857
3	0xbe6022f5	-0.21888335
4	0xbe7b9a4b	-0.24570577
5	0xbccd5604	-0.02506543
6	0x3e8676c1	0.26262477
7	0x3d97b749	0.07408006
8	0xbeeada8c	-0.45869863
9	0x3e15ced4	0.1462968
10	0x3c40b21e	0.011761216
11	0x3e2e4f91	0.1702254
12	0xbf386dea	-0.72042716
13	0x3e86eb98	0.2635162
14	0x3eaeb4f2	0.34122425
15	0x3dd47ab9	0.1037497
16	0x3ea7b3fe	0.3275451
17	0xbec72594	-0.38895857
18	0xbeb51796	-0.35369557
19	0xbeb93699	-0.36174467
20	0x3e7fdcce	0.24986574
21	0xbf03fdfb	-0.5155942
22	0x3ecc8834	0.39947665
23	0x3f2ae168	0.6675019
24	0xbf031a65	-0.5121215
25	0x3e407cf8	0.18797672
26	0xbe6d5c28	-0.23179686
27	0xbe52bf4f	-0.20580791
28	0xbef3a90c	-0.4758991
29	0xbe991147	-0.29895994
30	0x3f059fbd	0.52196866
31	0xbf14207e	-0.5786208
32	0xbee9ab51	-0.45638517
33	0x3e8e5851	0.27801755
34	0xbe31bd58	-0.17357385
35	0xbd2722dd	-0.040804733
36	0x3ec785e6	0.38969344
37	0xbf794498	-0.9737029
38	0xbe692614	-0.22768432
39	0x3e9df303	0.30849466
40	0x3ec06c81	0.37582782
41	0x3f5cf112	0.86305344
42	0xbe74445d	-0.23854204
43	0xbf339e89	-0.7016378
44	0xbe8df2f7	-0.2772443
45	0xbf1d3a6c	-0.6141727
46	0xbf03a3e6	-0.51421964
47	0xbf8ae420	-1.0850868
48	0xbe26826d	-0.16260691
49	0x3ea378c6	0.3192808
50	0xbefc70b1	-0.49304727
51	0xbf4b7247	-0.7947125
52	0x3eabfc0a	0.33590728
53	0x3f143719	0.5789657
54	0x3f216481	0.6304398
55	0xbe01ea7c	-0.12687105
56	0xbe58abba	-0.21159258
57	0xbd9f42a3	-0.07776382
58	0xbec41c67	-0.3830292
59	0x3f088b9c	0.53338027

nn_fun1.0.bias f4 [30]
0	0x3dc4d658	0.09611195
1	0xbebcfa48	-0.369097
2	0xbf1131f4	-0.5671685
3	0x3e9fea6a	0.3123353
4	0x3f170c8e	0.5900353
5	0x3d90eef4	0.07076827
6	0xbe05a597	-0.13051449
7	0x3a33e6eb	0.00068627176
8	0x3ee91c69	0.45529488
9	0xbeef40c1	-0.4672909
10	0x3eb37676	0.35051316
11	0x3ea59bb2	0.3234535
12	0xbebc5a69	-0.36787727
13	0xbe6979b5	-0.22800334
14	0xbe824e21	-0.25450233
15	0xbee25dc5	-0.44212165
16	0x3f105e94	0.56394315
17	0xbec589ae	-0.38581604
18	0xbe84b4cd	-0.2591919
19	0x3f0f187f	0.55896753
20	0xbd358d2c	-0.044324085
21	0x3f329c5a	0.69769824
22	0x3e0c34a3	0.13691954
23	0x3ee99b27	0.45626184
24	0xbc07d8aa	-0.008291403
25	0x3eaf2f93	0.34215984
26	0x3ec7610f	0.38941237
27	0xbe8ee36f	-0.27907893
28	0xbf0ac2c7	-0.54203457
29	0xbf2874a2	-0.6580297

nn_fun1.2.weight f4 [30, 30]
0	0x3e6f5039	0.23370446
1	0x3c3346b5	0.010942151
2	0xbcf8c1a2	-0.030365769
3	0xbd5397cc	-0.051658437
4	0x3ba5e810	0.0050630644
5	0x3e1235da	0.14278355
6	0x3e11a58e	0.1422331
7	0x3e436021	0.19079639
8	0x3de8cfe1	0.11367775
9	0xbdb6d28e	-0.08926879
10	0xbda4e2c8	-0.080510676
11	0x3dfbd53d	0.12296531
12	0xbcff53ee	-0.03116795
13	0xbde56d38	-0.112024724
14	0xbdc121ed	-0.09430299
15	0x3e1f6e32	0.1556938
16	0xbe3b22e4	-0.18275028
17	0x3dcc4a1f	0.09975075
18	0x3d8a5e77	0.06756299
19	0xbe261e67	-0.16222535
20	0xbd2cd658	-0.0421966
21	0x3d5dabf0	0.05411905
22	0xbe2aed2d	-0.16692038
23	0x3def7ba3	0.11693504
24	0xbd23fb41	-0.040034536
25	0x3de30b38	0.11086124
26	0x3da89e2a	0.082332924
27	0xbd944a9f	-0.07240795
28	0x3d0e1b06	0.03469374
29	0x3df611f1	0.12015141
30	0x3da7da19	0.08195896
31	0xbc99f2ed	-0.018792594
32	0x3d914c6b	0.07094654
33	0x3d87ddad	0.06634078
34	0x3d1573de	0.036487453
35	0x3caca713	0.021075761
36	0x3d41bb5a	0.047297813
37	0x3e0fa94d	0.14029427
38	0xbe09e44e	-0.13465998
39	0x3e2548c6	0.16141042
40	0x3b6e9695	0.0036405672
41	0x3aea97c5	0.0017898014
42	0x3d91056b	0.070811115
43	0x3c9b6676	0.018969756
44	0xbe088b3a	-0.1333436
45	0xba3eef6a	-0.00072836
46	0x3e04115d	0.12897249
47	0x3e106e8f	0.14104675
48	0xbd8c3b3e	-0.06847237
49	0xbdf90105	-0.121583976
50	0x3c6f145e	0.014592258
51	0x3e71eda9	0.23625816
52	0xbd25fad8	-0.040522426
53	0x3e1b162f	0.15145181
54	0xbd8dcb7f	-0.069235794
55	0x3e2c6d7c	0.1683864
56	0xbe33997b	-0.17539017
57	0x3d20fbea	0.039302744
58	0x3c07a5b4	0.008279253
59	0xbe3deed8	-0.18548143
60	0x3e3f87e9	0.1870419
61	0xbd196798	-0.03745231
62	0x3e1c44f7	0.15260683
63	0xbe04bf18	-0.12963521
64	0x3d92149c	0.07132837
65	0x3dff97f3	0.12480154
66	0xbe32d32b	-0.17463367
67	0x3e2751b2	0.16339758
68	0x3d30b865	0.043144602
69	0xbdf8dfdd	-0.121520735
70	0xbe4ed577	-0.20198618
71	0xbe6bca09	-0.23026289
72	0x3d8a5c19	0.067558475
73	0x3da8bfc3	0.08239701
74	0xbd38bab6	-0.045099936
75	0x3d12292f	0.035683807
76	0xbde315d6	-0.11088149
77	0x3e232fb0	0.1593616
78	0xbe24ff4c	-0.16113013
79	0x3d552a68	0.052042395
80	0xbe28f0f1	-0.16498162
81	0xbe056e68	-0.13030398
82	0x3e6e1318	0.23249471
83	0x3e5dd3f1	0.2166288
84	0x3cb1cc1f	0.021703778
85	0x3de8a0ce	0.11358796
86	0xbe4d0bf4	-0.20024091
87	0x3d9cd4da	0.07657786
88	0xbe1258b2	-0.14291647
89	0xbe1960c9	-0.14978327
90	0xbc62fde0	-0.013854474
91	0x3c68aaad	0.0142008485
92	0xbe17af29	-0.14812912
93	0x3e689f1a	0.22716942
94	0x3c386f84	0.011257056
95	0x3d822ab4	0.06355801
96	0x3e0c4c6d	0.13701029
97	0x3d65d698	0.056112856
98	0xbdebcba5	-0.115134515
99	0xbd1c756f	-0.03819793
100	0x3dc12d61	0.094324835
101	0xbc8b9468	-0.017038539
102	0x3e078fba	0.13238421
103	0x3d680272	0.056642957
104	0x3c86f544	0.016474374
105	0x3dd33c6d	0.1031426
106	0x3e19d5ae	0.15022919
107	0xbe1a0ee3	-0.15044741
108	0x3e8cb54b	0.27482066
109	0xbc5acaee	-0.013354046
110	0xbd4f9474	-0.050678685
111	0xbe2cd208	-0.16876996
112	0xbd40df30	-0.04708785
113	0xbdf4ecc8	-0.11959225
114	0xbd93cdc0	-0.07216978
115	0xbd5141ca	-0.051088132
116	0xbc856bc2	-0.016286734
117	0x3d1d97ba	0.038474776
118	0x3b2009df	0.0024419946
119	0xbd5226f3	-0.051306676
120	0xbbbf0ffb	-0.0058307624
121	0xbe0ae8d9	-0.13565387
122	0x3a9fc5bf	0.001218967
123	0xbcb9da1c	-0.02268701
124	0x3d83b279	0.06430525
125	0x3d74f209	0.059801135
126	0x3e029b3a	0.12754527
127	0xbdbef0e3	-0.09323289
128	0x3dce0fdd	0.100616194
129	0xbdf00a05	-0.11720661
130	0x3e0eef6b	0.13958518
131	0x3da9a00b	0.08282479
132	0x3cf9198e	0.030407693
133	0x3caf7ddf	0.021422325
134	0x3d1b1f0f	0.037871417
135	0xbd6a10ab	-0.057144802
136	0x3ded4d07	0.115869574
137	0x3e29513b	0.16534893
138	0xbdefb302	-0.11704065
139	0x3bfdb79e	0.007742836
140	0x3e4b6461	0.1986251
141	0x3d8b7a95	0.0681049
142	0x3dffc740	0.12489176
143	0x3d980675	0.074231066
144	0x3e373465	0.1789108
145	0x3bc731d2	0.006078937
146	0xbd09dd87	-0.03365853
147	0x3de76709	0.11298949
148	0xbc8ec41a	-0.017427493
149	0xbd7be371	-0.061496202
150	0xbdf8e830	-0.12153661
151	0x3deba411	0.115059026
152	0xbe0b604c	-0.13610953
153	0xbe1ef799	-0.15524139
154	0xbd8c3de8	-0.06847745
155	0xbe00df41	-0.12585165
156	0x3d4c56b9	0.049887393
157	0xbe3637d8	-0.1779474
158	0xbcf4fe67	-0.029906465
159	0xbcc334cc	-0.023828886
160	0xbdbc49e3	-0.0919378
161	0x3d15b76d	0.03655188
162	0xbe0fea7c	-0.14054292
163	0x3dda74e7	0.106668286
164	0x3e822dda	0.25425607
165	0xbdd6ee25	-0.10494641
166	0x3e5d3a10	0.2160418
167	0x3dc8e715	0.098097004
168	0xbd60dcd8	-0.054898113
169	0xbd9a62af	-0.07538354
170	0xbc01d558	-0.0079244
171	0x3e2c9904	0.16855246
172	0xbd856989	-0.0651427
173	0xbda579f4	-0.08079901
174	0x3d327613	0.043569636
175	0xbbe0a774	-0.0068558995
176	0xbbc53213	-0.006017932
177	0x3d7be06b	0.06149332
178	0x3d506488	0.050877124
179	0xbe1845e0	-0.14870405
180	0x3d41620f	0.047212657
181	0x3dfbbe55	0.12292162
182	0xbe34f68a	-0.17672172
183	0x3deebfbd	0.11657665
184	0xbcab2fe8	-0.020896867
185	0xbd836131	-0.06415022
186	0x3e3e3990	0.18576646
187	0xbe017928	-0.12643874
188	0x3dd453dd	0.10367558
189	0xbe3a6774	-0.18203527
190	0x3db4323e	0.087986454
191	0x3e437e2f	0.19091104
192	0x3e35ad1f	0.17741822
193	0xbcdc21f4	-0.026871659
194	0xbdccd4ac	-0.100015014
195	0x3e2f13c5	0.17097385
196	0x3e037136	0.12836155
197	0xbcd0d07a	-0.025490034
198	0x3e0da6dc	0.13833183
199	0xbbc69de3	-0.006061302
200	0x3e5a143e	0.21296784
201	0x3dd66358	0.10468167
202	0xbdcd9908	-0.10038954
203	0x3e005c01	0.12535097
204	0xbcb13805	-0.021633158
205	0xbc840da0	-0.016119778
206	0x3d3655c9	0.044515405
207	0x3dfd4096	0.123658344
208	0x3e068861	0.13137962
209	0x3e222588	0.1583463
210	0xbe1e0c93	-0.15434484
211	0x3d8f89ba	0.07008691
212	0x3e2da9b5	0.1695927
213	0xbeadee08	-0.33970666
214	0xbe1328a5	-0.14370973
215	0xbcbede9b	-0.023299506
216	0xbe5fca01	-0.21854402
217	0x3c10c2fd	0.008835551
218	0xbe13d71f	-0.14437531
219	0x3e389253	0.18024568
220	0xbdc67efb	-0.09692188
221	0xbe5c27d1	-0.21499564
222	0x3e191eb4	0.14953119
223	0xbd0ff347	-0.035144117
224	0x3dcbe145	0.09955076
225	0xbe17eaab	-0.14835612
226	0xbc920aeb	-0.017827472
227	0x3e8117e3	0.25213537
228	0xbe385945	-0.18002804
229	0xbc810e6a	-0.015753943
230	0x3d458337	0.04822084
231	0x3da2d467	0.07950669
232	0x3e7fe3c5	0.24989231
233	0xbc5e7200	-0.013576984
234	0xbd222956	-0.039590202
235	0x3e175fca	0.14782634
236	0xbdb0fead	-0.086423256
237	0xbc186b28	-0.009302892
238	0x3da64353	0.0811831
239	0x3dc64f9b	0.09683152
240	0x3e67a43d	0.22621246
241	0xbe6d7c68	-0.23191988
242	0x3dddeb31	0.10835875
243	0x3c02c5d0	0.0079817325
244	0x3dda7268	0.106663525
245	0x3d8d9329	0.06912834
246	0xbd3c42a3	-0.045961987
247	0x3de7b73c	0.11314246
248	0x3e358cf0	0.17729545
249	0xbe2f2165	-0.17102583
250	0x3e39129b	0.18073504
251	0xbe26a11c	-0.16272396
252	0xbdc571f6	-0.09640877
253	0x3a4e1001	0.0007860661
254	0xbd0b40fa	-0.033997513
255	0x3cb4d395	0.022073546

nn_fun1.2.bias f4 [30]
0	0x3c123c78	0.00892555
1	0xbc892fd4	-0.016746439
2	0xbd5ceb9b	-0.05393563
3	0x3de9dfcf	0.11419641
4	0xbdec42a9	-0.11536152
5	0x3e294186	0.16528901
6	0x3dd26480	0.10273075
7	0xbe597785	-0.21237
8	0xbcd2f61e	-0.025752123
9	0xbdebe8b9	-0.11518998
10	0x3e4f80fe	0.2026405
11	0xbd50d702	-0.050986297
12	0x3c8c9566	0.017161082
13	0x3d24829c	0.04016362
14	0xbd05cc02	-0.03266526
15	0xbdc601b2	-0.09668292
16	0x3dfc4ec8	0.12319714
17	0x3d8dcda4	0.069239885
18	0xbe17a48e	-0.14808866
19	0xbddd8013	-0.10815444
20	0xbe47d169	-0.19513477
21	0xbd938e04	-0.07204822
22	0xbda4f669	-0.080548115
23	0x3e0484f5	0.12941344
24	0x3e571f63	0.21008067
25	0x3d16a936	0.036782466
26	0xbafaa365	-0.0019122182
27	0x3de0d3c3	0.1097789
28	0x3db3e136	0.0878319
29	0x3b604814	0.003422265

nn_fun1.4.weight f4 [30, 30]
0	0xbdc29cd6	-0.0950257
1	0x3d3ea564	0.046544448
2	0x3ddd2cb2	0.107995406
3	0x3d6d9c30	0.05801028
4	0xbe03982f	-0.12851022
5	0x3e4e1811	0.20126368
6	0x3d735a54	0.059412315
7	0x3e6d5cd5	0.23179944
8	0x3dce364c	0.1006895
9	0xbe35a4c1	-0.1773863
10	0xbd9b0bb6	-0.07570593
11	0xbd3eecda	-0.046612598
12	0x3e50adfd	0.20378871
13	0xbce94c65	-0.02847881
14	0xbe8c81e1	-0.2744284
15	0xbd407464	-0.046986
16	0xbe30e318	-0.1727413
17	0xbd8dffc5	-0.0693355
18	0x3e6abc39	0.22923364
19	0x3e3656af	0.17806505
20	0xbc0eb7cf	-0.008710816
21	0x3c527d37	0.012847236
22	0xbdbbc5f3	-0.09168615
23	0x3e6293b6	0.2212666
24	0x3dba8aa4	0.09108475
25	0xbdfe37a1	-0.12412954
26	0x3deb752b	0.114969574
27	0x3e05c332	0.13062742
28	0xbdca5020	-0.09878564
29	0xbe2b640e	-0.16737387
30	0xbddfbf45	-0.10925154
31	0x3e362ed6	0.17791304
32	0x3e218566	0.15773544
33	0x3e232980	0.159338
34	0x3dfc7a9c	0.123280734
35	0x3cf8b714	0.030360736
36	0x3dccf3a8	0.10007411
37	0xbd28cbf1	-0.04121012
38	0xbdf5f63f	-0.12009858
39	0xbda31d4c	-0.07964572
40	0x3d7efef7	0.062254872
41	0x3d65ac36	0.056072436
42	0x3e1a5929	0.15073074
43	0xbccfad66	-0.025351238
44	0x3d09079f	0.033454534
45	0xbbe69f44	-0.007038029
46	0xbe575d99	-0.21031798
47	0xbdb5088f	-0.08839523
48	0x3da2716d	0.079317905
49	0x3e2d8fdd	0.1694941
50	0x3d8ec427	0.06971007
51	0xbd823b26	-0.06358938
52	0xbde47029	-0.11154205
53	0x3e1dd013	0.15411405
54	0xbe007590	-0.12544847
55	0xbda09e51	-0.078426965
56	0x3e50c0bb	0.20386021
57	0xbce938fb	-0.028469553
58	0xbe27bc5c	-0.16380447
59	0x3ce874c6	0.028375994
60	0x3e2996de	0.16561458
61	0xbdea6634	-0.11445275
62	0x3c6bd78c	0.014394652
63	0xbd8fbbeb	-0.070182644
64	0xbe04e776	-0.1297892
65	0xbcf7472c	-0.030185305
66	0xbd36e22f	-0.0446493
67	0xbe228aef	-0.15873311
68	0xbe6be36a	-0.2303597
69	0xbddbfa6b	-0.10741123
70	0x3e5dd01d	0.2166142
71	0xbdf0aff2	-0.11752309
72	0xbd9e82a0	-0.077397585
73	0xbd540193	-0.051759314
74	0xbdd82e45	-0.105557
75	0xbdb85695	-0.09000889
76	0x3de24b84	0.1104956
77	0xbe2affc6	-0.16699132
78	0xba0ed929	-0.00054492295
79	0xbceb16be	-0.028697368
80	0x3d0d93c4	0.03456475
81	0xbd7d54f1	-0.061848585
82	0xbe0cf827	-0.13766538
83	0xbd024b70	-0.031810224
84	0xbe7eb2a3	-0.24872832
85	0x3daef617	0.08543032
86	0xbc0b87a0	-0.008516222
87	0x3c751ab9	0.014959984
88	0x3de47776	0.11155598
89	0x3d8373da	0.06418581
90	0xbe0d3b64	-0.13792187
91	0x3ddc0a3b	0.10744139
92	0x3dc5e69e	0.09663127
93	0x3c8dd51f	0.017313538
94	0x3d83877a	0.064223245
95	0xbe07de60	-0.13268423
96	0xbd7f9d19	-0.06240568
97	0xbe6b89cd	-0.23001786
98	0x3e2d5bfb	0.16929619
99	0x3e619bcb	0.22032087
100	0xbdc931fc	-0.09823987
101	0xbd8a8f06	-0.06765561
102	0xbd55a2c4	-0.05215718
103	0x3d878db3	0.06618824
104	0x3dd15ac1	0.10222388
105	0x3dd9a22f	0.10626637
106	0xbd25f1bb	-0.040513735
107	0xbc295909	-0.010336169
108	0xbddf74de	-0.109109625
109	0xbd9dff78	-0.077147424
110	0xbc838770	-0.016055793
111	0x3de1f3f5	0.11032859
112	0x3da762a1	0.08173109
113	0x3da7ce94	0.081936985
114	0xbd7ed979	-0.062219117
115	0xbd96f449	-0.073708124
116	0x3e439141	0.19098379
117	0x3e0d5b89	0.13804449
118	0xbe30d991	-0.17270495
119	0x3dfa09ad	0.12208877
120	0x3e042502	0.12904742
121	0x3d407797	0.04698905
122	0x3cb3a26a	0.021928031
123	0xbcb77a02	-0.022397045
124	0xbe02e303	-0.1278191
125	0x3d91a7e2	0.07112099
126	0x3e2b8406	0.16749582
127	0xbdd3985f	-0.10331797
128	0xbcd1d7f8	-0.025615677
129	0xbe13cb26	-0.14432964
130	0x3dfe45e5	0.12415675
131	0xbe46188e	-0.19345304
132	0xbdfdd067	-0.12393265
133	0x3d2da816	0.042396627
134	0xbdafa765	-0.0857685
135	0xbc8b185e	-0.016979393
136	0x3d87bfbc	0.06628367
137	0xbd2b0aa1	-0.041758183
138	0x3d4dd8e5	0.050255675
139	0x3c833db1	0.016020628
140	0xbe4222bb	-0.18958561
141	0x3cdcbe56	0.026946228
142	0xbd3597f4	-0.044334367
143	0x3dacc626	0.08436231
144	0xbd43e721	-0.047827844
145	0x3cc78cbe	0.024359103
146	0x3c2daa71	0.010599718
147	0x3dba5171	0.09097565
148	0xbd0afb86	-0.033931278
149	0xbdafc630	-0.08582723
150	0xbe1250db	-0.14288656
151	0xbdb7150a	-0.0893956
152	0xbdb87d2b	-0.09008249
153	0x3e135aaf	0.14390062
154	0x3d31832a	0.04333798
155	0xbe0cccca	-0.13749996
156	0xbdfd9a01	-0.123828895
157	0x3c26c0ae	0.010177774
158	0xbe5551b9	-0.20831956
159	0xbd1506a8	-0.0363833
160	0x3d2cd903	0.042199146
161	0xbe2d6960	-0.16934729
162	0xbd96c415	-0.073616184
163	0x3da678b4	0.08128491
164	0x3e4a9fcf	0.19787525
165	0xbe0a9dad	-0.13536711
166	0xbdec3282	-0.11533071
167	0x3e0b5aa2	0.13608792
168	0xbd1b65eb	-0.037938993
169	0x3e280140	0.16406727
170	0x3dd52cbd	0.10408924
171	0x3d23f81f	0.04003155
172	0xbdf9cefe	-0.12197684
173	0xbe0c8e5f	-0.13726185
174	0xbd61b4df	-0.055104133
175	0x3d4388f8	0.047738045
176	0x3da6f599	0.08152313
177	0x3e038c82	0.12846568
178	0x3d809843	0.062790416
179	0x3d277473	0.04088254
180	0xbdec6d1b	-0.11544248
181	0x3d489050	0.048965752
182	0xbe2fe116	-0.17175707
183	0x3b896a88	0.0041936077
184	0x3d8e2252	0.0694014
185	0x3c366e50	0.011134699
186	0x3e77d5b4	0.24202615
187	0xbc654d1e	-0.013995437
188	0x3e0a703e	0.1351938
189	0x3d071466	0.032978438
190	0x3e5f5f5f	0.21813725
191	0x3d12be2d	0.035825897
192	0xbce676f8	-0.0281329
193	0x3d03888e	0.03211265
194	0x3dd05235	0.1017193
195	0x3df17ba9	0.117911644
196	0x3de3f86a	0.111313656
197	0x3bab33ce	0.0052246815
198	0xbdfd463b	-0.12366911
199	0x3e19102a	0.14947572
200	0xbe2717d6	-0.16317686
201	0xbdd0d151	-0.10196174
202	0x3d6a48e9	0.05719844
203	0xbe130097	-0.14355694
204	0x3d9a0789	0.075209685
205	0xbc766bdf	-0.015040367
206	0xbd020b01	-0.031748775
207	0xbe075d15	-0.13219102
208	0x3d83f89a	0.06443901
209	0xbc9356f5	-0.0179858
210	0x3e241dc6	0.16026983
211	0xbd8c5489	-0.06852061
212	0x3cb30085	0.021850834
213	0xbe270eda	-0.16314259
214	0x3d553a46	0.052057527
215	0x3cd372c3	0.025811559
216	0xbe0b81c7	-0.13623725
217	0xbd10cf37	-0.035353865
218	0xbdba3d9c	-0.09093782
219	0x3c9cd6e5	0.019145438
220	0xbd280364	-0.04101886
221	0xbdf70dca	-0.12063177
222	0x3c8e6b20	0.017385066
223	0x3c8180fe	0.015808579
224	0x3ceb594e	0.028729107
225	0xbe02bde6	-0.12767753
226	0x3d4b7999	0.04967651
227	0x3d4ef178	0.05052325
228	0x3e2a568f	0.16634582
229	0xbcdba0e2	-0.026810113
230	0xbda1d183	-0.07901289
231	0xbdead957	-0.114672355
232	0x3e1e18e2	0.1543918
233	0xbd265562	-0.04060877
234	0x3ddd4e59	0.10805959
235	0xbc217da6	-0.009856617
236	0x3e32295f	0.17398594
237	0xbcacdb6e	-0.021100726
238	0x3e83f162	0.25770098
239	0x3e2d70c4	0.16937548
240	0x3e26117b	0.16217606
241	0xbd12b3d5	-0.035816032
242	0xbe090272	-0.13379839
243	0x3e38ba7b	0.18039887
244	0xbe450d51	-0.19243361
245	0xbdc34df7	-0.09536355
246	0x3da8388e	0.08213912
247	0x3e129635	0.14315112
248	0x3cccfb11	0.025022062
249	0xbc9b08c8	-0.018925086
250	0x3d065a28	0.032800823
251	0xbd04bbca	-0.032405652
252	0xbe18f2e4	-0.14936405
253	0x3d9446c7	0.07240062
254	0x3e3f8d9c	0.18706363
255	0xbe4e606e	-0.20153973

nn_fun1.4.bias f4 [30]
0	0xbc97eec7	-0.018546475
1	0x3d72d692	0.05928666
2	0x3dee93f4	0.116493136
3	0x3e0ed492	0.13948277
4	0xbccdb80b	-0.025112173
5	0xbe05f775	-0.13082679
6	0x3de5aae4	0.112142354
7	0xbdf32fd3	-0.11874356
8	0xbe0ae3d1	-0.13563468
9	0xbdc349cc	-0.0953556
10	0x3e7222a1	0.23646022
11	0x3c29b633	0.010358381
12	0xbcf09262	-0.029366676
13	0xbe3c9ac3	-0.18418412
14	0x3e13d723	0.14437537
15	0x3bda8596	0.0066687567
16	0xbd5ac76a	-0.053412832
17	0xbd8b88e4	-0.06813219
18	0xbd121bd0	-0.035671055
19	0x3da521b7	0.08063071
20	0xbdc69ed8	-0.09698266
21	0xbd62dd50	-0.05538684
22	0x3de8548a	0.113442495
23	0xbe170dac	-0.14751309
24	0xbd263123	-0.040574204
25	0xbc62178f	-0.013799562
26	0x3d225794	0.039634302
27	0x3de84012	0.113403454
28	0x3dfd1e27	0.12359267
29	0x3d9dbc00	0.07701874

nn_fun1.6.weight f4 [30, 30]
0	0x3d9a20ff	0.07525825
1	0x3e07545b	0.13215773
2	0xbbb54b33	-0.005532646
3	0xbd19f73f	-0.037589308
4	0x3df54583	0.11976149
5	0x3dcc132b	0.099645935
6	0xbdbe6240	-0.092960835
7	0x3e1575c8	0.14595711
8	0x3dccf4be	0.10007618
9	0xbe60f718	-0.21969259
10	0xbe20e1ab	-0.15711085
11	0xbe449049	-0.19195665
12	0x3de024bf	0.10944509
13	0x3e1a78ce	0.15085146
14	0x3ce8466d	0.028353894
15	0x3db858d6	0.09001319
16	0xbe7f45be	-0.24928948
17	0xbd608d9e	-0.054822557
18	0x3d026b28	0.031840473
19	0x3e07974d	0.1324131
20	0xbe2d8bbe	-0.16947839
21	0x3d1cc5e6	0.03827467
22	0xbc6e16ee	-0.014531834
23	0xbd6eea80	-0.058329105
24	0x3e0c0f64	0.13677746
25	0x3c03fbf3	0.008055675
26	0xbdb0a0f3	-0.086244486
27	0x3db68008	0.08911139
28	0xbd8602cb	-0.065435015
29	0xbe037334	-0.12836915
30	0xbe053251	-0.13007475
31	0x3ca53a29	0.020169334
32	0x3dda88ac	0.10670599
33	0x3dd8075a	0.10548277
34	0xbe00bfdf	-0.12573193
35	0xbda6d2e1	-0.08145691
36	0xbc3e9fdc	-0.011634793
37	0x3df30985	0.1186705
38	0xbe84ff76	-0.2597615
39	0xbe319d85	-0.17345245
40	0x3d25598d	0.040368605
41	0xbd50d74c	-0.050986573
42	0xbe7d2742	-0.24722007
43	0xbdbcede2	-0.0922506
44	0xbdb3cfc8	-0.087798655
45	0xbd62ee6b	-0.055403154
46	0x3dddc16d	0.10827909
47	0x3c5c53f4	0.01344775
48	0x3de3117b	0.110873185
49	0xbe42e4a8	-0.19032538
50	0x3c667197	0.014065168
51	0x3d98584b	0.074387155
52	0x3dc58017	0.09643572
53	0xbc9d1426	-0.019174647
54	0x3d30d431	0.04317111
55	0x3d6b214a	0.057404794
56	0x3e4eb8c6	0.20187673
57	0x3d45c77e	0.048285954
58	0x3da301b8	0.07959312
59	0xbc88f8cc	-0.016720198
60	0x3cda050a	0.026613731
61	0x3d51d78a	0.051230945
62	0xbe5a119b	-0.21295778
63	0xbd8b4267	-0.067997746
64	0xbdced1f6	-0.100986406
65	0x3cd6d026	0.0262223
66	0x3d3ad5fb	0.045614224
67	0x3d73b5be	0.059499495
68	0x3d2b7d5f	0.04186761
69	0x3de20676	0.110363886
70	0xbd9e8550	-0.07740271
71	0xbd310068	-0.043213278
72	0xbcd7d4a9	-0.026346521
73	0xbe359055	-0.1773084
74	0xbe117f0c	-0.14208621
75	0xbc8bbffb	-0.017059317
76	0x3dc638b4	0.09678784
77	0x3e4efbbc	0.20213217
78	0xbd86664b	-0.065624796
79	0xbc177976	-0.009245267
80	0x3d705514	0.058674887
81	0x3c6840c5	0.0141755985
82	0x3cf7e5dd	0.030260975
83	0x3e53049c	0.20607227
84	0x3daa0410	0.08301556
85	0xbc1c203b	-0.009529169
86	0xbe4e6305	-0.2015496
87	0xbdecd70d	-0.11564455
88	0x3e1f3150	0.15546155
89	0x3c2bc6dd	0.010484424
90	0xbdaf94e6	-0.08573322
91	0xbc73fabf	-0.0148913255
92	0xbdb0c7a5	-0.08631829
93	0x3d13db5e	0.036097877
94	0xbd7c5260	-0.061601996
95	0x3b5cdd58	0.0033701267
96	0x3d51b9c8	0.051202565
97	0xbd9ef94d	-0.07762394
98	0xbdbad2a8	-0.09122211
99	0x3e12fb14	0.14353591
100	0x3b88a931	0.00417056
101	0x3deac915	0.114641346
102	0xbda6c1de	-0.08142446
103	0x3e50b96d	0.20383234
104	0xbc3382e5	-0.010956501
105	0x3deff038	0.1171574
106	0xbd0d6a24	-0.03452505
107	0xbce76d5d	-0.02825039
108	0xbd85f382	-0.06540586
109	0x3de96945	0.11397032
110	0xbdbb678e	-0.09150611
111	0xbdb8ec2f	-0.090294234
112	0xbe321b2e	-0.1739318
113	0xbdb1372f	-0.086531036
114	0xbd2180b7	-0.039429393
115	0xbd7dfb60	-0.062007308
116	0xbd921c25	-0.071342744
117	0x3cf29755	0.029613176
118	0xbd7c308e	-0.061569743
119	0xbe274b0b	-0.1633722
120	0xbcd0847d	-0.0254538
121	0x3db39b9f	0.08769917
122	0x3ba1b959	0.0049354252
123	0x3e087db2	0.13329199
124	0xbda951f0	-0.082675815
125	0xbe09fe64	-0.13475949
126	0xbcf44b9b	-0.029821208
127	0xbd0573f9	-0.032581303
128	0x3be45901	0.006968618
129	0xbe72bbd6	-0.23704466
130	0x3e3edde1	0.18639328
131	0xbe168cbf	-0.14702128
132	0xbdbba104	-0.09161571
133	0xbd99628a	-0.07489498
134	0x3d9e1c71	0.077202685
135	0xbe05d481	-0.13069345
136	0xbd6f7eae	-0.05847042
137	0x3d189a4e	0.03725653
138	0xbe3ea0c8	-0.1861602
139	0xbe2c2482	-0.16810802
140	0x3d16fd6b	0.036862772
141	0xbd8d4c74	-0.06899348
142	0xbcc94ce6	-0.0245728
143	0xbe0ac8a2	-0.13553098
144	0xbe245725	-0.16048868
145	0x3e0a12d0	0.13483739
146	0x3e1a0c18	0.15043676
147	0xbe19b247	-0.15009414
148	0xbd58e596	-0.052953325
149	0x3e40fe1e	0.18846938
150	0xbe4705e0	-0.19435835
151	0xbe22edce	-0.15911028
152	0xbcc39e18	-0.023879096
153	0x3e035b50	0.12827802
154	0xbdabaf49	-0.08383042
155	0xbd31c890	-0.043404162
156	0x3cac781c	0.021053366
157	0x3c9b9c4b	0.018995425
158	0xbce591ca	-0.02802362
159	0xbe2ac14e	-0.16675302
160	0x3d4323ac	0.04764144
161	0xbd945a20	-0.072437525
162	0x3dc4ee22	0.09615733
163	0x3dbd2331	0.09235228
164	0x3d90334a	0.070410326
165	0xbc6c95c5	-0.014440005
166	0xbaadf984	-0.0013273214
167	0xbcb5befd	-0.022185797
168	0xbcd5bb2d	-0.026090229
169	0x3d817b9e	0.06322406
170	0x3cb72ca6	0.022360157
171	0x3d530329	0.051516686
172	0xbe1514d8	-0.14558733
173	0x3e4f308f	0.20233367
174	0xbda7f868	-0.082016766
175	0x3d81cb30	0.06337583
176	0xbd992173	-0.07477083
177	0x3e31d08d	0.17364712
178	0x3dd96ae7	0.10616093
179	0x3de3718d	0.111056425
180	0xbdb0f842	-0.086411014
181	0x3cf00753	0.029300367
182	0x3deae24b	0.11468943
183	0xbe179112	-0.14801434
184	0x3d5a8676	0.05335089
185	0xbe1833da	-0.1486353
186	0xbe3a34ad	-0.18184157
187	0xbe1e1791	-0.15438677
188	0xbd0a43fc	-0.03375624
189	0x3b61c57b	0.0034449983
190	0xbdd94b16	-0.10610025
191	0x3d8be44c	0.068306535
192	0x3e08b018	0.13348424
193	0x3d10583e	0.035240404
194	0xbe3b6604	-0.18300635
195	0xbc3a05ce	-0.011353923
196	0x3cf5b17c	0.029991858
197	0x3e4e4914	0.20145065
198	0x3d5e1950	0.05422336
199	0xbd2f8ccf	-0.042858895
200	0x3c384d75	0.011248936
201	0xbe2fae82	-0.17156413
202	0xbd107003	-0.035263073
203	0x3e2e9bf3	0.17051677
204	0x3e3b444b	0.1828777
205	0x3caa1865	0.020763585
206	0x3dab5653	0.083660744
207	0x3e3a111e	0.18170592
208	0x3da27812	0.07933058
209	0xbce17509	-0.027521627
210	0xbdb299c1	-0.087207325
211	0x3dbf0b1e	0.09328292
212	0xbd506c61	-0.05088461
213	0xbdfe4fa4	-0.12417534
214	0xbe51f59d	-0.2050385
215	0x3d921b81	0.07134152
216	0xbe02b5ba	-0.12764636
217	0x3e237980	0.15964317
218	0x3e195419	0.14973487
219	0x3e4e851b	0.20167963
220	0xbd984dac	-0.0743669
221	0x3dca4e0a	0.09878166
222	0xbe2da86d	-0.1695878
223	0xbd400781	-0.046882156
224	0x3db40657	0.08790272
225	0x3dd531f8	0.104099214
226	0xbda8ff4a	-0.082518175
227	0x3d94e704	0.07270625
228	0xbdb9938c	-0.090613455
229	0x3ce67f21	0.028136792
230	0x3e1292ad	0.14313765
231	0xbe0c3a3f	-0.13694094
232	0x3e4e9818	0.20175207
233	0xbe3a2bff	-0.18180846
234	0x3e12c8d4	0.14334422
235	0xbd140fbf	-0.03614783
236	0xbc955674	-0.0182297
237	0xbdd40cea	-0.10354026
238	0xbe0ee810	-0.13955712
239	0x3e27a936	0.16373143
240	0xbccdd48e	-0.025125768
241	0xbd43061a	-0.04761324
242	0xbd518c94	-0.051159456
243	0xbdd03170	-0.101656795
244	0x3da410af	0.08010995
245	0x3dac7c24	0.084221154
246	0xbe090dac	-0.13384122
247	0x3e370833	0.17874222
248	0x3e0d9ec8	0.13830101
249	0x3cccd43c	0.025003545
250	0xbe207fa8	-0.15673697
251	0xbd9a9560	-0.07548022
252	0xbdf71d52	-0.12066139
253	0x3c945a1a	0.01810937
254	0xbd00c969	-0.03144208
255	0xbd8d55c1	-0.06901122

nn_fun1.6.bias f4 [30]
0	0x3db384c5	0.08765558
1	0x3cc32141	0.023819568
2	0xbcf56d55	-0.02995936
3	0xbdb586d6	-0.088636085
4	0x3d60353a	0.05473826
5	0x3d8416e0	0.064496756
6	0x3ceae747	0.028674735
7	0xbd2eed8b	-0.042707007
8	0xbdbf92fe	-0.093542084
9	0xbe924694	-0.28569472
10	0xbd3a74ab	-0.04552142
11	0xbe0ea6e1	-0.13930847
12	0xbc837ead	-0.016051615
13	0x3e3b3aa8	0.18284094
14	0xbcb0b637	-0.021571262
15	0xbe1d02dd	-0.15333124
16	0xbe55c679	-0.20876493
17	0xbd093d35	-0.033505637
18	0xbe05d237	-0.13068472
19	0xbda94753	-0.08265557
20	0xbe4fafd7	-0.20281921
21	0x3d1ed923	0.038781296
22	0x3df6e0ba	0.12054582
23	0xbd723823	-0.059135567
24	0xbe5189f9	-0.20462789
25	0xbe1f3b0c	-0.15549868
26	0xbd8cafe3	-0.06869485
27	0x3e20a2c5	0.15687092
28	0xbe7a4224	-0.24439293
29	0x3d3d1e5d	0.046171535

nn_fun2.0.weight f4 [30, 2]
0	0xbe2d5d0f	-0.1693003
1	0xbe7dc417	-0.24781834
2	0xbdf59e05	-0.119930305
3	0xbf28b508	-0.6590123
4	0xbe3bc9a0	-0.18338633
5	0x3d57944b	0.052631658
6	0x3e36f43d	0.17866607
7	0xbd5d9f54	-0.054107025
8	0x3e5457e1	0.20736648
9	0x3e2c9635	0.16854174
10	0xbf11a575	-0.5689309
11	0xba9bc957	-0.0011885565
12	0xbf27106c	-0.6525943
13	0xbf278367	-0.6543488
14	0x3f2b15bd	0.66830045
15	0x3cabd60b	0.020976087
16	0x3ea3b3a4	0.31972992
17	0x3eb22f25	0.34801593
18	0x3e8dd373	0.27700385
19	0x3e810a21	0.2520304
20	0xbf2c7f1b	-0.6738145
21	0xbf2a93a6	-0.66631544
22	0xbf0c0a3a	-0.54703104
23	0xbef33650	-0.47502375
24	0x3f451c9d	0.76996785
25	0xbf33a36b	-0.7017123
26	0xbf2b1801	-0.668335
27	0x3e57253d	0.21010299
28	0x3f183a7d	0.59464246
29	0x3f0e707c	0.5564039
30	0xbec3f930	-0.38276052
31	0x3f050546	0.5196117
32	0x3eeb7aa1	0.45991996
33	0xbe78350e	-0.24238989
34	0x3db2472b	0.087049805
35	0xbea0e61a	-0.31425554
36	0xbf32238c	-0.6958549
37	0xbe92166f	-0.2853274
38	0xbf2e3969	-0.6805635
39	0xbe6edc5f	-0.23326252
40	0x3e948936	0.29010934
41	0xbe87be3b	-0.26512322
42	0xbf24efcc	-0.644284
43	0xbe23205d	-0.15930314
44	0x3ec80402	0.39065558
45	0xbf1983dd	-0.5996683
46	0xbe9a6c8c	-0.3016094
47	0xbec5d58d	-0.3863949
48	0x3e56582b	0.20932071
49	0x3ee9c367	0.45656893
50	0xbedc2df6	-0.43003815
51	0x3e2cd982	0.16879848
52	0x3f18314d	0.5945023
53	0x3ea579ec	0.32319582
54	0x3ecb6b35	0.3973023
55	0xbe0c550e	-0.13704321
56	0x3f39950e	0.72493064
57	0xbf542a22	-0.8287679
58	0xbf4b1722	-0.7933217
59	0x3e8ddfc5	0.27709785

nn_fun2.0.bias f4 [30]
0	0x3ed632f4	0.4183575
1	0xbec0eacc	-0.37679136
2	0xbd424005	-0.047424335
3	0x3dd4b3a2	0.10385825
4	0x3de5d676	0.11222546
5	0x3e5bd289	0.21467032
6	0x3ead36eb	0.33830962
7	0x3f0e547a	0.5559765
8	0xb8f1d09c	-0.00011530632
9	0xba9d2bb4	-0.0011991174
10	0x3e9d6cee	0.3074717
11	0x3ef83c89	0.48483685
12	0xbf24d74d	-0.6439102
13	0xbee30277	-0.44337818
14	0xbe35a66b	-0.17739265
15	0xbf28dff8	-0.6596675
16	0x3f05050a	0.51960814
17	0x3f242d2e	0.6413144
18	0xbf205f1e	-0.6264514
19	0xbf211205	-0.6291812
20	0x3f0242c2	0.50883114
21	0x3efd7d7c	0.495098
22	0xbef40573	-0.47660407
23	0xbdb6be44	-0.08923009
24	0xbebd2acf	-0.36946723
25	0x3e3ee118	0.18640554
26	0xbf100b24	-0.56267
27	0x3f2c3e44	0.6728251
28	0xbf1d82d9	-0.6152778
29	0xbe2f2149	-0.17102541
