results/FHN_celegans_directed_wcc_multiple_nn_True_8/neural_network.pth (torch, 38491 bytes, 26 tensors)

g.0.weight f4 [30, 2]
0	0x3f189cd4	0.596143
1	0x3ec4b01e	0.38415617
2	0xbdf9ad6e	-0.12191282
3	0xbee099aa	-0.43867236
4	0x3ef98e7f	0.48741528
5	0x3ec050bb	0.37561592
6	0xbec6fff9	-0.38867167
7	0xbca033bd	-0.01955592
8	0x3e8b0b70	0.27157164
9	0x3e81a2e3	0.25319585
10	0xbee8acd7	-0.45444366
11	0xbeebdf4e	-0.46068805
12	0xbba58979	-0.0050517884
13	0xbed448c5	-0.4146177
14	0x3f1581c4	0.5840113
15	0x3d12bba5	0.035823483
16	0x3f2005e9	0.6250902
17	0x3ec66aae	0.38753265
18	0x3ef2aa96	0.47395772
19	0x3e6920a3	0.22766356
20	0xbf06252d	-0.52400476
21	0xbdc43cda	-0.09581919
22	0xbe7b886d	-0.24563761
23	0xbdd1a9a2	-0.10237433
24	0x3c651d11	0.013983981
25	0x3d9a59a9	0.075366326
26	0x3e18b974	0.14914495
27	0x3d7621e7	0.060090926
28	0xbd924ff3	-0.07144155
29	0xbee03865	-0.43793026
30	0x3e5cdc51	0.21568419
31	0x3c78937c	0.015171882
32	0x3e23e986	0.16007051
33	0xbd17012b	-0.03686635
34	0xbd4db2b9	-0.05021927
35	0x3e16813b	0.14697735
36	0xbe3d51c5	-0.18488224
37	0xbeb288f6	-0.34870118
38	0xbf26480c	-0.64953685
39	0x3d480bae	0.048839264
40	0xbedbec69	-0.42953804
41	0xbd2ee74b	-0.042701047
42	0xbe18f92f	-0.14938806
43	0x3bb73ea8	0.005592186
44	0x3ed378d5	0.41303125
45	0xbee303ff	-0.44338986
46	0xbee7dd6f	-0.45286128
47	0x3e9163bb	0.283964
48	0xbe9a545c	-0.30142486
49	0x3e0b5560	0.13606787
50	0xbed129bc	-0.40852153
51	0xbd955ff3	-0.072936915
52	0xbe783b75	-0.24241431
53	0x3c9cdd85	0.019148597
54	0xbd95d1a9	-0.0731538
55	0xbd86f1c1	-0.0658908
56	0x3def2ab2	0.11678065
57	0xbe4d7cfd	-0.2006721
58	0x3ece3eec	0.4028238
59	0xbeb8a8ed	-0.3606638

g.0.bias f4 [30]
0	0xbea721c1	-0.3264294
1	0x3eea75f0	0.45793104
2	0x3f2dbaa1	0.678629
3	0x3ed88b21	0.42293647
4	0x3efb4fa6	0.49084204
5	0x3e83e2fe	0.2575912
6	0x3ec622da	0.38698465
7	0x3f2db879	0.6785961
8	0xbf0d8470	-0.5528021
9	0xbea156f5	-0.31511655
10	0x3f187272	0.5954963
11	0xbe13aaff	-0.14420699
12	0x3ef07fa3	0.4697238
13	0x3d95ec89	0.07320506
14	0x3e7d059b	0.2470917
15	0x3e8eb0f7	0.27869388
16	0xbdb091e5	-0.08621577
17	0x3e9cc2c3	0.3061734
18	0x3f133b2e	0.57512176
19	0xbeebbb77	-0.46041462
20	0xbdaaec17	-0.08345812
21	0x3eb0c8e8	0.3452828
22	0x3efde470	0.49588346
23	0x3f01f456	0.5076345
24	0xbebeb1d6	-0.37245053
25	0xbf2ad317	-0.6672835
26	0xbe680041	-0.22656347
27	0xbe8a86d0	-0.2705598
28	0xbee4fbd3	-0.44723377
29	0xbe7e46af	-0.24831651

g.2.weight f4 [30, 30]
0	0xbd5df988	-0.05419305
1	0xbde899fb	-0.113574944
2	0x3e1e2b5c	0.15446228
3	0xbe529967	-0.20566331
4	0x3d0ddaff	0.03463268
5	0xbe225d1c	-0.15855831
6	0x3e16d91b	0.14731257
7	0x3d55b81c	0.052177534
8	0x3e48e3c4	0.19618136
9	0xbd537232	-0.051622577
10	0x3c95a502	0.018267158
11	0xbdad0aba	-0.084493116
12	0x3dce7013	0.1007997
13	0x3e525d9f	0.20543526
14	0x3e38a696	0.18032297
15	0xbdb64444	-0.088997394
16	0x3bbd198b	0.005770867
17	0x3dcb3108	0.09921461
18	0xbd0576e4	-0.032584086
19	0xbe30107a	-0.17193785
20	0x3d383446	0.044971727
21	0xbda70ab5	-0.08156339
22	0x3dcec116	0.10095422
23	0xbe0af508	-0.13570035
24	0xbcf39c74	-0.029737689
25	0xbe52ff2a	-0.2060515
26	0x3c3bd608	0.011464603
27	0xbd39e939	-0.045388434
28	0x3dc6730c	0.09689912
29	0xbcbdc885	-0.023166904
30	0xbd18046a	-0.037113585
31	0x3d1f35e8	0.03886977
32	0x3dd03e87	0.10168176
33	0xbc7c5b71	-0.015402661
34	0x3e00d0e7	0.1257969
35	0xbcaf1490	-0.02137211
36	0x3dc30b6c	0.09523663
37	0xbe3901ae	-0.18067047
38	0xbd78dc6d	-0.06075709
39	0x3df34545	0.118784465
40	0xbd43bfa4	-0.047790185
41	0xbe315ce7	-0.17320596
42	0xbdee95f6	-0.116496965
43	0xbdb64be5	-0.089011945
44	0xbc9004ba	-0.017580379
45	0xbe067701	-0.13131334
46	0xbca79f52	-0.020461712
47	0xbd1dfa4c	-0.03856878
48	0x3e004ca1	0.12529232
49	0x3e1ca8bf	0.15298747
50	0xbe1f0dea	-0.15532652
51	0x3c90a87d	0.017658466
52	0x3d7a3321	0.061083917
53	0xbd10df45	-0.035369176
54	0x3e4779fa	0.19480124
55	0xbdd233c6	-0.10263781
56	0xbdd564f9	-0.1041965
57	0xbdb3ead3	-0.087850235
58	0x3d918577	0.071055345
59	0xbba10ff7	-0.0049152332
60	0xbdcae78e	-0.09907447
61	0xbe563a2f	-0.20920633
62	0x3d389906	0.04506781
63	0x3e431066	0.19049224
64	0xbe23311d	-0.15936704
65	0x3d97192b	0.07377847
66	0xb9ec8d04	-0.00045118493
67	0xbb971357	-0.00461046
68	0xbd5a36ee	-0.05327504
69	0xbd40e4a3	-0.047093045
70	0xbba79416	-0.0051140888
71	0x3d829f95	0.06378094
72	0x3d67c7d1	0.056587044
73	0xbccf1e41	-0.02528298
74	0xbe65ab65	-0.22428663
75	0xbe59e0b8	-0.2127713
76	0x3b3a67cb	0.0028443213
77	0xbe0d074c	-0.13772315
78	0x3e08208a	0.13293663
79	0x3db96369	0.09052164
80	0xbd213051	-0.03935272
81	0x3e24fcd2	0.16112068
82	0x3d2f0c77	0.042736497
83	0x3d818f3c	0.06326148
84	0x3e06bda8	0.13158286
85	0x3e5309ea	0.2060925
86	0x3e5f2be1	0.21794082
87	0xbdc32309	-0.09528167
88	0xbd5fbbf7	-0.054622617
89	0xbda3f715	-0.080061115
90	0x3e3b7c16	0.18309054
91	0x3d3cc2b9	0.04608414
92	0xbd969ddc	-0.07354328
93	0x3d7f0c7c	0.062267765
94	0xbd8a3002	-0.06747438
95	0xbc4f929d	-0.012669233
96	0x3ddd6ba1	0.10811544
97	0x3dcf70d9	0.10128946
98	0x3e3611fc	0.17780298
99	0x3e20865e	0.15676257
100	0x3b8a761b	0.004225505
101	0xbe2a9fc3	-0.16662507
102	0xbd8cf09f	-0.06881832
103	0xbdb29b8a	-0.08721073
104	0x3daabb78	0.08336538
105	0xbdd53220	-0.10409951
106	0xbdf95616	-0.12174623
107	0xbdbc26bd	-0.09187076
108	0x3d1497be	0.036277525
109	0xbe396868	-0.18106234
110	0xbe460c71	-0.19340684
111	0x3e0d56f1	0.13802697
112	0x3e454914	0.19266158
113	0xbd876779	-0.06611533
114	0x3d441eb5	0.047880847
115	0x3d335395	0.043780882
116	0xbd466c78	-0.048443288
117	0xbcd3cefc	-0.025855534
118	0xbe18e547	-0.14931212
119	0x39367a96	0.0001740254
120	0x3d988cef	0.07448756
121	0x3e07e1f8	0.13269794
122	0xbbd228a5	-0.0064135366
123	0x3deb4b36	0.11488955
124	0xbd570763	-0.05249728
125	0x3e0ac8fb	0.1355323
126	0xbdcad854	-0.099045426
127	0x3e30dfc5	0.17272861
128	0x3e106de6	0.14104423
129	0x3d3ef35e	0.04661881
130	0xbdccef85	-0.10006622
131	0x3e1e293e	0.1544542
132	0x3df68130	0.12036359
133	0x3d213b9e	0.039363496
134	0xbdef049c	-0.11670801
135	0x3ca06b59	0.019582437
136	0x3d63cf55	0.05561765
137	0xbc6561e3	-0.014000389
138	0xbda80d75	-0.08205692
139	0xbda95362	-0.08267857
140	0xbe19202f	-0.14953683
141	0xbd34fbcc	-0.044185445
142	0x3d1e6b5c	0.038676605
143	0xbcfac744	-0.030612595
144	0xbe8461f5	-0.25855985
145	0xbd0ebc6e	-0.03484767
146	0xbe68490e	-0.22684118
147	0xbd44c57c	-0.0480399
148	0xbc5f08fd	-0.013612983
149	0xbd8d1600	-0.06888962
150	0x3dfe4f6e	0.12417494
151	0xbdbb9534	-0.091593176
152	0x3d07342a	0.033008732
153	0x3e102078	0.14074886
154	0xbc825b91	-0.015912803
155	0x3de5b0e4	0.1121538
156	0xbe1bf7e3	-0.1523128
157	0x3e475df1	0.1946943
158	0xbd05a56f	-0.032628473
159	0x3c0f18d6	0.008733949
160	0x3d35f1d2	0.04442007
161	0x3d5cd16a	0.05391065
162	0xbb0b350a	-0.002124133
163	0x3e0ba9bb	0.13638966
164	0x3e0277bd	0.12740989
165	0xbdccdf07	-0.100034766
166	0x3d9feb0f	0.07808506
167	0xbd529e28	-0.05142036
168	0xbe05543a	-0.13020411
169	0x3d3a937f	0.04555082
170	0x3e04499c	0.12918705
171	0xbc6d5053	-0.014484483
172	0x3d17be9b	0.03704701
173	0x3d776a10	0.060403883
174	0xbe26f460	-0.16304159
175	0x3d854429	0.06507141
176	0x3d16c38c	0.03680758
177	0xbd848c82	-0.06472112
178	0xbd0d5084	-0.034500614
179	0x3c3be6b0	0.011468574
180	0xbe117ad4	-0.14207011
181	0xbd946cc9	-0.072473116
182	0x3d93e1a7	0.07220774
183	0x3dd48a5c	0.103779525
184	0x3da08e1d	0.07839606
185	0xbdee5ddc	-0.11638996
186	0xbdb339b3	-0.0875124
187	0xbe26f200	-0.16303253
188	0xbdd08c16	-0.10182969
189	0x3d9dfdd2	0.07714428
190	0x3ce979ce	0.028500464
191	0xbdc73ecf	-0.09728777
192	0x3d1d39b2	0.0383851
193	0x3dfb384c	0.12266597
194	0xbd4b5c18	-0.049648374
195	0xbd7304fb	-0.05933092
196	0xbdc630af	-0.096772544
197	0x3b85b0e2	0.004079924
198	0xbdbfbbee	-0.093620166
199	0x3d9cd516	0.076578304
200	0xbc7e56bd	-0.01552361
201	0x3b76f13d	0.003768041
202	0x3e24e2de	0.16102168
203	0xbdb84257	-0.08997028
204	0x3e14e6c8	0.14541161
205	0x3e343448	0.17598069
206	0xbdd72aea	-0.10506232
207	0xbdec9c51	-0.115532525
208	0xbc4e3559	-0.012585961
209	0x3d837646	0.06419043
210	0xbe1722bb	-0.14759342
211	0xbc46c4d6	-0.01213189
212	0x3a816234	0.0009871186
213	0x3e13b4b8	0.14424407
214	0x3d63d28b	0.05562071
215	0x3d50dc4d	0.050991345
216	0xbc9376df	-0.018001018
217	0x3e0ec4dc	0.13942283
218	0xbbb734ed	-0.005591026
219	0x3e12942a	0.14314333
220	0xbe17e421	-0.14833118
221	0x3e1a18fd	0.15048595
222	0x3d7d5b04	0.061854377
223	0xbdfdc11f	-0.123903506
224	0xbd631372	-0.055438466
225	0x3c70bf73	0.014694083
226	0x3d721412	0.05910117
227	0x3d9d099c	0.076678485
228	0x3d0e5abb	0.034754496
229	0xbdec8d9e	-0.11550449
230	0x3d77282b	0.06034104
231	0xbcc4932c	-0.023995958
232	0xbd97bdcd	-0.074092485
233	0xbd118c32	-0.03553409
234	0xbdc9c3ed	-0.09851823
235	0x3e145904	0.14487082
236	0x3d83e771	0.06440628
237	0xbd8620ee	-0.065492496
238	0x3e3e791b	0.18600886
239	0xbd1dff6d	-0.03857367
240	0x3d9a74fc	0.07541844
241	0x3e48889a	0.1958336
242	0xbd245ac9	-0.040125642
243	0x3d8fca93	0.0702106
244	0xba79613e	-0.00095130864
245	0xbdf12582	-0.11774732
246	0x3cebcfd3	0.028785622
247	0x3e2e6b6c	0.17033166
248	0x3c84ee34	0.016226865
249	0x3e175c98	0.14781415
250	0xbc646be6	-0.013941741
251	0x3e055b79	0.13023175
252	0x3dc9f10c	0.09860429
253	0x3dbe6976	0.09297459
254	0xbda953c8	-0.08267933
255	0x3e147e6f	0.14501356

g.2.bias f4 [30]
0	0xbc18e1cc	-0.009331178
1	0x3ce5df1c	0.028060488
2	0xbaa7515b	-0.0012765335
3	0x3ded834c	0.115973085
4	0x3e03dbb5	0.1287678
5	0xbd8f379d	-0.06993029
6	0x3cbb2dda	0.022849012
7	0x3ceeb6d7	0.02913992
8	0xbde56b20	-0.11202073
9	0x3d7c67f2	0.061622567
10	0xbdd01390	-0.10159981
11	0xbe03548e	-0.12825224
12	0xbd8eb8e8	-0.06968862
13	0x3c7b954f	0.015355422
14	0xbbba3787	-0.005682889
15	0xbceff825	-0.02929313
16	0xbc582b2d	-0.013193888
17	0xbd978aac	-0.073994964
18	0x3e0f543b	0.13996975
19	0x3e1bfbe7	0.15232812
20	0x3c60b0dc	0.013714042
21	0xbdf924a3	-0.12165191
22	0x3de20617	0.11036318
23	0xbd2418a0	-0.040062547
24	0xbd46dced	-0.048550535
25	0x3de638cf	0.11241304
26	0xbe22ac4e	-0.15886042
27	0xbdcb02f1	-0.099126704
28	0x3df9fab0	0.12206018
29	0xbd3bd230	-0.045854747

g.4.weight f4 [30, 30]
0	0xbb5f29c0	-0.0034051985
1	0xbd63e9c1	-0.055642847
2	0x3d9c7bd4	0.07640806
3	0x3de982f3	0.1140193
4	0xbc4351ca	-0.0119213555
5	0x3d22c94d	0.039742757
6	0xbd92b99f	-0.07164311
7	0x3cb7eedf	0.02245277
8	0x3c692c51	0.014231757
9	0x3d8ee23a	0.06976743
10	0xbe0de78d	-0.13857861
11	0xbde0d757	-0.10978573
12	0x3de9dbc3	0.11418869
13	0x3c023510	0.007947221
14	0x3e59953d	0.21248336
15	0x3c8a6e16	0.016898196
16	0xbdc0252f	-0.09382092
17	0xbda6421e	-0.081180796
18	0xbe4c0192	-0.19922474
19	0xbe469fe9	-0.19396938
20	0x3cd4abcc	0.025960825
21	0xbe256954	-0.1615346
22	0xbd11208c	-0.03543143
23	0xbdb5ebb5	-0.08882848
24	0x3a9d53fa	0.0012003176
25	0xbdcac345	-0.09900526
26	0x3d7bb190	0.061448634
27	0xbd2ea0f6	-0.042633973
28	0x3d899e61	0.067196615
29	0xbcfb760b	-0.030695936
30	0xbe3b4f0c	-0.18291873
31	0x3dc2d085	0.09512428
32	0x3ca0595e	0.019573864
33	0xbdff1dfb	-0.1245689
34	0x3da56ac6	0.08077006
35	0x3dfc0faa	0.12307675
36	0x3e2c207a	0.16809264
37	0xbe16cc52	-0.1472638
38	0xbe425ea1	-0.1898141
39	0x3c42b03c	0.011882838
40	0x3e421806	0.18954477
41	0xbc0c460d	-0.008561623
42	0xbe1923b0	-0.1495502
43	0xbc674635	-0.01411586
44	0xbb78c4f0	-0.003795918
45	0xbe22fff8	-0.15917957
46	0xbd912c40	-0.07088518
47	0x3d326f73	0.043563318
48	0x3e40da2c	0.18833226
49	0xbd054759	-0.032538746
50	0xbd67a062	-0.056549437
51	0x3dcb6734	0.09931794
52	0xbd1bd925	-0.038048882
53	0xbb4243c2	-0.0029642438
54	0xbdfb4f24	-0.12270954
55	0xbd4aa18d	-0.049470473
56	0x3dccf4db	0.1000764
57	0xbd68039d	-0.05664407
58	0x3db528f8	0.08845705
59	0x3d311c53	0.043239903
60	0x3e101c38	0.14073265
61	0x3c2ae0ac	0.0104295425
62	0xbdc214ba	-0.094766095
63	0x3de69920	0.11259675
64	0x3e10a5f8	0.14125812
65	0xbbebf897	-0.007201265
66	0x3cdbe3a0	0.026841938
67	0xbcf1d9f6	-0.029522877
68	0xbd6f911c	-0.058487996
69	0xbc85fcfe	-0.016355988
70	0xbe031157	-0.12799583
71	0xbe13e047	-0.14441024
72	0xbde6d10d	-0.11270342
73	0xbd969ea0	-0.07354474
74	0x3dcd0c2a	0.10012086
75	0x3cc92efa	0.024558533
76	0x3dd7bbcb	0.105338655
77	0xbda348c0	-0.0797286
78	0xbd725551	-0.059163395
79	0x3dc2fc1a	0.09520741
80	0xbb2f945c	-0.002679131
81	0x3e0f78c3	0.1401091
82	0xbd823367	-0.063574605
83	0xbd17164c	-0.0368865
84	0x3e1a147e	0.1504688
85	0x3e4d1c57	0.20030342
86	0x3e162c6d	0.14665385
87	0xbcbb5780	-0.022868872
88	0xbdf57a79	-0.119862504
89	0x3daaead8	0.08345574
90	0x3d92cdc2	0.071681514
91	0x3e0e98a2	0.13925412
92	0x3dfad016	0.122467205
93	0xbe19ba16	-0.15012392
94	0xbd83c3e6	-0.06433849
95	0x3d9df003	0.07711794
96	0xbe2b8f30	-0.1675384
97	0xbe29c862	-0.16580346
98	0x3e135351	0.14387251
99	0xbd8060e7	-0.06268483
100	0xbd120313	-0.035647463
101	0xbe04be10	-0.12963128
102	0xbdcd3ea6	-0.10021715
103	0xbcbf056a	-0.023318011
104	0xbdf0162c	-0.11722979
105	0x3d836a2a	0.064167336
106	0x3d804b63	0.06264379
107	0x3d0de4ac	0.034641907
108	0xbd3664a6	-0.04452958
109	0xbdbcdf16	-0.09222238
110	0xbd86692e	-0.0656303
111	0x3c142af2	0.009043442
112	0xbd14fda7	-0.036374714
113	0xbd87572b	-0.06608423
114	0xbde3edd3	-0.11129346
115	0x3d099b92	0.03359563
116	0x3e11b2a6	0.14228305
117	0xbdbfa349	-0.09357316
118	0xbd0f837e	-0.03503751
119	0x3dd718f5	0.10502807
120	0xbd9a15bb	-0.07523676
121	0xbd3a8da6	-0.045545243
122	0x3dad8269	0.084721394
123	0x3d92923e	0.071568
124	0xbc43d5bb	-0.011952813
125	0xbd898176	-0.06714146
126	0xbe3101ed	-0.17285891
127	0x3d24c516	0.04022702
128	0x3dcac9f6	0.09901802
129	0xbe426072	-0.18982103
130	0xbdd946bf	-0.10609197
131	0x3d2fd0d0	0.04292375
132	0xbd6bb458	-0.057545036
133	0x3d3f57f7	0.04671475
134	0xbe02614d	-0.1273243
135	0x3e207b56	0.15672049
136	0x3d392057	0.045196857
137	0x3d543147	0.051804807
138	0xbd8cde0f	-0.06878292
139	0xbe229027	-0.15875302
140	0x3b83e688	0.004025284
141	0x3e05966f	0.13045667
142	0xbcc307d8	-0.023807451
143	0xbe138962	-0.14407876
144	0x3e622317	0.22083698
145	0x3e0fbbac	0.14036435
146	0x3e0b0681	0.135767
147	0x3c9fbcf0	0.019499272
148	0x3e0b4768	0.13601458
149	0x3c3955cc	0.0113119595
150	0xbcfb1207	-0.030648245
151	0x3e1ed3a5	0.15510423
152	0xbe05cacf	-0.13065647
153	0xbde3bb39	-0.11119694
154	0x3de6c622	0.112682596
155	0xbd9bb3ef	-0.07602679
156	0xbde41fd5	-0.11138884
157	0x3d41202c	0.047149822
158	0x3e66947b	0.22517578
159	0xbde6da62	-0.11272122
160	0x3dbb31f2	0.09140386
161	0x3d0c9451	0.034321133
162	0xbdfaf852	-0.122543946
163	0xbccfe93f	-0.025379775
164	0xbda0c295	-0.078496136
165	0x3e2ee56e	0.17079708
166	0xbde5b066	-0.11215286
167	0xbd0d3787	-0.034476783
168	0x3db2af2b	0.08724817
169	0x3d3ceea1	0.04612601
170	0x3d595fe3	0.05306996
171	0xbce75fd9	-0.028243946
172	0x3e098851	0.13430907
173	0x3d424133	0.04742546
174	0xbd853db6	-0.06505911
175	0xbd11c140	-0.03558469
176	0xbd21cdf2	-0.039503045
177	0xbb881e17	-0.0041539776
178	0x3dc6b83f	0.09703111
179	0x3db4e6a7	0.08833056
180	0xbd8f731e	-0.07004379
181	0xbdffbeb0	-0.12487543
182	0x3cb336ed	0.021876777
183	0xbd799d39	-0.060940955
184	0x3cd50e3f	0.02600777
185	0x3e0085fb	0.1255111
186	0x3d15b33f	0.036547896
187	0x3d2fb853	0.042900395
188	0xbdaac039	-0.08337445
189	0x3e024891	0.12722994
190	0x3e61bdfd	0.22045131
191	0xbe0a4e90	-0.13506532
192	0x3dbaa3f4	0.09113303
193	0xbabdbcb8	-0.0014475798
194	0x3e0eda3a	0.13950434
195	0xbe303d41	-0.17210867
196	0x3e0683c9	0.1313621
197	0x3d10ec55	0.035381634
198	0x3dc32792	0.09529032
199	0x3dead2cd	0.11465988
200	0xbe096016	-0.1341556
201	0xbe56d1c8	-0.20978463
202	0xbe36f37e	-0.17866322
203	0xbe241d72	-0.16026857
204	0xbd0fa599	-0.035070036
205	0x3d8dc2c3	0.069219135
206	0xbe0027ab	-0.12515132
207	0xbd919624	-0.07108715
208	0xbdff4b25	-0.124655046
209	0xbe153a66	-0.14573058
210	0x3e0a572f	0.1350982
211	0x3d99fc07	0.075187735
212	0xbe513fce	-0.20434496
213	0x3d150dda	0.036390163
214	0xbe006a9e	-0.12540671
215	0xbc7d8364	-0.0154732205
216	0x3c7784f9	0.015107387
217	0xbdda2cf4	-0.106531054
218	0x3e0ded79	0.1386012
219	0x3cacaa29	0.021077232
220	0x3d70f9fc	0.058832154
221	0x3ca26a0f	0.019825963
222	0xbdfe8d08	-0.12429243
223	0xbd564040	-0.052307367
224	0x3d7f9601	0.062398914
225	0xbda8b536	-0.08237688
226	0x3b97cccd	0.0046325685
227	0xbd0fec58	-0.035137504
228	0x3d9be234	0.07611504
229	0xbd51d036	-0.051223956
230	0xbd9fe065	-0.07806472
231	0xbe46e3c0	-0.19422817
232	0xbe3b9f3b	-0.1832246
233	0x3e106e31	0.14104535
234	0xbc0d81e9	-0.00863693
235	0xbe0df6ac	-0.13863629
236	0xbe1b1468	-0.15144503
237	0xbe07bf14	-0.13256484
238	0x3b11d237	0.0022250542
239	0xbbfd5128	-0.007730622
240	0x3d4f0c52	0.05054886
241	0xbd388576	-0.045049153
242	0xbccea72d	-0.0252262
243	0x3e4b3936	0.19846043
244	0x3e45bc5a	0.19310132
245	0x3aeec8e0	0.0018217824
246	0x3d5d820d	0.054079104
247	0xbe04789a	-0.12936631
248	0xbe1f55d1	-0.1556008
249	0xbc512bbe	-0.012766777
250	0xbd35b056	-0.04435762
251	0x3c59fe17	0.013305209
252	0xbe01cacb	-0.12675016
253	0x3d0fa79a	0.035071947
254	0xbc5dbe9b	-0.013534213
255	0xbdf8ed39	-0.12154622

g.4.bias f4 [30]
0	0xbd5eb5d3	-0.05437262
1	0xbe393db1	-0.1808994
2	0x3d02009a	0.031738855
3	0xbd9c8d62	-0.07644154
4	0x3df02517	0.11725824
5	0xbdb5eb24	-0.0888274
6	0xbe2f8080	-0.17138863
7	0x3dd2da96	0.10295598
8	0xbc3b19d4	-0.011419732
9	0x3e17b17c	0.14813799
10	0xbe1f081c	-0.15530437
11	0xbca56bf2	-0.020193074
12	0xbcb214dd	-0.021738464
13	0xbd121b20	-0.0356704
14	0x3e1195d2	0.14217308
15	0xbe0eeffd	-0.13958736
16	0x3dc8678d	0.09785376
17	0x3c233c6b	0.009963135
18	0x3df9fdb3	0.122065924
19	0x3bc79c0e	0.006091601
20	0xbdb80ee8	-0.08987218
21	0x3defa512	0.117014065
22	0x3cabd43d	0.020975227
23	0xbdde7718	-0.10862559
24	0xbd96e666	-0.07368164
25	0x3d44ae6d	0.048017908
26	0x3df260c9	0.118348666
27	0xbd06bf5a	-0.03289733
28	0xbe2507c1	-0.16116239
29	0x3e079228	0.13239348

g.6.weight f4 [2, 30]
0	0xbd073c4d	-0.03301649
1	0xbd6e4525	-0.05817141
2	0xbd5e1cbd	-0.054226626
3	0xbc86200c	-0.016372703
4	0xbd7e44b0	-0.062077224
5	0x3ac4fd75	0.0015029149
6	0xbc2369a0	-0.009973913
7	0xbc9d56d9	-0.019206451
8	0xbd3ddbea	-0.046352305
9	0xbc3b26a9	-0.0114227915
10	0xbb11bed2	-0.0022238982
11	0xbdb27b93	-0.08714976
12	0xbd609063	-0.054825198
13	0xba8cd927	-0.0010745869
14	0x3dec222a	0.11529954
15	0x3d584332	0.052798457
16	0x3bcefe3c	0.006316928
17	0x3d38f0ed	0.04515164
18	0x3dd848b4	0.10560742
19	0xbce1f3de	-0.027582105
20	0x3d945087	0.07241922
21	0xbdf97fc3	-0.12182572
22	0x3da21a9c	0.079152316
23	0x3bfdf103	0.007749678
24	0xbda098d6	-0.07841651
25	0x3ccc7248	0.024956837
26	0xbdb6a773	-0.08918657
27	0x3aff3408	0.0019470463
28	0xbb3754d2	-0.002797414
29	0xbcb0fb64	-0.021604247
30	0x3e138c69	0.14409031
31	0xbe33b1da	-0.17548314
32	0x3d7de664	0.061987296
33	0xbcd1256f	-0.025530545
34	0x3c88da77	0.016705735
35	0xbad2bb92	-0.0016077629
36	0xbd1c6f6e	-0.038192205
37	0x3d974ce4	0.073877126
38	0x3d97702a	0.073944405
39	0x3dc78e87	0.09743982
40	0xbd1de0da	-0.038544513
41	0x3e2ca414	0.16859466
42	0x3d2bf882	0.041985042
43	0x3ab19a48	0.0013550008
44	0xbe2fda0e	-0.17173025
45	0xbd034817	-0.032051172
46	0x3da7e2b5	0.08197538
47	0xbdc079ea	-0.09398253
48	0x3d0c3841	0.034233335
49	0xbcd1289b	-0.025532058
50	0x3d30e6e8	0.04318896
51	0x3c12d2b8	0.008961372
52	0xbda6e454	-0.08149019
53	0xba93c158	-0.0011272831
54	0xbde30268	-0.11084443
55	0xbc50fd7d	-0.012755749
56	0xbdaf71f3	-0.08566656
57	0xbbd0829c	-0.006363226
58	0xbbd6b5b8	-0.0065524243
59	0x3d816ea7	0.063199334

g.6.bias f4 [2]
0	0xbd65af6f	-0.05607551
1	0x3e231de1	0.15929367

nn_fun1.0.weight f4 [30, 2]
0	0x3ebc7717	0.36809608
1	0x3e998193	0.2998167
2	0x3f0d67a8	0.5523629
3	0x3eb3f652	0.35148865
4	0xbd73ed12	-0.05955226
5	0x3ef1f2b2	0.47255474
6	0x3daed0fc	0.08535954
7	0x3f272294	0.6528714
8	0xbe9c113a	-0.30481893
9	0xbd72b477	-0.059254136
10	0xbea52af9	-0.32259348
11	0xbe95a257	-0.29225418
12	0x3df642cd	0.1202446
13	0xbebab975	-0.36469617
14	0x3eecb52f	0.46231982
15	0x3dc32046	0.0952764
16	0xbedacacc	-0.42732847
17	0x3f121c54	0.57074475
18	0xbf01ef21	-0.50755507
19	0x3f12ec38	0.5739169
20	0x3ef9a7ab	0.48760733
21	0x3efb16b0	0.49040747
22	0xbee77153	-0.45203647
23	0x3e58cc37	0.21171652
24	0xbe1d08aa	-0.15335336
25	0x3ee27d58	0.44236255
26	0x3f11d01f	0.5695819
27	0xbe2e283a	-0.17007533
28	0xbedef117	-0.43543312
29	0xbd222734	-0.03958817
30	0xbe4d8cd2	-0.2007325
31	0xbe81a0ed	-0.2531809
32	0x3e8def51	0.27721646
33	0x3f30f6c8	0.6912656
34	0x3f267e57	0.6503653
35	0x3e30010e	0.17187902
36	0x3d866567	0.0656231
37	0x3e4a846f	0.19777082
38	0xbc21916a	-0.00986133
39	0x3f053c9e	0.5204562
40	0x3f43f4af	0.7654523
41	0x3f23b727	0.63951343
42	0xbf51cb8e	-0.81951225
43	0x3e7029fa	0.23453513
44	0x3e64402d	0.22290106
45	0xbf50ee5e	-0.8161372
46	0xbe54e5f8	-0.20790851
47	0x3d2debeb	0.042461317
48	0xbe3d0da1	-0.1846223
49	0x3eae3ff7	0.34033176
50	0xbef4b56e	-0.4779467
51	0x3e1c4910	0.15262246
52	0x3f17d24f	0.5930528
53	0xbee0e35c	-0.4392346
54	0xbf51e882	-0.81995404
55	0xbed3a9b5	-0.41340414
56	0x3f1580bb	0.5839955
57	0xbe95ab47	-0.29232237
58	0x3f364df9	0.71212727
59	0x3f21755d	0.6306971

nn_fun1.0.bias f4 [30]
0	0xbe88a009	-0.26684597
1	0x3e7585fe	0.23976895
2	0xbf1b28fc	-0.6060941
3	0xbe293881	-0.16525461
4	0xbeafd937	-0.3434541
5	0xbd433edc	-0.04766737
6	0x3ea4c5c3	0.3218213
7	0x3f124105	0.5713046
8	0x3f090177	0.5351786
9	0x3f2af55d	0.66780645
10	0x3ed647ba	0.41851598
11	0xbe181b8e	-0.14854261
12	0xbf33afb5	-0.7018998
13	0xbe3b35f9	-0.18282308
14	0x3e3fe0b3	0.1873806
15	0xbe28f98c	-0.16501445
16	0xbf05dd7f	-0.522911
17	0x3f17bbfa	0.59271204
18	0x3e58e523	0.21181159
19	0xbea4c0ef	-0.32178447
20	0x3df81dbe	0.12115048
21	0xbe4ed0b0	-0.20196795
22	0xbf1e47a4	-0.61828065
23	0x3d3c7c2c	0.046016857
24	0xbf2faff0	-0.68627834
25	0xbf3b1981	-0.7308579
26	0xbd350f6c	-0.04420416
27	0xbf22c2ac	-0.63578296
28	0xbe472097	-0.19446026
29	0xbd70a5a4	-0.058751717

nn_fun1.2.weight f4 [30, 30]
0	0x3d5b65f1	0.053564016
1	0xbc70b649	-0.014691898
2	0x3d55c16d	0.05218642
3	0xbe4b2366	-0.19837722
4	0xbda2bf96	-0.07946698
5	0xbdddcd0d	-0.10830126
6	0x3dda8b50	0.10671103
7	0x3d17d580	0.037068844
8	0xbe580559	-0.2109579
9	0xbe83e670	-0.25761747
10	0x3e004878	0.12527645
11	0x3dec3ecc	0.11535415
12	0x3d93120e	0.07181178
13	0xbcef9494	-0.029245652
14	0xbdeb8c40	-0.1150136
15	0x3e316700	0.17324448
16	0xbe69a422	-0.22816518
17	0xbe2f5054	-0.17120486
18	0x3d35919d	0.04432832
19	0xbe800c9c	-0.2500962
20	0x3df3273b	0.11872717
21	0x3e475a4a	0.19468036
22	0x3e7e4a9e	0.24833152
23	0x3d36468e	0.04450088
24	0xbdcdae0a	-0.10042961
25	0x3e0d15c9	0.13777842
26	0x3d8a1373	0.06741991
27	0x3df5beeb	0.11999305
28	0xbda69ff8	-0.0813598
29	0x3c4d3a3b	0.01252609
30	0xbe35e428	-0.17762816
31	0x3cc05404	0.023477562
32	0x3e7dd1e5	0.247871
33	0x3e1c6450	0.15272641
34	0x3e399d47	0.18126403
35	0x3e01de61	0.12682487
36	0xbbafbda9	-0.0053631854
37	0x3daf695f	0.0856502
38	0xbcefe248	-0.029282704
39	0x3d15f2a5	0.036608357
40	0xbd54dbb8	-0.051967353
41	0x3ea7d72b	0.32781348
42	0x3e4f0e6b	0.20220344
43	0xbeb4f294	-0.35341322
44	0x3e9ad261	0.3023863
45	0xbd55dba4	-0.05221142
46	0x3e378377	0.17921244
47	0x3d76479b	0.060126882
48	0x3aba388b	0.0014207525
49	0xbd7733e5	-0.060352225
50	0xbd27dd41	-0.04098249
51	0x3f0ccc74	0.5499947
52	0x3d78c1e2	0.060731776
53	0x3ea9230c	0.3303455
54	0x3e32302e	0.17401192
55	0x3e830021	0.25586036
56	0xbeca9a08	-0.39570642
57	0xbd91f6c7	-0.07127147
58	0xbe75b15b	-0.23993437
59	0xbd2a6b60	-0.041606307
60	0xbe3d4d1d	-0.18486448
61	0xbd419baa	-0.047267593
62	0xbe01c0a7	-0.12671147
63	0x3e032cdd	0.12810083
64	0xbb67d802	-0.0035376553
65	0xbdc79a5b	-0.09746238
66	0xbdab8e4c	-0.0837675
67	0xbe5e6bd2	-0.21720818
68	0xbd878e5b	-0.06618949
69	0xbe361681	-0.17782022
70	0x3d15ae69	0.036543284
71	0x3e206834	0.1566475
72	0xbe13b8eb	-0.1442601
73	0x3ddf4e72	0.10903634
74	0xbdf6bda3	-0.12047889
75	0xbe0170a3	-0.12640624
76	0xbe4e2e5d	-0.20134874
77	0xbe226bab	-0.15861385
78	0x3d080ac7	0.033213403
79	0xbd80b4fc	-0.0628452
80	0xbcaf0533	-0.021364784
81	0xbe012f13	-0.12615614
82	0xbd969f1c	-0.073545665
83	0x3d25a710	0.040442526
84	0xbd9f9e69	-0.07793886
85	0x3e158dc5	0.14604862
86	0x3d7f12c3	0.062273752
87	0x3d9dbd6b	0.07702144
88	0x3d6e1a13	0.058130335
89	0x3dacef83	0.08444121
90	0xbce76095	-0.028244296
91	0xbe3d3d3c	-0.1848039
92	0x3d2e578c	0.04256396
93	0x3d8c943f	0.06864213
94	0x3e98e705	0.29863754
95	0x3e7f00a2	0.24902585
96	0xbd5fbe28	-0.054624707
97	0xbeafa7be	-0.34307665
98	0xbdd7ab77	-0.10530751
99	0x3e151275	0.14557822
100	0xbd500c79	-0.050793145
101	0xbe06df6c	-0.13171166
102	0x3d7c51c0	0.0616014
103	0x3e13e8ee	0.14444324
104	0xbca8e187	-0.020615352
105	0x3e6e7498	0.23286664
106	0xbdd24158	-0.102663696
107	0xbda9f148	-0.08297974
108	0xbb4edc7d	-0.0031564527
109	0xbe2f6fc3	-0.17132477
110	0xbe085784	-0.13314635
111	0xbe3834b9	-0.17988862
112	0xbdbbe293	-0.09174075
113	0x3e13d0c2	0.14435104
114	0xbe19a1e7	-0.15003167
115	0xbd482cb2	-0.04887075
116	0xbd4dc3af	-0.050235447
117	0x3eca3132	0.39490658
118	0xbdd52e8b	-0.10409268
119	0xbe9e0da8	-0.30869794
120	0xbe41fe47	-0.18944655
121	0xbe55711d	-0.2084393
122	0x3d9fbcef	0.07799708
123	0x3dec4a8a	0.11537655
124	0x3efdb1d1	0.49549726
125	0xbda30c41	-0.079613216
126	0x3c607415	0.013699551
127	0xbf2c4513	-0.672929
128	0xbe34cd7b	-0.1765651
129	0x3df2324b	0.11825999
130	0x3d2b4348	0.04181221
131	0xbdb8d67a	-0.09025283
132	0x3e2011cf	0.15631793
133	0x3cbf967a	0.023387183
134	0xbe30ea3a	-0.1727685
135	0xbda12b55	-0.07869593
136	0x3dc52d29	0.09627754
137	0xbe8409f3	-0.2578884
138	0xbe1bf19d	-0.15228887
139	0x3e88c60b	0.26713595
140	0x3cbcdca9	0.023054438
141	0x3dd6b917	0.10484522
142	0x3e3ea0bc	0.18616003
143	0xbdf1b27d	-0.11801622
144	0x3e9bb480	0.30411148
145	0x3e5a4397	0.21314846
146	0x3de46ec8	0.11153942
147	0x3d190554	0.037358597
148	0xbe21b8e5	-0.15793188
149	0xbdde4603	-0.108531974
150	0xbd46e623	-0.04855932
151	0xbe418e00	-0.18901825
152	0x3e707ea0	0.23485804
153	0x3e66f328	0.22553694
154	0x3e38821b	0.18018381
155	0xbdd73de2	-0.1050985
156	0xbc783bd7	-0.015150986
157	0xbf144a3b	-0.57925767
158	0xbbe1e1b5	-0.0068933615
159	0xbe2a2a92	-0.16617802
160	0xbe3bad1d	-0.18327756
161	0x3ddcc950	0.10780585
162	0x3d16243f	0.03665566
163	0x3de6795d	0.11253617
164	0xbe3cf00e	-0.18450949
165	0xbd6e2181	-0.05813742
166	0xbd3d4043	-0.046203863
167	0xbe8b5346	-0.2721197
168	0xbe25ce81	-0.16192056
169	0x3b4492dc	0.0029994762
170	0xbe08ba4b	-0.13352315
171	0x3dc90e94	0.09817234
172	0xbd1a0cff	-0.03761005
173	0xbc72fc20	-0.014830619
174	0x3e083838	0.13302696
175	0x3e3f5f32	0.18688658
176	0xbd94206d	-0.07232747
177	0x3e4fb090	0.20282197
178	0x3bd25e2d	0.006419918
179	0xbe00f17a	-0.12592116
180	0xbe3c26aa	-0.18374124
181	0xbe1f40c1	-0.15552045
182	0xbde7e2c2	-0.113225475
183	0xbd8d1551	-0.068888314
184	0x3dba9beb	0.0911177
185	0xbcf9a400	-0.03047371
186	0x3ce4f9cb	0.027951142
187	0xbd87be4d	-0.06628094
188	0xbe135b84	-0.14390379
189	0xbe6172f6	-0.2201651
190	0x3e0b0068	0.13574374
191	0x3d72a86e	0.05924266
192	0x3e15bf4f	0.1462376
193	0xbc771370	-0.015080318
194	0xbe4c2c46	-0.19938764
195	0x3e3098f1	0.17245843
196	0xbe847476	-0.25870103
197	0x3dfab120	0.12240815
198	0xbe5004bf	-0.2031431
199	0x3dc2bd7e	0.09508799
200	0x3d4a99c5	0.049463052
201	0x3e4ab198	0.19794309
202	0x3e83e1df	0.25758263
203	0x3d98eff5	0.07467643
204	0xbdffdd60	-0.12493396
205	0xbd555e9b	-0.052092176
206	0xbd32b68b	-0.043631118
207	0xbe34cd99	-0.17656554
208	0xbc5f6d1b	-0.013636853
209	0x3d72f599	0.05931625
210	0x3ddb13a5	0.10697106
211	0xbd71b22c	-0.05900781
212	0xbe2a30c6	-0.16620168
213	0xbd7b37a1	-0.06133235
214	0xbd2e0f50	-0.042495072
215	0xbe4f0cac	-0.20219678
216	0x3e4250df	0.18976162
217	0x3eac6754	0.33672583
218	0xbdb99e72	-0.09063424
219	0xbe153608	-0.14571393
220	0x3e1dd81e	0.15414473
221	0xbe1d1ca5	-0.15342958
222	0xbe2fb231	-0.17157818
223	0x3e67786c	0.22604531
224	0xbe68dfde	-0.22741649
225	0xbdfc54e6	-0.123208806
226	0x3d52a28f	0.05142456
227	0x3e9cd488	0.30630898
228	0xbde274ee	-0.11057459
229	0xbd2fbbfa	-0.042903878
230	0xbe14513e	-0.14484116
231	0xbee5379e	-0.44768995
232	0x3cff8438	0.031190977
233	0xbe2bc8da	-0.16775838
234	0xbdbd74b4	-0.09250775
235	0xbddadb2b	-0.10686334
236	0x3d4c1f2c	0.049834415
237	0x3c0f26d0	0.008737281
238	0x3e3d0fbb	0.18463032
239	0x3e4f5c7a	0.20250121
240	0x3e2042ed	0.1565053
241	0x3e8e8c55	0.2784144
242	0xbcf1fabb	-0.029538503
243	0x3ca3d8ce	0.020000841
244	0xbebd26ce	-0.36943668
245	0xbe1470d4	-0.14496166
246	0xbba5b5b1	-0.0050570597
247	0x3ecf58b8	0.40497375
248	0x3e5600dd	0.20898767
249	0x3e395257	0.18097816
250	0xbe04ad15	-0.1295665
251	0xbdbb03eb	-0.09131607
252	0xbd35409e	-0.044251077
253	0xbda932c1	-0.08261634
254	0xbdd50157	-0.10400646
255	0x3d74aa92	0.05973298

nn_fun1.2.bias f4 [30]
0	0x3e1c3185	0.15253265
1	0x3d9eaf75	0.077483095
2	0xbd796336	-0.06088563
3	0xbe4e19a7	-0.20126973
4	0xbdd3020e	-0.10303126
5	0xbdd6a84f	-0.10481321
6	0xba8f6f2c	-0.0010943166
7	0xbb8f634b	-0.0043758503
8	0x3d9ee490	0.077584386
9	0xbd134cc1	-0.03596187
10	0x3d4d2ce2	0.05009163
11	0x3c8b4a73	0.017003274
12	0x3e3820b9	0.17981233
13	0xbdd87a1f	-0.10570168
14	0x3dc13f9b	0.0943596
15	0xbdc87f51	-0.09789909
16	0x3deb9c06	0.115043685
17	0x3a6d2b98	0.00090473285
18	0xbdcadaa9	-0.09904987
19	0xbe29a7ad	-0.1656787
20	0x3e407354	0.18793994
21	0x3da7b579	0.0818891
22	0x3e1f5e39	0.15563287
23	0x3cf3e19d	0.029770667
24	0x3e1676e7	0.14693795
25	0xbda0e099	-0.078553386
26	0x3d217f20	0.039427876
27	0x3dfc8e57	0.12331837
28	0x3e0781f7	0.13233171
29	0x3e380585	0.17970856

nn_fun1.4.weight f4 [30, 30]
0	0x3e63b4cc	0.22236937
1	0x3e5c2b8a	0.21500984
2	0xbdecc536	-0.115610525
3	0xbdacde6a	-0.084408596
4	0x3e49aaa4	0.19694
5	0x3dc6a82f	0.09700047
6	0x3df8b859	0.121445365
7	0xbe0c417b	-0.13696854
8	0xbe1216e1	-0.1426654
9	0xbced727e	-0.028985258
10	0xbdd5f0eb	-0.10446342
11	0xbe25ba88	-0.16184437
12	0x3ce9ec63	0.0285551
13	0x3e1bf374	0.15229589
14	0x3d5df270	0.054186285
15	0x3c9043e0	0.01761049
16	0x3ce5e705	0.02806426
17	0xbdbe61fb	-0.09296032
18	0x3b3aa112	0.0028477353
19	0xbdd89cd1	-0.10576785
20	0x3e1102dd	0.14161249
21	0x3b8f6856	0.0043764515
22	0x3d4e4c65	0.050365824
23	0xbccd3f2a	-0.025054533
24	0xbe607fdd	-0.21923776
25	0x3dc3c3ab	0.09558805
26	0x3c4e2c05	0.012583737
27	0xbdf7e121	-0.12103487
28	0xbda11ef1	-0.0786723
29	0x3dbd9b08	0.092580855
30	0x3e11facb	0.14255826
31	0xbd01712d	-0.031602073
32	0x3e33a617	0.17543827
33	0x3e8b0f59	0.27160147
34	0x3d0378e5	0.032097716
35	0x3e27b154	0.16376239
36	0x3e88b4b1	0.26700357
37	0x39c5603d	0.0003764647
38	0xbd80ebc3	-0.06294968
39	0xbeb34dc2	-0.35020262
40	0xbe07ba9c	-0.1325478
41	0xbe295c4b	-0.16539113
42	0xbd7c9a3d	-0.06167053
43	0xbe87619f	-0.26441666
44	0xbe99bf2e	-0.3002867
45	0xbe2d5b95	-0.16929467
46	0xbe23ec7d	-0.16008182
47	0x3e414ad4	0.18876201
48	0xbeadaea0	-0.3392229
49	0x3e81151e	0.25211424
50	0x3d2ff439	0.04295752
51	0xbd08aab6	-0.033365928
52	0xbcec05cc	-0.028811358
53	0xbdcd2de7	-0.10018521
54	0x3cb07381	0.021539452
55	0x3d3b9b74	0.04580255
56	0xbe702afb	-0.23453896
57	0xbe537cbd	-0.20653053
58	0x3df6b0c6	0.120454356
59	0xbd0e6ad6	-0.034769855
60	0xbdd97a83	-0.106190704
61	0x3c916fef	0.01775357
62	0xbe13ef2a	-0.14446703
63	0xbe31455a	-0.17311612
64	0xbeee1c42	-0.46505934
65	0xbedc1e51	-0.4299188
66	0x3d970e8f	0.07375824
67	0x3e2aeb1e	0.16691253
68	0x3efe6fdf	0.49694726
69	0x3eebe41d	0.46072474
70	0xbde8abff	-0.11360931
71	0x3e169c84	0.14708143
72	0x3e5dafd4	0.21649104
73	0x3e990336	0.29885262
74	0x3e5c49eb	0.21512572
75	0x3d735500	0.059407234
76	0x3e3aa7c1	0.18228056
77	0xbe7ad707	-0.24496089
78	0x3d3be6f1	0.04587454
79	0xbea998c7	-0.33124372
80	0x3d6d61bc	0.057954535
81	0xbed3fa2d	-0.41401806
82	0xbd912608	-0.07087332
83	0x3eabcacd	0.33553162
84	0xbcd6988e	-0.02619579
85	0x3b783c80	0.0037877858
86	0x3f284d42	0.65742886
87	0x3e40f19a	0.18842164
88	0xbdb29d2f	-0.08721387
89	0x3ebd6a7c	0.36995304
90	0xbe365f24	-0.17809731
91	0xbe3e0b32	-0.18558958
92	0xbdb6aa11	-0.08919156
93	0x3d0912de	0.03346526
94	0x3d6c601b	0.05770884
95	0x3d23711a	0.039902784
96	0xbdfef1ac	-0.12448439
97	0x3d8c9aa7	0.06865435
98	0xbd7fcf92	-0.062453814
99	0x3d14fd72	0.036374517
100	0xbe40267c	-0.1876468
101	0x3e4b42d9	0.19849719
102	0x3e31d4c3	0.17366318
103	0xbd8a8964	-0.067644864
104	0xbe165f38	-0.1468476
105	0x3da2cfee	0.07949816
106	0x3c0d3d4f	0.008620574
107	0xbe3f0035	-0.18652423
108	0xbe2e19e4	-0.17002064
109	0xbdd86c75	-0.105675615
110	0x3da85123	0.082186006
111	0xbe09969d	-0.1343636
112	0xbda84f0b	-0.08218201
113	0xbe11bae3	-0.14231448
114	0x3e307443	0.1723185
115	0x3defb1a4	0.11703804
116	0xbd866f28	-0.0656417
117	0xbe000d1e	-0.12505004
118	0x3d36c7a0	0.04462397
119	0x3ca24260	0.01980704
120	0xbe4e9617	-0.20174442
121	0xbdeed605	-0.11661915
122	0xbe3e6f0e	-0.18597052
123	0x3e274eb6	0.1633862
124	0xbe1c48ab	-0.15262096
125	0xbd4f4586	-0.050603412
126	0xbd9272c8	-0.07150799
127	0x3e329000	0.17437744
128	0x3e2b7e46	0.16747388
129	0xbe29fe3f	-0.16600893
130	0x39a23a9d	0.00030942718
131	0x3e3e3dd5	0.18578275
132	0xbdd9d266	-0.106358334
133	0xbe6b52c3	-0.2298079
134	0x3d408b58	0.04700789
135	0x3ee8c3b6	0.45461816
136	0x3d810ee8	0.06301671
137	0xbe1ea4b0	-0.15492511
138	0xbe87a1a0	-0.26490498
139	0xbdae1e83	-0.085019134
140	0xbc2010d0	-0.009769633
141	0xbd5a63da	-0.053317882
142	0x3e2737a0	0.16329813
143	0xbe1ecc64	-0.15507656
144	0x3e5b6bda	0.21427861
145	0x3c689f2d	0.014198107
146	0xbdc15d20	-0.0944159
147	0x3cd34eea	0.025794465
148	0x3ddf7ca5	0.10912446
149	0x3d5b3844	0.053520456
150	0x3d7d7d9f	0.06188738
151	0xbdc0589e	-0.093919024
152	0x3dfde100	0.12396431
153	0xbdac5bbb	-0.08415934
154	0xbdcfca1c	-0.10145971
155	0x3db51eff	0.08843803
156	0xbd298027	-0.04138198
157	0x3da540d9	0.08069009
158	0xbd8cf2fe	-0.068822846
159	0x3d61e95d	0.055154193
160	0x3d93598a	0.071948126
161	0xbd741c10	-0.059597075
162	0xbc8fcb85	-0.0175531
163	0xbd8ffbe9	-0.0703047
164	0x3da206db	0.07911464
165	0x3d86ed80	0.06588268
166	0x3d0b4a50	0.034006417
167	0xbdab38f7	-0.083604746
168	0x3c9784bb	0.018495908
169	0x3dbfcd8c	0.09365377
170	0x3e07d3e4	0.13264424
171	0xbcda2bd6	-0.02663223
172	0x3c1b544c	0.009480547
173	0xbdcb7d78	-0.09936041
174	0x3b102c87	0.0021999197
175	0x3c09684c	0.008386683
176	0xbe03c8dc	-0.1286959
177	0x3e45df20	0.19323397
178	0x3df18efb	0.117948495
179	0x3cb07e9b	0.021544745
180	0xbe054000	-0.13012695
181	0x3e0d1f0f	0.13781379
182	0xbde63a9a	-0.11241646
183	0xbc3b61a0	-0.01143685
184	0xbe4b062f	-0.19826578
185	0xbd907bca	-0.07054861
186	0xbdfd1edb	-0.12359401
187	0x3dfbe5f3	0.12299719
188	0x3e16e12f	0.14734338
189	0xbdb599fa	-0.08867259
190	0xbc93b305	-0.0180297
191	0x3d523540	0.051320314
192	0xbc8dceca	-0.017310519
193	0x3e3119b8	0.17294967
194	0x3e31b2e6	0.173534
195	0x3cd1df0e	0.025619056
196	0x3ddace5a	0.1068389
197	0xbdc8e9b1	-0.09810198
198	0x3e9b83e0	0.3037405
199	0xbdd03bf2	-0.10167684
200	0xbe82afe9	-0.25524834
201	0xbe14300e	-0.14471456
202	0x3c841f60	0.016128242
203	0xbcb423c6	-0.021989714
204	0x3da66aeb	0.08125862
205	0xbd55fc62	-0.052242644
206	0x3df75399	0.12076492
207	0x3d91a45b	0.071114264
208	0x3e40c113	0.18823652
209	0x3e427f88	0.18993962
210	0x3e83d2d9	0.25746801
211	0x3e866eb2	0.2625633
212	0xbd0f566d	-0.03499453
213	0xbc817480	-0.015802622
214	0x3e0b87d8	0.13626039
215	0xbddaef64	-0.106901914
216	0x3d434916	0.047677122
217	0xbe8e3182	-0.27772146
218	0xbe32e041	-0.17468359
219	0x3dd532a2	0.10410048
220	0x3b2d61b6	0.0026455945
221	0xbd68e94a	-0.056863107
222	0x3d111f27	0.0354301
223	0x3df8d3a0	0.12149739
224	0x3da8fd3b	0.08251425
225	0x3bbfff40	0.0058592856
226	0xbe4d0a88	-0.20023549
227	0xbd470694	-0.048590258
228	0x3d892db5	0.06698171
229	0xbcd854a1	-0.026407542
230	0x3d175ac9	0.036951814
231	0x3c98eb12	0.018666778
232	0x3d844f96	0.06460492
233	0xbe4e55f8	-0.20149982
234	0x3b3a6d95	0.0028446664
235	0x3dde1293	0.108433865
236	0xbe26a855	-0.16275151
237	0xbe0ef412	-0.13960293
238	0x3d89f065	0.06735305
239	0x3c67ae84	0.014140729
240	0x3d8b1dee	0.06792818
241	0xbcfd9f99	-0.030959891
242	0xbe30e818	-0.17276037
243	0x3d90f14e	0.07077275
244	0xbd2d3b48	-0.042292863
245	0xbd17ad07	-0.037030246
246	0x3cf8dd4c	0.03037896
247	0x3da4ea30	0.0805248
248	0x3dce59ac	0.10075697
249	0xbcbbdb8e	-0.02293184
250	0x3de4894b	0.11158999
251	0x3d98371e	0.07432388
252	0xbe232932	-0.15933684
253	0xbd8e70b0	-0.06955087
254	0xbdd01d52	-0.101618424
255	0xbe179b6c	-0.14805382

nn_fun1.4.bias f4 [30]
0	0x3de32b82	0.11092283
1	0xbcf01d95	-0.02931098
2	0x3e6fa8c1	0.23404218
3	0x3dfe65a9	0.12421734
4	0x3dfde21c	0.123966426
5	0x3d9b44be	0.07581471
6	0x3dcf06b7	0.10108703
7	0x3e2ea491	0.17054965
8	0x3da8da80	0.082448006
9	0x3dc99536	0.09842913
10	0x3e401ead	0.18761702
11	0x3be82ba3	0.00708528
12	0x3e2f5473	0.17122059
13	0x3dc9e968	0.09858972
14	0x3dabf952	0.083971635
15	0xbe13cbbc	-0.14433187
16	0x3d849e08	0.064754546
17	0x3d24da54	0.040247276
18	0x3e27ff97	0.16406094
19	0x3d5e2c01	0.054241184
20	0x3c46f177	0.012142531
21	0xbdbc2d15	-0.09188286
22	0xbe3a5c2e	-0.18199226
23	0x3e0b5ed3	0.13610391
24	0xbd64b4d6	-0.05583652
25	0xbdd9b5b0	-0.10630357
26	0xbe0897ac	-0.13339108
27	0xbe3a1c44	-0.18174845
28	0x3da0da1c	0.07854101
29	0xbd980a04	-0.07423785

nn_fun1.6.weight f4 [30, 30]
0	0xbe6fa378	-0.23402202
1	0xbd440c80	-0.047863483
2	0xbd0207b8	-0.031745642
3	0xbd46078b	-0.048347037
4	0xbd53232c	-0.051547214
5	0x3e04eab9	0.12980165
6	0xbcef913f	-0.029244063
7	0xbe289827	-0.16464292
8	0x3c9ccc65	0.019140432
9	0x3dc7b67c	0.09751603
10	0x3e1b1f83	0.1514874
11	0x3dae49d5	0.08510176
12	0x3d6ed5fb	0.058309536
13	0xbb9c48be	-0.0047694137
14	0x3d508461	0.050907496
15	0xbe0126d4	-0.12612468
16	0xbd58d3f6	-0.052936517
17	0x3e3c42d7	0.18384872
18	0x3d9fd765	0.07804755
19	0x3dfbd262	0.12295987
20	0x3d51e4d4	0.051243618
21	0x3d4727ff	0.048622128
22	0x3cea1fca	0.028579611
23	0xbcce607f	-0.025192497
24	0x3d2a9318	0.041644186
25	0x3da38597	0.079844646
26	0xbdaa73cb	-0.08322867
27	0xbe3c34c2	-0.183795
28	0xbe0861c2	-0.13318542
29	0x3c4091b0	0.011753485
30	0xbcd4e379	-0.025987374
31	0x3ba50c78	0.005036887
32	0x3e0bb925	0.13644846
33	0x3de71b18	0.112844646
34	0x3d970107	0.07373243
35	0xbd70bf6e	-0.05877631
36	0x3cf69b9f	0.030103503
37	0x3b33f1f6	0.0027457452
38	0xbb3c912a	-0.0028773048
39	0x3e42073a	0.18948069
40	0x3e235ed4	0.15954143
41	0xbdc34cd3	-0.095361374
42	0xbe0befca	-0.13665691
43	0xbc732adf	-0.014841764
44	0x3d026338	0.031832904
45	0xbd21a615	-0.03946503
46	0xbc3ce5bd	-0.011529383
47	0x3c95919e	0.018257912
48	0xbe131ae7	-0.14365731
49	0x3d7c7c72	0.061642118
50	0x3e31bd6a	0.17357412
51	0xbdbfaea5	-0.09359483
52	0x3df81249	0.121128626
53	0xbcca1d25	-0.0246721
54	0xbddd9899	-0.10820121
55	0xbd34780e	-0.044059806
56	0xbd31ed6a	-0.043439306
57	0xbd90cf4c	-0.07070789
58	0x3e1d1681	0.15340616
59	0x3cd820d0	0.026382834
60	0x3e07b1d6	0.13251433
61	0xbd6cc3a2	-0.057803757
62	0x3dd2c5cd	0.10291634
63	0x3b35c6a5	0.002773681
64	0xbe5dda53	-0.21665315
65	0xbca48586	-0.0200832
66	0xbb49de2a	-0.0030802586
67	0x3dd6cef1	0.1048869
68	0x3e0428c0	0.1290617
69	0x3dcc4e4f	0.09975874
70	0x3d6a75a1	0.057241086
71	0xbe30ad4b	-0.17253606
72	0xbdc250c8	-0.09488064
73	0x3ccb5d54	0.024824776
74	0xbe19f3fa	-0.15034476
75	0x3c9234bb	0.01784741
76	0xbcc7e9f6	-0.024403553
77	0x3d512457	0.051060047
78	0x3ca7c0ae	0.020477619
79	0x3d38bece	0.04510384
80	0x3da747e8	0.08168012
81	0xbd1d5db8	-0.038419455
82	0xbdf3f224	-0.11911419
83	0xbdf017c4	-0.11723283
84	0xbdc97be4	-0.098380834
85	0xbcdbf3b2	-0.026849601
86	0xbe25178e	-0.16122267
87	0x3d566546	0.052342676
88	0x3de0fe62	0.1098602
89	0x3d9ada07	0.07561117
90	0x3db083c3	0.086188816
91	0x3d998587	0.074961714
92	0x3db275ce	0.08713876
93	0xbdb43dd2	-0.08800854
94	0xbca969fc	-0.02068042
95	0xbc570928	-0.013124742
96	0x3d4aea80	0.049540043
97	0x3ddd9c4a	0.108208254
98	0xbe097f14	-0.13427383
99	0x3d35342d	0.04423921
100	0x3e06dd79	0.13170423
101	0x3e094fa3	0.13409285
102	0x3c4bfa3c	0.012449797
103	0x3db8e1a3	0.09027412
104	0x3d9ed64e	0.07755719
105	0x3c3360a2	0.010948332
106	0x3b58ce4c	0.0033081947
107	0x3e68645d	0.22694536
108	0x3d4b83fb	0.049686413
109	0x3e3abb1e	0.18235442
110	0xbe0d1461	-0.13777305
111	0x3e072a1e	0.1319966
112	0x3e25e8fb	0.16202156
113	0x3d81f3de	0.06345342
114	0x3d03bfb2	0.032165237
115	0x3dad2f5a	0.08456297
116	0xbe4849d7	-0.19559418
117	0x3d67e5d5	0.05661567
118	0xbc700cac	-0.014651459
119	0xbc9d2c1e	-0.019186076
120	0x3e18632a	0.14881578
121	0x3ceee0c1	0.029159905
122	0x3d7bccb4	0.061474517
123	0x3d1cf753	0.038321804
124	0xbda88779	-0.08228964
125	0x3e23f3ce	0.16010973
126	0x3dbb0e1e	0.09133552
127	0xbe2b918f	-0.16754745
128	0xbe09c48d	-0.13453884
129	0x3d7bd175	0.06147905
130	0xbd0a14a2	-0.033711083
131	0xbc4b0efe	-0.012393711
132	0x3d197eb3	0.037474345
133	0xbd746cca	-0.05967406
134	0x3dc78fbe	0.097442135
135	0x3d724f74	0.059157804
136	0xbe2bc154	-0.16772968
137	0x3e2e4b58	0.17020929
138	0xbdb1914a	-0.0867029
139	0xbd4ec99f	-0.05048525
140	0xbd736511	-0.059422556
141	0xbd667031	-0.056259338
142	0x3daa88c3	0.083268665
143	0x3dbf0ed3	0.09328999
144	0x3daebe62	0.085324064
145	0xbdb85b20	-0.09001756
146	0x3c97a41c	0.01851087
147	0x3e1740a0	0.14770746
148	0x3b23f6a1	0.0025018828
149	0x3d03747b	0.032093506
150	0x3e153cf3	0.14574032
151	0x3e25b94d	0.16183968
152	0x3d822e24	0.06356457
153	0x3d70dd63	0.05880488
154	0x3df02aa9	0.11726887
155	0x3d83e2ab	0.06439718
156	0xbdf4aa4a	-0.119465426
157	0xbd0e3360	-0.034716964
158	0xbe2ca64f	-0.16860317
159	0xbe581d3d	-0.21104904
160	0xbe02a737	-0.127591
161	0xbd6d4e6f	-0.05793613
162	0x3dd5beee	0.104368076
163	0x3e0ea9ce	0.13931963
164	0x3d6ff56b	0.05858366
165	0xbe0c047a	-0.13673583
166	0x3c7cb0b3	0.015422988
167	0x3e1c4ca7	0.15263616
168	0x3d14f87c	0.036369786
169	0xbd87105e	-0.06594919
170	0xbe12f2ff	-0.14350508
171	0x3df82d3d	0.121180035
172	0x3d5597d8	0.052146763
173	0xbe443d51	-0.19164015
174	0xbe0347e7	-0.12820397
175	0x3e1f78c1	0.15573408
176	0xbddebe9e	-0.10876201
177	0xbde7a41b	-0.113105975
178	0xbdb301cf	-0.08740579
179	0x3dfb6e69	0.122769184
180	0x3dc6d4b3	0.09708538
181	0xbc20430d	-0.009781611
182	0xbdba0270	-0.09082496
183	0xbb609d13	-0.003427331
184	0x3d18b1a1	0.037278775
185	0x3e0c1978	0.1368159
186	0x3dd29007	0.10281377
187	0x3db801b8	0.08984703
188	0x3e142926	0.14468822
189	0x3dc526fa	0.09626575
190	0xbb173b1b	-0.0023076
191	0x3e330ee5	0.1748615
192	0x3e32ac13	0.17448454
193	0xbcdb4f54	-0.026771225
194	0x3e1a6e84	0.15081221
195	0x3e4629df	0.1935191
196	0x3d975977	0.07390111
197	0xbd4ad820	-0.04952252
198	0xbd859a73	-0.065235995
199	0xbe501bca	-0.203231
200	0xbe8a0ebc	-0.26964366
201	0x3dfa8b90	0.12233651
202	0x3dbfb111	0.093599446
203	0xbdff093d	-0.12452934
204	0x3e28455a	0.16432706
205	0x3d2a34f2	0.0415544
206	0x3cdfe0b5	0.027328828
207	0xbe0acba4	-0.13554245
208	0xbe012eba	-0.12615481
209	0xbdec0281	-0.11523915
210	0x3df2ea9e	0.11861156
211	0xbe04560d	-0.12923451
212	0xbdcf51b9	-0.10123009
213	0x3e1a6cb8	0.15080535
214	0xbe282c2c	-0.164231
215	0xbe1aa91f	-0.15103577
216	0xbd18ee0d	-0.037336398
217	0x3dada6aa	0.08479054
218	0xbcf82270	-0.030289859
219	0xbdab6cae	-0.083703384
220	0x3e2925c5	0.16518314
221	0x3ded86ad	0.11597953
222	0x3d93f8c5	0.072251834
223	0xbde30683	-0.110852264
224	0xbd333dfd	-0.04376029
225	0xbde51c7b	-0.11187073
226	0xbc905bd2	-0.017621908
227	0x3db9414f	0.0904566
228	0xbda2e0d2	-0.07953037
229	0x3d022039	0.03176901
230	0x3e232240	0.15931034
231	0x3e1bea51	0.15226103
232	0x3e1427ef	0.14468358
233	0xbdc5f8a2	-0.096665636
234	0x3d878e1c	0.06618902
235	0x3e766110	0.24060464
236	0xbda1bdbf	-0.07897519
237	0x3d4497e5	0.04799642
238	0x3e226055	0.1585706
239	0x3d7b9cdb	0.061428886
240	0xbccaaee2	-0.024741594
241	0x3d2985cd	0.041387368
242	0x3e2c3cd3	0.16820078
243	0x3e10edb4	0.14153177
244	0xbe27db9a	-0.16392365
245	0x3bd14877	0.0063868123
246	0x3db5a56e	0.08869444
247	0xbdfb3c85	-0.122674026
248	0x3e0953b4	0.13410836
249	0xbdb4c07e	-0.088257775
250	0xbe00c5e5	-0.12575491
251	0x3cd68661	0.026187124
252	0x3d0a6971	0.033791963
253	0x3d07b94d	0.0331357
254	0xbe1fe43b	-0.15614407
255	0xbe5d64ad	-0.21620436

nn_fun1.6.bias f4 [30]
0	0xbdff1c9f	-0.12456631
1	0x3e07c93d	0.1326036
2	0x3db11359	0.086462684
3	0xba72801a	-0.0009250656
4	0x3da7ddd0	0.08196604
5	0x3d5e1b84	0.05422546
6	0xbe273f62	-0.16332772
7	0x3dbffd9d	0.09374545
8	0xbdab195f	-0.083544485
9	0xbd8ae865	-0.06782607
10	0xbd4f5e3a	-0.05062697
11	0xbc9cddc8	-0.019148722
12	0x3c8a373b	0.016872039
13	0x3e48ee61	0.19622184
14	0xbdc867fc	-0.097854584
15	0x3e367eb3	0.1782177
16	0xbe2a90f4	-0.16656858
17	0xbcce0e0a	-0.025153179
18	0x3db63bf7	0.08898156
19	0xbd93de0b	-0.07220086
20	0x3d2f7e77	0.042845216
21	0xbd6225cf	-0.05521184
22	0xbd97f93f	-0.07420587
23	0xbd4bf407	-0.04979327
24	0x3e41f298	0.18940198
25	0x3d639093	0.0555578
26	0xbdd85281	-0.10562611
27	0xbb901e62	-0.004398153
28	0xbd278e2b	-0.040907066
29	0x3d6673b8	0.0562627

nn_fun2.0.weight f4 [30, 2]
0	0x3de8845a	0.11353369
1	0x3da094a4	0.07840851
2	0xbe59acf2	-0.2125738
3	0x3e8074cf	0.25089118
4	0xbed11f98	-0.40844417
5	0xbeac71fa	-0.33680707
6	0x3f3b0fa1	0.7307072
7	0x3f414d93	0.75508994
8	0x3f73708b	0.950936
9	0xbeba5ff8	-0.36401343
10	0xbf6bf5b5	-0.92171794
11	0x3dba57fd	0.09098814
12	0xbe1275b6	-0.14302716
13	0x3ea97045	0.33093467
14	0x3f2d9391	0.67803293
15	0x3e4025b8	0.18764389
16	0x3eb48710	0.35259295
17	0xbeaf40f1	-0.34229234
18	0x3f3d246c	0.738837
19	0x3f3e633a	0.7437016
20	0xbf4890ea	-0.7834612
21	0x3f210cf6	0.629104
22	0xbdaad121	-0.083406694
23	0x3f068fce	0.5256318
24	0xbe72f5e2	-0.2372661
25	0x3f298af6	0.6622766
26	0xbecce24e	-0.40016407
27	0xbecbf242	-0.39833266
28	0x3f0136dc	0.50474334
29	0xbdb3e658	-0.08784169
30	0xbf1f91eb	-0.6233203
31	0x3e78c6fb	0.24294655
32	0x3ea9d92f	0.3317351
33	0xbe883278	-0.26601005
34	0x3f754747	0.95811886
35	0xbe667ecd	-0.22509308
36	0xbeaf14bc	-0.34195507
37	0xbc8034bc	-0.015650146
38	0x3f15651d	0.5835741
39	0x3e872d43	0.2640172
40	0xbf0b98ab	-0.5452983
41	0xbed050dd	-0.40686694
42	0xbf0632d7	-0.52421325
43	0x3c361421	0.011113198
44	0x3f71a9da	0.943998
45	0xbf0af912	-0.542863
46	0x3ea31eff	0.31859586
47	0xbd14e12e	-0.03634756
48	0xbf26e425	-0.6519187
49	0xbedaf4b5	-0.42764822
50	0xbf1fcaa5	-0.62418586
51	0xbf0dbebf	-0.5536918
52	0x3f1e8fa8	0.6193795
53	0x3cdf4539	0.027254688
54	0xbefbd010	-0.49182177
55	0x3f0579d6	0.5213903
56	0xbe0c0672	-0.13674334
57	0x3d698bee	0.057018213
58	0x3e8ef1fe	0.27919
59	0xbf7d1d47	-0.988728

nn_fun2.0.bias f4 [30]
0	0xbee33181	-0.44373706
1	0xbe05794a	-0.1303455
2	0x3e8217db	0.25408825
3	0xbecd78f5	-0.40131345
4	0x3ebd7c8e	0.3700909
5	0xbe47f6f8	-0.19527805
6	0x3d5f1d06	0.05447104
7	0x3eb49d40	0.35276222
8	0x3f1f75a7	0.622889
9	0xbf08f8c0	-0.5350456
10	0x3e2841b6	0.16431317
11	0xbea2a8d1	-0.31769422
12	0xbf356a91	-0.7086573
13	0x3e63d6ba	0.2224988
14	0x3f09c79d	0.5382021
15	0xbee8534d	-0.45376053
16	0x3e6ae927	0.22940503
17	0xbe7333d3	-0.23750238
18	0x3f137b7e	0.5761031
19	0xbefc2582	-0.49247366
20	0x3ec7c0dd	0.3901433
21	0xbe88122f	-0.26576373
22	0x3e38a0f8	0.18030155
23	0xbde20a2d	-0.11037097
24	0x3f214e41	0.6301003
25	0x3d4aa523	0.049473893
26	0xbf2f5b35	-0.68498546
27	0x3ef2c8cf	0.4741883
28	0x3e8a9059	0.27063254
29	0xbeebe3b0	-0.4607215
