results/FHN_celegans_directed_wcc_multiple_nn_True_5/neural_network.pth (torch, 38491 bytes, 26 tensors)

g.0.weight f4 [30, 2]
00000000: 900e 083d c57a 833e 8ca4 4f3e 1f3f 0abb
00000010: cfba 483e 1a10 b8be 45d0 0d3f d27e 143e
00000020: 1a83 8cbe d0dd 413e 5302 69bf 1160 d03e
00000030: c802 e1be 13ff a5be 8734 adbe 80ca 5f3d
00000040: b693 2dbf b04f 843e eef5 d03e 4331 7ebe
00000050: 1086 45bf 35f3 a63e 9fa7 0abf 0018 dabe
00000060: ce46 febe be80 ffbe 97e7 15bf 5838 1cbf
00000070: 0a1c cdbe 024c 9a3e 0aaa 08bf 4d0d 6abe
00000080: 4641 193f 2b5a 9d3e 9237 ce3e ac23 93be
00000090: eb0f 253f 5c7e f43e ecf7 133f 34e0 dbbe
000000a0: c93e 243f 6fac 68be 17ac 10bf ee5e bd3e
000000b0: 0aa4 103f 3688 a1be 1691 a8be a36c b83d
000000c0: 4e42 d6be c238 9cbe 36b6 1fbf 36d2 2f3f
000000d0: 74f1 06bf 4928 8fbc 36ca 27be 38e8 923e
000000e0: c449 32bd a9b0 cf3e c2f8 6bbf c6f5 023f
0.033217013 0.25679603 0.20277613 -0.0021094752 0.19602512 -0.35949785 0.5539592 0.14501503
-0.27443773 0.18932271 -0.9101917 0.40698293 -0.43947434 -0.3242117 -0.33829138 0.05463648
-0.67803514 0.25842047 0.4081263 -0.2482348 -0.7715769 0.32607427 -0.5416202 -0.42596436
-0.49663395 -0.4990291 -0.58556503 -0.61023474 -0.40060455 0.30136114 -0.5338446 -0.22856636
0.59865224 0.30732855 0.40276772 -0.28738153 0.64477414 0.47752655 0.57800174 -0.4294449
0.641583 -0.22722028 -0.5651259 0.36986488 0.56500304 -0.31549233 -0.32923192 0.09005096
-0.4184746 -0.30512053 -0.62387407 0.6868013 -0.5271218 -0.017475264 -0.16385731 0.28692794
-0.04352738 0.40564469 -0.9217645 0.5115627

g.0.bias f4 [30]
00000000: ce68 95bd 8031 e63e 583e adbd ae0b ec3e
00000010: d607 ee3e 6e74 ecbe db5a 263f 979a 5e3e
00000020: 9ae6 25bf a82a b23e cd3a 443e 06d1 16bf
00000030: 3f74 823e ba79 093f ef01 103c e008 0bbf
00000040: 7131 15bf 109f b9be e0f0 8abe e549 0bbf
00000050: 32e8 2d3f 1040 f9be 2ccf 813d 438a 31bf
00000060: fde4 c53e 02ec 203f 052b 173f 40fb 00bf
00000070: 8e53 c0be 3ffc e4be
-0.072953805 0.4495964 -0.08459157 0.4610266 0.46490353 -0.4618258 0.64982384 0.21738659
-0.64804995 0.3479817 0.19163056 -0.58912694 0.25479314 0.53701365 0.0087895235 -0.5431042
-0.58278567 -0.36254168 -0.27136898 -0.5440963 0.67932427 -0.48681688 0.06338343 -0.69351596
0.38651267 0.6286012 0.5905002 -0.5038338 -0.37563747 -0.44723698

g.2.weight f4 [30, 30]
00000000: 280a c1bd 46cf 213d 2ea9 8e3d f31c 64bd
00000010: 5487 12be 9f73 da3d d5c2 fcbc e216 b2bd
00000020: 7c69 ae3c be05 e7bd f4e8 e1ba 7182 ceba
00000030: dc04 1e3c 6150 a9bd 94d9 db3d b340 e43c
00000040: 5c13 53bd eecd 3dbe 9a75 e5bd db59 32be
00000050: 28b8 08be f012 23be 9f17 393d 2b6b bdbd
00000060: 47f9 a9bd 0837 c63d 6a60 2bbe ea7f 0a3e
00000070: d4e3 ef3d 3bb0 1ebe 931d 14be a760 2e3e
00000080: a56a 27be 9c7c e8bd bab6 8fbd ba14 d73c
00000090: 9575 25be 9ba1 b3bd fd28 833d fe15 4c3e
000000a0: 1134 25be b877 19be 2c23 293e 220f 273e
000000b0: 99a4 013e f0b7 14bd bd39 dc3d 07ad 17bd
000000c0: dbea 3cbd 9557 af3d 2356 393e 8693 40be
000000d0: 3550 4a3e c69d debc 7971 273e a392 483e
000000e0: d1b1 b53d dfd8 46bd b1c2 b5bd ed08 8e3d
000000f0: a745 ed3d c2bd 093e 5cf2 ce3d b7b7 9f3c
00000100: 833c d5bd 4798 86bc 4a8c 17be ae19 aabd
00000110: 965f 573b 456d 903d 3c37 2c3e 56f0 2a3d
00000120: 8131 4b3d 8fcb 2b3e a6fa 0d3e 4cee 903c
00000130: 5266 1e3d c09d b93d 590f 16be d52d ff3d
00000140: 423e d4bd 65b2 053e 6afe db3d 2d32 20be
00000150: 1fc6 d3bd 6c1e 4c3e 6e4e aabc b787 53bd
00000160: 4115 3a3e fd17 06be 08f8 9ebd 53ad e03d
00000170: 1503 21be 7d8e 113e 3a2b c0bd d82a e43a
00000180: 1153 f1bd 84db 493e b047 2f3e bee9 153e
00000190: 56ff 433c be22 f83d f251 c33d b675 2fbc
000001a0: 229e d9bd 5944 ebbd 6c03 053d 2b44 c3bd
000001b0: 007f 923c 9c71 913c fda9 553d 0eae 053e
000001c0: b648 7abd 441e 953d 13d5 b73c e492 58be
000001d0: d4f3 f93c 8f1c 523d 679a 97bd 51c6 07bc
000001e0: 25b7 cf3d e01d f43d 566e 423e 19a9 ba3c
000001f0: 90c6 94bb 1135 4c3e 7788 adbd 8941 5f3d
00000200: a065 1d3e d868 47bc 0576 ea3d d697 813d
00000210: 4afe e8bd 5283 f93c b1d5 f9bd 550e 08bc
00000220: 4a71 ff3d 807b 20bd 26cd 2d3d 29a6 fabd
00000230: 64a3 01be a465 27be 92ec 283e 7a23 193e
00000240: 49ba 573d ba30 553d 57cc 14be c105 283d
00000250: eb14 6ebe 7556 2cbd b37a 48ba 2433 08be
00000260: 1a78 ca3d 244c 54be c377 b3bd 014b 9ebe
00000270: 025b 9d3e 6403 7e3e 5424 f83c 4200 553e
00000280: 6338 2a3d 7503 f93d abf2 8b3e 0d3a bb3e
00000290: a48e 23bd 8176 613e e2ae 41be ba3e 6bbe
000002a0: ff15 90be 9313 56be 4b89 513e 55e5 3fbd
000002b0: 8084 a73b 0591 153e 3090 ae3e 96f5 79bc
000002c0: dbdf ad3d a367 1abd 3863 42bd 090f 93bd
000002d0: d137 9c3c 0f83 87be bcd7 c6bd 59c0 acbd
000002e0: d8a4 03be 8c2c 37bd cdd7 26bd 14b1 883d
000002f0: 7089 debd 6dee c53c 9282 503c 7040 c93d
00000300: 9ad9 d33d 45a2 973d 57bb 293e f148 423e
00000310: 520b 7f3d b96d 963d 308f 203d 5341 28be
00000320: 11ef 59be af6d 433d 042b f83d ceb1 213d
00000330: ea71 59bd c85a 623e bdf5 5b3d 96dc ad3b
00000340: bf56 0dbd 709e e8bd 0734 103d edab a23d
00000350: e95e 80be f4f0 09be b8e3 7b3e 7cca 0d3e
00000360: 2a15 113e d98c 983e b26a 0fbe a44c 82bc
00000370: 065c ae3e a048 17be 2238 533e 19a8 6e3e
00000380: 1773 a93e f017 d93c 2ae4 eabd f76c 54be
00000390: 3040 8abe bec0 acbe 6b29 10bd d61f 523d
000003a0: 3cfe 96bd 7e96 2ebe c88e 543e e116 643e
000003b0: 41c1 953d 1a52 bdbd 53a8 a4bb d466 c6bb
000003c0: e47e b5bd 7adc 663e a22d 88bc 0df9 d43d
000003d0: 1f78 203c 916e 023b c956 e3bd 5bd3 6dbd
000003e0: a2d5 363d d2e5 253d cba4 38be 8e87 773d
000003f0: 72bc d13d eca3 b8bd 9017 97bd 16b8 78bd
-0.09425765 0.039504312 0.06965862 -0.05569167 -0.14309436 0.10666584 -0.030854622 -0.08695771
0.021290533 -0.11280392 -0.0017235563 -0.0015755427 0.009644713 -0.08267284 0.10734859 0.027862882
-0.051532134 -0.18535587 -0.11204071 -0.1741709 -0.133515 -0.15925193 0.045188542 -0.09248956
-0.08299499 0.09678465 -0.16735998 0.13525358 0.11713377 -0.15496914 -0.14464407 0.17029057
-0.16349275 -0.11351892 -0.07017274 0.026255 -0.16158135 -0.08771058 0.06404302 0.19930264
-0.16133143 -0.14987075 0.16517323 0.16314366 0.12660445 -0.03630823 0.107532 -0.037030246
-0.046122413 0.08561627 0.18099265 -0.18806276 0.19757159 -0.027174842 0.1635188 0.19587187
0.088718064 -0.04854667 -0.08875025 0.06935296 0.11585551 0.13451293 0.1010482 0.019496782
-0.10411932 -0.016430033 -0.1479961 -0.08305679 0.003286337 0.070520915 0.16817945 0.04173311
0.049607757 0.1677687 0.13865146 0.017691754 0.0386718 0.090632915 -0.14654292 0.12459914
-0.10363437 0.13056333 0.10741885 -0.1564414 -0.10340523 0.1993348 -0.020789351 -0.0516431
0.1817217 -0.13095088 -0.07762152 0.10970559 -0.15723832 0.14214511 -0.09383245 0.0017407788
-0.11783422 0.19712645 0.1711719 0.14639947 0.011962732 0.121160015 0.09537114 -0.010709217
-0.106258646 -0.11487646 0.032473966 -0.095344864 0.017882824 0.017754368 0.052164067 0.13054678
-0.0611045 0.07281163 0.022440469 -0.21149784 0.030511774 0.051296767 -0.07402497 -0.008287028
0.10142354 0.11919761 0.18987402 0.02278571 -0.004540272 0.19942118 -0.08473294 0.05450586
0.15370798 -0.012170993 0.11448292 0.063277885 -0.11376627 0.030458126 -0.121989615 -0.008304198
0.1247278 -0.03918028 0.042431973 -0.12238724 -0.12659985 -0.16347367 0.16496494 0.1495494
0.05266789 0.052048422 -0.14531074 0.041021112 -0.23250167 -0.04207464 -0.0007647678 -0.13300759
0.09886189 -0.2073217 -0.08763077 -0.30916598 0.30733496 0.24805981 0.03029076 0.2080088
0.04155768 0.121588625 0.27333578 0.36567727 -0.039930955 0.22017862 -0.18914369 -0.22973147
-0.28141782 -0.20905904 0.2046253 -0.046849567 0.005112231 0.14606102 0.3409438 -0.015256306
0.08489963 -0.037696492 -0.047457904 -0.07180602 0.019069584 -0.26467177 -0.09709117 -0.08435125
-0.12855852 -0.044720218 -0.040733147 0.066744 -0.10866058 0.024161542 0.012726443 0.098267436
0.103442386 0.07403997 0.1657537 0.18973137 0.062266655 0.07345147 0.039199054 -0.16431169
-0.21282603 0.047712024 0.121175796 0.03947621 -0.053087153 0.22104943 0.05370115 0.005305837
-0.034506556 -0.113583446 0.035205867 0.079429485 -0.2507241 -0.13470823 0.24598587 0.13846773
0.1416823 0.29794958 -0.14005545 -0.015905686 0.34054583 -0.14773798 0.20626882 0.23306312
0.3309562 0.026500672 -0.114693 -0.20744692 -0.27002096 -0.337408 -0.03519575 0.051299892
-0.0737271 -0.17049596 0.20757592 0.22274353 0.07312251 -0.09244175 -0.0050249486 -0.0060547385
-0.08862093 0.22545043 -0.016623322 0.10399065 0.009794264 0.0019902328 -0.11100537 -0.058062892
0.04463733 0.040502377 -0.18031614 0.06043201 0.10241021 -0.090156406 -0.07377541 -0.060722433

g.2.bias f4 [30]
00000000: 4c6c 7abc 6676 d33c 381b 873c de31 9e3d
00000010: 2bb3 1c3e c745 4c3e 417e babb 51e7 973d
00000020: 4f5a 213e 2a33 203e 11cd 973c 5137 6aba
00000030: c8d4 80bd d09c 1fbd 431c 37be fff5 9e3d
00000040: d612 f9bd 582f b8bc d75d f3bd 657f a83d
00000050: 51b2 063e f963 123d 9c70 ecbd 0120 ae3d
00000060: 0f0b 263c 819e 4f3e d858 17be 983d 603c
00000070: 9e48 073e 961a 703d
-0.015284609 0.025813293 0.016492471 0.07724355 0.15302722 0.19948493 -0.00569132 0.07417167
0.15757106 0.15644518 0.0185304 -0.00089346344 -0.06290585 -0.038967907 -0.17881875 0.07761764
-0.12161796 -0.022483513 -0.11883133 0.082274236 0.1315396 0.035739873 -0.11544916 0.08502198
0.0101344725 0.20275308 -0.14779985 0.01368656 0.13211295 0.058619104

g.4.weight f4 [30, 30]
00000000: 99f1 0abe 98a9 aabd e3c4 b33d d722 243e
00000010: abba 2d3e 12fd c9bd 6356 233b d8be 0a3d
00000020: 30c7 9b3d 8974 913d e00f 913d 2b87 fa3d
00000030: fdf3 473d 4851 b8bd fd0d 8bbd 423e 8bbc
00000040: 1374 04be 28dc 26be fb00 0b3e 2df6 063e
00000050: 4ef3 0c3e 3c77 273e 017d 04be c661 ef3d
00000060: 45cf c7bd 9223 54bd 1761 433d f77f f63c
00000070: 24a5 dfbd 3c07 d53c def4 3dbc 097d 33bb
00000080: e34f 7d3c e3be 903b d1de 073d de7c 433d
00000090: 1602 aabd 10e3 a6bd 9b6e 46be c9b2 9b3d
000000a0: 88c1 033e 08f2 883d 5053 b83d 8e3f 91bd
000000b0: d980 05be 4dea 69be 8a0f 473d 6f71 f63d
000000c0: 598d 7fbd 2eaa 443d 8cf2 dcbd 7c45 2abe
000000d0: 03ee c2bd f8c4 8e3c 0f17 6a3e ab34 84bd
000000e0: 4da8 d3bd 20ee 023c 02b9 e3bd 5208 bdbd
000000f0: da15 45be c8d6 50bd 177a 56be 5aae 23bc
00000100: e2cf 113d 48fa d13d cc5f bebc b67b a53d
00000110: da31 473e f9a2 13be b03f 46be ec7b 6dbd
00000120: f6cb 1f3e 4efb 92bd 074a b4bd a363 37be
00000130: 01b8 46be 14f8 e7bd a6fa d03c e6fe 11bd
00000140: 61c7 9fbd 9e8a f43d fc1d 393e e2dd 2c3e
00000150: 659a 1bbd ef5a 02be 4d4b 173e df43 943d
00000160: df06 993c 43e0 833d 661b 31be e1ea ef3d
00000170: 22d7 023e 2c52 5dbd ae74 b93d 7d51 5fbe
00000180: 540c 44bd c141 32bd 024b 7abd 0395 a0bd
00000190: e487 47be 6411 ac3c d7fe 2e3e c0c5 dfbd
000001a0: 8dc5 a1bd bcd6 ebbc 5e77 9c3c 5858 3abe
000001b0: 77e4 003e 3559 e13d 8015 973d 557b 8f3d
000001c0: 3501 a23d cb8c 0abe e618 84bd bbcd 373d
000001d0: 8a90 3e3d 8f00 e33d 229c 003e 4021 27be
000001e0: 2134 cc3d ea79 33be 0949 6bbd 4598 b43d
000001f0: c138 86bd caa1 233d 9e97 cb3b ccc7 c93a
00000200: 24e5 813c 512b e0bd 7a7b a7bc 0326 923d
00000210: 289d 42bd c1e7 f2bc dd5a 78bd a227 91bc
00000220: df3c 773e 893b 1bbe bfbe 04be 3809 c53c
00000230: a977 f63d 6e54 3b3d 5771 cbbd fb0d f73c
00000240: 88e0 0e3e 306b 51bd 0c9f 35bd 5a7f 053d
00000250: e98e 04be 53bb cb3d 9804 4cbd 2c0d 2d3e
00000260: 5369 0fbe 4fa1 fd3d 1f97 083e ee77 c5bd
00000270: ada9 c1bd badf 493e 4f32 b0bd 0feb 123e
00000280: be01 813c 4286 d63d 84e0 a43d 0179 66bd
00000290: 8bf2 d83d 3bf1 5c3d b2b7 19be 82e9 6abd
000002a0: 5d9e 243e 3310 98bd a801 a9bd bda5 2c3e
000002b0: b75a 4b3e bbb0 033e 192e 9b3d 149b 11be
000002c0: 068d 85bd 556a 863d fd30 adbd 4dd2 42ba
000002d0: bbec b83d 610d 813d fe3a 8a3d ec99 1ebc
000002e0: e5fa 1dbe cebc ec3d 1461 18bd b24a 453d
000002f0: 867f 83bd 974f 2cbe 4824 5dbd 2d0a 55bd
00000300: 0322 f33d 2747 b1bd 1ca8 7abd eda0 e8bd
00000310: c9c3 1cbd 7a38 79bc 8482 193e f2c4 1a3e
00000320: a644 123e 261b d1bd 4a18 13be d455 b73d
00000330: 4b49 483e 02e7 f6bd 75df 083d 0e8e 08bd
00000340: 4b65 0e3e 8e4f 193e 1a34 85bd ddce aebc
00000350: c519 ca3c d72f c83d 636b 433e 7b15 6d3e
00000360: 8cc9 c5bd 2c9d b3bd d1c3 0b3d 7a68 f7bd
00000370: 1519 45be f2b4 083e 8376 4abd 1cfb 74bd
00000380: 6dd2 ce3d 79c0 68be 7859 463e 7d8b 0ebe
00000390: 1a57 c73c 7fbf 123e c7ce 893d 0cf4 4cbd
000003a0: b83a 933d cd21 09be 8768 3c3e 8c8b 2b3d
000003b0: ead1 203e 3aa4 023d dc52 a83c b292 dc3d
000003c0: eaae 383c 3960 acbc 7667 0c3d 424c abbd
000003d0: 0154 a6bd bfa7 263e 67fd 963d efc2 a83d
000003e0: 7509 b73b ee47 163d ec64 cbbd ac4a bbbc
000003f0: 17d9 02be 218a 153e 0ebf 12bd a9f3 75be
-0.13568725 -0.08333129 0.087777875 0.16028915 0.1696574 -0.098627225 0.0024923317 0.03387341
0.076063514 0.071023054 0.07083106 0.122328125 0.04881667 -0.08999878 -0.067897774 -0.01699746
-0.12934904 -0.1629492 0.13574593 0.13179846 0.13764688 0.16354078 -0.1293831 0.11688571
-0.097563304 -0.051791735 0.047700014 0.030090315 -0.1092017 0.026004426 -0.011594025 -0.002738776
0.015460941 0.0044172867 0.03317148 0.047726505 -0.08301179 -0.081487775 -0.1937813 0.0760246
0.12866795 0.06686789 0.090002656 -0.070922 -0.13037433 -0.22843285 0.048598804 0.120333545
-0.06239066 0.04801386 -0.1078845 -0.16628069 -0.095180534 0.017427906 0.22860359 -0.06455358
-0.10334835 0.007991344 -0.11119272 -0.092301026 -0.19246617 -0.05098608 -0.20945011 -0.009990299
0.035598643 0.102528155 -0.023239039 0.080802366 0.1945261 -0.14417638 -0.19360232 -0.05797951
0.15605149 -0.07176839 -0.08803182 -0.17909102 -0.1940613 -0.11326614 0.025510143 -0.03564348
-0.078017004 0.11940502 0.18077844 0.16881517 -0.03798904 -0.12730001 0.14774819 0.07239508
0.018680034 0.06439259 -0.17295608 0.117147215 0.12777379 -0.054033443 0.09055458 -0.21808429
-0.04786332 -0.04351974 -0.06110669 -0.07840922 -0.19485432 0.021004386 0.17089401 -0.1092639
-0.07899008 -0.028788917 0.019099887 -0.18197763 0.12587152 0.11003343 0.07377148 0.070059456
0.079103865 -0.13530271 -0.064500615 0.044873934 0.046524562 0.11084091 0.1255956 -0.16321278
0.0997088 -0.17526975 -0.0574427 0.088181056 -0.06553794 0.039949216 0.0062131425 0.0015394627
0.015856333 -0.10945762 -0.02044462 0.071361564 -0.047513157 -0.029651524 -0.06063353 -0.017719094
0.24144314 -0.1515943 -0.12963389 0.024052247 0.12034542 0.045734815 -0.09933727 0.030158034
0.1395284 -0.051127613 -0.044341132 0.032592155 -0.12945141 0.09947839 -0.04980907 0.16899556
-0.14005022 0.12384283 0.13338898 -0.096420154 -0.09456191 0.19714251 -0.086033456 0.1434748
0.015747901 0.104748264 0.080506355 -0.056267742 0.105931364 0.053940993 -0.1501148 -0.057351597
0.16076036 -0.07424965 -0.08252269 0.16860099 0.19858824 0.12860386 0.07577152 -0.14219314
-0.06521039 0.0656325 -0.084566094 -0.000743185 0.09029528 0.0630138 0.06749533 -0.0096802525
-0.1542774 0.11559449 -0.037201956 0.048166938 -0.064208075 -0.16827236 -0.05398968 -0.052011658
0.118717216 -0.08656149 -0.061195478 -0.11358819 -0.038272653 -0.015211219 0.14991194 0.15114191
0.14284 -0.10210256 -0.14364734 0.08951917 0.19559209 -0.1205578 0.03341623 -0.0333386
0.13905828 0.14971754 -0.06504078 -0.021338874 0.024670491 0.0977475 0.19083934 0.23152725
-0.09657583 -0.087702125 0.034122292 -0.12080474 -0.1924785 0.13350275 -0.049429428 -0.05980979
0.10098729 -0.22729672 0.19370067 -0.13920398 0.024333525 0.14330862 0.06728893 -0.05003743
0.07188934 -0.133918 0.18399249 0.04188113 0.15705076 0.0318949 0.020547323 0.107701674
0.0112721715 -0.021041976 0.034278356 -0.083641544 -0.08121491 0.16274928 0.073725514 0.08240306
0.005585844 0.03668969 -0.09931359 -0.022862755 -0.12778126 0.14603473 -0.035826735 -0.2401873

g.4.bias f4 [30]
00000000: 8c43 b4bd 9f04 233e ffc3 b4bd e684 803d
00000010: 5631 02bc f7c8 49be a26d 743d 8dcb 85bd
00000020: 8c06 3ebe 6442 02bd 0e67 6fbd fafb 6a3c
00000030: c424 a2bc 5cb5 99bc 1eaa 0a3d b18a 983d
00000040: ef79 6e3e ffa0 d3bd 479f 0b3d 0b10 6cbc
00000050: 521a c4bd 7da1 4a3d dd87 01bd 878c c1bd
00000060: 9c78 183e c339 8f3b eb67 6f3d a4cf 283e
00000070: 9e12 1f3e a48f cd3c
-0.08801946 0.15919732 -0.08826446 0.06275348 -0.007946333 -0.19705568 0.059674866 -0.06532965
-0.18557185 -0.031801596 -0.05844789 0.014342302 -0.019792922 -0.018763237 0.033853643 0.07448328
0.23288701 -0.10333442 0.034087446 -0.014408122 -0.09575333 0.049470413 -0.03162371 -0.094506316
0.14889759 0.0043708994 0.058448713 0.16485459 0.15534446 0.025092907

g.6.weight f4 [2, 30]
00000000: 13ae 4bbb dced 383d 19d5 e83b 95e8 12bd
00000010: 3285 783c 23b6 13bd b2f3 8e3d 9fa3 d93d
00000020: fb88 f93d b963 003c ecfc d7bc c588 47bd
00000030: a21a be3d 3769 52bd 2731 a13d dcd4 4e3e
00000040: 8a5f 3bbe e82d 813d 9f6e 80bc 03a6 323b
00000050: 64cf 8c3d 0125 4dbe 2d5a 7ebe 6748 0cbd
00000060: 9117 a8bc 3d98 4dbb 6431 223b bb3e 0fbe
00000070: 8d4c 5d3d 6a10 8bbc dc60 62bb 6923 c23c
00000080: 90a1 67ba eab0 453d 24e7 833b d292 21be
00000090: 8415 6a3d d0e9 133d 5463 89bd cfe2 be3a
000000a0: 4f0f 13bd 7480 0d3e 835f ed3d 6e15 b43c
000000b0: 4f4f 12bd 3335 923d 03ec 083e cd5a 25bc
000000c0: 5846 23be 66d7 c13a e91e debd 7410 6fbd
000000d0: 3ad9 a03d aa13 12bd bf73 1e3e a7fb 503d
000000e0: 5551 10bb f675 d33d 528f 0e3d 6585 0b3d
-0.0031079098 0.045148715 0.0071054813 -0.03586634 0.015168475 -0.03606237 0.06980075 0.10626911
0.1218433 0.007836276 -0.02636572 -0.048714418 0.092824236 -0.051369872 0.07870703 0.20198387
-0.18298164 0.06307584 -0.015677748 0.0027259595 0.06875494 -0.20033647 -0.24839087 -0.034248736
-0.02051905 -0.0031371259 0.0024748677 -0.13988774 0.054028083 -0.0169756 -0.0034542596 0.023698526
-0.00088360254 0.04826442 0.004025357 -0.15778664 0.057149425 0.036111653 -0.067083985 0.0014563444
-0.03590327 0.13818532 0.11590483 0.021982875 -0.035720166 0.07139053 0.13371281 -0.010092449
-0.15944803 0.0014788925 -0.108457394 -0.0583653 0.07853933 -0.035663284 0.15473841 0.051021244
-0.0022021134 0.10325234 0.03480465 0.03406276

g.6.bias f4 [2]
00000000: 7a5d 6abd e243 bbbd
-0.057218052 -0.09143807

nn_fun1.0.weight f4 [30, 2]
00000000: af09 1d3f 4161 aabc de79 d33d 9ec2 d33c
00000010: f1fb 07be d122 9b3e 85b9 063e acca ddbe
00000020: 4cbc 6b3f 48d8 2abe a309 10bf 23b3 943f
00000030: cfbe eb3e 6823 523d a923 903e c0b3 463d
00000040: a78d b63e ec33 0cbd f1c8 a13e 5f91 253f
00000050: 6332 54be de8e c0be 1b4d b03d 0d54 0a3e
00000060: 9a18 01bf 9f00 4abe 55a5 02bf dce4 76bf
00000070: df11 e6be 4095 bebe c367 a53e 2a8c b33d
00000080: f6e0 b53d 910a 203f 84de 8a3d c5c1 cabe
00000090: 7fb2 95be 9772 febd b8bb e9be 89c5 993e
000000a0: ee75 463f 9f13 90bb 54fd 1ebf 4aa9 52bf
000000b0: 9b2d 65bf b3a5 703e a1c5 323f 63d9 043f
000000c0: a065 a5be ddd4 24bf 8504 5ebd 21a4 233e
000000d0: ea82 013f 3256 673f abc1 eebe ecaf c0be
000000e0: 27cc cbbe d117 043f db2f d5be af32 8dba
0.613429 -0.020798327 0.10325979 0.025849637 -0.13279702 0.303 0.13156708 -0.4331869
0.92084193 -0.16684067 -0.56264704 1.1617168 0.46044013 0.051303297 0.28152207 0.048511267
0.35654947 -0.034229204 0.3159862 0.64674944 -0.20722346 -0.37609 0.08608457 0.13508625
-0.50428164 -0.197268 -0.51033527 -0.9644296 -0.4493551 -0.37223244 0.32305726 0.087669685
0.088807985 0.62516123 0.06780723 -0.3960096 -0.29237744 -0.124242 -0.4565103 0.3003352
0.77523696 -0.0043968703 -0.621053 -0.82289565 -0.89522713 0.23500709 0.6983281 0.51894206
-0.32304096 -0.64387304 -0.05420353 0.15980579 0.50590384 0.903659 -0.46632132 -0.37634218
-0.39804193 0.5159884 -0.41638073 -0.0010772551

nn_fun1.0.bias f4 [30]
00000000: a080 1fbf dce3 15be d14e 1dbf 810a 403e
00000010: 478e a33d eeb3 e13e bda7 223e 4c1f 7cbd
00000020: 9ef5 d1be e53e 1ebe 0c91 173d a8ef 053f
00000030: 6c35 9b3e 3dd4 193e bbaf 233f 629e f4be
00000040: c098 fcbe 8cf8 223d fc14 70be 3e9f 983e
00000050: 89fe 783d aa8e 6e3e e37f 0a3e 2d78 163f
00000060: 6e70 d53e b7ec 653c b5ee 9abe 02ee 773e
00000070: 0889 a3be 7bb5 6abe
-0.6230564 -0.14637703 -0.6144839 0.18754007 0.079861216 0.44082588 0.158843 -0.061553285
-0.41007704 -0.1545368 0.03700356 0.5231881 0.30314195 0.15022369 0.6394002 -0.47777086
-0.4933529 0.039787814 -0.23445505 0.29808992 0.06078962 0.2329661 0.13525347 0.58777124
0.4168734 0.014033488 -0.30260244 0.24211887 -0.31940484 -0.22920792

nn_fun1.2.weight f4 [30, 30]
00000000: 7b7d e03c 81a0 ec3d ed52 84bd 693b ec3d
00000010: 2eae 0d3e 4c9a a43d 4e0f 083e 112d 683d
00000020: aa34 c73d a25b 90bc 0fe7 8cbd 544c 883d
00000030: 4ab7 7cbd f3e3 8c3d ac54 03be 969c 22be
00000040: 18f1 9c3d 5ac2 0d3c d441 11be d65d 2bba
00000050: 2a7b 853e 0d08 62be 7742 f6bd 25d1 273e
00000060: f2c6 64be 19b8 c3bd e126 833d b569 84be
00000070: d283 6abd 407a 44bd 3d84 f13d 0ffc eb3d
00000080: 4b9a a33c 19e3 4d3e 9d2f c23e dfb1 1abe
00000090: ce60 2a3d 7871 2d3c 03aa f2bc 6b1c ad3d
000000a0: ed06 8abd 00bc 62bd 8da0 13be 5b65 c4bd
000000b0: afbf 85bd 7bdf 2e3e a847 b4bd fbdd 2e3e
000000c0: 7511 05be 7a2c 43be 1931 0a3e 3bb1 36be
000000d0: ea50 74be b41f dfbc 22bc 0d3e 84e4 70be
000000e0: 99b2 0cbe 3809 623d 0bc3 1abe 8707 35be
000000f0: c425 a6bd f965 453d 403c c5bd 8b5e c0bd
00000100: 37db 60be 0ddb 32be 784e 00bd e438 813d
00000110: d7c5 613d 02ef 103e de88 efbb 842f e13d
00000120: c966 c3bd f5fe 42be ed52 d8bd 07e4 2c3e
00000130: 286e cabd 9f67 0e3d 4218 053c 66d4 593e
00000140: 771b 34bd 40dc 363d 5703 85bc fb7c 333c
00000150: 1700 e13d 7db6 ae3d c607 98bd 087f 8d3d
00000160: ec06 98bd dcb3 3e3e 4a5e 8dbd 79df af3c
00000170: c1b6 f63d fc55 a3bd 237b 18be 11a4 5839
00000180: de0b b5bb 0f84 8a3d 8771 51bd 7b91 833e
00000190: d4b8 37bd a019 253e 2122 e5bd c918 aabe
000001a0: d78e dc3d d7bd 503e fc06 393e 60cc 94bd
000001b0: ff88 50be 166e 20bd 8f05 103e c05d f1bd
000001c0: c096 083e 08a5 af3d 7334 75be 8f72 53bd
000001d0: 713e 113e 885d 2dbe c0a3 c6bd 22e5 bd3b
000001e0: 8ffd e93d f9c7 b03d 83a9 66bd 280a dbbb
000001f0: b7b0 413e e1c2 273e 4b89 0dbd e23a 87bd
00000200: 36f1 edbd b51a 44be f7ef 50bc 70e4 863d
00000210: 6947 803d 765b 113e 8599 06be 403a c23d
00000220: df46 633d 763c b4bd 066d babd a612 eb3d
00000230: 6bda 0f3e 20e5 c9bd 9e29 3bbe d850 0dbe
00000240: dc81 95bd 1673 b13d 989b 033d 148f aabd
00000250: 84be 26bd eafa 143e 037a 9d3d e14b 4c3d
00000260: 94de 793d 4975 03be 92e8 133e d5d0 9abd
00000270: d821 85bd e8fb 563e df4b b13c 5aad 893d
00000280: 0d18 89bd f96e 59bd bb51 c13d 9ef0 bd3d
00000290: ae79 873d 1c74 00be 9814 e2bd 3158 183d
000002a0: 4e65 b8bd 4661 89bc b87c 613e c35d ce3d
000002b0: 7798 e43d 3abf 9fbd 24f8 533d 49af 343c
000002c0: 8e13 ae3d 534b 77be 9e11 733e 520d 33be
000002d0: 3053 d03d 7567 1d3d 8b65 b1bc 997f d63d
000002e0: 7cf1 9c3d 22c5 b43d e409 debb 083f 273e
000002f0: 66bd 213d c477 223e ea38 80be da14 0e3e
00000300: 044e 8fbc 8816 a2be 4caf edbd 549a eebd
00000310: 3642 3dbd 8324 59be d584 b53d 9863 6bbd
00000320: 9b14 d43d 1f83 a5be fd47 e43d b1a3 873e
00000330: 3048 efbd 4722 213e af0a 683c 1b64 25be
00000340: 6674 323c 6b79 6fbe 9362 a6bd fe90 53be
00000350: 355d 203e 782c 41be 4b2f d9be 745e ea3d
00000360: d241 21be 99fc 98be 3e5a c1bd 276c af3d
00000370: 0be9 32bd 0580 d9bd 267e 7d3e db8d 89bd
00000380: b821 d0bd 1334 063c 856b ec3d 3385 cdbd
00000390: 6222 b5bc 334e 303e e85b a2be 7daf 5d3e
000003a0: f440 983e 8229 c9bd 5d4d 0dbe 4796 1d3d
000003b0: 6234 48be 8f20 b83d 14c6 353d a8eb 263e
000003c0: 734b 90bc 50e5 483e a7a3 48bc 493d d63d
000003d0: 04b1 303d 5c8f 1abe ba8c 943e b548 9e3c
000003e0: d13c de3d fcbb 09bc eeca b83d f793 31bd
000003f0: cf02 80bc c90d 50be 357d f63c b147 a93c
0.027403584 0.11554051 -0.06461129 0.11534769 0.13835976 0.08037242 0.13287088 0.056683604
0.09726842 -0.017621819 -0.068800084 0.066551834 -0.061698236 0.06879415 -0.12825269 -0.15880045
0.076631725 0.008652294 -0.14185268 -0.0006537115 0.2607053 -0.22073384 -0.12024396 0.16388376
-0.22341517 -0.09556598 0.064039 -0.25861898 -0.05725462 -0.04796815 0.117928006 0.11522686
0.019971034 0.20106162 0.3792695 -0.15106915 0.041596226 0.010586135 -0.029622084 0.08452686
-0.06739602 -0.055355072 -0.14416714 -0.095896445 -0.06530701 0.17077439 -0.0880273 0.17076866
-0.1299494 -0.19059935 0.13495292 -0.17841046 -0.23858991 -0.027236797 0.13841298 -0.23524672
-0.13740005 0.055184573 -0.15113465 -0.17678653 -0.08112672 0.04819295 -0.096306324 -0.09393033
-0.21958624 -0.17466374 -0.031324834 0.06309679 0.055120315 0.14153674 -0.007310017 0.10995391
-0.09541089 -0.19042571 -0.10562692 0.1688386 -0.09884292 0.03476679 0.008123459 0.2127243
-0.043971505 0.04464364 -0.016236944 0.010955091 0.10986345 0.085309006 -0.07423358 0.06908995
-0.07423195 0.18623298 -0.0690275 0.021468865 0.12046576 -0.079753846 -0.14890723 0.00020660485
-0.0055250963 0.067634694 -0.05113366 0.2569693 -0.044854 0.16123056 -0.1118815 -0.33222035
0.10769432 0.20384918 0.1806907 -0.07265544 -0.2036476 -0.039167486 0.1406462 -0.117854595
0.13338757 0.08576399 -0.23945789 -0.051622923 0.14183976 -0.1693021 -0.096992016 0.005795137
0.114253156 0.08631892 -0.056314003 -0.0066845603 0.18915068 0.16382934 -0.03455476 -0.06603028
-0.11618273 -0.19150813 -0.012752525 0.0658654 0.062636204 0.14195046 -0.131445 0.094837666
0.05548751 -0.088005945 -0.09102826 0.11478166 0.14048164 -0.09858155 -0.18277594 -0.1380037
-0.07300159 0.08664529 0.032130808 -0.08328071 -0.040709034 0.14548841 0.076892875 0.04987705
0.061003283 -0.1283771 0.14444187 -0.07559363 -0.06500596 0.20994532 0.021642623 0.06722517
-0.066940404 -0.053084347 0.09439417 0.0927441 0.066150054 -0.12544292 -0.11039084 0.03719348
-0.09003697 -0.016770016 0.22020233 0.100764774 0.11161893 -0.078001454 0.051750317 0.011028119
0.084998235 -0.24149828 0.23737189 -0.1748555 0.10172117 0.038428742 -0.021654865 0.10473556
0.07663247 0.088266626 -0.0067760814 0.16332638 0.039487265 0.15866 -0.25043422 0.13875142
-0.017493255 -0.31657815 -0.11605701 -0.116505295 -0.04620572 -0.21205334 0.08863226 -0.057468027
0.10355493 -0.323266 0.11146543 0.26492074 -0.116836905 0.15735732 0.014162703 -0.16151468
0.010892009 -0.23386161 -0.0812427 -0.20660779 0.15660556 -0.1886462 -0.42418894 0.11443797
-0.15747765 -0.29880217 -0.094410405 0.0856555 -0.04367928 -0.10620121 0.24755153 -0.0671651
-0.10162681 0.008191126 0.11543945 -0.10035171 -0.022111122 0.1721733 -0.31710744 0.21648975
0.29737055 -0.0982237 -0.13799043 0.038473394 -0.19551232 0.08990585 0.044378355 0.16300833
-0.017614102 0.19618726 -0.012246049 0.10460908 0.043137565 -0.1509375 0.29013616 0.019321779
0.108514436 -0.008406635 0.09023081 -0.043354 -0.01562634 -0.20317759 0.030089 0.020664068

nn_fun1.2.bias f4 [30]
00000000: cf6c f23d bfb9 ee3d 3662 27bd a957 5b3d
00000010: 9ee5 bf3d cc4d e7bd a0d3 cd3d e538 c73b
00000020: 81eb 1cbe a968 c9bd e33a 573e fe39 c33c
00000030: 7f30 383e 0f16 c53c 34e2 dcbd 955b a23d
00000040: f65c 283e 40a5 b03d 6b85 b93d def5 6d3d
00000050: 7e6d cdbd b26f d53c 2d2c b2bd 9bd1 c7bd
00000060: 91ba 6e3b 3418 103d 1d11 e4bc 9a08 383a
00000070: 39f5 b03d cbba e4bc
0.1183716 0.11656522 -0.040865146 0.053550396 0.09369968 -0.112941355 0.1005013 0.0060797804
-0.15324213 -0.098344155 0.21018557 0.023831364 0.1798725 0.02405837 -0.10785332 0.07927624
0.16441712 0.08625269 0.090586506 0.058095805 -0.100306496 0.026054237 -0.08699832 -0.09756776
0.003642712 0.035179332 -0.027840191 0.00070203247 0.086405225 -0.027921101

nn_fun1.4.weight f4 [30, 30]
00000000: 81fe 6a3c cc5f 883e bc61 f83d 4095 3b3d
00000010: 0e24 823c 1c38 263d ca1f 543e 34f8 0abe
00000020: 5dfd fd3d 2732 43be 83a8 103d aa10 6cbd
00000030: 7caa 39bd 1319 bcbd 7925 6f3d fe8d cebd
00000040: 1dd1 013c 9588 0ebd b027 55be d67e 9c3e
00000050: 9116 8a3e 57ac b73d 3f61 c73b c06d 1c3d
00000060: eaef 013e b851 89bd 9d1b dcbb 8a9d aeba
00000070: 542f 483b ffa8 17bd b6d3 0abc d497 4c3d
00000080: 4016 b5bd 19c7 3cbd 6b8b 993e 6392 373e
00000090: e092 00be 3198 ba3d be49 5c3e ea7e 0f3c
000000a0: 771f 6dbd 15b8 963e c210 623d 64bd e5bd
000000b0: 98c6 303d 7c71 b5bd 9181 03be c8fc c83d
000000c0: bbea 3b3e e83f b2bd 8e66 55bd deaf 223e
000000d0: 8e7d 173e 3639 c83c dce6 97bd dfdb 41be
000000e0: 94b1 cd3d 1131 28be ee73 cc3d edf3 e9bd
000000f0: dd01 cabd d331 623d d9aa 83bd 11fc 2bbd
00000100: 6faa bb3d 998d 893d a7b4 253e 0e39 163d
00000110: 12c9 f73d 13a6 65be 6454 f93d 790e c03d
00000120: be2c 283e 6e77 083e fa04 bdbc 3d13 393e
00000130: 2302 45bd 3855 5c3e 5b2a d2bd 4a44 d03c
00000140: f8f9 923d 327a 943e d7ef 0b3d 5e18 84bc
00000150: 1763 2dbe 5e29 f0bd be74 0bbe 7d3a c63d
00000160: 166d 343e 91d6 10be b66f da3c 1a8b 363e
00000170: 1be6 db3d 88ad 92bd a991 e5bc d803 f2bc
00000180: 7915 2dbe 55c0 8dbd 88d2 fa3c 9d09 363e
00000190: 51be 163e 5a98 8c3e d82e 233c 3388 e0bb
000001a0: 2ffd 39bb 0a38 8e3d 22bb 17bd b67e b53d
000001b0: 9cd8 d0bd 0d5c 19be fc02 0abd 86e9 8dbd
000001c0: a96f 12be 4cf8 cb3d 6eda 77bc 6b26 f9bd
000001d0: 8ab6 213e a5ca 1a3d d898 713c 7c97 e33d
000001e0: b10c b4bd eed7 a63c 9e68 3a3d 316f 513e
000001f0: 0f3d 1fbe ede1 b2bd 29fb 373d 1204 d73d
00000200: 79cf a33d f383 02bd 703c 86bd 6885 f6bc
00000210: 0e7e f8bd 46cf 59be 503b e03b 8954 933d
00000220: 5586 923c 3460 e3bb 0a94 e73d 8f12 0cbe
00000230: b9e8 17be eae5 86bd 84af 893d fca8 1a3d
00000240: b9ce ed3c 485d cd3b 2a43 c73b e249 273e
00000250: 1e82 883d f69f d53d 69a7 94be 4468 44be
00000260: daa5 a63c ec44 403b 7eb8 26be 1557 c5bd
00000270: 5020 91be 02fb eb3d 21d5 51be be82 b93d
00000280: 5119 ca3d b2d7 f3bd 1d66 113e c820 3c3e
00000290: 8b5b e63d 72e9 403d ee4a 85bd b333 97bd
000002a0: 75d2 79bd 88ef 41be 0422 8fbe ab58 49be
000002b0: dc08 6dbd da3a b0bd 9229 b43b 7ea3 73be
000002c0: 6d00 ce3d fe3d 28be 72b5 813d b245 3ebe
000002d0: e794 1dbe 97c6 173e bf72 86be 6bc9 b0be
000002e0: 3b86 23bc fc9b 4c3d 1cbd 98be 316b a2be
000002f0: eef8 1c3d b9d0 aebc a536 21be 5c38 f0bd
00000300: 8067 0cb9 ec6d f13e 186e df3e 1a03 cebe
00000310: c469 f9bd d568 0cbe 9da9 39bd 3d8c 2fbd
00000320: 8a18 133e 135a 5dbd 3211 803c 71ee 7bbe
00000330: 413d fabe a439 d7bd 2448 50be 327f 02bf
00000340: 0d72 8a3e 1b4f 60be 7b33 89bc bb70 353e
00000350: ba24 1d3c 535e 43bd ecc7 aa3d 100a f53d
00000360: 1ac2 1d3e a931 4abe 8467 f6bd 1e91 a7bc
00000370: 6a4f 9abd 1a93 443e 77b3 93bd 732d be3d
00000380: 57a6 09be f589 a4bd 10a5 243e 93ea 9bbd
00000390: d5cf a93d 20de 813c ff7c 0c3e 403f f1bd
000003a0: 3bcc aa3d 7a19 26bd 1259 dabb 355f 223e
000003b0: 042a 0dbe e0ee 0bbe bdc2 5d3d 2857 9fbd
000003c0: 5360 f13d 748c 1dbe 25db 0b3e 10af 313e
000003d0: 0fbd 13be e75a 6abd e489 1b3e ded4 b13d
000003e0: 0189 a4bd b679 ddbd 92df 983e 23c0 a43d
000003f0: 1720 c8bc 6539 90be c79f 143d 317c 6b3e
0.014342905 0.26635587 0.12128016 0.045796633 0.015886333 0.040580854 0.20715252 -0.13571244
0.12401841 -0.190621 0.035316955 -0.05763308 -0.045328602 -0.0918447 0.058385346 -0.100856766
0.007923392 -0.034798224 -0.20815921 0.30565518 0.26970342 0.08968418 0.0060845907 0.038190603
0.12689176 -0.0670504 -0.006717159 -0.0013322097 0.0030545788 -0.0370264 -0.008473327 0.049949482
-0.088421345 -0.04608831 0.2998918 0.17926936 -0.12556028 0.091110595 0.21512505 0.008758286
-0.057891335 0.29437318 0.055191763 -0.11217764 0.043158144 -0.08859536 -0.12842394 0.09813839
0.18351261 -0.087035954 -0.052099757 0.158874 0.14793989 0.024441343 -0.0741708 -0.1893153
0.10043636 -0.16424967 0.09983049 -0.11423478 -0.09863637 0.055223297 -0.06429071 -0.041988436
0.09163367 0.06716461 0.16182195 0.036675505 0.12098898 -0.22426634 0.12174299 0.093777604
0.16423318 0.13326809 -0.023073662 0.18073745 -0.04809774 0.21516883 -0.10261985 0.025423188
0.07176584 0.28999478 0.034164276 -0.0161249 -0.16932331 -0.1172664 -0.13618752 0.096791245
0.17619738 -0.1414435 0.026664596 0.178265 0.107372485 -0.07162005 -0.028023558 -0.029542848
-0.16902722 -0.0692145 0.030617967 0.17777105 0.14721037 0.27459985 0.009959899 -0.0068521737
-0.002837967 0.06944282 -0.037043698 0.08862059 -0.10197565 -0.14976521 -0.033694252 -0.06929307
-0.14300407 0.09959468 -0.015127761 -0.12165531 0.1579229 0.037790913 0.014745913 0.11112878
-0.08791483 0.020366635 0.045509927 0.20452572 -0.15550636 -0.08734498 0.04491726 0.10498823
0.07998557 -0.031864118 -0.06554496 -0.03009291 -0.12133418 -0.21270475 0.006843008 0.07193858
0.01788632 -0.0069389585 0.11307533 -0.13678955 -0.1483487 -0.065868214 0.0672293 0.037758812
0.029029237 0.0062672235 0.0060810046 0.16336778 0.06665443 0.10430901 -0.29033974 -0.19180399
0.020342756 0.0029337956 -0.16281316 -0.0963575 -0.28344965 0.11522485 -0.20491458 0.0905814
0.0986811 -0.11906375 0.1419911 0.1837188 0.11247929 0.04709763 -0.06508432 -0.07382908
-0.060991723 -0.1893903 -0.2795564 -0.1966273 -0.057869777 -0.08604975 0.0054981196 -0.23792836
0.10058675 -0.16429898 0.06333436 -0.18581274 -0.15388833 0.1482185 -0.2625942 -0.3452867
-0.0099807335 0.049953446 -0.2983178 -0.31722406 0.038323335 -0.021339761 -0.15743501 -0.117295
-0.00013389997 0.47154176 0.43638682 -0.4023674 -0.12178376 -0.13711865 -0.04532777 -0.04285835
0.1436483 -0.05404098 0.0156332 -0.24602677 -0.48874858 -0.10509041 -0.2034002 -0.50975335
0.2704014 -0.21905176 -0.01674818 0.17718785 0.009591276 -0.047697376 0.08338913 0.1196481
0.15406075 -0.19745506 -0.12031463 -0.02045494 -0.07534678 0.1919674 -0.072119646 0.092860125
-0.1344236 -0.08034126 0.16078591 -0.07613101 0.08291594 0.015852988 0.13719557 -0.11779642
0.08339735 -0.04055164 -0.00666345 0.15856631 -0.13785559 -0.13665342 0.054140795 -0.077802956
0.117859505 -0.1538561 0.13657816 0.17351937 -0.14427589 -0.057215597 0.1518932 0.08683179
-0.08033944 -0.1081423 0.2985807 0.0804446 -0.024429364 -0.2816879 0.036285188 0.22996594

nn_fun1.4.bias f4 [30]
00000000: eb62 25bc 4dd7 efbc a5b6 8fbd 9d5f 13bc
00000010: 7b15 18be 85ac 5ebe aa62 24be 4fde af3c
00000020: 326e 1ebd 0892 023e 3f02 8a3c a7bb 01bc
00000030: 5543 0c3e 6199 a3bc cd0a 34be d98d 163e
00000040: 95e6 95bd d308 0a3d 8bc1 ab3d e087 543d
00000050: 5132 243d 2e92 66be 4f19 273e e91c 24be
00000060: 091d 56be 356b f63c db13 763d 6486 df3d
00000070: 7721 0cbe 5682 bf3c
-0.010094385 -0.029277468 -0.070172586 -0.008994964 -0.14851944 -0.21745498 -0.16053262 0.02146831
-0.03867931 0.12751019 0.016846774 -0.007918275 0.1369756 -0.019970598 -0.17582245 0.14702548
-0.07319371 0.03369982 0.08386525 0.051887393 0.040087048 -0.225167 0.16318248 -0.16026653
-0.20909514 0.030080417 0.06007753 0.10914305 -0.13684641 0.023377579

nn_fun1.6.weight f4 [30, 30]
00000000: ba2c d6bb a105 45be fa99 f13d 8a0c 84bd
00000010: 0d41 0f3c c597 043e 8187 273e 5395 063c
00000020: 7aec f83d 533b 97bc d3d1 c63d d9f6 cebd
00000030: 0d39 febc e968 d3bd 9627 013d 6039 dc3c
00000040: f9e2 913d 7b89 10bd 41dd c23d 6d39 2a3e
00000050: ae26 11be 462d 71bd 79c3 81bd 7c5d 32be
00000060: 8f76 cd3d de1f cebb 3fd1 173e 87fc 2f3e
00000070: 3b58 cdbd c38a 51be b810 9c3d bd46 70bd
00000080: 36ad 0b3d 0a2d 0cbd a3ee 6ebd b6b5 1d3e
00000090: 3dd0 5fbd ab61 0b3e 1626 ecbd 899c 053e
000000a0: c0be fb3d 2027 823c 4a68 333e 2023 7bbd
000000b0: 28da 9d3d 529b 853c c905 a83c b2f6 bd3d
000000c0: fd8d 03be d5fc b5bc 19a6 f53d 4acf 81bb
000000d0: a0cf a33d 0a38 0dbd bd84 9bbd d552 23bd
000000e0: 64aa 493d 17b1 dfbd 6a58 023e bd7a 0a3d
000000f0: c1aa 1a3d 09e8 a63d 7509 0fbe 1538 063e
00000100: f959 c63d 7db4 d63d 70a6 c3bd 75c6 fdbd
00000110: 6907 25bd fffd 593d fbcc d1bd ee6b 33bd
00000120: 1c20 523e 4d02 fa3d af73 513e 4872 b3bb
00000130: 7fa7 19be b1a2 d7bd 4a84 b93b 444f 9abd
00000140: b193 f53d 9d19 78bd 98f4 893e 0365 4abe
00000150: addb 413d c66a 033e 8720 efbd f4c3 31ba
00000160: bedc 353e e21d 823d fe58 bdbd 3c0a 7dbc
00000170: 3189 90be e144 eebd ee14 11be 88d8 1ebe
00000180: 18f2 963e 9c00 4c3e d327 ed3d df97 1f3d
00000190: ce3d cabb dd96 293e 8992 633d 546e 9dbd
000001a0: ab5c 8fbd feb1 d7bd 578f 5d3d e579 d0bc
000001b0: baf5 dfbc 047b c93b 2e19 e33d e029 a23d
000001c0: 7984 2c3e 943f 61bd 1a36 633d 2f0d 39be
000001d0: b45a 21bc 4a98 a13c 3651 ffbc d9d8 8c3d
000001e0: 397a 673e f363 b53d 2ddc 0d3e 7388 e93c
000001f0: 3a59 5bbd d838 fd3d d537 ab3d b22c 263e
00000200: 4138 ea3d d087 7a3e 9bfb 00be cd11 68be
00000210: 7635 bdbc f42c ac3d 3247 e13d 2626 213e
00000220: 2c71 5d3d ad46 173e 46a8 bfbd eb10 3d3e
00000230: c70d 04be f849 f53d 3bb1 d0bb 146c 03bd
00000240: 0c87 c33d 24af d7bd b9c2 26be f0ff 75be
00000250: 2e33 813b 30a0 a43c c710 8c3d 42df 2ebd
00000260: 30b0 0cbd 4f2e 31be 2efe 193e 84f7 a8bd
00000270: 5881 90bd b7ba 1b3d c7a8 14be 2921 14be
00000280: 1465 01be 9263 2dbd 2437 bcbd 4dd9 5c3d
00000290: 203d f93c 156e dd3d f2b3 8dbd cf27 7d3d
000002a0: 7036 0c3d 2a3e 2ebe 9b30 19be fc50 cfbd
000002b0: d7ff 62bc 73fa 99bd be9a ff3d 4d18 cb3d
000002c0: d043 123e 07ed 87bd 193b 6abb e156 83bd
000002d0: 37d2 8cbd e67c 13be d175 813d f588 8a3c
000002e0: c8e1 af3d f28c e6bd 0632 f3bd e8df 48be
000002f0: db5e 083e 23fa 16bd d07f 3c3e b88d f53d
00000300: 9778 ec3b 4b1c abbd 553e 12be d5de 923d
00000310: 74c1 363e 4f8f cebd 7411 b2bd baa2 23bc
00000320: ee98 1b3e e7b6 0e3e 7d11 283e 4a8a 50bd
00000330: 7a0b 1e3e ee32 753e 28d4 883c 65f2 01bc
00000340: 8882 e53d 912f 113e 4e32 193e 4aa5 a1bd
00000350: 7278 a6bc ee3d e1bb 9699 103e ca06 b6bc
00000360: 04c9 dfbd bda0 e53d 89e8 0abe 203f b2bd
00000370: 7d1f fd3d 733c adbd bd4c 873d 0f57 933d
00000380: d24f c6bd ce1b fcbd 3901 093e 63e1 1d3e
00000390: e3b3 4cbe 21e0 f93d 8b31 183d 56b0 0a3e
000003a0: ef48 643b 3978 11be 6219 963d a52a febd
000003b0: ca9c 263e c0be 42be 3fb8 093e 99fd d43d
000003c0: c461 933d 768d 2ebb 8b41 873d 32ce 86bd
000003d0: 3b46 ad3d 1a81 c83d de0c f23d c059 fb3d
000003e0: 8001 b83b b279 c7bd 90f8 0d3e c18c c03c
000003f0: b1c6 1bbd e525 82bd 8bf4 06be 9179 5abd
-0.0065360935 -0.19240429 0.11796947 -0.06447704 0.008743537 0.1294852 0.16360284 0.008214313
0.12154479 -0.018460905 0.097079895 -0.10105676 -0.031033063 -0.103227444 0.031531893 0.026882827
0.0712337 -0.03528736 0.09514857 0.16623469 -0.14174911 -0.058881067 -0.063361116 -0.17418474
0.10032379 -0.00629042 0.14825915 0.17186175 -0.10026594 -0.2046309 0.07620376 -0.05866121
0.034100734 -0.03422264 -0.05833305 0.15401348 -0.05464195 0.13611476 -0.11530702 0.13047995
0.12292242 0.015887797 0.17520252 -0.061312795 0.07707626 0.016309414 0.020510571 0.09275569
-0.12847133 -0.022215286 0.11994571 -0.0039614784 0.07998586 -0.03447727 -0.07593677 -0.039873917
0.049234763 -0.10922449 0.1272904 0.03380846 0.0377605 0.08149726 -0.13968451 0.13107331
0.0968513 0.10483644 -0.0955323 -0.12391368 -0.04029027 0.053220745 -0.10244175 -0.0438041
0.20520061 0.1220747 0.20454286 -0.00547627 -0.15005301 -0.10529078 0.005661522 -0.0753465
0.119910605 -0.0605713 0.26944423 -0.19765095 0.04732864 0.128337 -0.11676126 -0.00067812135
0.17759988 0.06353356 -0.092454895 -0.015444335 -0.2822967 -0.11634231 -0.1416814 -0.15512288
0.29481578 0.19922107 0.115798615 0.038963195 -0.0061719185 0.16561456 0.05555967 -0.07687059
-0.07000097 -0.10531996 0.054091778 -0.025448749 -0.027338851 0.006148698 0.11088787 0.07918143
0.1684741 -0.054992273 0.055471517 -0.18071435 -0.0098482855 0.019725937 -0.031166654 0.06877298
0.22605218 0.088569544 0.13853522 0.028507447 -0.05355189 0.12364358 0.083602585 0.16227987
0.11436511 0.24465871 -0.1259598 -0.2266304 -0.023096781 0.08407012 0.109999076 0.15737209
0.054063007 0.14773054 -0.093582675 0.18463485 -0.1289588 0.11976999 -0.006368784 -0.032085493
0.095472425 -0.10531452 -0.16285218 -0.24023414 0.0039428687 0.020095915 0.068391375 -0.042693384
-0.034347713 -0.17302822 0.15038368 -0.08250335 -0.0705592 0.038019862 -0.14517508 -0.14465775
-0.12636214 -0.042331286 -0.09190205 0.05391817 0.030424654 0.10812012 -0.069190875 0.061805543
0.034231603 -0.17015901 -0.14959948 -0.101228684 -0.013854942 -0.075184725 0.124806866 0.099167444
0.14283681 -0.06637006 -0.0035740791 -0.06413055 -0.06876033 -0.14403114 0.063213 0.01691101
0.08587986 -0.11257352 -0.118747756 -0.19616663 0.13317434 -0.036859643 0.18408132 0.11989921
0.007216524 -0.08355006 -0.1428159 0.07171408 0.17847234 -0.10085928 -0.08694735 -0.0099875275
0.15195057 0.13936959 0.16412921 -0.050913133 0.15434065 0.2394521 0.016702726 -0.0079313265
0.112065375 0.14178301 0.14960596 -0.078928545 -0.020321105 -0.0068738377 0.14121088 -0.022220034
-0.109270126 0.11212299 -0.13565268 -0.087034464 0.123595215 -0.084587954 0.066064335 0.071943395
-0.09683193 -0.12309991 0.13379373 0.1541801 -0.19990496 0.12200952 0.037156623 0.1354383
0.003483351 -0.14206018 0.0732906 -0.124104775 0.16270748 -0.19018078 0.1344919 0.103999324
0.07196382 -0.002663461 0.06604298 -0.065822974 0.08460661 0.09790249 0.118188605 0.12272978
0.005615413 -0.097400084 0.1386435 0.023504617 -0.038031284 -0.06354884 -0.13179223 -0.05333859

nn_fun1.6.bias f4 [30]
00000000: 0af7 7bbd 2031 d8bc 56e0 bb3d 9ea1 fabc
00000010: 9453 6d3d 02a5 133e ddb4 ff3c e27a 8bbc
00000020: 61f7 40bc bf15 a1bd 9257 3c3e aba6 83bd
00000030: 95c7 fcbd 237d 033e 39c1 913c 81a4 2ebe
00000040: 2621 87bd fe00 123e 1fc4 0f3d ba04 203d
00000050: bc7b f83d c26e 09be f095 bc3d a2e0 babd
00000060: f124 59be f19f 66bd 54b1 3ebe 72ad 253a
00000070: c3bd e5bd 0e39 273e
-0.06151489 -0.026390612 0.09173648 -0.030594643 0.057941034 0.14418414 0.031214172 -0.017026369
-0.01177773 -0.07865476 0.1839278 -0.06428274 -0.12342755 0.12840705 0.017792331 -0.17054941
-0.065981194 0.14258191 0.035099145 0.039067008 0.121329755 -0.13421157 0.09208286 -0.091248766
-0.21205498 -0.056304876 -0.18622333 0.0006320096 -0.11217835 0.16330358

nn_fun2.0.weight f4 [30, 2]
00000000: c805 383f e603 02bf 5bee f0be 3925 80be
00000010: c484 2b3e 4023 4fbe bdd0 9ebe 2dbc 0ebf
00000020: d0f8 e1be 0198 8d3e 3280 d23d e3bb 983d
00000030: 570b 223e ce36 0cbf 1eae 34bf 47bf a2be
00000040: 8fd2 40be 109c f93e 8de9 103f 600f aa3d
00000050: 3c4c 23bf c8db 50be fd27 89be b0e5 f93e
00000060: 37e7 6bbd 4856 80be c180 803d 8746 ba3e
00000070: 44ae 183e 230b 2ebf 19ba d2be 0719 59bf
00000080: bd3f 4c3f 0120 97be b623 043f 12e4 2d3f
00000090: 96ba 16bf da97 be3e 994f 6f3f 8c4e 64be
000000a0: 5de5 4ebf 405b edbe 4c66 1bbc 2edd 173e
000000b0: e0ba 90be dc7d b5be a701 883e cac9 94be
000000c0: 477f 493f da78 143f c465 0abf 302d 5cbe
000000d0: d6ba 46bf 9d35 6dbe 8a30 1dbf f473 9ebe
000000e0: 4cf9 f63e d11f 2f3f 6570 57bf cf79 b0be
0.7188382 -0.507872 -0.4705685 -0.250284 0.16749865 -0.2022829 -0.3101863 -0.55755883
-0.4413514 0.27655032 0.102783576 0.074577115 0.15824638 -0.54771125 -0.7057818 -0.31786558
-0.18830322 0.4875188 0.5660637 0.08303714 -0.637882 -0.2039634 -0.2678832 0.4880805
-0.05759355 -0.25065827 0.06274558 0.36381933 0.14910227 -0.67985743 -0.41157606 -0.84803814
0.79784757 -0.29516605 0.5161699 0.6792613 -0.5887846 0.3722523 0.9348083 -0.22295588
-0.8081873 -0.4635868 -0.009484839 0.14830467 -0.28267574 -0.35447586 0.2656376 -0.29060203
0.78709835 0.57996905 -0.5406153 -0.21501613 -0.7762884 -0.23164983 -0.6140219 -0.3094784
0.48237073 0.68407923 -0.84155875 -0.34467933

nn_fun2.0.bias f4 [30]
00000000: 37d9 5e3e 5243 0f3f 90da b73e 6232 dd3e
00000010: eed3 58bd de87 31be 5fb3 a1be 8cb9 05bf
00000020: f8bc 48bf d338 b23e 16fe 08bf 7a50 39bf
00000030: d51a 433e 687c dd3c e439 adbd 32c9 013e
00000040: 3043 bfbd 6f35 83bd d067 cebd 1ecb d63e
00000050: c928 fcbe ea0c 0e3c 42d1 a3be f015 1cbf
00000060: 4d84 4e3e 1f92 d9be afea 293f bf3a 1ebf
00000070: eed7 bdbe 43c5 2dbf
0.21762548 0.559621 0.35908937 0.43202502 -0.052936487 -0.17336985 -0.31582162 -0.5223625
-0.78413343 0.34808978 -0.53512704 -0.7238842 0.19053204 0.02703686 -0.084583074 0.12674406
-0.09338987 -0.06406676 -0.100783944 0.4195184 -0.49249867 0.008670071 -0.3199559 -0.60970974
0.20167656 -0.42494294 0.66373724 -0.6180839 -0.37078804 -0.6787912

nn_fun2.2.weight f4 [30, 30]
00000000: 4367 63be 04f8 c7bd 2438 cd3d 312a 8b3d
00000010: cabf 02be 112a 693d 7482 423e d06a 71be
00000020: 6183 093e 6e8a c03d 1730 cfbd aa3c 963d
00000030: d644 14be ddb7 46be 0395 6b3d fa89 f63d
00000040: 7574 e53d 941e 82bd bbd9 3e3e c0d0 79be
00000050: d1f9 52bd 4c12 db3c b6b1 1a3e b9a6 ca3d
00000060: d3c4 b83b 75c6 14be e331 fc3b c0a5 b33b
00000070: 811a 57be 6992 43be feab b33d 61e4 b2bc
00000080: 8222 52bd 1399 71bd 86f3 ac3d 3da5 f9bc
00000090: d6ba 493e ebfc 423c 7e6b 053e 5cfe c43d
000000a0: 3d0e b7bd d14f d8bd 714b a83d 2b56 a8bd
000000b0: ef95 903e a15a 3c3e cb24 5ebd a10f 83bd
000000c0: 5d07 203e c5b1 47be ca36 213d 5ef0 16bc
000000d0: 4412 b0bd 37dc a03d 5781 ff3d aae4 cf3d
000000e0: 2f27 32bd 60cb 963d 6142 9ebd 7561 e7bd
000000f0: c68c f9bd 8bf3 6d3d c13d 25be e780 d5bd
00000100: 42a4 b4bd ae63 10be 481d 30be 60c3 493e
00000110: 50b5 d7bc 5e40 e53c 20ca f33c d355 2c3e
00000120: e847 51be 1819 11be 399b 33be 745c cb3d
00000130: 29df 03be c557 49bd 2c5b ee3c b9a0 6e3e
00000140: 86ec 203e 234a 22bd f1cd a4bd bdaa b73d
00000150: 956d 5a3d ddee 05be d776 3bbe 049e f7bd
00000160: d4b1 bc3d 495d 0f3c 23fe 95bc e3db f2bc
00000170: 8848 b83b d52c 453e 331f c8bd fc25 b03c
00000180: 7b2d cebd 2bac 98be 7abb 21be c1b3 863e
00000190: cab4 60be a85a 30be ebd8 bfbc a564 973d
000001a0: dcce ee3d 02f5 87bd 4bc5 85bd 0d17 b9bd
000001b0: b6c8 3cbe c2c7 61bd 315c 473d e75f 7c3c
000001c0: 81c3 32bd 548c 58bd 8212 0b3e a690 b4bd
000001d0: 5da8 07bd 55f1 90be 1637 42be fa14 abbe
000001e0: d47d 3e3e d5d5 853d 693c c4bd 20a5 8fbe
000001f0: f91e 083c 79de 08bd 6950 11be 7640 ec3b
00000200: c060 0cbc 3679 013e 53fe 283e 0338 fcbd
00000210: df7a 1abe 7680 1b3e ee18 db3d 82a8 a7be
00000220: 2c73 79bd 3f5e a03e 56a5 e2bb 8303 ac3d
00000230: b40c 053e 6f9a 3a3e 3e68 45be ff34 92bd
00000240: a15e 803e d18c 1f3c 226f 69be 9442 86bd
00000250: a185 a33e b001 a83d e3b5 12be 9bec 4dbe
00000260: 7fe9 dfbc 5684 32be df04 113e 4bc6 16be
00000270: 0671 083e cee8 213e a2f5 083e edd3 063e
00000280: 152c 473e bcb9 873d 9084 f83c ff01 4a3d
00000290: 39fa f23b 32aa d23c 6ae9 4b3e fd41 803e
000002a0: edb7 a73d eb2b f4bd 48db 0a38 53a2 513e
000002b0: 75dd d5bd d147 423e 1635 0c3e 58e4 1e3e
000002c0: a537 e2bc d04a 7bbd e4b8 88bd 6025 3c3e
000002d0: ce94 a13d b994 3dbd 0b29 8cbe 0e28 edbd
000002e0: 7113 5ebe 06a4 483d dd39 0abd 1bf6 fe3d
000002f0: 6ba0 7c3b 90bb 37be 33ba 483e 3c67 9d3d
00000300: a94d 45be f2e9 1f3d 959a 1ebd 8554 36bd
00000310: 449b ba3d fcf4 4a3c 96d4 173e 2024 59be
00000320: e70c 1dbe c60b a03a b2ae 5d3e ef2c 313e
00000330: 1210 553d 1b06 293d bc1a f83c d437 303e
00000340: b589 033d 5755 83bd 1b94 c3bd 7a0d b13d
00000350: 7418 87be 29a9 5cbe 009a 9f3c 279d 873d
00000360: 6c09 0ebe b227 593e 8d31 863e 3ec0 07bd
00000370: 7d5f 8b3e eaf3 80bc 5438 cbbb dcfb 183d
00000380: 9666 d53d b3b1 4dbe 70f0 f83d 59db 343e
00000390: d4bc 04bd 30ac 16b8 73ff 233e edfd 503d
000003a0: e06e 993d 2fc9 bdbc 7a78 47be 08e1 a13e
000003b0: 8346 42bd 3084 2c3e 44a3 95bd 1c67 213e
000003c0: 1a12 643d e6f7 adbd f46f 2ebe 37c4 143e
000003d0: 642e 81bd 1ee1 e0bd 50b9 0ebe bccd 053e
000003e0: 95b2 fe3d 7842 23be 4f35 06be 9f4b e73d
000003f0: 7e5f 09be dd97 a4bd 2112 f6bc cdb1 a4bd
-0.2220736 -0.09764102 0.100204736 0.06795157 -0.12768474 0.056924883 0.18995076 -0.23575902
0.13429023 0.09401403 -0.10116594 0.073357895 -0.14479384 -0.19406076 0.057515156 0.12038036
0.11203853 -0.063534886 0.18637745 -0.24396038 -0.051507775 0.026742123 0.15106854 0.09895081
0.0056386977 -0.1452883 0.0076963766 0.0054824054 -0.21006204 -0.1909882 0.08773039 -0.021837415
-0.05130244 -0.058983874 0.08444886 -0.0304743 0.19700179 0.011901121 0.13029286 0.09618828
-0.089382626 -0.10562099 0.08217514 -0.0821956 0.2823939 0.18393947 -0.054234307 -0.06399465
0.15627809 -0.19501407 0.03935889 -0.009212581 -0.08597234 0.07854503 0.124758415 0.10151036
-0.0434944 0.073630095 -0.077275045 -0.11297885 -0.121850535 0.05809359 -0.16136838 -0.10424977
-0.08820392 -0.14100525 -0.1719867 0.19703436 -0.026331574 0.027984794 0.029759467 0.16829614
-0.20437586 -0.14169729 -0.17539681 0.099297434 -0.12878098 -0.04915597 0.029096209 0.23303498
0.15715227 -0.039621484 -0.08047093 0.089681126 0.05332716 -0.130794 -0.18307053 -0.12090686
0.092136055 0.008750268 -0.018309658 -0.029645866 0.005623881 0.19255383 -0.09771576 0.021502487
-0.100672685 -0.29818854 -0.15794173 0.26309016 -0.21943966 -0.17222083 -0.023418864 0.07392243
0.11660549 -0.066385284 -0.06531771 -0.090376 -0.1843594 -0.055122145 0.048671905 0.015403724
-0.04364348 -0.052868202 0.13581279 -0.08816652 -0.033119548 -0.28309122 -0.18966326 -0.3341444
0.18602687 0.06534926 -0.09581835 -0.28055668 0.008308166 -0.03341529 -0.1419083 0.007209833
-0.008567989 0.12643895 0.16503267 -0.12315371 -0.15085934 0.15185723 0.10698114 -0.3274575
-0.060900852 0.31321904 -0.0069166822 0.08399107 0.12993127 0.18222974 -0.19278046 -0.071390145
0.25072196 0.009738163 -0.227963 -0.065556675 0.31937888 0.08203447 -0.14327197 -0.20109789
-0.02733302 -0.17433295 0.14162014 -0.1472408 0.13324365 0.15811464 0.13374951 0.13166781
0.1945041 0.06627223 0.030336648 0.04931831 0.007415083 0.025715921 0.19913259 0.25050345
0.08189378 -0.11922439 3.3105985e-05 0.20472078 -0.1044263 0.18972708 0.13692126 0.15516794
-0.027614424 -0.061350644 -0.0667589 0.18373632 0.0788971 -0.04628441 -0.27375063 -0.115799055
-0.21687104 0.04898455 -0.03374659 0.12449285 0.0038547765 -0.17942643 0.1960228 0.07685706
-0.19267906 0.039041467 -0.03872164 -0.044514198 0.09111646 0.01238751 0.14827189 -0.21205187
-0.15336953 0.001221054 0.21648672 0.17302297 0.05201728 0.04126559 0.030286185 0.17208797
0.03211375 -0.06412762 -0.09549733 0.086451486 -0.26385844 -0.21548904 0.019482613 0.06621771
-0.13870782 0.21206549 0.2620968 -0.03314232 0.2722129 -0.015741307 -0.006201783 0.037349567
0.10419957 -0.20087318 0.12155235 0.176618 -0.032406643 -3.592315e-05 0.16015415 0.051023412
0.07491851 -0.02316722 -0.19479552 0.31616998 -0.047430526 0.168473 -0.07306531 0.1576199
0.055681325 -0.084945485 -0.17034894 0.14527975 -0.063076764 -0.10980438 -0.13937879 0.13066763
0.124364056 -0.15943325 -0.13106273 0.112937205 -0.13415334 -0.08036778 -0.030037941 -0.08041725

nn_fun2.2.bias f4 [30]
00000000: fda7 153d f399 77bd 796b 0bbe 9bc2 3f3e
00000010: 680d 103d 3e44 503d eec3 24bb b968 ccbc
00000020: 4020 f2bd 11f8 143e 732d 46be a817 9fbd
00000030: 5865 313e e32b a5bd 8d5b c83d 42ba f03d
00000040: 9ca0 c3bd b074 2f3e ca59 873c f1aa 61be
00000050: 76a2 533b 8bd7 123e 4b67 90bd b896 2bbe
00000060: 2d4b 353e 88e0 1dbe 7dba 18be 2d60 55bd
00000070: 5fc4 9c3d 7d64 ad3d
0.03653716 -0.06044955 -0.13615216 0.1872658 0.035169035 0.05084633 -0.0025141197 -0.02495228
-0.118225574 0.14547755 -0.19353275 -0.07768184 0.17323816 -0.08065011 0.09783087 0.11754276
-0.09552118 0.17134356 0.016522307 -0.22037865 0.003229288 0.14340036 -0.070509516 -0.16756713
0.17704459 -0.15417683 -0.1491489 -0.052093673 0.07654642 0.08466432
