models/neural_network_NeuralPsi_dynamics_MM_graph_size_10/neural_network.pth (torch, 3995 bytes, 8 tensors)

g.0.weight f4 [30, 1]
000000 5e ec 3f bf b9 75 66 be 50 e9 15 3f 56 07 83 3f
       -0.7497004 -0.22505845 0.5855913 1.0236614
000010 ec 21 5d bf 7d 0b 02 bf 3d 56 41 bf 42 e2 15 bf
       -0.86379886 -0.5079878 -0.75522214 -0.5854837
000020 13 e8 1b bf 24 63 72 3f 1c 66 2f bf 71 0a 55 bf
       -0.6090099 0.94682527 -0.6851518 -0.8321906
000030 f3 77 7f 3e 4d 78 b6 3c b1 b7 dc 3e de 36 d3 3e
       0.24948101 0.02227416 0.43108895 0.41252798
000040 3b ae 63 3f 5a 6a b3 3e 1d d3 61 bf ad d8 de 3e
       0.8893773 0.35042077 -0.8821276 0.43524686
000050 b2 03 1a be 50 9f c2 bd d1 8d 12 3f e1 ee 35 be
       -0.15040472 -0.09503043 0.57247645 -0.17766906
000060 98 ab 82 3f 83 4e 10 bf 3c cf 58 3f 71 cd 5d 3f
       1.0208616 -0.563698 0.84691215 0.86641604
000070 40 0d 41 3f c2 af 67 be
       0.7541084 -0.2262564

g.0.bias f4 [30]
000000 1f 0b 64 bf a0 20 06 3f a4 66 26 bf a6 be 41 bf
       -0.8907947 0.5239353 -0.6500037 -0.7568153
000010 9e f2 a4 bd 97 01 4b bf f2 b5 0b 3e cf 7b 22 3f
       -0.08054088 -0.792993 0.13643625 0.63470167
000020 a5 34 92 be ef d1 a3 be 67 13 fa be 0a 57 98 3e
       -0.2855579 -0.31996104 -0.48842928 0.29753906
000030 cb 3f b8 3e d4 7b 1d 3f d3 ee 9c bf 9b e6 d6 3e
       0.3598617 0.6151707 -1.2260383 0.41972813
000040 fe 7f 45 bf ee f1 11 3f c5 f8 96 be 81 4d 80 3f
       -0.77148426 0.5700978 -0.2948667 1.0023652
000050 23 58 03 bf 16 ad 5f bf ff c9 7f 3c d2 07 95 3f
       -0.5130636 -0.87373483 0.015612124 1.1643012
000060 b0 e8 11 bf 44 11 89 3e 1e 13 06 bf 9e 9f ca be
       -0.5699568 0.26770985 -0.5237292 -0.39574903
000070 a9 87 f0 3e 7d 1b 87 be
       0.469785 -0.2638816

g.2.weight f4 [1, 30]
000000 95 bc 3c 3d bf 0d c6 3c 26 ee d3 bd 85 3c fc be
       0.046078283 0.024176477 -0.103481576 -0.49264923
000010 69 57 be 3e 96 04 25 3e dc 3b b7 3e 57 64 e1 3d
       0.37176064 0.1611503 0.35787857 0.110054664
000020 b1 d3 56 3e 31 00 95 be 04 40 16 3e 26 c0 d5 3e
       0.20979191 -0.2910171 0.14672858 0.4174816
000030 df 1f 88 be 01 fe 01 bc a1 ea 2e 3d 74 51 ba be
       -0.26586816 -0.007934094 0.04270423 -0.3639027
000040 ae c7 0e bf d9 55 14 be 27 e0 6c 3e b1 6a 36 be
       -0.5577344 -0.14485873 0.23132382 -0.17814137
000050 f9 af a5 3e b8 45 32 3d 79 88 c2 be 31 1d 9e be
       0.3236082 0.04352352 -0.37994745 -0.30881646
000060 6d c0 e3 be 7d e8 13 3e ae cc 5c be ba 14 0f bf
       -0.44482747 0.14444156 -0.21562454 -0.55891
000070 bf 5a 44 be 0d 35 bc 3d
       -0.19175242 0.09189806

nn_fun1.0.weight f4 [30, 1]
000000 e4 a7 87 3d ca 34 8e bd 97 49 2e 3f 54 9d 53 3f
       0.066238195 -0.069436625 0.6808104 0.8266194
000010 5e 10 7d 3f aa 6b df be 1a ea 0d bf 3b 97 33 3f
       0.988531 -0.4363683 -0.55435336 0.70152634
000020 7d bd 04 3f 0d 7f 26 3e 9d be d0 be e4 e4 5c bf
       0.51851636 0.16259404 -0.40770426 -0.8628676
000030 1f 53 33 3f 0e 1a f7 3c 86 3c 5c 3f 87 a3 91 bc
       0.7004871 0.030163791 0.8602985 -0.017778171
000040 c6 a8 2f 3f 98 18 2c 3e 57 36 6a 3e 04 46 40 3e
       0.686169 0.16806257 0.22872292 0.18776709
000050 20 97 4e 3f ef aa 3b 3f be 22 65 3f f9 6e be 3e
       0.8069935 0.733077 0.8950614 0.3719404
000060 ac ae e3 3e 87 38 f0 3d f3 f4 24 3f 33 f4 eb 3e
       0.44469202 0.11729532 0.6443626 0.46084747
000070 99 e1 ae bb 45 d2 67 3d
       -0.005336952 0.056597013

nn_fun1.0.bias f4 [30]
000000 19 a1 42 bd be 95 e7 be 61 93 de be 68 a5 24 bd
       -0.047516916 -0.45231432 -0.43471816 -0.040196806
000010 24 d3 32 3f bb 28 52 3f 1d 39 14 3f 4b 30 e4 3e
       0.69853425 0.820934 0.5789965 0.44568095
000020 af 93 e1 be f1 16 1c 3e c3 9b 6d 3f f5 81 02 3f
       -0.44057986 0.15243126 0.928158 0.5097955
000030 17 d1 24 bf 28 de 46 bf ff 62 8f 3f f8 61 a9 3c
       -0.64381546 -0.77682734 1.1202086 0.020676598
000040 42 eb 67 bf 22 4d 70 3e 3e 98 e6 3e c8 a2 1d be
       -0.9059335 0.23466924 0.45038027 -0.15394127
000050 2a 6f 02 3f 73 68 36 bf e9 c5 c0 3d 3e 73 81 bd
       0.5095087 -0.71253127 0.09412748 -0.06320809
000060 4f d9 d0 bd 76 04 76 bd a6 38 6c 3f 2c da 75 be
       -0.10197698 -0.060062848 0.9227394 -0.24009007
000070 6e 15 5c bf 18 96 32 bf
       -0.859702 -0.69760275

nn_fun2.0.weight f4 [30, 1]
000000 c7 59 8a be 0e 0b 58 3f 44 56 e7 3d ee 32 f8 be
       -0.2702162 0.8439187 0.11295751 -0.48476356
000010 31 c1 16 3e 8e fa ec 3e dc 13 25 be 17 94 34 3d
       0.14722134 0.46284908 -0.16120857 0.044086542
000020 a7 ad 0d bf c7 38 5a 3e f7 e7 7a bf 2e c5 26 bf
       -0.553431 0.21310721 -0.980102 -0.6514462
000030 2c e8 e8 3d 28 50 79 3e c9 65 53 bf 3f ee 74 bd
       0.11372408 0.24346983 -0.82577187 -0.05979752
000040 5f 64 23 3f 98 76 75 3f 90 7b a6 3d a4 6d bd 3e
       0.6382503 0.95884085 0.081290364 0.36997712
000050 61 8c 9d 3c b2 fc 0e bf a1 b4 7a 3d 32 13 39 bf
       0.019231977 -0.5585433 0.061207417 -0.72294915
000060 ac 59 9e bd e9 5e 25 bf 97 85 e9 be c1 e4 cd be
       -0.07731947 -0.64597946 -0.45609733 -0.40213588
000070 6d bf 65 bd a7 26 51 bf
       -0.05609076 -0.81699604

nn_fun2.0.bias f4 [30]
000000 b4 0f 5b be 50 1a 8a bf cc 1b 7d bf e2 6d 67 bf
       -0.21392709 -1.078928 -0.9887054 -0.9040204
000010 eb 91 20 bf 18 fb 2a be 57 fa 1c 3f 2b 5b 20 3d
       -0.62722653 -0.16697347 0.6131949 0.039149445
000020 8f 90 89 bf ce e4 58 3f 45 31 d8 be d4 d7 15 bf
       -1.0747241 0.8472413 -0.4222509 -0.5853245
000030 70 1f 55 3e 5e 34 ca be a0 61 4b 3e 51 3f 53 be
       0.20812774 -0.39493078 0.1986146 -0.20629622
000040 fb 5c e7 bd 47 fc 84 bf 23 66 72 3e 6a 20 49 bd
       -0.112970315 -1.0389489 0.23671775 -0.049103178
000050 b6 c4 12 3f f9 99 d9 3c fb 81 08 3f f4 44 d1 3d
       0.5733141 0.026562678 0.53323334 0.1021823
000060 bc 81 d6 3e ed 29 87 be 23 fc 57 3e 19 a3 41 bd
       0.41895854 -0.26399174 0.21092276 -0.047274683
000070 09 df 22 bf e7 60 88 3f
       -0.63621575 1.0654572

agg.0.weight f4 [1, 30]
000000 d2 15 e7 38 72 1d 27 3e c7 be bd be d9 f1 ff 3d
       0.00011019003 0.16319826 -0.37059614 0.12497301
000010 94 1e 15 3e 42 11 5c 3d e9 4f 1a bd 13 28 e0 3d
       0.14562446 0.053727396 -0.037673865 0.109451436
000020 5d 77 32 be 39 b6 52 3e 55 7e a1 bd ef f4 94 3e
       -0.17428346 0.20577325 -0.07885424 0.2909312
000030 df 4c ac 3c aa 75 e4 3d 68 f7 a5 bd b0 a3 4f 3d
       0.021032749 0.11155255 -0.081038296 0.050693214
000040 c5 47 24 be e3 ea 94 bd 5e 46 34 3e e5 55 a1 bd
       -0.16043003 -0.072713636 0.17604968 -0.07877711
000050 6d c2 e0 bd 14 0d 8b bc b0 66 0e bd 95 ac b8 bd
       -0.10974584 -0.01697401 -0.0347659 -0.090172924
000060 8a b0 91 bc 76 3a a3 3d bb bb 72 bc 2f 9a 24 be
       -0.017784376 0.07970135 -0.014815266 -0.16074441
000070 87 88 fe 3b 3e 00 5f be
       0.00776774 -0.21777436
