models/neural_network_SAGEConv_dynamics_MAK_graph_size_10/neural_network.pth (torch, 18591 bytes, 10 tensors)

conv1.lin_l.weight f4 [30, 1]
000000 68 17 6f 3f 22 6d 96 3f cf a2 9e be d4 d9 87 bd
       0.9339509 1.1752055 -0.30983588 -0.06633344
000010 51 38 69 3f 6e 22 92 3e ad fb 52 3f d6 bc 28 bf
       0.91101557 0.28541893 0.82415277 -0.6591314
000020 2e 93 63 3d fb 32 76 3f 6a ee 4a bf 20 9a e1 be
       0.055560283 0.9617154 -0.7927004 -0.440629
000030 c5 43 a4 3f 75 dc 79 bf 5f 42 55 3f d5 1d 33 3f
       1.2833182 -0.97602016 0.833044 0.69967395
000040 05 3f 39 3f dd 2b 7b 3e b5 bf 95 3f f6 17 94 bd
       0.72361785 0.24528451 1.1699129 -0.07231133
000050 b5 af 32 3f 6f 27 d2 bf 88 0e 45 bf 69 15 ef 3c
       0.6979936 -1.6418284 -0.769753 0.029185014
000060 59 c2 e5 3e d3 f7 4e 3e 87 ef e4 3e 12 f7 25 bf
       0.44874838 0.20211725 0.44713995 -0.64830124
000070 45 79 70 3f c1 df 00 bf
       0.9393504 -0.5034142

conv1.lin_l.bias f4 [30]
000000 fd 75 45 3f c8 ce 0a bf de b8 da be 3d b2 8e 3e
       0.7713316 -0.54221773 -0.42719167 0.2787036
000010 20 24 1b bf f2 a6 61 3f b1 14 07 bf 26 a3 32 bf
       -0.60602 0.88145363 -0.5276595 -0.69780195
000020 6d 50 4e bf c3 48 81 3f ef c6 fb 3d e6 32 4c 3c
       -0.8059147 1.010033 0.12293803 0.012463307
000030 db bf 0a bf 5e cc 2c 3f 3d 2c 1b bd 68 29 50 bf
       -0.54199 0.6749934 -0.037883986 -0.8131318
000040 b2 8c 52 3f 9d a9 6a bf cb 4e 98 be 9a aa 81 3f
       0.82245934 -0.9166506 -0.29747614 1.0130188
000050 1c 42 32 bf f7 dd 60 3f fc fa 2f 3f 76 cc 28 bf
       -0.69632125 0.8783869 0.68742347 -0.6593698
000060 d6 b4 4f bf ad d7 32 bf aa 7a 2a 3f f8 24 c8 3e
       -0.8113531 -0.69860345 0.6659342 0.39090705
000070 80 32 ea be 0a 3d 3c 3e
       -0.45741653 0.1838266

conv1.lin_r.weight f4 [30, 1]
000000 d9 ca 7f 3d 6e 66 1e bf 49 b4 5b 3f fa ad 20 3f
       0.06244931 -0.61875045 0.8582197 0.6276547
000010 fa 7a a9 bd fb df ed be b1 c1 0f bf 50 2f da be
       -0.08275409 -0.46459946 -0.56154925 -0.42614222
000020 60 9e 73 be ae 31 18 bd 58 bc 44 3f 16 56 07 bf
       -0.23790884 -0.037156753 0.7684989 -0.5286573
000030 02 5e 17 bf be 10 08 3c 42 99 07 be 2d 0b 5a 3f
       -0.5912782 0.008304773 -0.13242057 0.851733
000040 db a3 1f 3f fa 0a fc be a6 ae 88 bf 37 20 94 bd
       0.623594 -0.49227124 -1.0678298 -0.07232707
000050 be ff 1d 3f 8d a4 cc 3e e3 59 5a be c8 d5 6e 3f
       0.61718357 0.39969292 -0.21323352 0.93294954
000060 c5 5f 6f 3f fd 35 4e 3f e2 77 92 3e 69 8b 75 bf
       0.9350551 0.8055113 0.28607088 -0.9591585
000070 1f 1b 3b be cd 2e bc be
       -0.18272065 -0.36754456

conv2.lin_l.weight f4 [30, 30]
000000 98 ab 2f 3d bd 87 bf 3d 2e af 90 3e 14 f6 88 3d
       0.042888254 0.09352062 0.28258651 0.06687561
000010 50 0d 47 be 5e eb 1a 3e 2d 2f 03 3e a7 47 b8 bd
       -0.19438672 0.15128848 0.12810965 -0.089980416
000020 23 12 b1 bd 0f 56 6c 3c 74 96 3d 3d 97 a5 fb 3d
       -0.086460374 0.014424815 0.04628606 0.12287443
000030 f6 13 04 3d ce 1f 11 be 89 05 41 bd 1d c3 47 3d
       0.0322456 -0.14172289 -0.04712442 0.04877006
000040 cd 55 45 bd 25 f8 51 be c2 32 80 ba 99 e4 45 3e
       -0.04817753 -0.20504816 -0.0009780752 0.19325484
000050 9b 42 c3 3d 26 d4 0f 3c ae fd 42 3e fd dd bb 3b
       0.09534188 0.0087786075 0.19042084 0.00573325
000060 df a6 3d bd 29 ef 9d 3d 10 99 a5 bd 3a 85 58 bd
       -0.04630172 0.07711632 -0.08085835 -0.05286143
000070 12 17 eb bd 41 6f 5f be 16 c5 7f bd 93 05 28 3e
       -0.1147901 -0.21819784 -0.062443815 0.16408376
000080 46 0e 25 bd 19 91 69 be 2e 9c 56 3e 77 93 d4 3d
       -0.040296815 -0.22809257 0.20958015 0.10379689
000090 10 fe 4f 3d 89 ef 21 3e 04 fc c3 3d 2c aa fb bd
       0.050779402 0.15814032 0.095695525 -0.12288317
0000a0 85 fa a0 3b fb 60 a5 3c 3e e4 ac bc 80 4b c2 3d
       0.0049126768 0.020187845 -0.021104928 0.09487057
0000b0 c5 e6 21 be c1 9a ea 3b 39 25 3e 3d 84 44 28 bb
       -0.15810688 0.0071595614 0.046422217 -0.0025675604
0000c0 04 5c 08 3d ae 29 2d be 42 8c 7a 3d ec 13 eb bd
       0.033290878 -0.16910431 0.061168917 -0.11478409
0000d0 78 42 5d be 57 54 6b 3d 59 92 28 be 2f 21 34 bd
       -0.21607387 0.05745348 -0.16462077 -0.04397696
0000e0 1a 1f fe bd e2 11 36 3e 81 ef 9e 3d 93 95 34 bd
       -0.12408276 0.17780259 0.077605255 -0.044087958
0000f0 51 87 30 3e e5 85 41 bd 42 5b 29 bc 42 1d 2a 3e
       0.17239119 -0.047246832 -0.010336699 0.16612723
000100 d4 f7 0d be e1 71 9e 3d c5 91 d0 bd 28 40 45 3d
       -0.1386407 0.077365644 -0.10184053 0.048156887
000110 96 df c1 3d 18 50 07 3e cb bb 3c 3d ad 1c 75 bb
       0.09466474 0.13214147 0.04607753 -0.0037401125
000120 1e bd fe 3d 3e b9 d9 bd 4e 2b 2d 3d 15 43 9e 3d
       0.12438415 -0.10631035 0.042277627 0.07727639
000130 49 85 21 3d 49 33 45 bd 8a e3 32 be af 4e 2a 3e
       0.03943375 -0.048144612 -0.17469612 0.16631578
000140 51 97 92 3d 1e be 54 bd 54 7b 8a bd 4b ab b7 bd
       0.071577676 -0.051939122 -0.06761804 -0.089682184
000150 75 47 a6 3d 92 7a 24 3e c0 28 04 be f1 90 a7 bd
       0.08119098 0.16062382 -0.1290617 -0.08181942
000160 4b 4a f0 bd f1 17 0c be 46 5e a4 3a 34 32 a8 3c
       -0.1173292 -0.13681008 0.0012540303 0.020531751
000170 bf f1 3e be 0c 64 2b 3e bc 98 f1 3d a1 f4 47 be
       -0.18646906 0.16737384 0.1179671 -0.19526912
000180 62 4b 45 3e ad 97 0e 3e 73 24 72 bd ea 8c 9c bd
       0.19267038 0.13925047 -0.059116792 -0.07644065
000190 84 e1 7f be bc 43 b3 3d 6e d5 83 3d 14 33 9f be
       -0.24988371 0.08753154 0.06437193 -0.31093657
0001a0 78 f7 0c 3d f0 8a c1 bd 7e 0c a1 bd 29 1e 9d 3c
       0.034415692 -0.09450328 -0.07863711 0.01917942
0001b0 6b 2b 86 3e ce d9 b8 3d b2 98 63 3e 9b 98 7b be
       0.26205 0.09025918 0.22226217 -0.24569933
0001c0 9c 02 58 be 06 f3 4f 3e 8c c0 25 3e 9d 95 98 3e
       -0.21094745 0.2030755 0.16186732 0.29801646
0001d0 aa d5 f6 bd 8e 78 2a be da e9 d8 3c 24 14 53 3d
       -0.12052472 -0.1664755 0.026478697 0.05153288
0001e0 66 8e 16 be f8 f2 05 be b1 21 ad 3f d0 07 40 bd
       -0.14702758 -0.13080966 1.3525907 -0.04688245
0001f0 d9 f8 8b 3c e5 0d 5b be 88 86 c6 bd 3f af 60 bd
       0.017086433 -0.21392019 -0.096936285 -0.054854628
000200 5b 40 f3 3d bd e0 82 3d a2 bf bf 3e 0f 90 e9 3d
       0.11877509 0.06390522 0.37450892 0.1140443
000210 9e b6 e2 bd 91 73 3d 3e 3b 23 94 bd 0a 97 c3 3d
       -0.11069988 0.18501116 -0.07233282 0.09550293
000220 4c 4a 1f 3d 63 43 d6 bd b6 18 dc be 29 ac 21 be
       0.038889214 -0.10462072 -0.42987603 -0.1578833
000230 27 37 12 bc 40 17 48 3e 17 ad 80 3d 9e 8d f8 3e
       -0.008924282 0.19540119 0.06283014 0.48545545
000240 00 18 2c 3e 64 8d df 3e ee 63 fc bd af e6 47 3e
       0.1680603 0.4366256 -0.123237476 0.19521593
000250 14 ab 46 be dc 9f 14 be 3b 99 e9 3d 25 cd 0a 3e
       -0.19401199 -0.14514107 0.114061795 0.13554819
000260 49 13 9d bd b5 10 f4 3d 0b 97 96 3d c5 ba d2 3d
       -0.07669694 0.11917249 0.07353028 0.1028953
000270 52 d8 2c bd b6 12 cf ba 9a 4a 24 be 42 37 f0 3d
       -0.042198487 -0.0015798423 -0.16044083 0.117292896
000280 df 91 4f bd d3 b0 e1 bc c8 24 16 3e 79 87 9a be
       -0.050676223 -0.027550137 0.14662468 -0.30181482
000290 af 06 23 3e 53 e4 1e 3e c4 ce 47 3c 24 a9 ad 3c
       0.15920518 0.15516786 0.012195293 0.021198817
0002a0 9b 51 2c 3e 4c 38 9c 3d 4f 0d e4 3c 5d 94 99 be
       0.16828005 0.07627925 0.027838377 -0.29996005
0002b0 cc 48 80 bd 58 79 fe bc a3 db 73 bd 5d ba 30 3e
       -0.06263885 -0.03106372 -0.059535634 0.17258592
0002c0 b8 01 15 3b 18 e6 d3 bc c6 e7 e5 3d a2 dc b5 bc
       0.002273662 -0.025866553 0.11225848 -0.022199932
0002d0 75 7b 3e be 3f e0 e0 3c ec 8e 82 3e a0 19 19 bd
       -0.18601783 0.027450679 0.25499666 -0.037377954
0002e0 56 ac 06 bb 0e 44 14 3e 70 f7 36 bd f6 d7 04 3e
       -0.0020549498 0.14479086 -0.04466957 0.12973008
0002f0 a2 c2 06 3e 75 d5 c2 3d 84 31 c6 3d 0c 7b 33 bc
       0.13160184 0.0951337 0.09677413 -0.01095463
000300 93 55 2e bd 80 c9 c6 bd 0f 24 9f bd 1c 88 b4 bd
       -0.04256208 -0.09706402 -0.077705495 -0.08815023
000310 40 73 ab bc 00 13 04 be 39 b9 57 be 9f 6c 0b 3e
       -0.020928979 -0.12897873 -0.2106675 0.13615654
000320 47 f5 bd 3d 3e dc 05 bd a6 6a e1 3d 1f ba 0a bb
       0.092752986 -0.032680742 0.1100667 -0.0021168066
000330 33 fc b3 bd bd fd 02 3e a2 51 2e 3d 5a 7e 94 3d
       -0.087883376 0.12792106 0.04255832 0.07250662
000340 98 a1 12 bd 6d f7 87 3d d0 be 0e be 2e 8f 4e 3c
       -0.03579864 0.066389896 -0.13939977 0.012607379
000350 3e 04 5e be b7 f0 35 bd ee 1d 0a be 2b 93 06 3e
       -0.21681306 -0.044419017 -0.1348798 0.13142078
000360 a5 2c 22 be ce 4d f0 3d b1 3c 35 3c 55 7e 61 bd
       -0.15837343 0.1173359 0.011061833 -0.05505212
000370 7a 0f 87 3d c5 33 dc 3d 54 be 20 bb 03 00 b5 3e
       0.06594749 0.10752062 -0.0024527507 0.3535157
000380 91 db 77 bd 3a d4 0e bd a1 c5 77 3c c1 05 0d be
       -0.06051213 -0.034870364 0.015122802 -0.13771726
000390 f5 33 c4 3d e6 6c 14 3e d9 6f 99 be 82 77 26 3e
       0.095802225 0.14494666 -0.29968145 0.16256526
0003a0 41 5d 03 3f 61 ce d9 be d2 8f e3 be f7 ff 0a bf
       0.5131417 -0.42540267 -0.44445664 -0.5429682
0003b0 3e 4b d2 bd d6 23 ea 3c f1 a2 31 bf d1 f5 48 3c
       -0.102682576 0.028581541 -0.69389254 0.012265638
0003c0 85 d2 13 3e df 28 50 3e 0f 03 e3 bd cd 20 51 3c
       0.14435776 0.20328091 -0.11084568 0.012764168
0003d0 3d 0a 5b 3d 1d e8 0f 3e c0 60 b9 bd 8a 9d 80 3d
       0.05347656 0.14053388 -0.09051657 0.06280048
0003e0 5c 83 64 bc 8f e5 18 be 80 9e 54 bc cf 2e 1e 3e
       -0.013947334 -0.1493132 -0.0129772425 0.15447544
0003f0 c9 9a 9c 3d 6f 37 d9 bd 83 8c 33 bc 09 71 d2 bd
       0.076467104 -0.10606276 -0.010958794 -0.10275466

conv2.lin_l.bias f4 [30]
000000 81 98 1c bd 2d 30 8e bd 2f 65 b4 bd 5d 13 72 bd
       -0.038231377 -0.069427826 -0.08808362 -0.059100498
000010 65 ad d5 bb 97 c9 99 3d 8c 82 03 be aa 1c 04 3e
       -0.0065209144 0.07509153 -0.12842768 0.1290156
000020 51 1b a0 bd 13 29 6e 3d d8 81 3c be 2d f6 ba 3d
       -0.0781771 0.05814464 -0.18408906 0.091289856
000030 4c df 99 3c c8 0a a4 3d b3 02 d4 bd 7a b4 82 be
       0.018783234 0.08009869 -0.10352077 -0.25528318
000040 9c 77 19 bd 25 f8 48 bd ca 76 d2 3d 90 8f bd bd
       -0.037467584 -0.049064774 0.102765635 -0.09255898
000050 f0 74 22 bd 16 bc 1b 3e db 1c 53 bd 87 c7 a6 bd
       -0.0396623 0.15208468 -0.05154119 -0.081435256
000060 83 19 e1 bd 9f 90 6f 3d d5 a3 19 3e 0d 39 53 3b
       -0.10991194 0.05848753 0.15003903 0.003223005
000070 f2 e2 cc bc a6 ee 21 be
       -0.02501056 -0.15813693

conv2.lin_r.weight f4 [30, 30]
000000 74 90 ff 3c 78 02 dc 3d 67 1d e0 be f3 0b 46 3e
       0.03119681 0.107426584 -0.43772432 0.19340496
000010 f5 78 e9 3c 54 fe 4d 3e 09 06 09 3e dd 5d a5 3d
       0.02850006 0.2011655 0.13381208 0.080745436
000020 ed df af 3c df 3d 04 3d 54 b4 32 bd 71 2c ec 3d
       0.02146908 0.032285567 -0.043629006 0.11531914
000030 7e 9b 01 be 40 e9 31 be 92 77 9a bd a7 6a cf bd
       -0.12656972 -0.17374134 -0.075423375 -0.10127764
000040 1e bc 3e 3e 70 a2 1d be 38 67 04 3e 64 53 07 be
       0.18626449 -0.15393996 0.1293 -0.13215405
000050 e2 0e fa 3d b9 fa 92 3c 55 5f 2f 3e d1 56 fb 3d
       0.1220987 0.01794182 0.1712621 0.12272418
000060 cb 88 e1 bd 33 b6 57 be 5b dd a2 bd d6 fb 34 be
       -0.11012419 -0.21065597 -0.079523765 -0.17674193
000070 61 05 59 3e fd 36 34 bc 1f f8 28 be d4 51 34 3e
       0.21193458 -0.010999438 -0.165009 0.1760934
000080 b4 e1 0a bd 52 96 9c 3d 0c eb 53 3d 75 70 1f be
       -0.033906654 0.07645859 0.05173783 -0.15570243
000090 cb 8a 8a 3d c7 39 ef bd e9 4a 6a 3d 58 d3 ea 3c
       0.06764754 -0.11680942 0.057200346 0.02866523
0000a0 8a 54 f3 3d bb 24 4e 3e 67 2a cf 3d 3b 82 ed 3d
       0.11881359 0.20131199 0.101155095 0.11597105
0000b0 54 62 49 be d4 b2 bd bc 25 0b 3a be ee 60 b8 3d
       -0.19666415 -0.023156561 -0.18168314 0.09002863
0000c0 0a d7 ad bd 2f 82 6c be c0 e8 9d bd 1a 18 b1 bd
       -0.08488281 -0.23096536 -0.07710409 -0.08647175
0000d0 55 f9 0d 3e 7f 58 b0 bd 40 53 fd 3d f4 82 7c 3d
       0.13864644 -0.08610629 0.12369394 0.061648324
0000e0 88 7b 30 be a2 f1 6a bd 77 9b 9e bd 15 e1 f4 3c
       -0.17234623 -0.057359345 -0.07744496 0.029892484
0000f0 12 47 99 bd 55 ac ae bc 21 5f 85 bd 3b 9b 1a 3e
       -0.07484259 -0.021322409 -0.06512285 0.15098278
000100 b7 88 4f bd 00 0e 37 3e 7d cb 1c be de 8d 1d be
       -0.05066749 0.17876434 -0.15312 -0.1538615
000110 73 e5 ca bc d3 2e 62 3d a9 0b 3a 3d ea b7 0b 3c
       -0.024767613 0.055220436 0.045421276 0.008527735
000120 e3 e2 ab 3d f1 94 03 3d a3 e6 44 3e b3 14 a5 3d
       0.083928846 0.032124463 0.19228606 0.08060589
000130 4c 76 23 3e 09 a2 57 be fd b9 f5 3d 0d 51 f4 3d
       0.15963095 -0.21057905 0.11998365 0.11929522
000140 4c 79 87 bd dd ed f5 3b be cf 5f 3d 4d 4d fc bd
       -0.066149324 0.007505162 0.054641478 -0.123194315
000150 e1 ec d7 bd f7 94 da 3d 80 49 93 bd 58 2e 9f bd
       -0.10543228 0.10672944 -0.071917534 -0.07772511
000160 1e bd 5c 3d 05 7c 33 be 00 5f 23 3e 52 12 51 3d
       0.053891294 -0.17527778 0.15954208 0.051042862
000170 58 61 4d be f9 fb d5 bd e9 ac b0 3d 76 96 df 3d
       -0.20056665 -0.104484506 0.0862673 0.1091737
000180 a6 70 10 3d a2 e3 af 3d 35 6f b6 bd f8 28 48 be
       0.03526368 0.085883394 -0.0890793 -0.19546878
000190 71 37 7c be 0e 71 93 3d 6a c1 83 3d 8c dd 03 be
       -0.24630524 0.07199298 0.06433375 -0.12877482
0001a0 ac 71 52 bd 51 f6 4b be df bf c2 bd 3a 0c e8 3d
       -0.051377937 -0.19918181 -0.09509253 0.11330457
0001b0 44 d8 5e 3e 3b 79 0c 3d fb 6e 58 be 70 72 b6 bd
       0.21762186 0.034295302 -0.21136086 -0.08908546
0001c0 0c e8 60 be fe 79 26 be 24 5c a6 3d 3b fd 29 be
       -0.21963519 -0.16257474 0.08123043 -0.16600506
0001d0 f0 b0 11 3c b4 6e fb bd 19 d0 2d 3e 66 82 e1 3d
       0.008892283 -0.12276974 0.16973914 0.110112
0001e0 53 51 36 bd 5b e2 27 3e a5 23 f5 3e 67 64 4a 3e
       -0.04451115 0.16394942 0.47878757 0.19764863
0001f0 e3 66 10 bd 7d 22 92 bd c6 11 a1 bd 25 9f 86 bc
       -0.03525437 -0.07135484 -0.07864718 -0.016433308
000200 87 95 bb 3d 74 ca 1f 3e 9b 71 15 3e fb 28 f0 bd
       0.091593795 0.15604573 0.14594118 -0.117265664
000210 1d f7 ea 3d 92 a2 cf bd 87 ac 30 3c 3d d7 b8 3e
       0.11472914 -0.1013843 0.010783321 0.36101714
000220 b4 3f 66 3e 50 80 eb 3d 83 77 1d be 52 bd 07 3e
       0.22485238 0.11499083 -0.15377621 0.13255814
000230 cc 25 e0 3e e5 d8 9d be d6 88 de be ac cd ec 3e
       0.43778837 -0.3082954 -0.43463773 0.46250665
000240 3d 44 ef 3e 41 5a fc 3e 0d 46 6a 3e e2 e7 bb bd
       0.4673175 0.49287608 0.22878285 -0.091750875
000250 d2 87 06 3e 25 94 71 bd 07 0b 24 3e fb b1 3a be
       0.13137749 -0.058979172 0.16019832 -0.18231957
000260 ce 79 dc 3e f1 3e 5c 3e 83 30 95 bd cc 50 69 3d
       0.4306168 0.21508385 -0.072846435 0.05696182
000270 82 7d d7 3d ca 0e c9 bd 95 94 26 bc 2f 0e 96 3d
       0.105219856 -0.09817274 -0.010167261 0.07326924
000280 9b 7d b9 3e cd c5 d8 bc 42 f1 95 bd 12 e2 96 3c
       0.36228642 -0.026461506 -0.07321407 0.018418346
000290 51 89 73 bd 0c 8f 98 3e b9 30 85 3d 80 e2 ee bc
       -0.059457127 0.29796636 0.06503434 -0.029160738
0002a0 84 26 d7 be 4e 96 7f 3c 2c e7 50 3e 82 2b 9a 3d
       -0.42021573 0.0155998 0.20400685 0.0752783
0002b0 e8 ec 74 be fb 3c 88 3e 84 66 84 3e ae 98 15 3f
       -0.23918498 0.26609024 0.25859463 0.58436096
0002c0 ea 5b ee 3d ce 35 2a be a2 ca 43 3d 6c 7d a4 bc
       0.11638625 -0.16622087 0.047800668 -0.020079337
0002d0 8b 2f 5c 3d 92 2c 81 bb 8a cd 08 be 5f 9e 43 bd
       0.053756278 -0.003942081 -0.13359657 -0.047758456
0002e0 50 50 e4 3d e6 54 b1 3d fd 7d a0 3d 5b 7d 07 bd
       0.11148131 0.08658771 0.0783653 -0.033078533
0002f0 26 78 01 bc 8b cb b7 3d d9 0c b7 3d 1f 3c 37 3d
       -0.007902181 0.089743696 0.08937997 0.04473507
000300 26 4d 80 3d 9b 14 96 bd 9e 75 10 be 09 ce e4 bd
       0.06264715 -0.07328149 -0.14107367 -0.111721106
000310 df ed 28 be 04 7d d1 bd 43 8d d9 bd 25 ec c5 3d
       -0.1649699 -0.10228923 -0.10622647 0.096641816
000320 bb ae b8 3d d5 3e d1 bd 05 28 f8 3c b7 cc 29 bd
       0.09017702 -0.102170624 0.03029252 -0.041454997
000330 67 7b 3a be d0 aa b4 3d a4 39 dd bd cc d6 b1 3d
       -0.18211137 0.088216424 -0.1080201 0.086835474
000340 f7 a3 33 3e 9d e6 11 bd 10 84 a0 bc b4 bb 39 be
       0.17543016 -0.03562032 -0.019594222 -0.1813801
000350 43 da 9d 3e af 15 9e bb ff 7a 9f be 0a ef 1b 3d
       0.30830583 -0.004824362 -0.31148526 0.038069762
000360 36 9a 4d be b8 8c 64 bd a6 02 e2 3d 30 05 2b bd
       -0.20078358 -0.055798262 0.110356614 -0.041752994
000370 15 d4 21 3e 7c e5 38 be 8c 26 61 be 40 39 1d 3e
       0.15803559 -0.18056291 -0.2198736 0.1535387
000380 cc d3 09 be 08 14 24 3e 17 29 2b 3d d2 77 fa 3d
       -0.134597 0.16023266 0.041787233 0.12229885
000390 42 df ca be 31 46 ce 3d f9 f8 10 3e ff c4 80 3e
       -0.39623457 0.10071982 0.14157476 0.25150296
0003a0 8f 91 94 3e 7d 3d 47 bb 86 4e e6 3d ac fa 76 3e
       0.29017302 -0.003040164 0.11245446 0.24119061
0003b0 42 9e ec 3d 15 d7 22 be ce a0 b9 be 19 34 e5 bd
       0.11553623 -0.1590236 -0.36255497 -0.111915775
0003c0 03 c7 ed 3d fa 02 69 3d 0d 61 0b be a4 e1 b9 bd
       0.11610224 0.056887604 -0.1361124 -0.09076241
0003d0 f4 d2 c1 bd 63 7b ac bd 24 c0 f6 3d 02 09 d8 3d
       -0.09464064 -0.08421972 0.12048367 0.10548593
0003e0 a5 a7 c7 3d 1d d5 27 3d bc 06 d4 bc 48 74 13 3e
       0.097487725 0.040974725 -0.025882117 0.14399827
0003f0 c3 f3 89 3c 40 01 e3 bc 2e d7 9b 3d a9 9c 8d bd
       0.016839867 -0.027710557 0.07609402 -0.06914646

conv3.lin_l.weight f4 [30, 30]
000000 8d ce 66 be 76 4f 75 bd 04 ca 09 3e 59 50 13 be
       -0.2253973 -0.059890233 0.13455969 -0.14386119
000010 9d 8c ab be c6 88 2f bd f5 31 b3 bc 6c d6 8f 3e
       -0.33505717 -0.042855047 -0.021874407 0.28093278
000020 9e 64 6d 3e 1e dc 3b 3d 0c 58 96 bd ba 2d 26 3f
       0.23182914 0.045864217 -0.07341012 0.64913523
000030 17 1e 33 be ad aa 47 bf 3c 9e c7 3b e6 79 d6 bc
       -0.17491947 -0.77994806 0.006091861 -0.026181173
000040 ce 32 4b 3e 55 f2 8c 3e c8 fb 96 bd 56 cc 68 be
       0.19843599 0.27528635 -0.07372242 -0.22734198
000050 17 48 3b bf 01 f3 12 3e b7 6c 5b bd 14 14 4b bd
       -0.73156875 0.14350511 -0.053570475 -0.049579695
000060 29 00 d4 bc d4 f2 6c 3d 95 cd 77 be c6 62 c0 bd
       -0.025878983 0.057848766 -0.24199517 -0.093938395
000070 f9 d7 a6 bc 1e 47 71 3d f7 6a b7 3c e7 47 3c be
       -0.020366656 0.058905713 0.022389872 -0.18386804
000080 d1 0f 05 be cf c6 f5 3d bf 4e 9a 3c f1 ff 0a 3e
       -0.12994315 0.1200081 0.018836377 0.13574196
000090 e8 35 8a bc 05 9a 39 3e 10 7c b6 3d 9f 5a ec bd
       -0.016871408 0.1812516 0.08910382 -0.11540722
0000a0 3c 75 b7 bd ee bf a2 3e e0 9c cf bd b4 32 09 be
       -0.089579076 0.31787056 -0.101373434 -0.13398248
0000b0 0c f5 cf 3d a7 ff 1d be 5f c0 bc 3c 71 e8 f0 3c
       0.10154161 -0.15429555 0.023040948 0.029407712
0000c0 88 69 18 3e 86 55 e8 bd c1 cc 82 be 9d 5f 24 3e
       0.14884007 -0.11344437 -0.2554684 0.16052099
0000d0 95 8d 67 bd 57 0e 8f 3c 33 ee e7 3d cf 3c 84 3d
       -0.056531508 0.017462892 0.1132473 0.06456911
0000e0 65 ce da bd e8 cc af bd 22 fe d0 bd 65 3d 95 3c
       -0.10683898 -0.08584005 -0.10204722 0.018217752
0000f0 1c ca ed 3d 7b 45 3a be b6 5c 6b 3e 24 77 82 3d
       0.11610815 -0.18190567 0.22984585 0.063703805
000100 b4 5c f8 bd 97 ba df bc 69 fa 7b 3d af de bb be
       -0.12127057 -0.027310653 0.061518107 -0.36693332
000110 2d 47 f1 bb e5 06 8c 3c 0c 3b ed bd 4c 4a 9f 3e
       -0.007363221 0.017093131 -0.11583528 0.31111372
000120 04 60 04 bd e1 bc 5f bd 3f 56 9f 3d af 9c 43 3f
       -0.03231813 -0.05462349 0.07780122 0.76410955
000130 e4 ff 14 be c7 b6 1c bf 98 53 da bc 4f a9 d8 3d
       -0.1455074 -0.61216396 -0.026651189 0.10579168
000140 82 9f 02 3e d1 82 a1 3d 9d 9b 9f 3e e6 61 cc bd
       0.1275616 0.078862794 0.3117341 -0.0997961
000150 00 5b 5f be 9f bd 6d 3d bb 9a 9d bd 34 a9 f2 3d
       -0.21812057 0.058042165 -0.07695528 0.11848679
000160 db eb 50 bd 0e 3e 7c bd 67 fe c4 bd 51 32 f7 3d
       -0.05100618 -0.061582617 -0.09618836 0.12070144
000170 55 cb 9b 3d 46 d1 1f bd e9 cf 86 be 83 25 17 3e
       0.07607142 -0.039017938 -0.26330498 0.14760403
000180 03 ae 04 3e bf 3e 25 be 8a 04 b9 3d 2f 24 f0 3d
       0.12957005 -0.16137217 0.09034069 0.117256515
000190 40 a6 26 3e 20 f6 35 bd 46 05 a1 bd bc 46 9e 3d
       0.16274357 -0.044424176 -0.07862334 0.07728335
0001a0 3f cc c0 bd 9d f7 08 3e 4a df 17 3e 2d 55 3f be
       -0.09413957 0.13375707 0.14831272 -0.18684836
0001b0 3c 38 65 3d 27 6b eb 3d 5c b1 54 bc a9 50 20 3d
       0.055961832 0.11495047 -0.012981739 0.039139424
0001c0 4c 10 29 3e 49 f5 04 bd 16 a7 ec 3d 63 6d c0 3d
       0.16510123 -0.032460485 0.115553066 0.09395864
0001d0 94 a3 73 bd a4 e2 66 bd 14 96 b5 3d 62 96 40 3e
       -0.059482172 -0.056368485 0.08866516 0.18807366
0001e0 95 52 40 3c d5 ae 83 bd ca 9d bb bd fc 08 00 3e
       0.011738439 -0.06429831 -0.09160955 0.12503427
0001f0 ab bf 6e 3e 9f 16 a0 3d 2f a5 60 be 9b c3 d6 3d
       0.23315303 0.07816815 -0.21938013 0.104865275
000200 33 d4 47 3d 3c 19 3b 3d 24 da 28 be 09 bc e3 bd
       0.048786353 0.045678362 -0.16489464 -0.11119849
000210 b6 db 88 3e 55 a3 19 3d c7 15 74 bd 48 f4 60 be
       0.26730126 0.03750928 -0.05959108 -0.21968186
000220 0a 69 17 be 8e 9f 21 3d 8f 8f 41 bd 98 0e c7 bc
       -0.14786163 0.039458804 -0.04725605 -0.024298951
000230 85 28 6d bc 83 cc 92 3d 4a 73 cb bd f8 c9 a0 3d
       -0.014474993 0.07167914 -0.09934099 0.078510225
000240 36 72 19 3e b5 5f 92 3d 83 41 b2 38 26 a5 3d 3b
       0.14984974 0.07147161 8.499904e-05 0.0028937547
000250 6d 57 24 3d c7 5e 91 3c cf f5 92 bd 4a 72 d9 bd
       0.04012244 0.017745389 -0.071757905 -0.10617502
000260 cb d3 05 be e9 d7 f2 3d ee 95 88 3e 07 bf 07 be
       -0.13069074 0.11857588 0.26676887 -0.13256465
000270 b2 c2 03 bd e7 a4 d2 3d c1 cf 09 3e e1 6e 20 be
       -0.032168098 0.10285359 0.13458158 -0.15667297
000280 4f af 0c 3e 6b 6b df be 21 6c 8a bd d4 0a a9 3e
       0.1373875 -0.4363664 -0.06758905 0.33016074
000290 dc 60 ba bd c4 ad ca be 16 de b9 3d 63 6e 2f 3e
       -0.09100506 -0.39585698 0.09075563 0.17131953
0002a0 c1 05 05 3e 14 ff 42 3e a1 5a f4 3e 6f d2 a3 bd
       0.12990476 0.19042617 0.47725394 -0.079991214
0002b0 c7 b5 48 bb b7 44 fc 3d 04 c8 3f 3e cc be f8 3d
       -0.0030625926 0.12317794 0.18728644 0.121457666
0002c0 32 c6 ce 3d 8a e7 0d be 24 7d ab 3c 53 5a 18 3e
       0.100963965 -0.13857856 0.020933695 0.14878206
0002d0 c6 47 42 be bf 0b d4 3d 19 93 0d 3d c7 69 85 bc
       -0.18972692 0.10353803 0.03456411 -0.01628579
0002e0 bb 35 8e 3d 39 5a cf 3c 67 64 d7 bc 0b 6d 30 bf
       0.06943842 0.025311576 -0.026292993 -0.68916386
0002f0 10 06 cb 3d 54 7c 82 3e f0 0d ed bd c4 bf f9 bd
       0.09913266 0.2548548 -0.11574924 -0.121947795
000300 97 bd 2d bd 77 e8 04 3f 96 09 15 3e 9b 23 4e 3f
       -0.042417135 0.51917213 0.14554438 0.8052308
000310 32 d9 a4 3d 3f ce fe be 5d d6 77 be 3a 14 85 3e
       0.08049239 -0.49766728 -0.24202867 0.25991994
000320 d3 fc 4b 3e 5a ed 11 3e 4d a8 97 3e 80 57 41 be
       0.19920664 0.14250699 0.2962059 -0.18881035
000330 d4 42 8d bd 35 1b 8e 3e d4 92 fa 3d 07 55 32 3e
       -0.06897512 0.27755132 0.122350365 0.17415248
000340 fc ca 6b 3d 0e 80 5f 3d 19 49 28 bd de d1 d4 bd
       0.057566628 0.05456548 -0.041085336 -0.103915915
000350 4f f0 30 3e c8 1d e4 3c d3 e4 10 3e 75 f5 10 3d
       0.1727917 0.027846232 0.1414979 0.035390336
000360 70 67 17 3d 96 7f cb 3b 99 96 be bc f0 c9 15 be
       0.03696388 0.006210278 -0.02326517 -0.14627814
000370 ed 8d c6 bd a6 1f d3 be 02 72 e4 3d 80 81 cf 3e
       -0.09695039 -0.41235083 0.11154558 0.40528488
000380 e5 38 21 3e 67 c0 3f be 27 83 08 be 5f 56 8a 3d
       0.1574436 -0.1872574 -0.1333128 0.06754755
000390 ac ab db bc da df 33 bd 98 ac 3e 3e 75 3d 31 bd
       -0.026815258 -0.043914653 0.18620527 -0.0432715
0003a0 6b 26 8c bc 9e 1f c7 3c 73 f1 c7 3d 46 28 63 3d
       -0.017108163 0.024307068 0.0976285 0.05545833
0003b0 dc 77 d7 3d 38 87 e3 3d 19 98 40 be 2d 07 59 3c
       0.10520908 0.11109775 -0.1880802 0.01324634
0003c0 0d d9 10 3e 49 78 26 be 01 db 52 3e a8 7c f1 3d
       0.14145298 -0.16256823 0.20591356 0.117913544
0003d0 a9 7b ac bd 63 95 49 3d aa a5 d8 bd 8d 9a 27 be
       -0.08422024 0.049214732 -0.10578473 -0.1636755
0003e0 17 cc c8 bd 0b bf 5f 3e 03 cb b1 bd 52 eb d4 bd
       -0.09804552 0.21850221 -0.086812995 -0.10396446
0003f0 b3 ca 4f be 94 50 ee bc 3e c5 83 be 04 22 7f 3f
       -0.20292167 -0.029091157 -0.2573642 0.9966128

conv3.lin_l.bias f4 [30]
000000 15 16 d9 3c 2e fc 25 3e b4 d6 7d bc 4c 13 a7 3d
       0.026499787 0.1620948 -0.015493084 0.081579775
000010 ef e4 d6 3d 98 7a 6b 3d 53 23 a2 3c d2 43 42 be
       0.10492884 0.05748996 0.019792235 -0.18971184
000020 dd ec 69 3e 70 cd 3a 3e 12 9c 8e 3c 70 38 4b 3d
       0.22844262 0.1824243 0.017408404 0.04961437
000030 77 2b 9e 3c 56 d0 00 3e b3 ea ab 3c 86 7e 9b bd
       0.019307835 0.12579474 0.020985937 -0.07592492
000040 a1 c1 30 3e 28 84 44 bd e9 6f 47 bd 1f 3c a9 bd
       0.17261364 -0.047977597 -0.04869071 -0.0826342
000050 d3 be 38 3d 11 c5 1e be 65 95 81 be e8 26 3f 3d
       0.04510386 -0.15504862 -0.2530929 0.046667963
000060 52 d2 33 be 02 b3 7d bc 1a ef 59 3c a7 a0 3e bd
       -0.175607 -0.015484573 0.013301635 -0.04653993
000070 c1 64 66 be f8 4f 16 3e
       -0.22499372 0.14678943

conv3.lin_r.weight f4 [30, 30]
000000 0e 48 65 be 34 36 4e 3d 68 47 4d 3d 65 4f 11 be
       -0.22390768 0.05034466 0.050116926 -0.14190443
000010 ae b3 7f 3e 62 13 52 3e b1 79 79 3e f2 64 a1 3e
       0.24970886 0.20515206 0.24362828 0.31522328
000020 9b 82 5c 3d 9b 2b c6 ba 4b 35 22 be 2e cc ca be
       0.053835493 -0.0015119197 -0.15840642 -0.39608902
000030 3a f3 c7 bd 29 a4 43 3d 74 02 7a 3b 32 f2 67 3c
       -0.09763189 0.047763977 0.0038148435 0.014156865
000040 38 3e ef bd 31 14 7d be e0 ba 76 bc 74 3e 64 be
       -0.11681789 -0.24714734 -0.015059203 -0.22289449
000050 b9 28 49 3e dd 6c 35 3e 52 01 9c bd df ca c4 3d
       0.1964444 0.1771731 -0.07617439 0.09609007
000060 26 24 43 be 9f 88 0d be ae 2e 94 3d 78 64 61 be
       -0.19056758 -0.13821648 0.07235466 -0.22010982
000070 d4 56 d2 bd b9 35 83 bd 85 40 1a ba d6 28 ab bd
       -0.102704674 -0.06406731 -0.0005884248 -0.08357398
000080 aa f7 0a bd a7 ce 5c bd ee 5a 09 3e 26 29 e5 3c
       -0.033927597 -0.053908017 0.13413593 0.027973723
000090 ee 16 26 bd 7c f8 32 3e 1c ef cf 3b b9 24 d8 3d
       -0.04054921 0.17477602 0.0063456427 0.10553879
0000a0 10 0e 46 bd cb f3 9d 3c b4 87 61 be 68 30 1f be
       -0.048353255 0.019281289 -0.22024423 -0.1554581
0000b0 be 68 48 be 13 57 91 bd e7 33 83 3c 41 80 cb 3d
       -0.19571206 -0.07096686 0.01601596 0.09936572
0000c0 84 1f 84 3d 49 61 94 be 90 41 22 3e 46 43 4d 3e
       0.06451324 -0.28980473 0.15845323 0.20045194
0000d0 11 35 e8 be af 0b 11 3e 6c fd d7 bb 5a 14 7d be
       -0.45352986 0.14164613 -0.0065914895 -0.24714795
0000e0 29 69 69 3d 88 49 e1 bd a3 c3 1a be ab 3e 2f be
       0.056985054 -0.11000353 -0.15113692 -0.1711375
0000f0 fa 8a 40 bd 54 87 18 bd 53 64 97 3d 20 0c 84 bd
       -0.04700754 -0.037238434 0.07392182 -0.06447625
000100 18 ec c7 3b 25 64 49 3e 58 01 a2 3d 46 0f 09 be
       0.0061011426 0.19667108 0.079104125 -0.13384733
000110 db e8 b1 bb ce 4c 10 3e 8d f6 6d bc 84 c9 3c be
       -0.00542937 0.14091799 -0.014524114 -0.18436247
000120 aa 21 32 bd d3 5d 20 3e a9 f7 9e 3e 36 02 a1 be
       -0.043489136 0.15660791 0.31048325 -0.31447
000130 20 1d 9d 3d 73 10 ca 3d 07 2a 6e bd 13 50 6c 3e
       0.07671571 0.09866419 -0.05814555 0.23077421
000140 25 89 88 bd 1e b1 17 bd be 25 50 be 07 95 d5 bd
       -0.06666783 -0.037034146 -0.20326898 -0.10428815
000150 81 2b d5 bd b7 fd e0 3e 24 be 6e bc 2f 3c 60 be
       -0.10408688 0.4394357 -0.0145717 -0.21897958
000160 88 19 89 bd 24 6f 5a be 1d d0 3d bd 09 d2 66 be
       -0.06694323 -0.2133146 -0.04634105 -0.2254106
000170 92 47 53 3e f4 a1 64 3b 36 f6 d0 3d 0b cd c8 3d
       0.2063277 0.003488657 0.10203211 0.09804734
000180 e5 59 ff bd a2 bb 8e bd 36 10 03 be 1c e2 56 3c
       -0.12468318 -0.06969382 -0.12799153 0.013115432
000190 bc cc 0a be 63 b2 0b 3e 88 a7 95 bd c2 c3 70 3d
       -0.13554662 0.13642268 -0.07307345 0.05878044
0001a0 96 45 35 3e 6d b4 10 be c5 0f 99 bd 52 68 e9 3d
       0.17702326 -0.14131327 -0.07473711 0.11396851
0001b0 da 1a b1 3c df 7b fc bd 12 91 6e bc d5 4c a5 3d
       0.02161925 -0.12328314 -0.014560955 0.08071295
0001c0 d9 f4 5a be f8 12 1d be ad 49 68 be bc d7 d4 3d
       -0.21382464 -0.15339267 -0.22684355 0.103927106
0001d0 d8 9b 03 3e 48 14 f4 3d 6e cb 10 be 8b 19 10 be
       0.12852418 0.11917931 -0.14140102 -0.14072244
0001e0 9c 94 ff 3d 7c 1f 93 3d 43 c4 80 bd 50 95 0d be
       0.12479517 0.071837395 -0.06287434 -0.1382649
0001f0 c2 b1 0a 3e b8 84 c3 3d 2c 6d 6f bc e4 7f 87 bd
       0.13544372 0.095467985 -0.014613431 -0.0661619
000200 f7 c1 65 be 96 25 7c be 5c 8d 98 3d e4 ea f6 3d
       -0.22437273 -0.24623713 0.07448837 0.120565206
000210 7c c9 59 3e 64 d1 ba 3d 92 d0 2f 3e 84 a0 87 3c
       0.21268266 0.09121969 0.17169407 0.016556032
000220 cd 6f bc 3c cf fe 9a bd d3 6a 76 3d 0d 18 e6 3c
       0.02300253 -0.07568132 0.06016047 0.02808764
000230 12 b9 10 bd 3c 3e 2f 3d 40 48 37 3c 20 01 a8 39
       -0.035332747 0.04278396 0.011186659 0.00032044295
000240 75 28 c5 3d 53 bd 0e 3e 30 73 9a 3c bf 3f 04 3e
       0.09626857 0.13939409 0.018853754 0.12914942
000250 23 9e 80 bd ed 1a ca bd 68 b5 2e 3c f5 3f 2c 3e
       -0.06280162 -0.09868417 0.010663368 0.16821273
000260 e7 1b df bd bc 35 17 3e 26 ec 63 3e 7e b9 22 3c
       -0.10893994 0.14766592 0.22258052 0.00993192
000270 fc 6f 25 be 6b 8d e1 3d be 99 a6 3c 6f a5 93 3e
       -0.16156 0.110133015 0.020336982 0.28837153
000280 98 5b ab 3b 5b d4 0b be 36 7a b8 3d 8c 3b eb bd
       0.0052294247 -0.13655226 0.09007685 -0.11485967
000290 eb 0a 74 be 25 c4 6a bd 6c c3 85 ba 07 17 4e be
       -0.2383229 -0.057315964 -0.0010205335 -0.20125972
0002a0 c3 ae 5c bd 6d 36 68 3e 3f c0 2a bd 5c be c2 3d
       -0.053877603 0.22677012 -0.041687246 0.095089644
0002b0 59 ab 1e 3e bb 8e 43 3e aa ff 76 3d d0 7e 6f be
       0.15495051 0.19097416 0.060302414 -0.23388219
0002c0 7e 8b 10 be 41 2d 74 3e d7 81 2b bd e1 4d 21 3e
       -0.14115712 0.23845388 -0.04187187 0.15752365
0002d0 4a 6f 12 3d 9e 09 5f be e9 32 88 bd f5 c7 3f 3d
       0.035750665 -0.21781012 -0.06650335 0.046821553
0002e0 c0 79 e6 bd bf 17 43 3e 45 c6 3a be c3 b4 36 be
       -0.11253691 0.19052027 -0.18239696 -0.17842393
0002f0 c6 bc e8 bc 44 c1 6d bd 6e 60 69 3e a3 89 9d 3d
       -0.028410327 -0.05804564 0.22790691 0.07692268
000300 33 d5 e1 3d 5d 18 cd be 3e 3f 72 3e dc 0f 00 bf
       0.11026993 -0.4005765 0.23656937 -0.500242
000310 0d 51 6d bd 83 92 30 3f 60 f0 1a bd 7e 3c 84 3e
       -0.057938624 0.6897356 -0.037826896 0.25827402
000320 02 7f 10 be 9f d5 4d 3e 20 8c 92 3c db e7 92 bd
       -0.1411095 0.20101021 0.017889082 -0.07173129
000330 91 1d 63 be ff 1f 2c 3e b7 59 03 3e cc b7 b3 bd
       -0.22179247 0.1680908 0.12827192 -0.08775291
000340 3d c6 ad 3d 3c 30 08 be 93 73 f9 3c 6e ce 3e 3e
       0.084850766 -0.1329965 0.030450618 0.18633434
000350 75 3a bc 3c 33 d3 10 3e ef 03 16 be 28 bc c7 bd
       0.022977093 0.14143066 -0.14649938 -0.09752685
000360 4b 07 89 ba 3c e0 aa be d2 7e 12 bd 90 76 19 3d
       -0.0010454444 -0.33374202 -0.035765477 0.037466586
000370 03 aa a9 bd 1a d6 a5 3e 56 b8 8e 3e e0 37 cc 3b
       -0.0828438 0.3238991 0.27875012 0.0062322468
000380 10 77 5a 3e 39 a0 5d 3e 25 cf 9a 3b ad a0 f2 3d
       0.21334481 0.21643151 0.0047244006 0.11847053
000390 cf 21 12 3e 62 49 10 bc d7 f6 20 be 79 16 60 bd
       0.1427071 -0.008806558 -0.15719162 -0.05470893
0003a0 fe b9 95 3e dc 71 f2 bc 6c d3 07 3e af 0e 3d 3e
       0.29243463 -0.029595308 0.13264245 0.18462633
0003b0 54 02 55 bd 03 27 c4 bd 65 2d c5 3d 7d f0 f4 bd
       -0.052004173 -0.095777534 0.09627799 -0.11959932
0003c0 a6 d6 64 3e 68 da 1b be bf 8c 60 3e de 68 ac bd
       0.22347507 -0.15220034 0.2192869 -0.08418439
0003d0 2e ed 8e 3d d5 bb 14 3e 47 e3 6e 3c f1 b4 c5 bd
       0.06978832 0.14524777 0.014580554 -0.096536525
0003e0 91 6b 55 be ad be 87 3d 6a a3 99 3c 79 ee 8a 3d
       -0.20841815 0.066281654 0.01875468 0.06783766
0003f0 80 dd 2f 3e bf bd 06 3e ac 05 c8 3e 5f 24 1e bd
       0.1717434 0.1315832 0.39066827 -0.038608905

lin.weight f4 [1, 30]
000000 14 d3 9f be e4 ea 4a be 19 a1 d5 be a7 38 1a be
       -0.31215727 -0.19816166 -0.4172447 -0.15060674
000010 1b 13 28 3e f8 ed 2f 3e e2 4e 8c be 54 83 8c 3e
       0.16413538 0.17180622 -0.27403933 0.27443945
000020 55 2b 90 be c4 d7 8f be 9b c8 84 3e 01 7a 31 bd
       -0.2815806 -0.28094304 0.259343 -0.043329243
000030 af cd c0 be 21 23 fa be d1 a3 82 be 26 73 42 be
       -0.37656924 -0.48854926 -0.25515607 -0.18989238
000040 6a 71 23 be d0 eb 10 3e 5a 1d bb be 8e e8 bb be
       -0.15961233 0.14152455 -0.3654583 -0.36700863
000050 bb 07 a1 be 76 0d fb b5 a6 71 29 3e 4c 29 c9 3d
       -0.3145121 -1.8704875e-06 0.1654726 0.0982233
000060 f2 01 18 3e 26 5f 2f be b0 3b e6 bd 3a 35 d8 bd
       0.14844492 -0.1712614 -0.11241853 -0.10557027
000070 a5 34 22 3e bb ba 5f 3e
       0.15840395 0.21848576
