results/FHN_celegans_directed_wcc_multiple_nn_True_19/neural_network.pth (torch, 38491 bytes, 26 tensors)

g.0.weight f4 [30, 2]
00000000: ec88 173f a6db 06bb d91c 1d3f 37a4 203f
00000010: 7023 10bf 1695 c23e d12f 0c3f ccce 32be
00000020: 18b8 073f 2ba5 503d b6cc be3e 80cc 0abf
00000030: 0423 8a3e a802 e3bd 2b6f 563e 9692 163f
00000040: d0d2 3d3f 4359 33be 6c3c de3e 9c50 053f
00000050: 3941 563f 86be b3be 985c 48bf 99b6 4abf
00000060: b720 b1be 5505 17bf 915a de3e 1db7 a33e
00000070: e031 a93e 81f0 5dbe 2664 5cbd 17b2 fa3e
00000080: 1167 4abf 4dc6 eb3e 854a c83e 3f23 ecbc
00000090: 02fd b6be c998 cbbe e688 17bf 0af8 08bf
000000a0: db83 023f b0b8 033d 2342 133e a797 b83d
000000b0: 94c5 91be e1cb b93d 82b8 083f 5446 98ba
000000c0: 84c2 923e d5d2 6bbc 5048 c03c a7f6 1e3e
000000d0: 518a a73e ea67 3c3d 2077 5e3e 509e 1ebe
000000e0: e4c1 bb3e a1f5 e53e d02a 9c3e b8b0 1f3e
0.591933 -0.0020577698 0.61372143 0.6275057 -0.56304073 0.3800437 0.5476046 -0.17461699
0.5301528 0.050938766 0.37265557 -0.5421829 0.2697984 -0.11084491 0.20940845 0.5881742
0.741498 -0.1751452 0.43405473 0.52076125 0.8369327 -0.35106295 -0.78266287 -0.7918487
-0.34595272 -0.5899251 0.43428472 0.31975642 0.33045864 -0.21673776 -0.053806446 0.48963997
-0.79063517 0.4604973 0.39119354 -0.0288254 -0.35739905 -0.39765003 -0.59193265 -0.5350348
0.50982445 0.032158554 0.14380698 0.090133004 -0.28471053 0.0907209 0.53406537 -0.0011617639
0.2866403 -0.014393528 0.023471981 0.15523778 0.32722715 0.045997538 0.2172513 -0.15490079
0.36671364 0.44913962 0.30501413 0.15594757

g.0.bias f4 [30]
00000000: f870 143f 1cd4 49be 1573 00bf d497 933e
00000010: b11b d53e 2ac1 a8be d4cf e53e 6167 0abf
00000020: f006 eebe f92c 2f3d 731c 5bbe 8e3d 183f
00000030: 5327 c3be 2d52 95be 437f 27bd 0d0d c2bd
00000040: 92f1 163f d052 fb3e 6db8 953e 0f4b d53e
00000050: c311 303e 4072 8d3d 047d 22bf f97a bb3e
00000060: 08cc 5b3e c053 c0bd ae92 ce3e a7bd a63e
00000070: 98ce bdbe 8253 033f
0.57984877 -0.1970982 -0.501756 0.28826773 0.4162269 -0.32959872 0.44885123 -0.54063994
-0.46489668 0.0427675 -0.21397571 0.59468925 -0.3811594 -0.29164258 -0.04089285 -0.094751455
0.5896236 0.49086618 0.29242268 0.41658828 0.17194276 0.06906557 -0.6347201 0.36617258
0.2146455 -0.09390974 0.40346283 0.32566568 -0.3707168 0.512993

g.2.weight f4 [30, 30]
00000000: ba49 28be 5127 55bd d65e 47bb 2002 16be
00000010: 50e5 8e3d 05cb bebd 0f39 223e 8439 ab3d
00000020: 5a22 d03d 1838 20be 12a4 9dbd 0fd2 133c
00000030: 466d dcbd ae4e 46bb da00 b83d 8d11 34be
00000040: f5b0 8e3c 9233 37bd a808 b93d 13fe 55be
00000050: c83f c33b 4b80 a93d 8889 a0bc 31d7 8d3d
00000060: 383b f93d eba1 4dbd 6d5f 1e3e 24d8 8fbd
00000070: a3b4 6cbd d7f0 8d3c f846 0bbd dcf9 f9bd
00000080: 7723 1bbe c94f 27be b183 96bd 9434 99bd
00000090: b710 2a3d 6f9a 84bc f9d7 33be c415 5c3e
000000a0: 277b 44bd 7616 11bc 66d2 cebd a19e aabd
000000b0: ee69 64bd 9f30 bd3d 4947 ac3c 1edf 4e3d
000000c0: cb0b 0bbe 55b3 853d cc02 edbd 93a8 13bd
000000d0: 18e0 a039 7e03 01be 33a1 39be e37c 2e3e
000000e0: f827 3abd 1da9 2bbe 1efa 2a3e 23d8 a1bd
000000f0: 967e c63d 317f be3c e2d2 18be e945 0d3c
00000100: 03f4 1d3e 4248 acbd 7522 463e 0c9d 353d
00000110: 754f a33d ef1a 373e 9db5 60be 9321 9dbe
00000120: 4ec2 38be 6fe9 723e 8dac 84bd d79f 403e
00000130: 8691 c73d fb29 ba3d 51af cbbd 0a6f 90be
00000140: 3f6e b63d 3bf2 723c 0f36 25bd b55a c2bc
00000150: 5010 a13d 96df b23d cbbf a6bd e42e b5bd
00000160: 1d86 623e b701 e73d c915 e1bd 94a1 10be
00000170: 200d 32be 9a3d 8bbd fbe2 2abc ef77 0cbd
00000180: 6088 d5bd d481 ab3d 2fe3 0fbe 7cb7 143e
00000190: e53a a33d 4b74 863c a982 623d 779a 0c3d
000001a0: 154d af3d 15be cb3d d771 83bd e741 433d
000001b0: c9b6 d63d fdb0 5fbd c673 eabd 50e9 603d
000001c0: 7d01 1b3d 4fa8 723c 32b7 9dbd 8ecd a4bd
000001d0: a6fc 4c3e daba 513e c0da ac3d 094d 05be
000001e0: c66e 5bbe 0703 813d 8ed7 b7bd 4ef2 0a3e
000001f0: ae8e 103e e2cc e73d 6ea3 aebd cfd7 8ebc
00000200: d476 26bd c506 a7bd 8877 533a 4abd 453d
00000210: 016c c83d 8d99 a8bd aa92 a83d 6e85 213e
00000220: 61b6 30be b778 063e 0cc7 863c be92 da3d
00000230: ad85 af3d 1c0f 6bbd ba83 7cbd 2027 70bd
00000240: 6591 c53d 2029 bcbd a1e1 1c3e 5ce2 7b3d
00000250: f6b5 db3c ae0d e73d d0bb 87bd 00d3 803c
00000260: 9809 c03d 556b b8bd 18ec 393e 342f d6bd
00000270: 7b16 5e3d 60e4 ef3d 88f7 903d 4211 95bc
00000280: 26e7 233b 47c9 113e ba07 82bd 210d 55bd
00000290: 3e66 3cbd 1145 8f3d 5e0b 1f3e f0cc e23d
000002a0: 7024 353c 079e 473d fd26 363e 2644 f73c
000002b0: 6bd2 093e dcc5 fcbd a8d0 c93d f724 23be
000002c0: f564 143e 988a ed3d c1a1 01be 0b5d 0bbd
000002d0: c159 5b3d f799 c63d 3f15 d6bb ae65 3c3d
000002e0: cc28 42bd 012d 01bc 2aab 823d 6586 85bd
000002f0: 8d9c bfbd 6ee3 1abd bea8 cbbd cd8d 513e
00000300: 3c04 0abe 81e9 ebbc 9b56 bdbc a6b0 023d
00000310: b64b 063d 0769 4dbe 22f3 303e 4dcd 283e
00000320: d5ec a6bd 31e9 9cbc 9de4 d13c 209a 613d
00000330: da9b 90bd 3ad4 953d daaa 033d 2bcf cf3d
00000340: 9073 55be a7da 2ebe 4060 253e 91aa 11be
00000350: 8c80 d93d 7a73 733d 06ca 4a3e fc7f 193e
00000360: 7f0b 263d bda0 86bd 2f2b 113e e2a6 3ebd
00000370: b07d 05be f8c8 56bd bf61 44bc 685b d5bd
00000380: 6eab 173e 1dd8 96bd 33bc 85bd bbc0 113e
00000390: 8be4 a6bd 8cc1 b4bc 7d3c 013e 179f 473e
000003a0: 57c3 68be f0e0 433e ddae 1c3e e894 063e
000003b0: 46a1 d2bd d093 4f3e f0f3 0d3e 362c 503d
000003c0: cfbe 3dbd b90b 753d e218 6ebe cb8d dc3d
000003d0: 5c6d c8bc 6fab 173e 0ac1 4c3e 6822 d23d
000003e0: d572 6b3e 6695 d2bd feef 313e b0c3 7e3d
000003f0: f643 86bd 65c5 a23c aee9 11be c175 e1bc
-0.16434374 -0.05203945 -0.0030421517 -0.14649248 0.06977332 -0.09316067 0.15842079 0.083605796
0.10162802 -0.15646398 -0.076973096 0.00902225 -0.1076303 -0.00302593 0.089845374 -0.1758482
0.017418364 -0.044726916 0.09034854 -0.20897703 0.005958531 0.08276423 -0.01959683 0.0692581
0.12169498 -0.050203245 0.1546609 -0.070236474 -0.057789456 0.017326755 -0.034003228 -0.1220586
-0.15150248 -0.1633903 -0.07349337 -0.074807316 0.041519847 -0.01618692 -0.17562856 0.21492678
-0.04796901 -0.008855453 -0.10098724 -0.08331037 -0.055765085 0.09237789 0.021030085 0.05050575
-0.13578717 0.065283455 -0.11572799 -0.036049437 0.0003068454 -0.12598988 -0.18127899 0.17039828
-0.045448273 -0.1676373 0.16696975 -0.07902553 0.09692113 0.023254009 -0.14924195 0.008622625
0.15425114 -0.084122196 0.19349082 0.044339225 0.079741396 0.17881368 -0.2194428 -0.30689678
-0.18042871 0.2372186 -0.06478224 0.18810974 0.09744553 0.090900384 -0.09945548 -0.28209716
0.089077465 0.01482826 -0.040334757 -0.023724893 0.078644395 0.08734052 -0.0814205 -0.08846834
0.22121473 0.11279624 -0.10990483 -0.14124137 -0.1738782 -0.06798859 -0.010430093 -0.034294065
-0.10426402 0.08374372 -0.14051507 0.14523119 0.079702176 0.016412875 0.05530039 0.034326997
0.08559624 0.09948365 -0.064181976 0.04767027 0.10484082 -0.05461215 -0.11447863 0.054910004
0.037843216 0.014810636 -0.07700957 -0.08047019 0.20018253 0.20481434 0.08440161 -0.13017668
-0.21428975 0.062994055 -0.08976661 0.13568994 0.14116928 0.11318375 -0.085272655 -0.01743689
-0.040640667 -0.08155588 0.0008066823 0.048276223 0.09786225 -0.082324125 0.08231099 0.15773556
-0.17257072 0.13131987 0.016452335 0.1067252 0.085704185 -0.057387456 -0.06164906 -0.058631063
0.096468724 -0.091875315 0.15320446 0.06149517 0.026820164 0.11281906 -0.06627619 0.015725613
0.0937683 -0.09004847 0.18156469 -0.10458222 0.054220658 0.11713481 0.07078463 -0.018196706
0.0025009601 0.14236937 -0.0634913 -0.052014474 -0.045995943 0.06995595 0.1553168 0.11074245
0.011056051 0.04873469 0.1778831 0.030183863 0.13459174 -0.12342426 0.09854251 -0.1593207
0.14491637 0.115987 -0.1265936 -0.03402428 0.053552393 0.09697335 -0.0065332945 0.045995407
-0.04740219 -0.007884265 0.06380303 -0.06519774 -0.093560316 -0.03781455 -0.099442944 0.20464249
-0.13478178 -0.028797867 -0.023112586 0.031906746 0.032787047 -0.20059596 0.17280248 0.16484566
-0.08150641 -0.019154163 0.025621707 0.055078626 -0.07060976 0.0731587 0.03214536 0.10146936
-0.20844865 -0.17075597 0.16149998 -0.14225222 0.106202215 0.0594363 0.19803628 0.14990228
0.040538307 -0.06573627 0.1417663 -0.04654587 -0.13036227 -0.052437752 -0.011986195 -0.10417825
0.14811489 -0.07365439 -0.06530037 0.14233677 -0.0814906 -0.022064947 0.1262073 0.19494282
-0.22730766 0.19128776 0.1530108 0.1314274 -0.10284667 0.2027123 0.13862586 0.050823413
-0.046324547 0.059825633 -0.2325168 0.10769232 -0.02446621 0.1481149 0.19995514 0.10260469
0.22993024 -0.10282402 0.17376706 0.06219834 -0.06555931 0.019869516 -0.14249298 -0.02752197

g.2.bias f4 [30]
00000000: 4e83 00bd f883 e2bd c344 06be 40b0 88ba
00000010: 0832 86bc ca68 28be ce7c 213c d4d9 09be
00000020: 8a71 06bd 82e2 7b3d ff5c 12be 0d00 283e
00000030: de13 4b3d d669 f0bd af88 973d f07a df3d
00000040: 016e 0abe 427a 32bc a847 b0bc 62a4 353e
00000050: 5367 373e 8821 753d d4c7 4abd abc6 003a
00000060: 0897 a93d da99 cdbd 8e35 e23b 438b 49be
00000070: a730 4d3e 8ef6 1b3e
-0.031375222 -0.11060327 -0.13112168 -0.0010428503 -0.016381279 -0.16446224 0.009856416 -0.13462001
-0.032823123 0.06149531 -0.14293288 0.1640627 0.049579494 -0.117389366 0.07399117 0.1091212
-0.13518526 -0.010893406 -0.021518543 0.17738488 0.17910509 0.05984643 -0.049506977 0.00049124163
0.0828076 -0.100391105 0.006903357 -0.1968203 0.2003809 0.15230772

g.4.weight f4 [30, 30]
00000000: 5b4c 8ebd be76 c53d e9e4 30be 4338 7cbd
00000010: 3169 98bd fc01 f0bd 6989 a8bc c6aa 273d
00000020: bf05 073e 865d e63d c0e4 fcbd aac1 7d3d
00000030: 3537 b03d 8a51 46be 2dfe e0bb 7794 cebd
00000040: a9e6 35be 55d1 8b3d 54f7 4a3e 5f41 42bc
00000050: c1e9 60be 0d57 01bd fca3 4a3d 24d9 12be
00000060: dc82 a13d 2166 113e 1446 ab3d 969e d0bd
00000070: 11b6 afbd 09e2 b23d 1332 c43c 1365 373e
00000080: e046 3cbb 3ea7 093e 4269 b7bd 88bf 28be
00000090: d6fe 1d3e ca7c 31be ac58 c4bd 8b82 8fbd
000000a0: 2e23 e83d 4c19 f8bd a71f e73d 3f63 16bd
000000b0: 92bc a03d 6450 4b3b 7b19 fb3c 9ad5 fb3d
000000c0: 7b2e 1e3e 2a09 e93d 04fd 19bd b549 3fbd
000000d0: 3893 143e b37a 77bd 0d70 bfbd 4ce4 0fbe
000000e0: c056 d03c d03d aa3d 7092 2abd fa6c 29be
000000f0: a6a9 3e3e b391 213e 4f87 d13d 7251 393d
00000100: 9251 0cbe a5b0 f63d 8242 263e 9a14 3e3e
00000110: 412f 263e 2ec3 8cbd 1506 e9bd a96f 8f3c
00000120: 59d1 933d c416 03be eb39 8f3d 3963 8fbc
00000130: 1abd acbc 172e 903c 35d5 7cbd 8b57 b0bd
00000140: 688f c6bd b4a0 1e3d b186 363d 1680 06be
00000150: a191 833d 526c 8e3d 2cdf 9cbd 6c9e ff3d
00000160: cd62 81bd 5586 24be f2b5 f93d 0488 883d
00000170: 0c21 523c 3f5c e0bb 874e c63a 7625 dd3d
00000180: fc53 2f3e cba1 243e 17cb f63d 2006 613d
00000190: 870a 0a3e b8ed ff3c 4cce 16bd e15e 46bd
000001a0: 8e5a d43d bee3 9cbd 3608 b43d 044b 2d3e
000001b0: 5f18 153e 6e39 793d 718e b03d a38d 3cbe
000001c0: 7951 f03d 161f 84bd 6c0c 153d a141 3b3d
000001d0: 827a a43d 2ad9 87bb 9a65 eb3c 762c cdbc
000001e0: a2cf 08be ce5e 473e 204f b33d 335d 453e
000001f0: efa7 a7bc b7a8 fb3d 58e6 bcbc 6173 23be
00000200: 9b53 d43c 9550 a7bb 552d a43c 89ea 3fbd
00000210: c479 a1bd fe3f 1b3e 8666 cd3d 03a9 2bbe
00000220: 8cb6 05be f7f6 b9bd 3599 373d 86bd 2d3d
00000230: d349 5cbe d09f 2ebe 2124 6c3d 925b c13d
00000240: 8d3d 9fbd 831a 02be 5a8e eb3d 9744 15bd
00000250: 34ca a53d 41da d4bd af7b 81bd 80d9 7d3d
00000260: f186 5b3e 1c1a 053d 87b4 7d3e 05aa 3b3d
00000270: a8c3 cabd 9fa3 a63d 7a5e 4f3e 0f23 d3bd
00000280: ca14 43be 2048 013e df27 1c3d 6875 263d
00000290: 6137 2d3e 7ab6 aebc b875 383e 8ec4 babd
000002a0: 8a09 d2bd 59a7 963d 7976 a1bd e6d7 09bd
000002b0: 4c5a acbd 2250 05bd 710f d53b 2bda e3bc
000002c0: 0d5e cabd 189f 3ebe 0eef a73b ea8e febd
000002d0: 18dd e7bc a35e 223e 4f6e debd bd45 3bbd
000002e0: 4087 bcbd 1a28 e6bd a8a2 ab3b 1f8e ba3d
000002f0: d8e4 93bd 1f37 fd3d ab4b f3bd 3308 50bc
00000300: 9520 023e 789a 703e dc7e 3e3e 2973 643e
00000310: 8460 2b3e 877b 0cbe 6141 703d 55ad 07bb
00000320: 3cf0 883b fd66 033e 8472 74bc c451 0b3c
00000330: f159 8b3d 7149 c0bd 2017 ad3d 4264 373d
00000340: 5f96 d03d ef14 463e 2972 1b3d 98ec bc3d
00000350: c7c4 e73b 2747 053e 78ce 8dbd c502 2fbe
00000360: dbe5 ddbb 760e 4e3e ab0f bbbd 0c58 d6bc
00000370: e3e9 f63d a539 06be 6eb1 49bd 5a45 333e
00000380: 8462 98bd 0cd8 593d f111 d23c 9a07 3abe
00000390: 323d 35be 339d ad3b ab15 e5bd 723c 243e
000003a0: aeae 42be 3672 313b e4f3 113e 73b4 36bd
000003b0: 7f42 b2bd 6878 45be d84e 5d3e 0ad8 44bd
000003c0: bae2 a4ba 555f ccbd ea12 393d 0f09 953d
000003d0: 5997 46bc f5b0 50bc 62e4 e1bd ca0b bbbd
000003e0: 08e7 fc3d cbfb e23d 5675 293e e361 e03d
000003f0: ee77 593c 6edf 303d 19ba 9d3d f3e8 64bd
-0.069481574 0.09641789 -0.17274822 -0.061577093 -0.07441939 -0.117191285 -0.020573335 0.040934347
0.13185786 0.11248307 -0.12348318 0.06195227 0.0860428 -0.19367042 -0.0068662376 -0.10086911
-0.17763771 0.06827036 0.1982091 -0.011856406 -0.2196417 -0.03157716 0.049472794 -0.14340645
0.078862876 0.14199115 0.08362976 -0.10186498 -0.08579648 0.08734519 0.023949658 0.1790965
-0.0028728768 0.13442704 -0.08955623 -0.16479313 0.15429243 -0.1733276 -0.09587225 -0.07007321
0.11334835 -0.121142 0.11285334 -0.036715742 0.07848467 0.0031023258 0.030651798 0.12296601
0.15447418 0.11378701 -0.03759481 -0.046701152 0.14509284 -0.06041975 -0.09347544 -0.14051932
0.02543199 0.08312571 -0.04164356 -0.16545478 0.18619403 0.15778236 0.10230886 0.045243688
-0.13702992 0.12045411 0.16236308 0.18562546 0.16228963 -0.06873165 -0.11378113 0.017509298
0.07217664 -0.12801653 0.06993469 -0.017503368 -0.021086264 0.017600102 -0.061726768 -0.086104475
-0.09695321 0.038727477 0.044562045 -0.13134798 0.06424261 0.06954254 -0.07659754 0.124813884
-0.06317673 -0.16066869 0.121929064 0.06666568 0.012825262 -0.006846934 0.0015129604 0.10798161
0.17121881 0.16077344 0.12050455 0.054937482 0.13480578 0.031241283 -0.036817834 -0.048430327
0.103688344 -0.07660626 0.087906286 0.16923147 0.14560078 0.060845785 0.086209185 -0.18413405
0.1173429 -0.06451242 0.0363888 0.045716885 0.08031179 -0.004145761 0.02873497 -0.025045615
-0.13360456 0.19469759 0.08755326 0.19273834 -0.02046582 0.12288039 -0.023059055 -0.15961982
0.025918772 -0.0051060417 0.020041147 -0.04685453 -0.07884553 0.1516113 0.100293204 -0.16763692
-0.13057917 -0.09080308 0.044823844 0.04241707 -0.21512537 -0.17053151 0.057651643 0.09441294
-0.07775412 -0.12705426 0.11501761 -0.036442365 0.08095208 -0.10393191 -0.06322419 0.061975002
0.21438195 0.032495603 0.24775897 0.04581644 -0.099006 0.08136677 0.20250884 -0.10309421
-0.19050899 0.1262517 0.03812396 0.04063931 0.16915657 -0.021327246 0.18013656 -0.09119521
-0.10255726 0.07356138 -0.07883925 -0.033653162 -0.0841566 -0.032547124 0.006502085 -0.027813992
-0.0988122 -0.18615377 0.005124933 -0.124296024 -0.028303668 0.15856414 -0.108608834 -0.045720804
-0.092054844 -0.112381175 0.005237896 0.09109139 -0.07221383 0.12364029 -0.11879667 -0.012697267
0.12707742 0.23496425 0.1860308 0.22309555 0.16736037 -0.13718997 0.0586561 -0.002070268
0.004179029 0.12832256 -0.014919881 0.008503381 0.06804264 -0.09389008 0.08451676 0.044773348
0.10184931 0.19343923 0.03795067 0.09224814 0.0070730182 0.13015424 -0.069241464 -0.170909
-0.0067717857 0.20122704 -0.09133848 -0.02616503 0.12056329 -0.13107927 -0.049241476 0.17506924
-0.07440665 0.053184554 0.02564332 -0.18166962 -0.17699125 0.0052982806 -0.111857735 0.16038683
-0.19011948 0.0027076132 0.14253193 -0.044605684 -0.087040894 -0.19284213 0.21612108 -0.048057593
-0.0012579777 -0.09979121 0.045184053 0.072771184 -0.012121045 -0.012737502 -0.11029889 -0.09133108
0.12348753 0.11083182 0.16548666 0.109561704 0.013273222 0.04318183 0.07701511 -0.05588622

g.4.bias f4 [30]
00000000: 9722 ae3d 996b b6bd 7914 84bd 5283 3a3d
00000010: dfac 013e f9e3 86bb c847 4fbd 493a f13d
00000020: daf6 3e3d 8fee e63d 5bef b83d 96de 84bd
00000030: 57bd 68bd 5a8e 7ebc 29c9 d8bc ec50 a8bc
00000040: bb3f 3f3e 6a8a 4bbc ffe4 2dbe 4f79 1c3e
00000050: daa7 7a3d 93b9 79bc 038d 85bd 6097 c23d
00000060: 691f 8cbd a32e 0bbd ded7 023e cf44 d63d
00000070: 8a92 4ebd 55eb 59be
0.08502691 -0.089072414 -0.06449217 0.045535393 0.12663601 -0.004116532 -0.050605565 0.11778695
0.046622135 0.1127597 0.090300284 -0.064877674 -0.056821194 -0.015536869 -0.026463108 -0.020546399
0.18676655 -0.012423137 -0.16981886 0.1528065 0.061195232 -0.015241998 -0.065210365 0.09501529
-0.068419285 -0.033980023 0.1277766 0.10462343 -0.05043272 -0.21281178

g.6.weight f4 [2, 30]
00000000: 9bbd 723d d84e 023e 62da b03c f14e 673c
00000010: 70b5 883b d0c3 f5bd 1c6e 94bd 2e49 b2bd
00000020: b78f 023e b6f4 073d 29c8 083e 80f7 a93d
00000030: de3d 173d ea70 443d 78aa 22bc 69d8 e83d
00000040: 9969 033e 0577 00bd 959d 903d 6823 21be
00000050: 1c9d 07be 2f1a 64be 99fb 213d 9884 c5bb
00000060: c237 0b3e cb34 8bbd bb13 53be ef7f d7bd
00000070: 70ac 98bc a5c8 1a3e 16dd 2fbe fd24 abbd
00000080: 57d0 dcba 9016 663c 525d 86bd b20c 163c
00000090: a33e 9d3c f28b 2a3d 9938 1d3e c961 00be
000000a0: 3eec d43d c79d ea3d 7bf4 813c e239 e03c
000000b0: 82cf 6dba 8490 b33d 46d7 1e3e 1c7e 9bbb
000000c0: 018c 1fbb 2a8e f9bc 65f2 c03d b72b 293c
000000d0: a382 0ebb 742b 90bd 188c 9abc cca4 0ebe
000000e0: a3ac 793d 972f 58bd f501 eb3b 60e2 acbd
0.059262853 0.12725389 0.021588508 0.014117942 0.0041720197 -0.12000239 -0.07247564 -0.08705364
0.12750135 0.03319236 0.13357605 0.0829916 0.036924236 0.047959246 -0.009928338 0.11369402
0.12833251 -0.031363506 0.070613064 -0.15736163 -0.13243526 -0.22275613 0.039546583 -0.0060277693
0.13595489 -0.06797179 -0.20612995 -0.10522448 -0.018636912 0.15115602 -0.17174181 -0.08356664
-0.0016846758 0.014043465 -0.06560768 0.0091583 0.019194907 0.04163737 0.15353622 -0.12537302
0.10396622 0.11455875 0.015863648 0.02737135 -0.00090717536 0.087677985 0.15511808 -0.004745258
-0.0024344923 -0.030463297 0.09421233 0.010325364 -0.0021745346 -0.07039538 -0.01886563 -0.13930053
0.060955655 -0.05277976 0.007171864 -0.08441615

g.6.bias f4 [2]
00000000: e372 e83d fe95 cf3d
0.11350038 0.101360306

nn_fun1.0.weight f4 [30, 2]
00000000: 4e4f 55bf 574c c5bd 12ea 073f 6e04 ecbd
00000010: f4e1 05bf 6b1f f3be bc21 333f 1eef 933f
00000020: d12d fb3e dd7d 293f 605d 683e 0bab bebe
00000030: 8880 40bf dd6d 88be ace0 0f3d d1c3 a0be
00000040: 8639 bb3e fc94 e33e 31df 413e 7dac c43e
00000050: e2c0 0b3f 5393 b5bd 134c 583f 8c4a e4be
00000060: 59ce 2f3d 99a4 21bf b216 a03e cc98 0e3e
00000070: d7d2 e9be f636 40bf ab63 e63c 02d9 78bb
00000080: a7b1 c6be 4677 023f ec73 163f 2b53 013f
00000090: 8873 05be 26b4 86be d1e5 5e3f d10e 08bf
000000a0: f481 073e 3b7d 733d 2162 5bbe fb8e 4f3e
000000b0: 1ac1 63bf 1781 7dbe 5247 f7bd 216a 9fbe
000000c0: 5a9a bcbe 480a ecbd 98e8 193e bdbb 02bf
000000d0: 730c 163f b7ff 9abd 401e d83e 6f50 81bf
000000e0: afa8 03bf feef 0c3e 97df 823e 890d e73e
-0.83324134 -0.09633701 0.5309154 -0.115242824 -0.522979 -0.47484908 0.6997335 1.1557348
0.49058393 0.6620768 0.2269187 -0.3723987 -0.75196123 -0.2664632 0.035126373 -0.31399396
0.36567324 0.44449604 0.18932797 0.38412848 0.5459119 -0.088659905 0.8449108 -0.44588125
0.042921398 -0.6314178 0.31267315 0.13925475 -0.4566867 -0.75083864 0.028123697 -0.0037971144
-0.38807413 0.50963247 0.5877063 0.5051753 -0.13032353 -0.26309317 0.8706942 -0.5314761
0.13233167 0.0594456 -0.21424152 0.20269386 -0.88966525 -0.24756275 -0.1207415 -0.31135657
-0.3683651 -0.115253985 0.15030134 -0.51067716 0.58612746 -0.07568305 0.4221058 -1.0102671
-0.51429266 0.13763425 0.2556121 0.45127514

nn_fun1.0.bias f4 [30]
00000000: c00b f03c c201 c03d 69d1 d33e dac2 8abe
00000010: 3812 3cbe e227 523e 5792 08bf 87d5 a13e
00000020: 9f71 acbe 0e67 903e 905b 40be 8b1d a33e
00000030: bd1f 2e3f 5590 23be a3ec 95be 07a6 153e
00000040: 0b03 003d f85c 0f3f f0b9 003e 5ea8 433f
00000050: ffc2 873e 2a58 5d3d 4047 a43d c27a 32be
00000060: 64f3 93be 936e 273f f0c6 21bf 5e6d b7be
00000070: d463 173e 54fa 2ebe
0.029302478 0.09375335 0.41370705 -0.27101785 -0.18366325 0.20523027 -0.53348297 0.3160822
-0.33680436 0.28203624 -0.18784928 0.31858477 0.6801718 -0.15973027 -0.29282102 0.14614116
0.031252902 0.56001234 0.1257093 0.7642878 0.26515958 0.054039158 0.08021402 -0.17429641
-0.2889663 0.654031 -0.6319418 -0.35825628 0.14784175 -0.1708768

nn_fun1.2.weight f4 [30, 30]
00000000: 492c c5bd cc1d 2a3e 2c43 8dbe 10a4 b53c
00000010: 1a1f 8ebd d545 733e 4939 ec3d 0cab 8b3d
00000020: 8b74 9e3e 158c b6bd f628 b53d 2ab1 783d
00000030: d9d9 76be 7a8e ab3e b767 e3bd c228 e23c
00000040: 09c6 a9be ee94 ad3d de27 c3bd 54b4 013e
00000050: b726 fbbd e121 c4bd 084b 17be 5428 9c3d
00000060: 0419 fd3d 7228 18be ae74 1a3f f9ff ab3e
00000070: 8672 27be 0bc7 cd3d d8d9 05be 81cd 493e
00000080: 2a4a 7dbd fa65 083d 03a8 043d 14a4 edbd
00000090: 281b 963c 9c9b 5f3d cdce e13d 958d 85bd
000000a0: 721f c2bd b8fb 44be fa80 ca3d 0cc3 fabd
000000b0: ad5c 323d 6ea2 0e3d f303 bb3a 4c01 9fbd
000000c0: f155 21be ace6 c43d 7627 bc3c 3e19 fabc
000000d0: 9e45 853d 83b0 26be 5ffc aa3d fb3c 2a3e
000000e0: 1e55 243d 20d1 973d d135 bb3d ec55 973d
000000f0: 02fa b43d 0a0e 04bd f4b6 443e 896e a9be
00000100: e4d3 0bbe 0a39 2f3e 3b8e f13d 5656 823e
00000110: 6498 3fbe c142 f8bd 9095 2b3e 5bda ff3d
00000120: 7862 3c3e 365d 84bd 3808 613e 6209 363d
00000130: 8b99 f73c 3b47 58be 957c 85bd 78e2 333e
00000140: 0bcc 96bd 6dd4 373d ac8e d73c 0f2c 773e
00000150: 82ed 323d 1abe 433e c57e 873d 9844 57be
00000160: c15d ca3d 2c3d 2ebe 9070 95bd 6dd8 693d
00000170: 4272 28bb 82e9 35be a7f9 85bd f1c6 1ebe
00000180: b227 073d e8e7 69bd 4b3d 47bd a1ef 05bc
00000190: 8ee1 16be ed2b 013e 5afa f5bd 8f30 cb3d
000001a0: 03ed debd e60d 2bbe 005f ba3c 6f6c 85bb
000001b0: fb3b a4bc 3cde 3f3e 83ed 963d b106 333d
000001c0: 96df e93d 52f4 863d 004b 34be 76f6 803c
000001d0: bc26 823d 8326 afbd 8bed 82bd eead 4dbd
000001e0: 1155 003d 58b1 3cbe 8579 463e 5b54 623e
000001f0: faeb 7dbd 6256 edbd ff39 61be 4961 98bd
00000200: 98fd bb3d c6bd a43d 220a 5abe 6b2e 08be
00000210: 9e1d 6c3d 48df 583d 916b d6bd ed0a fdbd
00000220: 1b9f 69bd 3518 62bd 3ac8 5b3c bdf2 ffbb
00000230: 2eb9 b6bd 59d0 8fbd a84a 90bc bc52 24bd
00000240: 2d7e 4ebd 82dc 043e 4b19 1ebd 595c f53c
00000250: 79b8 6b3d 40dc 39be 5a9f c93c f36f a83d
00000260: adb5 c93d d0dd 96be 4e6e f7bd 6adb 96bd
00000270: 51c4 49bd 4595 583e 885b 4fbe 4733 84be
00000280: c1ec 59be 4e61 ca3d c9e3 333e 825b 073d
00000290: 959c 4e3e 0385 e73d 6396 373d dba8 623b
000002a0: a234 7c3c cd10 003e 1831 13be 0d31 32be
000002b0: 7d6e 3ebd 866c 2dbd 7475 98bb d7b5 773e
000002c0: 7804 79be fb29 99be 98f7 a93d 0507 09be
000002d0: ef15 3ebe 3961 263d f90b 85bd d1ae 69bd
000002e0: 4941 09be 6de3 46be 8fda dfbd 18f1 16be
000002f0: aa56 11be 69d4 2bbd b86c a23d 3ae7 f839
00000300: c240 493d 6b5b a03d df2c 503c ba8a 27be
00000310: 9486 9c3b e0f4 20be c2bf 413c b071 2c3d
00000320: a598 28be 55c0 5b3e 56f1 7bbd cd3a fb3d
00000330: daf6 b43d 5f01 8cbd dfd4 0cbd 7f94 a2be
00000340: 5a14 413c 45c1 183c 6006 54be 9574 7a3e
00000350: 55be 2cbe afee 9cbd 4f46 20be 4c0b b5bd
00000360: d7ee 2fbe 67e2 863c 422f ad3d 9c1f 06be
00000370: d416 1d3e cde1 1e3e f1f0 9d3d 1d9a e1bc
00000380: bdeb babd 5bee 8bbc 0901 07bd a087 41bd
00000390: 1e67 893d 3419 9e3c c103 3ebe 4f76 8bbd
000003a0: bff3 06be 610e de3c 010b b1bd 163b 53bc
000003b0: 7021 31bd 32df 2dbc 10b4 eebc cc59 b93d
000003c0: f5f6 813e 69b7 8dbe f0b5 d5bc 74b1 be3d
000003d0: c19d 6ebe a513 10bb 274d 5f3e 0df0 323e
000003e0: fa16 4ebe 2f06 cf3d 5fd2 7dbc df3d f0bd
000003f0: 20c2 0f3e 0aa7 a3bd c1e6 8c3b 560e e2bd
-0.09627587 0.16612929 -0.2759031 0.022172958 -0.06939526 0.23757108 0.11534364 0.06819734
0.3094829 -0.08913437 0.08845703 0.06071583 -0.2410654 0.33507138 -0.111037664 0.027607325
-0.331589 0.08475672 -0.095290884 0.12666446 -0.12263244 -0.095767744 -0.14774716 0.076248795
0.12358287 -0.14859179 0.6033429 0.3359373 -0.16352281 0.1004773 -0.13071382 0.197073
-0.061838306 0.033300377 0.03238679 -0.11603561 0.018323496 0.05459176 0.11025772 -0.06521145
-0.09478654 -0.19236648 0.098878816 -0.122442335 0.043545414 0.034822874 0.0014268145 -0.07763919
-0.1575544 0.0961431 0.022968035 -0.030529615 0.06507419 -0.16278271 0.08348917 0.16624825
0.040120237 0.07412934 0.09141124 0.07389435 0.08836748 -0.03223995 0.19210416 -0.33092144
-0.13655049 0.17111602 0.117947064 0.25456494 -0.18710476 -0.12122107 0.16756272 0.1249282
0.18396938 -0.06463091 0.21975791 0.044442542 0.030224582 -0.21120922 -0.06517903 0.1756686
-0.07363137 0.04488032 0.026313148 0.24137901 0.043683536 0.19115487 0.06615976 -0.2102226
0.098811634 -0.17015523 -0.0729686 0.057091165 -0.0025702869 -0.17764857 -0.06541758 -0.15505578
0.03299684 -0.05710593 -0.048642438 -0.008174808 -0.1473448 0.12614413 -0.120106414 0.09921371
-0.1088505 -0.1670452 0.022750378 -0.004071764 -0.020048132 0.1873712 0.073695205 0.043707553
0.11419599 0.06589569 -0.17606735 0.015742522 0.06355044 -0.085522674 -0.06392964 -0.0502147
0.031331126 -0.18427026 0.19382294 0.22102492 -0.061992623 -0.11588742 -0.2199478 -0.07440431
0.091792285 0.08044009 -0.21292928 -0.13298957 0.057645433 0.052947313 -0.104697354 -0.123555996
-0.0570365 -0.055198867 0.013414437 -0.007810919 -0.08922039 -0.07022161 -0.017613724 -0.040117964
-0.0504133 0.12974742 -0.03859834 0.029951261 0.057548974 -0.18150425 0.024612118 0.082244776
0.09849105 -0.29466105 -0.12081586 -0.07366069 -0.049259488 0.21150692 -0.2024976 -0.25820372
-0.2128172 0.09881841 0.17567362 0.033046253 0.20176919 0.11304667 0.044821154 0.003458551
0.015393408 0.12506409 -0.14374197 -0.17401524 -0.04649209 -0.042339824 -0.0046526734 0.2419046
-0.24318111 -0.2991484 0.08299178 -0.13381584 -0.18563055 0.040620063 -0.06496424 -0.057051484
-0.1340381 -0.19422694 -0.109303586 -0.14740407 -0.14193216 -0.041950617 0.07930893 0.00047474523
0.049134023 0.078299366 0.012706011 -0.16361514 0.004776785 -0.15718412 0.011825504 0.04210061
-0.1646448 0.21460088 -0.061509453 0.12267075 0.08836146 -0.06836199 -0.034382697 -0.3175392
0.011784637 0.009323423 -0.20705557 0.24458535 -0.16869481 -0.07662713 -0.1565182 -0.08840045
-0.17180954 0.016465379 0.08456279 -0.13097996 0.1534074 0.15515824 0.077119716 -0.027539307
-0.09126995 -0.01708143 -0.03295997 -0.047248483 0.06709121 0.019299127 -0.1855612 -0.06809675
-0.1317892 0.027106466 -0.08644677 -0.012892505 -0.04324478 -0.010612296 -0.029138595 0.090503305
0.25383726 -0.27678993 -0.026087731 0.0931119 -0.23302366 -0.0021984365 0.21806775 0.17474385
-0.20125952 0.10108601 -0.015492051 -0.11730551 0.14038897 -0.079908445 0.004299969 -0.110378906

nn_fun1.2.bias f4 [30]
00000000: 10c0 8bbd 323f 7fbd bd43 e93d 5f5e 0bbe
00000010: 1134 c9bd e159 ca3d 1103 cc3d 3036 5abe
00000020: 8f23 353c 7840 ba3d 204e 92bd 799d 383e
00000030: 990a c73d f6e9 323e d9f9 103e bc11 ee3d
00000040: 1ec2 233e 2a57 d03d ff2a bebd 1ef3 49bd
00000050: 1175 723d 81f9 4c3a 93ca 5ebd 21a4 393d
00000060: 2a7f 26be 227f 36bd e12f 0e3d a609 a2bd
00000070: c54e 073e dfab e5bd
-0.068237424 -0.062316127 0.11389873 -0.13610218 -0.09824384 0.09880424 0.09961522 -0.21309733
0.011055841 0.09094328 -0.071438074 0.18028821 0.09718818 0.17472062 0.1415781 0.11624476
0.15992019 0.10172875 -0.092855446 -0.04930412 0.059193674 0.00078191614 -0.05439241 0.04532254
-0.16259447 -0.044554837 0.03471363 -0.079119965 0.13213642 -0.112144224

nn_fun1.4.weight f4 [30, 30]
00000000: e3c6 f4bd d778 bfbc 84ca 61be 77f6 acbd
00000010: 5482 243e e2cf 8f3d 08fa 9dbd 6cc3 0b3e
00000020: 8a3e 093e df94 413d 8469 263d 000d ffbd
00000030: 024b 9fbe 8411 3b3e 3fb0 99bd 29ff 303e
00000040: 4561 17be 2313 513e f796 c6bd d095 d1bc
00000050: 58d9 493e 07e4 49bd f0af ea3d e001 eabd
00000060: 1ab1 0d3e ab9d 0dbd 3b39 ebbd 5244 f4bd
00000070: 7d33 8abd 619f 04be cc1a f33c 2213 23bd
00000080: d02e b43d e831 023e 04d4 00be 68db 323e
00000090: d914 f6bc 6c57 82bd 096f 1ebe cd91 e8bd
000000a0: 9f51 173e d3dd 27be f7f5 7e3c 7794 82bd
000000b0: ed9e 5fbd 6861 1cbd f3ad 01be 49b4 4cbe
000000c0: 0aee 41be 1fd7 073e c10f 80bd 6336 c6bd
000000d0: 99d9 20be a92d a33d e529 93bd 921c 6c3e
000000e0: f658 3dbc 0996 403e 0d8c 203d 3a23 1f3d
000000f0: 416a 20be 62db 02bc 9eb7 143d ebb3 b73d
00000100: 1528 b73c 63aa 16bd 5a79 a0bd 14b5 38be
00000110: 5e1b c6bd d45a ee3b 6367 583e d9df 053e
00000120: bef2 463e 09d1 b8bd ea42 82bc 896b af3d
00000130: ff80 8fbe 7f7d 953d d730 28bd 5d21 04bd
00000140: 5906 2e3e ea87 4f3d 4285 ba3d 4cbe 7b3d
00000150: 442a 5ebd c364 b83d ca8c 323e bb63 c93d
00000160: 1384 823d e7ea 01bd fca1 e1b9 3ac0 cabc
00000170: e339 4b3d 6475 5e3d 25ef 21bd 79bc 28be
00000180: 2876 dbbd 65dc 01be 0390 243e efdd c73c
00000190: d767 9c3d bb01 16be d58f 3cbe 8d6d 04bb
000001a0: dc23 e5bc de7c 9a3d 281a 4b3d 30a3 e13c
000001b0: ec16 cc3d 289e b83d 707b 9bbd a495 ffbd
000001c0: 64a9 a93d 6efb 23be 2b18 983d 24f4 0cbe
000001d0: 4e08 373e 8825 d1bc 183f 583c 8836 6cbd
000001e0: cf69 bf3d 4c1a 43be 7c61 adbd fb35 e1bd
000001f0: 579f 263e a1a3 4a3e f707 bc3d 1cd6 40bc
00000200: fae1 83be abd1 e8bd f5d3 8cbd 9bc3 31be
00000210: 91bf ea3b a65c 373d 28a7 44be bd3f a2bd
00000220: 53f4 f43d 6e8d febd de4b 80bd 6ff1 99bd
00000230: 4802 03bd 543b e9b9 81dd ca3d e8a0 043e
00000240: a218 293e d20c 193e 3225 cd3d fcbd afbd
00000250: c9bd 2a3c ef22 9a3d 34f9 83be 2954 2fbe
00000260: 8d30 c9bd 4cd0 833c 1921 1c3d 4b97 e13c
00000270: 404b 63bb f5bd 20be 3581 983e baaa 743e
00000280: e934 7abd ba09 3bbd 30f7 1ebe 736b c0bd
00000290: 3170 efbd 1b28 56bd 45a3 193e 09d8 ddbc
000002a0: 422c a73c 84c7 9c3d fc14 383d b3b7 643d
000002b0: 3c2e 0d3e 433e c0bd 2dd6 063c 8bf4 333e
000002c0: a993 10be 0fe4 f23d a808 02bd da2b 8bbd
000002d0: ac85 36be cfeb a53d aa17 dc3d a001 373e
000002e0: 78f5 6b3d c5f5 123e 8947 a83c d66f 863d
000002f0: c8ef ffbd 1d9f 15be 75d9 35bd 69f1 b5bd
00000300: 8c36 5e3d 7478 fb3d 29bc 27be c7cd 813d
00000310: 443b 4a3e 8988 0a3e deac 25bc 70d2 8cbd
00000320: fabf 3ebe d12a 76bc d2ba acbc ab79 2f3e
00000330: df30 05be 2eaa 5ebd 77c0 84bd d018 60bc
00000340: d261 18be 71ac 173e 0fbd 623d 7e11 0dbe
00000350: 4dd9 8a3d dcaf 9bbd 5420 1abd 11f7 4c3d
00000360: a4c9 1b3e 2964 cebd 0466 15be ed43 81bd
00000370: e0f9 10bc b7cf 32be 3072 b23d d5ae d7bd
00000380: 5a86 1ebe 0b50 37bd c21f c63d a8cc 05be
00000390: a7b0 2fbe fd27 063e 5bc3 22be fc49 cfbd
000003a0: b208 c2bd 14f0 fd3b d132 b13d 29a8 8c3d
000003b0: f4cf 2d3e d9f6 1d3e a65b 0bbc 6fc7 09be
000003c0: d0e3 39be af6b 0f3e 2dbb 01be 7bca febd
000003d0: b003 5dbd 5894 b2bc 31c8 4abe 4514 efbd
000003e0: d8d5 023d 2fb8 a73d 5565 d93d 2036 393e
000003f0: 51d2 ffbd 288b 5b3e 8096 ab3d d28e 98bd
-0.11951997 -0.02337305 -0.2204991 -0.08445447 0.16065341 0.070220724 -0.07713705 0.13648766
0.13402763 0.047261115 0.04062797 -0.124536514 -0.31111914 0.182684 -0.075043194 0.17284836
-0.14783199 0.20417456 -0.09696763 -0.025584131 0.19711816 -0.04928973 0.11459339 -0.11426139
0.1383709 -0.034574192 -0.11485525 -0.119270936 -0.06748102 -0.12951423 0.029675864 -0.03981317
0.08797991 0.1271435 -0.12580878 0.1746651 -0.030039238 -0.06364331 -0.15472044 -0.11355934
0.1477723 -0.16393213 0.015561572 -0.06375974 -0.054594923 -0.03817883 -0.12664013 -0.19990648
-0.18938461 0.13265656 -0.06253005 -0.09678342 -0.15708007 0.07967693 -0.07185725 0.23057774
-0.0115568545 0.18807234 0.039196063 0.038851954 -0.15665533 -0.007986875 0.036307923 0.089698635
0.02235798 -0.036783587 -0.07835646 -0.18037826 -0.096731886 0.007274011 0.21133189 0.13073672
0.19428536 -0.09024245 -0.015901048 0.085654326 -0.28028104 0.07299327 -0.041062202 -0.03225838
0.16994609 0.050666727 0.09107448 0.061460778 -0.054239526 0.09003594 0.1743652 0.09833475
0.063728474 -0.03171816 -0.00043036032 -0.024749864 0.049615752 0.05431117 -0.039534707 -0.16478147
-0.10715896 -0.1268173 0.16070561 0.024397818 0.076369934 -0.14649098 -0.18414243 -0.00202069
-0.0279712 0.07543348 0.04958549 0.027543634 0.099653095 0.09014541 -0.07591903 -0.124797136
0.08284262 -0.16013882 0.07426485 -0.13765007 0.17874262 -0.025530592 0.0131986365 -0.057669193
0.09346353 -0.19053 -0.08465859 -0.10996624 0.16271721 0.19788982 0.09181207 -0.011769798
-0.25758344 -0.11368116 -0.06876365 -0.17359774 0.00716395 0.04476609 -0.1920439 -0.07922313
0.11960664 -0.12429319 -0.062644705 -0.07516753 -0.031984597 -0.00044485426 0.0990553 0.12952006
0.16513303 0.14946297 0.1001686 -0.085811585 0.010421225 0.07526194 -0.25776064 -0.17121948
-0.098237135 0.016090535 0.038117502 0.027537962 -0.0034682304 -0.15697463 0.29786077 0.23893252
-0.061085615 -0.045663573 -0.15523982 -0.09395494 -0.11691321 -0.05228434 0.15003689 -0.027080553
0.020406846 0.07655242 0.044941887 0.05583925 0.13787168 -0.093868755 0.008229774 0.17573754
-0.14118828 0.11859905 -0.031746536 -0.067954734 -0.1782443 0.081016175 0.10746701 0.17871714
0.057607144 0.14351566 0.020541923 0.065643 -0.124969065 -0.14611478 -0.044396836 -0.08883936
0.05425124 0.12278834 -0.16380371 0.06338077 0.1974917 0.13528647 -0.0101120155 -0.06876075
-0.18627921 -0.015024857 -0.021085177 0.17136256 -0.13006924 -0.054361515 -0.06482022 -0.013677791
-0.14881065 0.14811875 0.05535608 -0.13776204 0.06779728 -0.07601902 -0.037628487 0.05004031
0.15213639 -0.10077698 -0.14589697 -0.06311784 -0.008848637 -0.1746205 0.08713186 -0.105313934
-0.15480939 -0.04475407 0.09674026 -0.13066351 -0.17157231 0.13101192 -0.15894835 -0.10121533
-0.09474315 0.007749567 0.086522706 0.068680115 0.16973859 0.15426196 -0.008505737 -0.13454984
-0.1815331 0.14005922 -0.12669058 -0.12440964 -0.053958595 -0.021799251 -0.1980293 -0.11673788
0.03194222 0.08189427 0.10615031 0.18087053 -0.124912865 0.21439803 0.08378315 -0.07449116

nn_fun1.4.bias f4 [30]
00000000: b3a5 67bd 1024 7e3d b8cf 013d 4170 113e
00000010: 3ac7 4cbe 5c2c 6abd a64e 2dbe d430 0dbe
00000020: 898b a9bd 297a 2abe 25ee 1c3e bb9d b83d
00000030: f3cb e1bd eae8 72bd d50d 7b3d 9ab6 23be
00000040: 2ce3 d13d b76a 9fbd 9202 883d 7400 3e3b
00000050: 60c7 bdbb cd0f ee3b 5c7a 4fbe 73f0 4ebd
00000060: 1076 323e 56c8 9dbd c98a 673b 8f5a d13d
00000070: d290 23be 6edb 243d
-0.056554507 0.06204611 0.031692237 0.14202978 -0.19997874 -0.05717121 -0.16924533 -0.13788158
-0.08278567 -0.16648163 0.1532522 0.0901446 -0.11025228 -0.059304155 0.061292488 -0.15987626
0.10248408 -0.07784026 0.06641115 0.002899197 -0.0057915896 0.007265067 -0.2026152 -0.05052228
0.1742785 -0.07704227 0.0035330525 0.10222351 -0.15973213 0.040248327

nn_fun1.6.weight f4 [30, 30]
00000000: c330 303e 1f45 173e ce3a f03c 45a2 8dbd
00000010: 10df 773e c2fd df3d 60c3 023e e45f c73d
00000020: 3b4f 16be 514a aa3d d884 96bd 1a79 26be
00000030: de6d 173b 1c41 2abe 6fb7 033e 9586 193e
00000040: ae3d 1bbe dd8a 04be ff9b 323d dc1a afbe
00000050: ae07 073c d447 9c3d 18a3 0b3d 7587 e7bd
00000060: f7a7 bfbd 050f 193e 1381 aebd 89ce 06be
00000070: c38c 54bd 96af 963e 799b 0e3e 8fa4 683d
00000080: 1140 4ebd 0d4d fa3d 83be 6d3d 9219 47bb
00000090: ddef 293d 0a7d f03d 0e7a 0ebe b4b2 01be
000000a0: 91d1 41be 1aaa ad3c 5d15 7fbd f0d2 15be
000000b0: a351 0dbd 26c1 67bd f6f2 aabd a07c e03c
000000c0: 3784 44bc f06e 99bd dda3 2e3d 152c 253c
000000d0: b9c4 7bbd 8688 a53d 9300 06be 0491 423c
000000e0: 5ff0 643d 82de 37be 566a c5bd 2380 2e3e
000000f0: fadd 333e 46e8 4bbe c6bd 95bd 80b5 0e3e
00000100: dcfe 65be 1410 643e 599e 17be 786c 323d
00000110: ec11 3f3e 188e 463d d43b babd b7cd 163c
00000120: 4f9a 20be 65e9 5b3e 642d 1ebd c641 dcbd
00000130: 9011 50be 6fc3 3dbe a51c 523c b2f5 833d
00000140: 79ec 0abc 9fe5 a3bd 960d d0bd 3236 073e
00000150: 31a1 0cbe 6c8c 29be a580 af3b 207d 03be
00000160: b9f6 00be 3a5d 74be 4c73 2d3e 6f21 be3d
00000170: be58 96bd c62b d53d f180 3bbe 6280 243e
00000180: 793f 1ebe 1ffe a0bd 31f7 fabb f024 37be
00000190: 5dc8 253e 1e98 19be 0b26 11be 8e01 92bc
000001a0: 40b7 ff3d 58e4 183e 3b28 c63c cbe7 293e
000001b0: a9de fc3d 3558 60be 386b b6bd 154c 04be
000001c0: c447 1abe 6536 413e 2e9b 093e 28a1 123e
000001d0: 06a1 e8bd 7b53 b03d ae08 f03d c35d f83d
000001e0: 0213 153e 22d4 9d3c 0bf9 b03d 720a 4ebe
000001f0: d5d1 47be d5bc e73c 035d 16be 408e 11bd
00000200: 0b58 843e d4c1 8a3d 05bb c8bd 74b5 b2bd
00000210: a21f 89bd ff86 e63d b77c d8bd 7cc7 af3d
00000220: 8113 c93c 9a3b 4bbc b8f9 633d 53e1 1abd
00000230: c0cc 40be 88ae 753e 9020 9abd 64a7 80bd
00000240: 1b6b b5bd c5c8 8f3d 2c10 2c3e 599d bd3d
00000250: 7212 8bbc a14c d53d 9b63 523e 14cf bc3d
00000260: 12ce d23b 42b5 903d 2a4e af3d 5876 4e3e
00000270: ffa4 31be 3ef4 c1bd a34c 50be 356b eebd
00000280: a6d9 c53d 5de4 cebd 66d0 42be e3b0 56bd
00000290: c161 28be d31d 6dbd 9f30 4abe b7ef 38be
000002a0: 6d15 593e a70d 16bc 03f3 1fbe db0f 5a3d
000002b0: f637 62be 56dd bc3d 5d0c 043e ba94 e3bd
000002c0: 4b6a cc3d a8ca f3bd 2c7d a2bd 7f0c 653d
000002d0: 38e9 3fbe f2e3 cb3d f1fc acbd 180e 8fbc
000002e0: f1c6 1abd 063e 53be c5ca 013e 315b c93d
000002f0: 37f3 4cbe b69c a73d 8183 063e 2b7c 043e
00000300: dedc bd3c 56e0 18be baba 24be ee01 09bd
00000310: 0d53 e73d 95d8 8abc 4e3e 3fbd f353 cfbd
00000320: 5625 b0bd c5a0 21be 38d7 243e 413b 193d
00000330: 9e5e ae3d c533 24be 2c1b 12be d69f 283c
00000340: e80d aabd 1c29 f73d aec9 32be b662 0e3c
00000350: 6129 a43c 8a20 99bd aa67 b13d 70b5 44bd
00000360: 90ab fb3d a99a 283e 3fce de3d ea63 163e
00000370: be54 dabd 51ce cfbd 5d4a 4e3e d2ff 44bd
00000380: e684 1a3c b66c d33d 6c59 8b3d 1227 babd
00000390: 1601 33be b26e bb3d 17cc 0e3e 9859 c83c
000003a0: 6335 893d bbe3 08be f68d 17be 2580 01bd
000003b0: c691 59bd e56d 2abe c4f1 0d3e 8e0a d83d
000003c0: 5f54 a7bb 4fad f6bd f976 b6bd 8816 e4bd
000003d0: 3606 0bbe c798 bc3d 6bfe 243e c324 033e
000003e0: 35cc e9bd 075c efbd b3ec b43d 3bfd ebbd
000003f0: d617 6cbd 86ce 42bd 743b 6d3d c0e1 7c3d
0.17206101 0.14772461 0.029324915 -0.06915716 0.24206185 0.10937072 0.12769842 0.097350866
-0.14678662 0.08314956 -0.07349557 -0.16257134 0.0023106257 -0.166264 0.12862943 0.14992745
-0.15160248 -0.12943597 0.0436058 -0.3420018 0.008241577 0.07630888 0.034091085 -0.11305133
-0.093582086 0.14947136 -0.08520713 -0.13164724 -0.051892053 0.29430836 0.13926496 0.05679756
-0.050354067 0.122217275 0.058043014 -0.0030380231 0.041488517 0.11742599 -0.13913748 -0.12665826
-0.189276 0.021199275 -0.062276233 -0.14631248 -0.034501683 -0.056580685 -0.08347122 0.027403176
-0.011994413 -0.07491863 0.04263674 0.010081311 -0.061466906 0.080826804 -0.13086157 0.011875395
0.0558933 -0.17955974 -0.096394226 0.17041068 0.17565146 -0.19912824 -0.07311587 0.13936424
-0.22460502 0.22271758 -0.14806499 0.043560475 0.1865918 0.048475355 -0.090934426 0.00920432
-0.15683864 0.21475752 -0.038617507 -0.10754733 -0.203192 -0.18531583 0.012824212 0.06443347
-0.008479231 -0.08002781 -0.10158841 0.13204268 -0.13733365 -0.16557473 0.005355912 -0.128407
-0.12594117 -0.23863688 0.16938514 0.09283721 -0.07341145 0.1040874 -0.18310906 0.16064599
-0.154539 -0.0786097 -0.007658862 -0.17885184 0.16189714 -0.14999434 -0.14174668 -0.017823007
0.12486124 0.14930856 0.024189105 0.16592328 0.123471566 -0.21908648 -0.08907169 -0.12919648
-0.15066439 0.18868406 0.13438103 0.14319289 -0.11358838 0.08609673 0.117204055 0.12127259
0.14558032 0.019266192 0.08641251 -0.20121172 -0.19513638 0.028288284 -0.14683919 -0.03553605
0.2584842 0.06775251 -0.09801296 -0.08726016 -0.066954866 0.11256217 -0.105706625 0.085829705
0.024545433 -0.012404347 0.055658072 -0.037812542 -0.18828106 0.2399236 -0.07525742 -0.06281927
-0.08858319 0.070207156 0.16803044 0.09258527 -0.016976569 0.104150064 0.20545809 0.092191845
0.006433257 0.07065822 0.085598305 0.20162332 -0.17348097 -0.094704136 -0.20341735 -0.11641542
0.09660654 -0.101021506 -0.1902481 -0.052414786 -0.1644354 -0.05788977 -0.1974511 -0.18060194
0.2119958 -0.009158528 -0.15620045 0.053237777 -0.2209166 0.09221904 0.12895341 -0.11112352
0.09981211 -0.11903888 -0.07934031 0.05592012 -0.1874131 0.099555865 -0.08446682 -0.017462775
-0.03778738 -0.20629129 0.12675007 0.098318465 -0.20014654 0.08184187 0.13136102 0.12937991
0.023176607 -0.14929327 -0.16086856 -0.033449106 0.112951376 -0.016948977 -0.046690278 -0.10123434
-0.08600871 -0.15783985 0.16097724 0.037410025 0.085141405 -0.16035374 -0.14268178 0.010292014
-0.08303434 0.12068388 -0.17459747 0.008690527 0.020039262 -0.074769095 0.086623505 -0.048024595
0.12288582 0.16465248 0.10879182 0.14686552 -0.106606945 -0.101467736 0.20145555 -0.04809553
0.0094310995 0.10323469 0.06804165 -0.09089483 -0.17480883 0.09151973 0.13945042 0.024456784
0.06699636 -0.13368122 -0.14800248 -0.03161635 -0.053117536 -0.16643484 0.13861758 0.10548888
-0.0051064934 -0.12044775 -0.08909411 -0.1113711 -0.13576588 0.092088275 0.16112678 0.12806992
-0.114159025 -0.11687475 0.08834209 -0.11522909 -0.05763992 -0.047560237 0.057918027 0.06173873

nn_fun1.6.bias f4 [30]
00000000: d1cd 45be b39b e73d 5b0c 1a3e fcaa 46bd
00000010: eb08 12be b5d2 eb3d fb34 e7bd ab3a 50be
00000020: 43ae 4fbd b865 2abe a2e5 373d adb9 cfbc
00000030: e4c9 b43a 13d7 dcbc 1bad 1d3e f952 653d
00000040: faff f0bd d8c5 6fbc 8333 d03d ad9c 00bd
00000050: 33f8 973c 6ae6 3cbe 2f4f 1f3e 457c ad3d
00000060: 592f 09bd d6ec 2abe 5554 933b 146e 453e
00000070: 7cdb b0bd 8351 8c3d
-0.19316794 0.11308994 0.15043776 -0.048502907 -0.14261214 0.115147986 -0.11289402 -0.2033488
-0.0507033 -0.16640365 0.04489673 -0.025357092 0.0013793078 -0.026958024 0.15398066 0.055987332
-0.11767574 -0.014634572 0.10166075 -0.031399418 0.018550968 -0.18447271 0.1555755 0.08470968
-0.03349242 -0.16691908 0.004496137 0.19280273 -0.08635613 0.068514846

nn_fun2.0.weight f4 [30, 2]
00000000: 37ca 62be e9e0 51bf c37e 453e a45f 823d
00000010: bfe6 633f d5a1 f8be 3dc8 303f 94e5 2cbf
00000020: 1f41 67bf f4bd 183f fa11 e13e e91f 9f3e
00000030: 160e 173f 6aa7 23bc e712 8f3e 73a6 213f
00000040: e10d 77be f7d5 9bbe 38b3 453e 20c9 4dbf
00000050: bf1d 343f 4854 ad3e 10be 8b3e 129c 633d
00000060: 21e6 8abe b6e6 9abe a28a 9d3b b9d6 f9be
00000070: b975 e4bd c3b2 a1be f167 0fbf fd8a 5dbe
00000080: 31fa 5bbf bfab 0ebf 4318 483d 8a36 e4be
00000090: 9321 123f d8a0 b93c 79e9 2f3f 4e85 e03e
000000a0: dd2c 5c3d a4c7 ca3e 415f 8bbd 1aa5 0b3e
000000b0: 213a eebe b9f7 dbbd 20b1 37bc 3a16 b4be
000000c0: 200a 95be 8a9f 343e a226 52be a214 273e
000000d0: f73b 063f 2c99 243e 485c 43be 7402 543e
000000e0: 7ccc debc dac8 b73e fd6d 043f 4eb6 19be
-0.22147451 -0.8198381 0.19286637 0.06365898 0.89023966 -0.48560968 0.6905554 -0.6753781
-0.9033374 0.59664845 0.43959028 0.31079033 0.5900587 -0.009988645 0.2794411 0.63144606
-0.24126388 -0.3043668 0.19306648 -0.8038502 0.7035789 0.33853364 0.27293444 0.055568762
-0.271287 -0.30254143 0.004807786 -0.48796633 -0.11155266 -0.31581697 -0.56017977 -0.21635051
-0.85928637 -0.55730814 0.048851263 -0.4457286 0.5708248 0.022659704 0.68715626 0.43851703
0.053753722 0.3960544 -0.068052776 0.136372 -0.46528724 -0.10740609 -0.0112116635 -0.35173208
-0.29109287 0.17638984 -0.2052255 0.16316465 0.5243525 0.16074055 -0.19078171 0.20704061
-0.027197115 0.35895425 0.5173033 -0.1501095

nn_fun2.0.bias f4 [30]
00000000: 56a1 c5be bd6d 893e 60a5 01bf 7c1c f7be
00000010: b4f4 7bbe 7f72 b3be 20ab 773e f87c f1be
00000020: 64cd e63e af15 e8be 0a3a 133f 9af6 df3d
00000030: 9982 18bc a637 e53e 6186 ed3e de16 d0be
00000040: 695f 9ebe 1e12 1a3f 3c65 b63e 6619 523e
00000050: c180 3fbe 0b3e 81be 85f6 b6be 3296 c4be
00000060: 4d4b 0abf 0819 08bf 3e98 083f 3a8c a0be
00000070: e588 13be efa5 223f
-0.38599652 0.26841536 -0.5064297 -0.4826392 -0.24605066 -0.3504829 0.24186373 -0.47165656
0.45078576 -0.45329043 0.57510436 0.109357074 -0.009308481 0.4476902 0.46391585 -0.40642446
-0.30932167 0.60183895 0.3562411 0.20517501 -0.1870146 -0.25242648 -0.35734954 -0.3839584
-0.5402115 -0.53163195 0.53357303 -0.31356984 -0.1440769 0.63534445

nn_fun2.2.weight f4 [30, 30]
00000000: a1e3 113e f6f4 e5bd a5b0 5fbe 3985 da3b
00000010: 7254 243e 52a6 41be 2ad0 5abe a824 9ebd
00000020: c22e 623e 4f2f 18be a94d 833d 5d4f 72bd
00000030: a34f 903e 2b30 26bd 006f 613e 100e 2bbc
00000040: 5d02 f33c 25d0 763c 08e5 30be 53b8 ea3c
00000050: 5a35 7cbe 6783 5fbd 5f68 8b3d 2538 3dbd
00000060: 3a02 a2bd 6843 be3d f631 983d 10d2 bfbd
00000070: a107 8ebd f978 88bc 7daa c13d c9d2 a13c
00000080: 9c84 593e de7c 49bc 47e3 89bd dfe2 54bd
00000090: 1035 85bc 1728 f53d 42c0 273d 2f7b 383e
000000a0: 525c 22be a249 28bd 9c86 2e3e ce2a 27be
000000b0: ca24 21bd 9b4d 383e 3f6e 253e c337 5bbe
000000c0: fc2e 09be 4447 2fbc 02d1 10bc 06a8 dd3d
000000d0: 31a8 643e 5d79 453e 3b18 9ebd 8709 f6bd
000000e0: cda0 41be 3e06 2c3e 4df3 c83d f9ea 28bd
000000f0: c345 af3d 51ac 0d3e ab55 10be dca5 b4bd
00000100: e00b e53d c676 133d c0ea fb3d 3c73 aa3d
00000110: 1d49 293e b8cc 853c ecbf b93d b6e2 463e
00000120: 2855 67be 4b3a 1d3e 8f5b 28be fc82 74bd
00000130: f710 7cbe c9f7 213d a09e a83d b8c6 573e
00000140: 0f87 283e 1e6c 16bd 3514 a4be 0e84 c1bd
00000150: d632 1c3d 77c1 0b3d cfec 853e 23f3 aabd
00000160: e983 bd3d 0d90 8b3b e494 46be badc 713e
00000170: 6c51 81bb c7cb 003e f1a9 8cbe 2949 46bb
00000180: a1e7 32bd ec68 033e 1e65 c33d 9fe5 a2bd
00000190: 1183 22be 2d6a 22bd f104 19be c7e0 e43d
000001a0: 7327 49bb 7e64 98bc 9aa5 82bd f6b6 d8bd
000001b0: 9af9 32be ab50 48bd 6687 cd3d 6ef3 54bc
000001c0: 168b 1f3e 65a3 d73d 4137 9ebc 29a5 ef3d
000001d0: e385 5a3d 1d3d da3d d4f6 80bd f054 273e
000001e0: 4ca6 153e 42d9 aebd a759 59be 7ff8 68bd
000001f0: 8634 9e3e a9e8 92bc f8dc 60be eb5a 073e
00000200: 7b46 99bd 8d73 e23d 15f0 a83a 91bc 7e3d
00000210: 5631 0fbe a3cc 46be df93 3cbe 4558 c93d
00000220: 40b7 eb3d 91aa 00be cbf6 1bbe 67f0 193e
00000230: a4c1 313d 8f29 383d f866 393e d8ab 9bbc
00000240: 55bf 343e 42f4 afbd 7dd0 d73d 07da 843e
00000250: 3072 e2bc 82d2 46be 49c5 2abe 72d6 3fbc
00000260: 81f8 323d 120a 3cbd e2c4 24be b9e6 643e
00000270: cf3f febd f75f f33c 2267 38be 0475 613c
00000280: 20b0 b13d f8c8 9a3e ebea 97be ddb7 5fbc
00000290: f422 1c3e 5635 fd3d 48fb 92b9 7bf8 8f3c
000002a0: 0e04 0bbe 5a4c ad3d fbb8 94bd d464 c83c
000002b0: 3f95 21be 35c5 1cbe 5817 4ebd c35a f5bd
000002c0: 7f51 9fbd c030 3abe 4dd5 a33b ec3b c3bd
000002d0: 10cb 9f3d 3b77 3bbc 7b76 1abe 01c1 843d
000002e0: ffa5 203d 2643 123e 87be a63d 7c46 5bbe
000002f0: 1517 743e 197a 2d3b 8f54 22be f4db 9dbd
00000300: c0b0 dfbd d1e6 6b3e b48c e53d 21f8 87bc
00000310: dfe8 4d3e 3761 063c 1f10 423e eda1 a2bd
00000320: 440d 18be 739a 16bc f3dd c7bd 474f 743d
00000330: 77a1 a0be 221c 52be 445f 4c3e 2b03 a8be
00000340: db9e b6bd fc32 8d3e 87ee bb3d 9342 b43b
00000350: 3a74 75be 2f19 5abe 28c0 0abd 48cf a8bd
00000360: 56ac 243d b649 65bd f690 353e a1c1 3fbd
00000370: 832b ad3d e6ba 3e3e 2724 f43d c1cd 6b3e
00000380: 4400 1c3e 1e4f 4dbe 9f75 08be d966 f43e
00000390: 524e 863e b740 7e3d 4a47 0ebe 2b2a a3bd
000003a0: 097a 7ebe fa14 c53d cf86 58be 9642 b9be
000003b0: 4cf5 9e3e 4e77 fbbd ca37 35bd 4943 863e
000003c0: 2c1e 6a3c fb4e ca3d b2ba 20be 4702 12be
000003d0: 7329 193b 289b 593d 1a2d b4bd f353 c9bd
000003e0: 3f9f d53d 2a81 a03d 87ae 053e 3dbe 073d
000003f0: a44b 593c ff11 073e 7b3b 2c3d 76ce 68bd
0.1424699 -0.11228363 -0.21844728 0.0066687134 0.16047838 -0.18911102 -0.21368471 -0.077218354
0.22088149 -0.14861797 0.06411297 -0.059157718 0.28185758 -0.04057328 0.22015 -0.0104403645
0.029664213 0.015064274 -0.17274868 0.028652346 -0.24629727 -0.054568674 0.068070166 -0.04619612
-0.07910581 0.092902005 0.07431404 -0.09366238 -0.06935049 -0.016659247 0.09456346 0.01975383
0.21241993 -0.012297837 -0.06732803 -0.051974174 -0.016260654 0.11970537 0.040954836 0.18015741
-0.1585553 -0.041085847 0.17043537 -0.16324922 -0.039341725 0.17998354 0.16155337 -0.2140799
-0.1339683 -0.010698143 -0.008838894 0.108230636 0.22329785 0.19284578 -0.07719465 -0.12013536
-0.18908997 0.16799256 0.09812031 -0.041239712 0.08558228 0.13835265 -0.1409518 -0.08820698
0.111839056 0.036001943 0.123006344 0.083227605 0.16531797 0.01633297 0.09069809 0.19422421
-0.22591078 0.15354268 -0.16441177 -0.05969523 -0.24615847 0.039542947 0.0823338 0.21071899
0.16457771 -0.036724202 -0.32046667 -0.094490156 0.03813442 0.03412005 0.26157233 -0.08347156
0.092536755 0.0042591156 -0.19392735 0.23619357 -0.003946474 0.12577735 -0.27473405 -0.003025601
-0.04367793 0.12832993 0.09540771 -0.07953953 -0.1587031 -0.03965204 -0.14943291 0.111756854
-0.003069368 -0.018602606 -0.06379242 -0.10581772 -0.17478028 -0.048905056 0.10035591 -0.012997491
0.15580401 0.10529212 -0.019313456 0.11701424 0.05335034 0.10656188 -0.06297079 0.16340995
0.14614218 -0.085375324 -0.21225606 -0.05687761 0.30899447 -0.017933207 -0.21959293 0.13218276
-0.07484146 0.11057196 0.0012888933 0.06219155 -0.13983664 -0.19414 -0.18415783 0.09831289
0.115095615 -0.12565066 -0.15230863 0.15033112 0.04339756 0.04496151 0.18105686 -0.01900284
0.17651112 -0.0859151 0.10537813 0.25947592 -0.02764234 -0.1941624 -0.16676821 -0.011708843
0.043694023 -0.04590804 -0.1609073 0.22353639 -0.12414514 0.029708846 -0.18008092 0.013760809
0.08676171 0.30231452 -0.29671416 -0.013654676 0.15247709 0.12363689 -0.0002803451 0.01757454
-0.13575765 0.084618285 -0.07261845 0.024462141 -0.15779589 -0.15309604 -0.05031523 -0.11980202
-0.07779216 -0.18182659 0.0049997927 -0.095329136 0.07802403 -0.011442001 -0.15084259 0.06482125
0.039220806 0.14283428 0.08141809 -0.21413606 0.2383693 0.002647048 -0.15852569 -0.07707968
-0.10922384 0.23037268 0.112084776 -0.01659781 0.20108365 0.008201889 0.18951462 -0.07941041
-0.1484881 -0.009192097 -0.0975913 0.059645917 -0.31373188 -0.20518544 0.19958216 -0.32814917
-0.08917018 0.2757796 0.09176355 0.0055011003 -0.23970118 -0.2129867 -0.03387466 -0.08242661
0.040203415 -0.0559785 0.1773108 -0.04681552 0.08455565 0.18625984 0.11920958 0.23027708
0.15234476 -0.20049712 -0.13326119 0.47734717 0.2623163 0.062073436 -0.13894382 -0.07967027
-0.2485124 0.096231416 -0.21145175 -0.36183614 0.31046522 -0.12278615 -0.044242658 0.2622321
0.01428942 0.098783456 -0.15696219 -0.14258681 0.0023370653 0.053126484 -0.08797665 -0.09830465
0.104307644 0.07837136 0.13054858 0.03314041 0.013262663 0.13190459 0.042048912 -0.05683752

nn_fun2.2.bias f4 [30]
00000000: 6fd8 363e 578e 0e3e 0428 6abd 3cd8 943d
00000010: 566b 8cbd e0ab 8c3d 829a ad3d b233 c03d
00000020: dfa5 49be d0f2 e3bd 495d 02be 7a32 1fbe
00000030: 9287 c4bd 500e 083d b3be e23d b269 413d
00000040: bec2 3ebe 7700 5ebd 72bc da3b ba4a babd
00000050: d4cb d7bd 439e 29bc 3bd7 093d 16af 24be
00000060: e40d 8dbd 9d80 d13c 3138 2ebe 6c93 2abe
00000070: 5fcc 6abd 8ac1 d83d
0.17856 0.13921486 -0.057167068 0.07267806 -0.0685641 0.0686872 0.08476736 0.0938486
-0.19692181 -0.11130297 -0.12730898 -0.15546599 -0.095961705 0.033216774 0.11071529 0.04721994
-0.18628976 -0.054199662 0.0066752965 -0.09096284 -0.10536924 -0.010352674 0.033652525 -0.16082415
-0.06887415 0.025574023 -0.17013623 -0.166578 -0.05732381 0.1058379
