models/neural_network_ResGatedGraphConv_single_dynamics_PD_graph_size_10/neural_network.pth (torch, 4059 bytes, 9 tensors)

conv1.bias f4 [30]
00000000: 8b1e 6b3e de00 ca3d 2766 333e 1747 dfbe
00000010: 18dc 413d 3bc1 493c c988 3dbf 2d3e 693d
00000020: b0ad 80bf b2da dd3e 65b0 5fbf 5aaa 3dbe
00000030: 8b7b 193d 3a3c a0be 6b6b 3b3c b16b 20be
00000040: 2875 6f3e 73be 2e3f 9e38 183e 313c 76be
00000050: a74e 1d3e 9ba3 eebd fe17 a83e 8c63 183f
00000060: 4231 be3d d671 ecbd 0ef2 47bc cfd1 e2be
00000070: 675b 223f cb6f 86bd
0.2296087 0.09863447 0.17519437 -0.43608925 0.04732904 0.012314136 -0.7403684 0.05694406
-1.0053005 0.43330914 -0.8737853 -0.18522015 0.037471335 -0.3129595 0.011439185 -0.15666081
0.23384535 0.6825935 0.14865348 -0.24046399 0.15362035 -0.11652299 0.32830805 0.59526896
0.09286739 -0.1154515 -0.012203706 -0.44300696 0.6342072 -0.065642916

conv1.lin_key.weight f4 [30, 1]
00000000: bcd2 f4be d6e6 a03d 7157 9cbf f687 24bf
00000010: c4cc 92bf 9824 39bf 2152 e63e c667 993e
00000020: b034 8a3f d530 03bf 0ac7 ee3f 5f74 093f
00000030: 2ef0 e43c 60ba 1dbf 934e 6a3f a05c 71bf
00000040: 82bc f3be 48b1 9bbf ea1e 013e 805e 6fbf
00000050: 1b61 bebe 8260 a5bf 2830 7cbe 980b eabf
00000060: d2e9 dabe 663b 38bf 089b aebf 1433 8dbf
00000070: 6239 01c0 6506 3ebf
-0.47817028 0.078565285 -1.2214185 -0.6426996 -1.146874 -0.7232146 0.44984534 0.29961985
1.0797329 -0.51246387 1.8654492 0.53693193 0.027946558 -0.6161251 0.91526145 -0.9428196
-0.47604758 -1.2163477 0.12609449 -0.9350357 -0.3718346 -1.2920077 -0.24627745 -1.8284788
-0.42756516 -0.71965635 -1.3641062 -1.1031213 -2.0191274 -0.7422851

conv1.lin_key.bias f4 [30]
00000000: b783 19bf b77c ebbd 2330 22bf 7732 1dbf
00000010: 0f5e 0bbf 0c1b 14bf 9b19 3dbf be9c c03e
00000020: 9290 82bf 0cc3 59bf b661 90bd 1947 d6be
00000030: c44f 433e 49b2 1d3f 425d 553f d712 4b3f
00000040: d431 f23e 38ae 66be 87d2 503f 8121 433f
00000050: 8890 3d3f cc5f 053f 4fc1 123e 5f47 00bf
00000060: b6e0 1abf a20d dbbe 09c5 a2be 8eed 313e
00000070: c2f8 30bd 38f6 9c3f
-0.59966606 -0.11498397 -0.633547 -0.6140513 -0.544404 -0.5785377 -0.73867196 0.37619585
-1.0200369 -0.8506324 -0.07049887 -0.41851118 0.19073397 0.61600167 0.83345425 0.7932562
0.4730364 -0.22527397 0.8157124 0.76223 0.7404866 0.520993 0.14331554 -0.50108904
-0.6049913 -0.4278384 -0.3179095 0.17375776 -0.043205984 1.226264

conv1.lin_query.weight f4 [30, 1]
00000000: c7e0 77be 743a 06be 95ec 513e 3742 39be
00000010: 0b1c 123f bd00 b6bd 93a4 603e 9fec 873f
00000020: 50f5 b93e 0e77 3f3e 35c0 9dbe f693 8cbf
00000030: 4026 07bf 3f43 3cbd 791b 0bbf 3aa6 c0be
00000040: 40f6 bb3d 645b bc3e 752e 4fbf 591c cc3e
00000050: be90 5d3f 24ed 70be 43bd 12bf 844d 18bf
00000060: e3e2 a23e 7d7c 423f c3f6 27bf f3f6 39bf
00000070: 1343 893e 811c fc3e
-0.2420684 -0.13108236 0.20500405 -0.18091665 0.5707404 -0.088868596 0.2193778 1.0619086
0.3631997 0.1869776 -0.30810705 -1.0982654 -0.5279274 -0.04596257 -0.54338795 -0.3762682
0.09177828 0.36788476 -0.8093026 0.39865378 0.86548984 -0.23527962 -0.5732004 -0.5949328
0.31813726 0.75971204 -0.65610904 -0.7264244 0.26808986 0.49240497

conv1.lin_query.bias f4 [30]
00000000: a0cb 0d3e 1da0 033f 25a4 2d3f ab06 fbbe
00000010: 7693 843e 1200 713f 9fa2 0fbf 7eed e9bd
00000020: 7c7b fbbd b179 22bf 58a2 9ebf 0a01 8fbe
00000030: f864 8f3f 9644 3bbf 7212 243f aac4 e03e
00000040: a8b4 92be 660f eebc 38c8 693f 4e93 733f
00000050: 29df 153f b021 65bc 9a15 d43e bd30 243f
00000060: 424a 90bf 7d2a 31bf 835a 8a3e 38d9 94be
00000070: 51a3 d73e 3249 be3e
0.13847208 0.5141619 0.6782859 -0.49028525 0.25893754 0.9414073 -0.56107515 -0.11422251
-0.12279412 -0.63466936 -1.2393293 -0.2793048 1.1202688 -0.7315153 0.64090645 0.43900043
-0.28653455 -0.029060077 0.91321135 0.95146644 0.5854364 -0.0139850825 0.4142273 0.6413687
-1.1272662 -0.69205457 0.2702218 -0.29071975 0.42116788 0.3716522

conv1.lin_value.weight f4 [30, 1]
00000000: 4bca 97be 8149 debe 21f3 26be 400b c33e
00000010: b804 82be 1ac5 c93c a346 f73e c8b9 35bf
00000020: 93e1 8bbe 6f9c 1b3f cb92 4a3f 63f8 87bd
00000030: 54e2 243f fc03 313f 98c4 993e d9a6 423f
00000040: 3845 843f 759f 763f 1bcd 0fbf cd67 84bf
00000050: db60 76be ed6c c53d be23 89be fd32 953f
00000060: 52be b73e 9510 6b3f bfd3 3dbf be4f 113f
00000070: da90 013f fc35 6d3f
-0.29646525 -0.43415454 -0.16303684 0.3809452 -0.25394225 0.024630118 0.4829608 -0.70986605
-0.27320537 0.60785574 0.7913024 -0.06639173 0.6440785 0.69146705 0.30032802 0.7603584
1.0333624 0.9633706 -0.5617234 -1.0344177 -0.24060385 0.096399166 -0.26785082 1.1656185
0.3588739 0.9182218 -0.74151224 0.567623 0.5061165 0.926605

conv1.lin_value.bias f4 [30]
00000000: 8723 a53e 2db5 8fbe 236b febd 07e7 39bf
00000010: c76a 69bf 9d7a 813f 52a2 9f3e 152d 1e3f
00000020: f8c9 3f3f 113a 73bd 566f 1c3f 0b36 e23e
00000030: ba18 60bc 90a2 3bbf 96b1 6bbd 0480 7d3e
00000040: 2a1d 30bf e6c7 b9be abf9 9cbe 12af e83c
00000050: 0fd5 7f3f d756 90bf e6d4 2abf 6e46 a43f
00000060: 0ed0 2dbf b59f ebbe 6812 e03e fc35 66bf
00000070: 029e 113f 819f 813f
0.32253668 -0.28067914 -0.124227785 -0.72618145 -0.91178554 1.0115544 0.31178528 0.6178754
0.74917555 -0.05938155 0.61107385 0.44181857 -0.01367777 -0.73294926 -0.057542406 0.24755865
-0.687945 -0.36285323 -0.30659232 0.028403793 0.99934477 -1.1276501 -0.6673111 1.2833993
-0.6789559 -0.46020284 0.43764043 -0.89926124 0.56881726 1.0126802

conv1.lin_skip.weight f4 [30, 1]
00000000: 477a f0be b8ed 4e3f 08b0 8b3e a179 4d3f
00000010: b207 aabe a855 cbbe 24f2 ae3f 73cd c1bc
00000020: 87b9 c73f ad2c 42bf 591c 75be 73b9 67bd
00000030: 12eb 16bf 6e6a 593f 1e1b 6bbf fdc8 05be
00000040: bd48 d3be 071a 95bf ca64 093f addd 83bd
00000050: d195 8abe a8a3 9abe 896b 473f 3ff1 aebf
00000060: c4c0 a13e 1ff0 193d b6e3 9d3e 9200 5e3f
00000070: 5369 afbf 86c8 30c0
-0.4696829 0.8083148 0.2728274 0.80263716 -0.33208996 -0.39713788 1.3667645 -0.023657536
1.5603493 -0.7584942 -0.23936595 -0.056573343 -0.5895244 0.84928024 -0.9183825 -0.13064952
-0.41266432 -1.1648568 0.53669417 -0.06438766 -0.27067426 -0.30202985 0.7789846 -1.3667372
0.3159238 0.037582513 0.30837792 0.8671962 -1.3704017 -2.762239

lin.weight f4 [1, 30]
00000000: ea4a e53d f7cb a93e ba30 f1be e309 a5be
00000010: 0ac3 6d3e b6fb d5bd c0bf 6a3e 119f 93be
00000020: 7173 b83e d25a 903e 06b0 cf3d f722 62be
00000030: 0c59 5bbe 2733 b8bd cb63 af3c 2eff 34be
00000040: 1558 943e 5054 d83e 5a30 813c 34b8 633e
00000050: ca57 e0bd 3eb1 573e dfa2 8c3e e6ab f63e
00000060: 889b 79be 8c80 2f3e 9372 29bd 7223 d3be
00000070: 1503 2f3f 822c 283e
0.11195929 0.33163425 -0.47107488 -0.32234105 0.23218933 -0.10448401 0.2292471 -0.28832296
0.36025575 0.2819429 0.10140996 -0.2208365 -0.21420687 -0.089941315 0.02140989 -0.17675468
0.2897345 0.42251825 0.015770126 0.22238237 -0.109542444 0.21063706 0.2746801 0.48178023
-0.24375737 0.1713888 -0.041369032 -0.4123798 0.6836408 0.16423228
