results/FHN_celegans_directed_wcc_multiple_nn_True_16/neural_network.pth (torch, 38491 bytes, 26 tensors)

g.0.weight f4 [30, 2]
0.7481211 0.3491648 -0.45542395 -0.36349022 0.54865694 -0.40636915 -0.28699127 -0.27189368
-0.6693909 -0.21628152 0.45485568 -0.0055297017 0.4153583 0.00645906 0.45185697 0.56111205
-0.018297244 -0.2298794 -0.20704302 0.42212877 -0.50527215 0.43047968 -0.40113598 0.14394169
-0.27741033 0.34406367 -0.14969885 -0.15919638 0.20406927 0.047673993 0.04805103 -0.4918677
-0.67781144 0.18781744 -0.5616032 -0.16399366 0.06581294 0.19296089 0.30627578 -0.10278427
0.03909527 -0.07965935 0.6537008 0.13005775 -0.50408703 -0.5470029 -0.35547462 0.4789856
0.13645472 0.49111137 -0.7247339 -0.8714346 0.073539466 0.63204014 0.6972134 0.10370247
-0.30657586 0.34348106 0.57211053 -0.20241876
00000000: dd84 3f3f bbc5 b23e 542d e9be 641b babe
00000010: c874 0c3f 9e0f d0be 85f0 92be a635 8bbe
00000020: 345d 2bbf e778 5dbe d8e2 e83e 8032 b5bb
00000030: d8a9 d43e 86a6 d33b cc59 e73e 0aa5 0f3f
00000040: 1ae4 95bc 8165 6bbe 1603 54be 4321 d83e
00000050: 8459 01bf d567 dc3e b261 cdbe 7365 133e
00000060: ba08 8ebe 1d29 b03e a84a 19be 6004 23be
00000070: 89f7 503e ce45 433d 28d1 443d 15d6 fbbe
00000080: 0d85 2dbf 3753 403e 3ac5 0fbf f4ed 27be
00000090: efc8 863d 8a97 453e 2ed0 9c3e 8f80 d2bd
000000a0: 5d22 203d 7124 a3bd f058 273f dc2d 053e
000000b0: d90b 01bf 6208 0cbf c500 b6be 9a3d f53e
000000c0: c9ba 0b3e f372 fb3e 2988 39bf 5716 5fbf
000000d0: dc9b 963d 62cd 213f 947c 323f f661 d43d
000000e0: 83f7 9cbe c0dc af3e d675 123f dd46 4fbe

g.0.bias f4 [30]
-0.59419847 -0.58037615 0.36631215 -0.23150857 0.6272514 0.43972322 0.48068166 0.5442283
0.12657958 -0.21795693 0.5216688 0.061390974 -0.51998544 0.023795115 -0.26788908 0.3150627
0.6214517 -0.4551364 0.016556362 0.19502963 0.07158973 -0.17130837 -0.4922641 -0.26684684
0.6722246 0.5870244 0.14369874 -0.34964886 0.5284196 -0.57224876
00000000: 641d 18bf 8893 14bf 448d bb3e 9510 6dbe
00000010: 8c93 203f 6723 e13e e81b f63e 8c52 0b3f
00000020: 149e 013e 1a30 5fbe 168c 053f 1a75 7b3d
00000030: c41d 05bf f9ed c23c c228 89be e64f a13e
00000040: 7517 1f3f a307 e9be 35a1 873c d9b5 473e
00000050: a39d 923d 766b 2fbe 0a0a fcbe 26a0 88be
00000060: e916 2c3f 3b47 163f c325 133e 2d05 b3be
00000070: 8246 073f e57e 12bf

g.2.weight f4 [30, 30]
0.07506344 0.06950453 -0.17794164 0.13436534 0.21385247 -0.17675376 0.040562756 -0.17499922
-0.07199337 0.17331797 0.14241636 0.080121614 0.166461 0.07457006 -0.16975214 0.09465307
0.048871193 0.24285156 -0.14904065 -0.27685603 0.06120376 -0.22881751 0.096742354 -0.06087601
0.15562941 -0.053718157 0.1574073 -0.06756299 0.041307572 0.018508298 -0.1517549 0.12683357
0.1680952 -0.1654665 0.14014411 0.02055172 -0.10110109 0.18317431 -0.041146636 -0.070229
0.1543382 0.042503387 0.17038839 -0.07700892 0.16742015 -0.09640343 0.13420357 -0.060128234
0.12548167 0.08027784 -0.15662855 -0.12671484 0.062665604 -0.042788178 -0.14221244 0.07624886
0.1602095 0.02968913 -0.09224343 -0.032377172 0.09551059 0.09948872 0.03512738 0.07492166
0.0831055 0.17774403 -0.09893523 0.09950518 -0.027977573 0.0036094573 -0.043733295 0.042631537
0.058965217 -0.15196387 -0.19901454 -0.00408499 0.1828568 -0.059548717 -0.14924039 0.0058088456
-0.0100790225 0.16437529 0.051259954 0.041474923 0.03856844 -0.000111255984 0.01222799 -0.09518692
-0.132731 0.092472635 0.1757526 0.12245091 -0.082650095 0.1095673 -0.04046171 0.100460485
-0.11502382 0.13224617 0.08052891 0.0127559155 0.10287082 -0.004630237 -0.16739918 -0.061444648
0.106204726 0.09200094 -0.090285175 0.11225347 0.08740424 0.1308756 0.24206537 -0.09993032
0.039451595 -0.014857582 -0.12709048 -0.07882174 0.18500619 -0.109925695 -0.026400313 -0.08334084
0.11085591 0.14047173 -0.15480258 -0.040036697 0.032456484 -0.12958738 0.13555247 -0.021741567
0.10265495 0.009513436 -0.18312326 0.0053213057 0.01763483 -0.14781025 0.106104024 -0.07992866
0.12692362 -0.1220157 0.117878556 -0.17226475 0.14828934 0.14369662 -0.08902824 -0.16068192
0.064946145 0.08293679 -0.1599581 -0.06512447 0.08464181 -0.12679465 -0.102044255 -0.16374487
-0.04313132 0.0032911485 0.105931625 0.063235156 -0.11408779 0.13223122 0.20761399 -0.04876062
0.13619545 0.011989462 0.0065099634 0.017995952 0.12360081 0.095295414 -0.15296248 -0.006792702
-0.14291456 0.18952842 0.12408951 0.06238316 0.10497423 0.022306567 -0.05556382 0.06783938
0.14039306 0.04967008 -0.006147642 0.009107979 0.12764554 0.06219665 -0.08162511 -0.09414535
0.036941506 0.22686915 0.15997304 0.09246244 -0.114070654 -0.19623011 0.118786246 -0.11762273
-0.10359501 -0.17877476 0.17165756 0.11802616 -0.06214932 0.06472456 0.12168386 0.20949084
-0.00013166296 -0.10690481 0.080090284 0.046414275 -0.11942132 0.09333319 -0.037813596 -0.007202902
-0.13815223 0.08937656 -0.040223833 0.1727376 0.011391833 -0.13905706 -0.10960011 -0.17269975
-0.10352403 0.13473804 -0.08777797 0.04890269 -0.0011773792 0.16651654 -0.048794236 0.08848668
0.16332759 -0.023299322 -0.054187406 0.019406833 0.16411306 0.107211664 0.022732986 0.06630504
0.102248505 -0.14075229 0.06561203 -0.014352349 -0.06854893 0.005602441 -0.06628481 -0.14493123
0.15576075 -0.19566862 0.11690165 -0.108338684 0.05577512 0.18562111 0.20157735 -0.06832252
-0.09251452 -0.016208006 -0.194769 0.022967566 -0.14009883 -0.013964369 -0.12428241 0.17198575
00000000: dcba 993d 6458 8e3d 5536 36be 1197 093e
00000010: 24fc 5a3e f0fe 34be 2225 263d ff32 33be
00000020: 4371 93bd 447a 313e 98d5 113e cd16 a43d
00000030: c174 2a3e 30b8 983d 81d3 2dbe 78d9 c13d
00000040: 292d 483d 14ae 783e 1d9e 18be 13c0 8dbe
00000050: cbb0 7a3d 234f 6abe db20 c63d 2059 79bd
00000060: 515d 1f3e 9207 5cbd 612f 213e 775e 8abd
00000070: 2132 293d b79e 973c a365 1bbe a9e0 013e
00000080: 2621 2c3e 0d70 29be f081 0f3e 155c a83c
00000090: 170e cfbd 0c92 3b3e 6089 28bd 39d4 8fbd
000000a0: d50a 1e3e 0818 2e3d 4b7a 2e3e dab6 9dbd
000000b0: 3070 2b3e 296f c5bd a96c 093e 0649 76bd
000000c0: 447e 003e b568 a43d 3c63 20be 89c1 01be
000000d0: d356 803d a842 2fbd 23a0 11be 5d28 9c3d
000000e0: f60d 243e 9e36 f33c 20ea bcbd ed9d 04bd
000000f0: 0e9b c33d bec0 cb3d bae1 0f3d 8770 993d
00000100: 3733 aa3d 8802 363e 8e9e cabd 5fc9 cb3d
00000110: 3931 e5bc a58c 6c3b af21 33bd 689e 2e3d
00000120: 8385 713d 6b9c 1bbe 78ca 4bbe 61db 85bb
00000130: d03e 3b3e 5be9 73bd 79d2 18be 2158 be3b
00000140: 7c22 25bc ff51 283e f5f5 513d 9ce1 293d
00000150: f1f9 1d3d 1a52 e9b8 e857 483c 5cf1 c2bd
00000160: a3ea 07be 4b62 bd3d 7df8 333e 8bc7 fa3d
00000170: 7444 a9bd d264 e03d 2ebb 25bd 3abe cd3d
00000180: 9c91 ebbd 8a6b 073e 57ec a43d 30fe 503c
00000190: f0ad d23d 3eb9 97bb b16a 2bbe 62ad 7bbd
000001a0: dd81 d93d fd6a bc3d 6fe7 b8bd 26e5 e53d
000001b0: ff00 b33d 4104 063e fcdf 773e 45a8 ccbd
000001c0: ff97 213d 376d 73bc 0224 02be 4b6d a1bd
000001d0: 4372 3d3e b920 e1bd 7845 d8bc 9aae aabd
000001e0: 6c08 e33d d2d7 0f3e 9184 1ebe 85fd 23bd
000001f0: 17f1 043d 8eb2 04be 44ce 0a3e 5f1b b2bc
00000200: c23c d23d 3ede 1b3c aa84 3bbe 595e ae3b
00000210: eb76 903c 925b 17be 114d d93d a3b1 a3bd
00000220: 44f8 013e 5ee3 f9bd 506a f13d 2c66 30be
00000230: 29d9 173e 3525 133e 7054 b6bd cd89 24be
00000240: 7c02 853d c4da a93d 0ecc 23be fa5f 85bd
00000250: af58 ad3d 75d6 01be 94fc d0bd bcac 27be
00000260: 78aa 30bd 4fb0 573b aef2 d83d 6f81 813d
00000270: dca6 e9bd 9f67 073e c398 543e 37b9 47bd
00000280: d276 0b3e 736f 443c 8851 d53b 3f6c 933c
00000290: 6c22 fd3d 3e2a c33d 32a2 1cbe 5095 debb
000002a0: 3258 12be bd13 423e a422 fe3d 7c85 7f3d
000002b0: bbfc d63d 43bc b63c e396 63bd 5fef 8a3d
000002c0: 33c3 0f3e db72 4b3d 2972 c9bb a239 153c
000002d0: 83b5 023e eac1 7e3d 112b a7bd 47cf c0bd
000002e0: fa4f 173d 6350 683e f9cf 233e f35c bd3d
000002f0: e09d e9bd 8cf0 48be 3446 f33d 30e4 f0bd
00000300: 9f29 d4bd bb10 37be 00c7 2f3e b3b7 f13d
00000310: 4990 7ebd 4f8e 843d 6335 f93d c484 563e
00000320: 020f 0ab9 e9f0 dabd 6006 a43d e51c 3e3d
00000330: 2a93 f4bd 7925 bf3d 6ee2 1abd 5206 ecbb
00000340: c777 0dbe 0f0b b73d bfc1 24bd 20e2 303e
00000350: d0a4 3a3c f964 0ebe 0676 e0bd 34d8 30be
00000360: 6804 d4bd c5f8 093e f0c4 b3bd 304e 483d
00000370: 4a52 9aba 5083 2a3e 77dc 47bd 8138 b53d
00000380: 593f 273e 38de bebc 9df3 5dbd 14fb 9e3c
00000390: 410d 283e ca91 db3d 873a ba3c f0ca 873d
000003a0: aa67 d13d 5e21 10be 9a5f 863d 1d26 6bbc
000003b0: 6263 8cbd ae94 b73b 55c0 87bd da68 14be
000003c0: bf7f 1f3e 5b5d 48be 226a ef3d ace0 ddbd
000003d0: 7474 643d 7613 3e3e 4b6a 4e3e adec 8bbd
000003e0: 4178 bdbd a7c6 84bc 8671 47be 7a26 bc3c
000003f0: 1176 0fbe cfca 64bc c787 febd 081d 303e

g.2.bias f4 [30]
0.085457265 -0.19596039 0.029297594 0.04958821 -0.031653326 -0.105418116 0.13534729 0.08275599
-0.065302156 0.07893768 0.10962678 0.09615744 0.09382948 0.14660984 0.028838253 0.14330246
-0.11538336 0.118538804 0.16903226 0.035608236 -0.063086994 -0.10996391 -0.090437576 0.061882827
-0.12796155 -0.1822938 0.16353963 0.16697162 0.107895106 0.026028102
00000000: 3804 af3d d7a9 48be 8201 f03c 021d 4b3d
00000010: eba6 01bd 74e5 d7bd 7b98 0a3e f97b a93d
00000020: 23bd 85bd 14aa a13d 0184 e03d 31ee c43d
00000030: ac29 c03d e420 163e 333e ec3c e1bd 123e
00000040: 1c4e ecbd 79c4 f23d cb16 2d3e f1d9 113d
00000050: c133 81bd c234 e1bd 5637 b9bd d978 7d3d
00000060: 5a08 03be 3aab 3abe ef76 273e 9cfa 2a3e
00000070: 1cf8 dc3d e338 d53c

g.4.weight f4 [30, 30]
0.12762138 0.20897098 0.050368164 0.19502193 -0.023580942 0.044401873 -0.0097609125 0.14364606
-0.057630382 -0.1772176 -0.1871983 -0.008629924 -0.0814571 0.05533161 -0.036962826 -0.17340103
0.10388005 -0.05388005 0.038286645 0.046768356 -0.10221747 0.025166998 0.0459672 0.088497944
-0.023103468 0.09551978 0.13201018 -0.082759656 -0.20085125 0.12127106 -0.26703012 -0.043309692
0.07989594 0.15261173 -0.20048518 -0.033080257 0.18638487 0.12204368 0.018691953 0.08916582
-0.15881322 0.046174504 0.28515616 -0.13092251 -0.07789457 0.13495687 0.0035554233 -0.13496378
0.05731733 -0.074280396 -0.023110468 -0.068231985 0.10408645 -0.052775607 0.13617675 -0.13652581
-0.0866031 -0.008402757 -0.14064348 -0.05387567 -0.095737115 -0.13500148 0.050364573 -0.16158037
-0.03956522 -0.08887796 0.067475244 -0.06486553 -0.03691034 -0.024675813 0.06930203 0.0775068
0.051197134 -0.18453373 -0.07689916 0.06700296 -0.11935059 0.110378556 0.03804424 0.014015773
-0.09204802 0.1816245 0.21220557 -0.1223732 0.13398989 -0.0066806525 0.17111942 0.06893782
-0.055643648 -0.12043708 0.17559342 0.01969646 -0.018212114 0.0540685 -0.01896396 -0.022339068
0.0571534 -0.1896182 0.050091494 -0.0053375787 0.1338266 -0.03649036 -0.20203014 -0.06493514
-0.06297016 0.15805383 0.04799708 -0.021579798 0.065735124 -0.14971353 0.08020344 0.12073237
0.039401725 0.11558079 0.04528037 -0.07323613 -0.05182064 0.14405723 -0.112129346 0.16474704
0.029299185 0.06678747 -0.008268585 -0.10124347 -0.11714883 -0.13440183 0.17339489 0.1509658
-0.005019975 -0.10302916 0.21074621 0.011807348 -0.08863083 0.14926426 0.029920073 -0.01528928
-0.097070366 -0.054062065 0.014977006 -0.077610984 -0.024859864 -0.12993558 0.032395247 -0.07055308
-0.112224914 -0.0052668955 -0.16076699 0.11625583 0.03170613 0.046497233 0.11347031 -0.07057455
-0.10290138 0.11028453 -0.0114291245 -0.17979811 0.086135715 0.098994434 -0.08037601 0.05389171
-0.20050873 0.13640092 0.026855296 -0.1248946 -0.13223408 -0.059677508 -0.13852815 0.05691038
-0.07918038 -0.16972427 0.022291537 -0.15876944 0.023068257 0.0027946474 0.029638235 0.06529826
-0.16675135 -0.0059397337 0.028213657 0.11191465 -0.11551941 -0.04663856 -0.13595742 0.11707037
-0.101355545 -0.08635273 0.03575656 -0.06563936 -0.0058449116 0.04845331 -0.07916799 0.15860517
0.11798953 0.058887787 0.15142645 0.112417646 0.09058186 0.039025567 0.02487583 -0.021992309
-0.121651694 -0.11733388 -0.10345508 -0.10652266 0.061056778 0.060433555 0.028178737 -0.07953882
-0.101811476 0.059160415 0.09220238 -0.14208592 0.06064987 -0.021202 -0.14591488 -0.02391317
0.128574 -0.011692629 -0.13841015 0.1331201 0.049061988 0.15023361 -0.11997175 0.011441191
-0.017588658 -0.00858226 -0.09100102 -0.22624265 0.0092283515 -0.17832269 -0.14367993 -0.03180962
-0.001264789 0.055228125 -0.10360175 -0.14683834 -0.075781815 0.02847797 0.027634347 -0.04851392
0.07316211 0.13979048 -0.08590473 -0.01784456 -0.107331954 -0.169163 -0.13690256 -0.1329879
0.13594918 0.123926096 -0.07922695 -0.19165863 0.13721915 0.035190105 0.13530108 0.15036666
00000000: 2eaf 023e 7dfc 553e d94e 4e3d d4b3 473e
00000010: d22c c1bc bdde 353d 3cec 1fbc f417 133e
00000020: d60d 6cbd 8878 35be e9b0 3fbe 8664 0dbc
00000030: fbd2 a6bd 66a3 623d 5566 17bd 0a90 31be
00000040: 10bf d43d 54b1 5cbd 75d2 1c3d 2d90 3f3d
00000050: 6557 d1bd 052b ce3c 1a48 3c3d 693e b53d
00000060: 7c43 bdbc e09f c33d ad2d 073e e57d a9bd
00000070: f3ab 4dbe f65c f83d 2cb8 88be 8165 31bd
00000080: 7ca0 a33d 4046 1c3e fd4b 4dbe 2a7f 07bd
00000090: addb 3e3e 09f2 f93d de1f 993c 929c b63d
000000a0: ef9f 22be 7a21 3d3d fdff 913e 8d10 06be
000000b0: 3087 9fbd 2232 0a3e 1b02 693b f233 0abe
000000c0: 94c5 6a3d 5220 98bd 2a52 bdbc 36bd 8bbd
000000d0: 472b d53d 3c2b 58bd eb71 0b3e 6ccd 0bbe
000000e0: f75c b1bd b8ab 09bc d804 10be bcac 5cbd
000000f0: d211 c4bd d43d 0abe 154b 4e3d 5375 25be
00000100: 240f 22bd a605 b6bd 7630 8a3d 38d8 84bd
00000110: 4c2f 17bd ee24 cabc 39ee 8d3d e3bb 9e3d
00000120: 16b4 513d 69f6 3cbe 4f7d 9dbd d938 893d
00000130: 156e f4bd 270e e23d 47d4 1b3d 6aa2 653c
00000140: ac83 bcbd c6fb 393e 6b4c 593e cd9e fabd
00000150: a534 093e 60e9 dabb ee39 2f3e 462f 8d3d
00000160: 98ea 63bd b7a7 f6bd c3ce 333e 785a a13c
00000170: 9231 95bc ee76 5d3d 4f5a 9bbc 6c00 b7bc
00000180: af19 6a3d 462b 42be bd2c 4d3d dbe6 aebb
00000190: d709 093e ea76 15bd fde0 4ebe b7fc 84bd
000001a0: 80f6 80bd ddd8 213e 9698 443d 1ec8 b0bc
000001b0: 23a0 863d 814e 19be b341 a43d 8842 f73d
000001c0: b463 213d 9fb5 ec3d e977 393d d3fc 95bd
000001d0: e141 54bd bd83 133e 12a4 e5bd 73b3 283e
000001e0: d804 f03c dec7 883d f678 07bc bd58 cfbd
000001f0: baeb efbd a2a0 09be 6e8e 313e c796 1a3e
00000200: 9a7e a4bb f400 d3bd dbcd 573e 9b73 413c
00000210: 1584 b5bd bbd8 183e f11a f53c e37f 7abc
00000220: d4cc c6bd 2f70 5dbd 1e62 753c 82f2 9ebd
00000230: eaa6 cbbc d50d 05be e1b0 043d 227e 90bd
00000240: 2dd6 e5bd ec95 acbb 1aa0 24be 8917 ee3d
00000250: 49de 013d e273 3e3d 1f63 e83d 6489 90bd
00000260: f5bd d2bd dbdc e13d 3941 3bbc ff1c 38be
00000270: ec67 b03d 98bd ca3d 2d9c a4bd 8ebd 5c3d
00000280: 2952 4dbe afac 0b3e a3ff db3c bdc8 ffbd
00000290: 5f68 07be 6770 74bd 53da 0dbe dc1a 693d
000002a0: 5329 a2bd 33cc 2dbe be9c b63c 7594 22be
000002b0: a4f9 bc3c 6726 373b e2cb f23c 18bb 853d
000002c0: dec0 2abe 19a2 c2bb 5420 e73c 8233 e53d
000002d0: 7195 ecbd 1308 3fbd 6c38 0bbe 97c2 ef3d
000002e0: 7f93 cfbd b3d9 b0bd 7875 123d ee6d 86bd
000002f0: ac86 bfbb fa76 463d d422 a2bd 6569 223e
00000300: 7fa4 f13d 5234 713d 890f 1b3e 393b e63d
00000310: fb82 b93d 46d9 1f3d 66c8 cb3c 3729 b4bc
00000320: 8624 f9bd bf4c f0bd 42e0 d3bd 8d28 dabd
00000330: ac16 7a3d 2d89 773d 18d7 e63c 40e5 a2bd
00000340: 8982 d0bd 3152 723d 9ad4 bc3d f97e 11be
00000350: 006c 783d d1af adbc b66a 15be 8de5 c3bc
00000360: e7a8 033e 7192 3fbc 64bb 0dbe a350 083e
00000370: 39f5 483d d7d6 193e c0b3 f5bd d573 3b3c
00000380: 1716 90bc 9c9c 0cbc be5e babd 27ac 67be
00000390: 8332 173c 399a 36be d520 13be ce4a 02bd
000003a0: 47c7 a5ba e336 623d 282d d4bd ca5c 16be
000003b0: 7f33 9bbd a24a e93c 6d61 e23c 88b6 46bd
000003c0: 04d6 953d 3c25 0f3e d2ee afbd c12e 92bc
000003d0: dbd0 dbbd 1139 2dbe 2f30 0cbe fb2d 08be
000003e0: 4336 0b3e f7cc fd3d bd41 a2bd 2942 44be
000003f0: 2d83 0c3e 8023 103d 5e8c 0a3e b8f9 193e

g.4.bias f4 [30]
0.070846476 -0.02889229 0.12668554 -0.12623091 0.15220495 0.06568978 0.13881272 0.04633709
-0.1518008 0.15607469 0.05776672 -0.11202021 -0.06824061 0.12282331 -0.035271563 0.1734045
-0.12759769 -0.11258159 -0.09153591 -0.15895453 0.092752844 0.081148215 -0.0750992 0.08404213
-0.041285984 -0.07211211 -0.022484213 0.0011746854 0.05949667 0.14695714
00000000: f517 913d 86af ecbc dbb9 013e ad42 01be
00000010: 9ddb 1b3e 5d88 863d ec24 0e3e f6cb 3d3d
00000020: ab71 1bbe 0bd2 1f3e cc9c 6c3d da6a e5bd
00000030: bcc1 8bbd ca8a fb3d ea78 10bd f390 313e
00000040: f8a8 02be 2d91 e6bd 2e77 bbbd fac4 22be
00000050: 34f5 bd3d 0931 a63d 9ccd 99bd 481e ac3d
00000060: 7e1b 29bd 84af 93bd d030 b8bc e7f7 993a
00000070: c8b2 733d ef7b 163e

g.6.weight f4 [2, 30]
0.026849743 0.1863488 -0.021462377 -0.04666517 -0.11418585 0.0063521164 -0.040257163 -0.0087576145
0.056183673 -0.0055407435 0.06611503 0.018952008 -0.051334616 -0.017857196 0.07616866 -0.08482536
0.029517476 -0.001944315 0.06985423 0.1518094 0.09503316 0.044347733 -0.028308375 -0.016074946
-0.020449145 -0.082192436 -0.09682946 0.03311086 0.08475228 -0.13407315 -0.05348336 0.07906737
0.012417823 -0.07197759 0.04222017 -0.12312979 0.09897681 -0.0016218243 -0.033498365 -0.14353257
0.06980083 -0.15961465 -0.042978052 0.0023525753 0.035148114 -0.107225195 -0.007246315 -0.010846443
-0.033395976 -0.05012273 -0.10609216 -0.15753809 0.09580831 0.04184651 0.020917777 -0.0243674
-0.075275384 0.08242895 -0.12951848 0.1502556
00000000: fef3 db3c 38d2 3e3e ded1 afbc fa23 3fbd
00000010: 45da e9bd 6a25 d03b b2e4 24bd 197c 0fbc
00000020: da20 663d 208f b5bb 5167 873d 3e41 9b3c
00000030: 3f44 52bd 4149 92bc 50fe 9b3d ebb8 adbd
00000040: a2ce f13c 63d8 feba bc0f 8f3d ec73 1b3e
00000050: bfa0 c23d f8a5 353d f7e6 e7bc 9baf 83bc
00000060: f784 a7bc 8254 a8bd 864e c6bd 419f 073d
00000070: 9a92 ad3d 794a 09be 5e11 5bbd 13ee a13d
00000080: 2074 4b3c fd68 93bd 0fef 2c3d 792b fcbd
00000090: 5bb4 ca3d 6593 d4ba 9535 09bd 34fa 12be
000000a0: bdf3 8e3d 0672 23be c109 30bd aa2d 1a3b
000000b0: 78f7 0f3d e298 dbbd 7f72 edbb 47b5 31bc
000000c0: 38ca 08bd 7e4d 4dbd d946 d9bd aa51 21be
000000d0: 2637 c43d 3f67 2b3d c25b ab3c 249e c7bc
000000e0: fb29 9abd 82d0 a83d 7ea0 04be 9bdc 193e

g.6.bias f4 [2]
0.066840716 0.17503837
00000000: c9e3 883d 423d 333e

nn_fun1.0.weight f4 [30, 2]
0.45926288 0.24710274 0.35809964 -0.71465725 -0.49680457 0.71036166 0.34933138 -0.47812998
0.62096417 -0.5518674 -0.5764096 0.15028411 -0.22611754 0.8696041 -0.5264481 -0.8017683
0.6291803 0.02921544 0.67721367 0.24942295 0.64036644 -0.04427419 0.4883898 -0.6466286
-0.8563193 0.10613528 0.7025425 0.6983855 -0.3580203 -0.7161742 -0.26418176 -0.5027237
-0.4042204 -0.04705236 0.39218086 -0.4053499 -0.15047173 0.29059118 0.5120753 -0.26980338
-0.27634063 0.48379493 0.4043813 0.17592868 -0.46087232 -0.85793096 -0.0557211 0.6796154
-0.54705983 -1.0258408 0.085639514 -0.4732148 -0.29699835 -0.57500863 0.24138747 -0.18346716
0.54703814 0.24753962 -0.24297866 0.19589819
00000000: 8124 eb3e 8008 7d3e d658 b73e c7f3 36bf
00000010: 2b5d febe 43da 353f 90db b23e 74cd f4be
00000020: 82f7 1e3f 2f47 0dbf 948f 13bf 14e4 193e
00000030: 5b8b 67be 609e 5e3f 4dc5 06bf b040 4dbf
00000040: f611 213f 3855 ef3c e05d 2d3f bb68 7f3e
00000050: 0eef 233f da58 35bd 3a0e fa3e 7489 25bf
00000060: be37 5bbf 745d d93d d3d9 333f 64c9 323f
00000070: 704e b7be 3157 37bf d542 87be 80b2 00bf
00000080: faf5 cebe fab9 40bd eecb c83e 068a cfbe
00000090: 4315 1abe 5ec8 943e 5e17 033f ab23 8abe
000000a0: 857c 8dbe f8b3 f73e 110b cf3e a626 343e
000000b0: 75f7 ebbe 5da1 5bbf cf3b 64bd 46fb 2d3f
000000c0: 1d0c 0cbf c04e 83bf c563 af3d 3649 f2be
000000d0: 2b10 98be c433 13bf 472e 773e d1de 3bbe
000000e0: b10a 0c3f 077b 7d3e 66cf 78be 8999 483e

nn_fun1.0.bias f4 [30]
-0.5063251 0.06450147 0.27046952 0.7077571 0.7300955 0.5900692 0.43392727 0.096153215
-0.34440112 -0.6687677 -0.3947582 -0.21191886 -0.08865933 0.5282491 -0.05799094 -0.36019433
0.28908515 0.17164399 0.6115441 0.57611823 -0.45819184 -0.28866562 -0.09458665 -0.70100254
0.058085114 0.36079985 0.16497503 0.49243027 0.3153454 -0.5047026
00000000: 869e 01bf 5919 843d fb7a 8a3e 922f 353f
00000010: 8ae7 3a3f c60e 173f b72b de3e faeb c43d
00000020: 5855 b0be 5c34 2bbf bf1d cabe 4201 59be
00000030: 0693 b5bd 553b 073f e887 6dbd 646b b8be
00000040: f802 943e 71c3 2f3e 278e 1c3f 7c7c 133f
00000050: 1f98 eabe fbcb 93be a5b6 c1bd e774 33bf
00000060: a8ea 6d3d c2ba b83e 37ef 283e d21f fc3e
00000070: f474 a13e 3134 01bf

nn_fun1.2.weight f4 [30, 30]
0.020425037 -0.26279423 0.16398397 -0.26242048 -0.28152645 -0.022485223 0.16432111 0.11258969
-0.04996155 0.07332919 0.005108489 -0.1476009 0.07860443 -0.06995804 -0.056527335 -0.09495767
-0.16298412 -0.08306003 -0.10485543 -0.14851815 0.07075859 0.15797177 0.14057441 0.31348768
0.18162346 -0.15309913 -0.20194827 -0.20719583 -0.002707004 -0.1417996 -0.07917978 0.16471003
-0.25595352 0.2727734 0.0059403908 -0.11514988 -0.450663 0.6317255 -0.11583173 -0.2627005
-0.035233375 0.0024619412 0.091169484 -0.36903992 0.7161803 0.3295672 0.2357357 0.099746354
-0.247208 0.14743406 -0.17874818 -0.3219587 0.5230431 -0.3927949 0.7046617 0.058863904
0.7869937 -0.06872879 -0.22369789 -0.14586963 0.13313536 0.21374254 -0.21469429 0.018463532
0.30715013 -0.16471204 -0.02661049 -0.07162925 0.15783565 0.09125729 0.27528474 0.13749276
-0.028239872 0.116182916 -0.1533595 0.019670881 -0.19112444 0.28429484 0.18148278 0.09669725
-0.26826286 -0.057541285 0.06427558 -0.2416372 0.09944869 0.06973171 0.15230584 0.16424711
0.10558087 -0.1485947 -0.14678931 0.008721047 -0.23970643 -0.1777845 0.032400914 -0.122219846
-0.044024847 0.124034956 -0.05036458 -0.032076135 -0.12713793 0.042552438 0.10589247 0.11941134
-0.011131747 -0.06675866 0.070667654 0.13138601 0.02345799 -0.19685546 0.14928028 0.03605512
-0.14503755 -0.14869118 0.031552467 -0.14735569 0.14699593 0.02126969 0.064917274 -0.17185731
-0.029158581 -0.2652038 0.293601 0.08023736 0.04144378 -0.04745882 -0.03238943 -0.07734972
-0.016764745 -0.0031167543 0.08142847 0.021767125 -0.14491713 -0.203575 0.18100607 0.20158641
-0.07763266 0.037558835 -0.0019351804 0.05801276 -0.033951234 -0.035690885 -0.104043975 0.009008951
0.10056515 0.029642513 -0.05877646 -0.06521619 -0.09510471 -0.04390313 0.11853884 -0.19170582
0.011389275 0.095168665 0.10169292 -0.1274282 0.032998256 0.20635699 0.15421495 0.0334718
-0.14029987 -0.19393341 -0.10486457 -0.17469637 0.22086401 -0.10185539 -0.14654446 -0.15989135
0.08110062 0.14001407 -0.08480577 0.08539229 -0.024680395 0.1810859 -0.07300613 0.16694567
-0.018065462 0.055524003 0.059008896 0.19011979 0.123344675 0.06719133 -0.048242796 -0.15872139
0.16407882 -0.11488428 0.13508329 0.17705049 0.13684048 0.04311799 0.07393274 -0.025711142
0.037785817 -0.2188219 0.16627918 0.10188378 0.084424295 -0.12008653 -0.07830425 -0.014278683
0.15148348 -0.06068363 0.25616902 -0.14328997 0.028807176 -0.15011798 -0.023929568 0.07654902
0.078173116 0.18690224 -0.4697484 -0.14245713 0.39077017 0.225352 0.23174839 0.35418043
0.0777727 0.2480554 -0.0605897 -0.42936376 -0.35296407 -0.10430736 0.025701575 0.040910248
0.054097362 0.070168234 0.14911532 0.09218726 0.20324384 0.09991726 -0.23173536 -0.24249212
0.18493834 -0.2405567 0.0011472704 0.2262377 0.27259523 0.09762251 -0.0019036686 0.09930317
-0.20424142 0.03877554 0.039117 -0.02727859 -0.35625303 0.14301044 -0.046763998 0.06875393
-0.23617482 0.033459865 -0.18500102 0.057414606 0.32434562 -0.2555378 0.21365702 0.26880664
00000000: 6852 a73c f78c 86be 6aeb 273e fa5b 86be
00000010: 3c24 90be ee32 b8bc cb43 283e 6c95 e63d
00000020: 7ba4 4cbd 9d2d 963d 1d65 a73b b124 17be
00000030: 5cfb a03d 2946 8fbd 3589 67bd 2b79 c2bd
00000040: 4fe5 26be 611b aabd 72be d6bd 2415 18be
00000050: e1e9 903d 5ac3 213e bdf2 0f3e 7581 a03e
00000060: 80fb 393e 05c6 1cbe 87cb 4ebe 252b 54be
00000070: fe67 31bb ea33 11be 0229 a2bd bfa9 283e
00000080: 570c 83be f5a8 8b3e 9ca7 c23b b3d3 ebbd
00000090: 4dbd e6be c3b8 213f 3039 edbd ae80 86be
000000a0: df50 10bd 8558 213b 11b7 ba3d cdf2 bcbe
000000b0: 9857 373f 08bd a83e b364 713e d147 cc3d
000000c0: 1824 7dbe f4f8 163e c309 37be c5d7 a4be
000000d0: 27e6 053f 6a1c c9be b664 343f 471b 713d
000000e0: 6b78 493f aec1 8cbd 0f11 65be d95e 15be
000000f0: a354 083e 53df 5a3e d2d8 5bbe d540 973c
00000100: c842 9d3e 46aa 28be 3efe d9bc 5bb2 92bd
00000110: ab9f 213e 1ae5 ba3d 1ff2 8c3e e7ca 0c3e
00000120: 4e57 e7bc 4ff1 ed3d 460a 1dbe d424 a13c
00000130: 20b6 43be 188f 913e 9fd6 393e 3509 c63d
00000140: c059 89be 69b0 6bbd eaa2 833d be6f 77be
00000150: c1ab cb3d 80cf 8e3d 10f6 1b3e 6530 283e
00000160: c83a d83d 3629 18be f04f 16be b9e2 0e3c
00000170: 9a75 75be 240d 36be d2b6 043d 664e fabd
00000180: 6653 34bd 0a06 fe3d 174b 4ebd 4462 03bd
00000190: 7230 02be 774b 2e3d 27de d83d ef8d f43d
000001a0: ee61 36bc c4b8 88bd 34ba 903d 0e8a 063e
000001b0: f82a c03c 7a94 49be eedc 183e 89ae 133d
000001c0: b984 14be 8042 18be 293d 013d 69e4 16be
000001d0: 1a86 163e c63d ae3c 59f3 843d 5dfb 2fbe
000001e0: fadd eebc cbc8 87be df52 963e 7c53 a43d
000001f0: f4c0 293d 2e64 42bd c7aa 04bd 8869 9ebd
00000200: 3856 89bc 7642 4cbb f8c3 a63d f850 b23c
00000210: 2865 14be f775 50be a859 393e ab6c 4e3e
00000220: dffd 9ebd 4bd7 193d e1a5 fdba ca9e 6d3d
00000230: 7310 0bbd 9b30 12bd 0215 d5bd 479a 133c
00000240: 1af5 cd3d dbd4 f23c 96bf 70bd 1190 85bd
00000250: 42c6 c2bd c5d3 33bd 7ec4 f23d 884e 44be
00000260: 159a 3a3c cae7 c23d 6144 d03d 8a7c 02be
00000270: 2e29 073d 3f4f 533e 86ea 1d3e ba19 093d
00000280: c5aa 0fbe 7b96 46be 3cc3 d6bd 9be3 32be
00000290: 2d2a 623e 8f99 d0bd c00f 16be 8fba 23be
000002a0: 1518 a63d d95f 0f3e a6ae adbd 27e2 ae3d
000002b0: 8a2e cabc 956e 393e 3d84 95bd cef3 2a3e
000002c0: 05fe 93bc 236d 633d 50b3 713d c3ae 423e
000002d0: 229c fc3d 9c9b 893d 3d9a 45bd dc87 22be
000002e0: 4704 283e 7348 ebbd 4653 0a3e b94c 353e
000002f0: e91f 0c3e 7d9c 303d 0c6a 973d 2ca0 d2bc
00000300: 4dc5 1a3d d912 60be 1745 2a3e 71a8 d03d
00000310: a5e6 ac3d edef f5bd fb5d a0bd 23f1 69bc
00000320: 7c1e 1b3e 668f 78bd 9628 833e 9bba 12be
00000330: 07fd eb3c 87b8 19be f107 c4bc bcc5 9c3d
00000340: 3a19 a03d 4d63 3f3e dd82 f0be 48e0 11be
00000350: 0713 c83e adc2 663e 734f 6d3e 2357 b53e
00000360: 4b47 9f3d 3c02 7e3e e82c 78bd 91d5 dbbe
00000370: b5b7 b4be 199f d5bd 1c8c d23c 8191 273d
00000380: 3295 5d3d 5db4 8f3d b0b1 183e adcc bc3d
00000390: 271f 503e 6ca1 cc3d 094c 6dbe db4f 78be
000003a0: 7a60 3d3e 7f54 76be 0260 963a dbaa 673e
000003b0: 9a91 8b3e 4fee c73d 8584 f9ba 765f cb3d
000003c0: aa24 51be 1ad3 1e3d 2639 203d 5977 dfbc
000003d0: cc66 b6be 5471 123e 9b8b 3fbd dcce 8c3d
000003e0: d0d7 71be 360d 093d e870 3dbe 942b 6b3d
000003f0: a110 a63e dad5 82be e8c8 5a3e 06a1 893e

nn_fun1.2.bias f4 [30]
-0.08509101 -2.3876084e-05 0.101747885 0.094523765 0.1120807 -0.021850377 -0.04953769 -0.07517994
0.017801765 -0.03583294 -0.22000608 -0.17208754 0.15200776 -0.098150514 0.20381138 -0.19246332
0.044834077 0.012765785 -0.109753564 0.031922497 0.16327034 0.0047861324 -0.024173606 0.1271229
-0.053490862 0.14603612 0.043983974 -0.14189759 -0.09469033 0.023920467
00000000: 3244 aebd 8049 c8b7 3261 d03d ad95 c13d
00000010: 918a e53d 90ff b2bc 08e8 4abd f1f7 99bd
00000020: 02d5 913c 90c5 12bd 4649 61be b737 30be
00000030: eca7 1b3e 2303 c9bd eeb3 503e 1b15 45be
00000040: f0a3 373d 9527 513c 7ac6 e0bd 2ac1 023d
00000050: 5730 273e fdd4 9c3b ba07 c6bc 812c 023e
00000060: 3c19 5bbd 7e8a 153e 8a28 343d 9a4d 11be
00000070: 01ed c1bd dbf4 c33c

nn_fun1.4.weight f4 [30, 30]
0.009877602 -0.17191498 -0.14791109 0.22020456 -0.078251466 -0.14207086 -0.16212156 0.23666956
0.018790072 -0.03250195 -0.14931896 -0.12520766 -0.0056187054 -0.04440948 -0.029028688 -0.08235222
0.15510021 -0.07730535 -0.08610373 -0.14236934 -0.05586584 -0.08484271 0.047261585 0.1896268
0.023016822 0.018321387 -0.07257034 -0.16253348 -0.14178659 -0.010221891 -0.051964764 -0.19016887
-0.16760609 0.042837914 0.116922475 -0.12841798 -0.038855907 0.09874065 0.18034941 0.048718613
0.117094085 -0.075283065 -0.03696335 0.11924372 -0.0054221475 -0.0038503308 -0.046212677 -0.15631136
-0.09108445 -0.1561384 0.04333724 0.102112375 -0.07340173 -0.07346949 -0.11547353 0.18392426
-0.027047288 -0.018087767 0.16560948 0.074212305 -0.20712242 -0.17264862 0.1387032 -0.045111306
-0.053241234 -0.015667394 -0.18347314 0.10597873 -0.14167555 -0.09299811 0.18265206 -0.14947425
-0.05499325 0.13331933 0.2718161 0.035835646 0.012180743 0.18468711 -0.0431562 -0.078128114
-0.2057287 -0.07654168 -0.049261972 0.28469437 -0.052525427 -0.035539754 -0.13980621 -0.024782052
-0.06824354 0.15542017 0.044850953 -0.3393617 -0.07409898 0.061456196 -0.17038536 -0.13634442
-0.23699658 -0.25987762 0.11013136 0.11566433 0.055244662 -0.053845327 -0.014735625 0.037939556
0.091268495 -0.11449582 0.19335529 -0.08374755 0.089203775 -0.018054413 -0.12541097 -0.20274086
0.041989006 -0.112633854 -0.074629344 -0.16015758 0.011375726 0.117759615 0.08012062 -0.11059749
-0.23843834 0.31177428 0.14113353 0.064449064 -0.005663119 0.01577046 0.04166464 0.30807197
0.004603794 -0.2743416 -0.23535794 0.11830763 -0.06879545 -0.22221474 -0.15336694 0.08495328
0.14847036 -0.14407432 -0.117680006 0.03263542 -0.08273236 0.090844646 -0.23807445 0.2670093
0.0107068885 0.11537106 -0.068363555 -0.11280302 0.09219296 -0.15171544 -0.14342858 -0.024255376
-0.08921035 0.061793204 -0.06541482 0.118709475 0.056293312 0.000594776 -0.05577297 -0.015445008
-0.17178915 0.1065059 0.053109206 -0.13219684 -0.11240972 -0.079938754 -0.07464835 0.062739454
0.019592727 0.015751705 0.15563431 -0.14764656 0.119404666 0.073730946 0.014603838 0.11725878
0.05553306 0.076268874 0.1526155 -0.081266455 0.070631884 0.15366921 0.0343318 0.08065412
-0.040960416 0.1288402 0.105017535 -0.14158069 -0.17037696 0.16726412 0.05676443 0.08229771
-0.016693052 0.13501228 -0.1259955 -0.14538987 -0.036657285 -0.088712685 -0.17773908 0.00021825705
0.010674024 0.025735496 -0.15672417 -0.054051045 0.14605054 -0.13648205 -0.20658581 -0.06750336
-0.1875086 -0.12495898 -0.105161175 -0.1582912 -0.016220981 0.14883679 0.10802141 -0.17770699
-0.15563256 -0.09443608 0.13030954 0.017631222 0.14412932 -0.021873076 0.04917305 0.14298533
0.15094046 -0.06404396 -0.18547861 -0.040549483 -0.17279059 0.14559051 0.11254211 0.09571674
0.17830706 -0.12180343 0.081405565 -0.17832856 0.038276844 -0.1021187 0.04830997 -0.14656398
0.10165914 0.06795903 0.07835769 -0.06921547 0.120040126 0.054124426 -0.046954267 0.029226962
0.017952316 0.027425027 -0.054587405 0.06143253 0.08509771 0.011389829 0.031367585 -0.035688646
00000000: aad5 213c 7b0a 30be 0176 17be 4e7d 613e
00000010: 4e42 a0bd 067b 11be 3203 26be 8159 723e
00000020: a3ed 993c c420 05bd 12e7 18be 7036 00be
00000030: 1e1d b8bb b7e6 35bd 92cd edbc 48a8 a8bd
00000040: 97d2 1e3e 4452 9ebd 2757 b0bd 45c9 11be
00000050: 94d3 64bd 04c2 adbd 5d95 413d 872d 423e
00000060: c68d bc3c bc16 963c c29f 94bd 2d6f 26be
00000070: 8130 11be b879 27bc 01d9 54bd a1bb 42be
00000080: eea0 2bbe cf76 2f3d 0d75 ef3d 0180 03be
00000090: 5f27 1fbd 8a38 ca3d 84ad 383e 2b8d 473d
000000a0: 06cf ef3d 022e 9abd e266 17bd 0d36 f43d
000000b0: 45ac b1bb d555 7cbb 8149 3dbd 1610 20be
000000c0: 7c8a babd bfe2 1fbe 6482 313d 4b20 d13d
000000d0: a553 96bd 2c77 96bd 637d ecbd a456 3c3e
000000e0: 4692 ddbc cc2c 94bc 8895 293e 9ffc 973d
000000f0: e617 54be cdca 30be 3608 0e3e a2c6 38bd
00000100: 7b13 5abd e858 80bc 62e0 3bbe 600b d93d
00000110: 6513 11be cb75 bebd 2409 3b3e c70f 19be
00000120: 9a40 61bd dd84 083e 7b2b 8b3e 66c8 123d
00000130: bd91 473c 9e1e 3d3e 8ec4 30bd a201 a0bd
00000140: 8baa 52be e2c1 9cbd ecc6 49bd 76c3 913e
00000150: e724 57bd 2292 11bd 5c29 0fbe bb03 cbbc
00000160: 45c3 8bbd 7726 1f3e a2b5 373d d1c0 adbe
00000170: 35c1 97bd 7eb9 7b3d 8079 2ebe df9d 0bbe
00000180: 3baf 72be ae0e 85be 8d8c e13d 6ce1 ec3d
00000190: 3a48 623d eb8c 5cbd b16d 71bc 8266 1b3d
000001a0: faea ba3d c97c eabd eefe 453e d683 abbd
000001b0: 78b0 b63d d9e6 93bc bc6b 00be 4d9b 4fbe
000001c0: aafc 2b3d 94ac e6bd 45d7 98bd 5900 24be
000001d0: 4161 3a3c f42b f13d 4816 a43d f080 e2bd
000001e0: 2e29 74be e1a0 9f3e 4f85 103e dffd 833d
000001f0: af91 b9bb 0d31 813c 8ba8 2a3d 9cbb 9d3e
00000200: 6cdb 963b 8176 8cbe ac01 71be 454b f23d
00000210: a1e4 8cbd 438c 63be 390c 1dbe fcfb ad3d
00000220: 9d08 183e 3888 13be 3702 f1bd b8ac 053d
00000230: 956f a9bd c20c ba3d cac9 73be 71b5 883e
00000240: f26b 2f3c aa47 ec3d 3102 8cbd 4505 e7bd
00000250: aacf bc3d 4b5b 1bbe f1de 12be 36b3 c6bc
00000260: eab3 b6bd df1a 7d3d 35f8 85bd f41d f33d
00000270: d193 663d beea 1b3a 3372 64bd 0f0d 7dbc
00000280: 7fe9 2fbe c41f da3d 0a89 593d 9c5e 07be
00000290: 1137 e6bd eeb6 a3bd 3ce1 98bd 8b7d 803d
000002a0: ed80 a03c b809 813c 9a5e 1f3e a930 17be
000002b0: 6f8a f43d 4000 973d f044 6f3c 5f25 f03d
000002c0: a276 633d db32 9c3d 3d47 1c3e 076f a6bd
000002d0: 73a7 903d 765b 1d3e 809f 0c3d fd2d a53d
000002e0: 1cc6 27bd afee 033e 6f13 d73d 87fa 10be
000002f0: 4c77 2ebe 4947 2b3e d281 683d b48b a83d
00000300: debf 88bc a940 0a3e f704 01be 15e1 14be
00000310: f325 16bd ffae b5bd 3c01 36be eedb 6439
00000320: 1ae2 2e3c 3fd3 d23c 4d7c 20be a164 5dbd
00000330: 468e 153e f3c1 0bbe 3b8b 53be 343f 8abd
00000340: 4102 40be 7eea ffbd be5e d7bd 1717 22be
00000350: dde1 84bc ac68 183e 543a dd3d d2f8 35be
00000360: 245e 1fbe b467 c1bd dd6f 053e 5a6f 903c
00000370: a396 133e 2a2f b3bc ae69 493d bf6a 123e
00000380: 2390 1a3e 7b29 83bd 1bee 3dbe 3717 26bd
00000390: 04f0 30be ae15 153e 7a7c e63d 2307 c43d
000003a0: 2096 363e 1474 f9bd f6b7 a63d c39b 36be
000003b0: 2ec8 1c3d 9c23 d1bd ade0 453d de14 16be
000003c0: ab32 d03d 1b2e 8b3d ff79 a03d d7c0 8dbd
000003d0: 99d7 f53d 93b1 5d3d 1e53 40bd 626d ef3c
000003e0: bc10 933c 73aa e03c 0b97 5fbd ada0 7b3d
000003f0: b547 ae3d 689c 3a3c 4c7b 003d 422e 12bd

nn_fun1.4.bias f4 [30]
0.18133228 -0.09488986 -0.0073388405 0.06468006 -0.08420404 -0.14036892 0.15501595 0.13472492
-0.1632316 -0.16034901 -0.08611671 -0.016629707 -0.053557746 -0.03045796 -0.019177215 0.16654538
-0.10696062 -0.117828734 0.048012502 -0.031398054 -0.042946093 -0.22146514 -0.040007994 -0.030507142
0.08525267 0.21477874 -0.16872758 -0.17530474 0.07914269 -0.020971747
00000000: 2baf 393e 9d55 c2bd a87a f0bb fb76 843d
00000010: 2b73 acbd dfbc 0fbe 80bc 1e3e 54f5 093e
00000020: 2f26 27be 8832 24be f55d b0bd 063b 88bc
00000030: 5e5f 5bbd f982 f9bc 8919 9dbc df8a 2a3e
00000040: 2b0e dbbd 3150 f1bd c2a8 443d 3f9b 00bd
00000050: 3ee8 2fbd c2c7 62be 6cdf 23bd 1dea f9bc
00000060: f498 ae3d f5ee 5b3e ecc6 2cbe 1683 33be
00000070: 9015 a23d f1cc abbc

nn_fun1.6.weight f4 [30, 30]
-0.13816355 -0.009692963 0.041417513 -0.16574933 -0.037352305 0.090272166 -0.0041871434 -0.05320851
0.14811996 0.12029207 -0.12861192 -0.080242336 0.096760415 0.15212853 0.096854225 0.11526432
-0.037442405 0.17478657 -0.10887437 -0.17555112 -0.14722943 0.055367302 -0.08997941 0.13331567
-0.005642114 -0.04428867 0.19292471 0.018631017 -0.083502375 -0.08678055 0.0092300335 -0.1612839
0.13465586 -0.023205688 0.13808252 -0.024102807 -0.19155937 -0.0967348 0.051713116 -0.07582139
0.07426766 0.10656335 0.007173743 -0.045029305 -0.06512213 -0.031563196 0.016633924 -0.101962835
-0.098016925 -0.01276818 0.10683733 -0.16309345 0.004373 -0.036206156 -0.03990802 0.19001845
-0.051458564 0.14887689 0.033831537 0.10564066 -0.1433094 -0.039073754 0.022417946 -0.066422224
0.045816794 0.02485264 0.06402679 0.08963281 0.054274775 -0.09096795 0.11181055 -0.11883664
-0.022545861 0.05728441 0.16064559 -0.11974913 0.053292017 -0.08280151 0.040869106 -0.021130491
0.14084868 -0.027400546 -0.055489484 0.18648489 -0.091685385 -0.057385936 -0.09134318 -0.025674103
0.008357117 0.004930928 -0.0031705468 0.11251814 -0.079688616 0.2449073 -0.06595391 -0.14209422
-0.07065554 0.013213533 0.024260249 0.04156938 0.14444198 0.018955953 0.0320214 0.056974765
-0.07617636 -0.02744737 -0.18810941 -0.06978765 -0.21952757 -0.00021821132 -0.07712626 0.08695933
-0.19571038 -0.16196439 -0.17894877 -0.08128562 -0.1668011 0.08735125 -0.047936127 0.24424377
0.0834396 0.116367705 -0.000745882 0.14660987 0.07394624 0.086882584 -0.018892102 -0.12676674
0.054913774 0.06621567 -0.14100933 0.14695567 -0.18138766 0.09570121 -0.017041516 -0.0055815307
0.0039024889 0.18394709 -0.13739325 -0.037125453 -0.04657932 0.05686499 -0.03305928 0.083136074
0.016253855 0.15087046 -0.1097837 0.11250956 0.0216237 0.04086126 -0.0012415895 -0.20310618
-0.033051074 -0.15696555 0.031646155 -0.009422945 -0.12807079 0.009979204 -0.14461373 0.04463411
-0.054121774 0.15501659 -0.11502839 0.1314291 0.12566146 -0.17172137 0.16614185 0.22563504
0.19113743 0.010631181 0.0070611984 0.103147246 0.003907712 -0.10632353 -0.13199161 0.018146645
-0.04910247 0.09249865 -0.12488602 -0.15669854 0.043661922 -0.07872262 0.096586466 0.029391231
0.068897106 -0.05928612 0.15682204 -0.08804002 0.041999143 0.12987489 -0.03521114 0.0051790043
0.035364196 -0.0203814 0.03139079 -0.10585361 -0.15314217 -0.08843017 -0.1333056 0.1369316
0.047070626 -0.19035251 -0.16941184 -0.13164061 -0.15713352 -0.046703376 -0.033621527 0.05293019
-0.053907584 0.010777639 0.03075703 0.14494447 -0.16578287 0.20890704 -0.15490404 -0.008358971
-0.029524673 0.07777265 0.044124037 -0.028414318 -0.112504356 0.12417228 0.06497282 -0.10989194
0.05785868 0.25404269 0.063563935 -0.16283773 0.08698107 0.13286015 -0.13033643 -0.14271574
0.007083885 -0.16466044 -0.16964096 0.1276244 -0.17662802 -0.27365825 -0.07246781 -0.10488589
-0.10995549 0.10402423 -0.014508082 -0.001570427 0.21201597 -0.19171304 -0.0075159357 -0.21906295
0.2302406 0.08376494 -0.07018894 -0.02846819 -0.062469397 0.10952867 0.11487423 -0.07686048
00000000: bf7a 0dbe 3ccf 1ebc 69a5 293d 31ba 29be
00000010: bbfe 18bd 9de0 b83d 4e34 89bb 2bf1 59bd
00000020: c2ac 173e b05b f63d d8b2 03be 1856 a4bd
00000030: 532a c63d 95c7 1b3e 825b c63d b30f ec3d
00000040: 355d 19bd 40fb 323e 87f9 debd acc3 33be
00000050: 50c3 16be d3c8 623d 2047 b8bd e783 083e
00000060: 7ce1 b8bb 0968 35bd 0e8e 453e 13a0 983c
00000070: 4b03 abbd 00ba b1bd 9139 173c 9b27 25be
00000080: 3ae3 093e db19 bebc 8165 0d3e 4073 c5bc
00000090: 2428 44be e51c c6bd 22d1 533d 3f48 9bbd
000000a0: a519 983d e33d da3d b811 eb3b a670 38bd
000000b0: c05e 85bd 6948 01bd de43 883c e4d1 d0bd
000000c0: 19bd c8bd a131 51bc 88cd da3d f801 27be
000000d0: 624b 8f3b e84c 14bd 9876 23bd 3294 423e
000000e0: 37c6 52bd 2f73 183e f092 0a3d 215a d83d
000000f0: b3bf 12be cd0b 20bd d7a5 b73c 6008 88bd
00000100: 64aa 3b3d c497 cb3c 7a20 833d 6891 b73d
00000110: 3a4f 5e3d 684d babd eefc e43d a060 f3bd
00000120: 19b2 b8bc 0fa3 6a3d 4780 243e 083f f5bd
00000130: bb48 5a3d d793 a9bd 5d66 273d da19 adbc
00000140: a33a 103e 1c77 e0bc f148 63bd e5f5 3e3e
00000150: 8cc5 bbbd 840d 6bbd 2212 bbbd 7f52 d2bc
00000160: 4aec 083c 9f93 a13b f3c8 4fbb e96f e63d
00000170: c933 a3bd fbc8 7a3e d812 87bd 2681 11be
00000180: dab3 90bd 937d 583c 6ebd c63c a744 2a3d
00000190: 99e8 133e 8449 9b3c df28 033d 5f5e 693d
000001a0: 5a02 9cbd 4fd9 e0bc c19f 40be d4ec 8ebd
000001b0: d6cb 60be a8cf 64b9 5ff4 9dbd bc17 b23d
000001c0: 4d68 48be fed9 25be 593e 37be 1379 a6bd
000001d0: e8cd 2abe 36e5 b23d ac58 44bd 0a1b 7a3e
000001e0: 62e2 aa3d 3152 ee3d 4b87 43ba e620 163e
000001f0: 2071 973d 7fef b13d 9cc3 9abc 24cf 01be
00000200: 44ed 603d 159c 873d c064 10be 8c7b 163e
00000210: b0bd 39be fffe c33d a69a 8bbc 46e5 b6bb
00000220: e6c0 7f3b a05c 3c3e d1b0 0cbe dc10 18bd
00000230: f5c9 3ebd 44eb 683d 2b69 07bd 3f43 aa3d
00000240: ce26 853c c97d 1a3e 47d6 e0bd 6a6b e63d
00000250: 3024 b13c 235e 273d d5bc a2ba 11fb 4fbe
00000260: 9060 07bd 94bb 20be 669f 013d b262 1abc
00000270: fd24 03be d17f 233c 9f15 14be 42d2 363d
00000280: cbae 5dbd abbc 1e3e 0194 ebbd 5a95 063e
00000290: 66ad 003e bad7 2fbe 1721 2a3e df0c 673e
000002a0: 88b9 433e 682e 2e3c a061 e73b dd3e d33d
000002b0: 440c 803b 27c0 d9bd cf28 07be 46a8 943c
000002c0: ac1f 49bd ef6f bd3d 3ec4 ffbd 9575 20be
000002d0: d8d6 323d 5339 a1bd 20cf c53d e1c5 f03c
000002e0: ed19 8d3d 01d6 72bd f595 203e 534e b4bd
000002f0: 4b07 2c3d ecfd 043e 8e39 10bd a3b4 a93b
00000300: 0cda 103d e5f6 a6bc a193 003d c7c9 d8bd
00000310: 4dd1 1cbe e11a b5bd 4381 08be cc37 0c3e
00000320: 21cd 403d c5eb 42be 4c7a 2dbe cccc 06be
00000330: 9ce7 20be 0a4c 3fbd bab6 09bd 54cd 583d
00000340: 33ce 5cbd b294 303c 2bf6 fb3c 536c 143e
00000350: fcc2 29be baeb 553e 2a9f 1ebe 11f4 08bc
00000360: badd f1bc 4447 9f3d 68bb 343d 25c5 e8bc
00000370: af68 e6bd 094e fe3d 7810 853d 070f e1bd
00000380: 39fd 6c3d e211 823e cf2d 823d efbe 26be
00000390: 2223 b23d 7e0c 083e ea76 05be 1324 12be
000003a0: ef1f e83b bf9c 28be 5cb6 2dbe f9af 023e
000003b0: fadd 34be ef1c 8cbe 016a 94bd 6ace d6bd
000003c0: 5830 e1bd a80a d53d 4eb3 6dbc c9d6 cdba
000003d0: b71a 593e 6c50 44be 3d48 f6bb 0a52 60be
000003e0: 31c4 6b3e f48c ab3d 38bf 8fbd 1f36 e9bc
000003f0: e9df 7fbd 9150 e03d 2e43 eb3d 0769 9dbd

nn_fun1.6.bias f4 [30]
-0.30737618 0.037203718 -0.13093051 0.173874 -0.02359186 -0.09602612 0.10338081 0.09038726
-0.027632652 -0.023122068 0.07374686 -0.078897595 0.0029915522 0.05544239 -0.19244567 -0.05695636
0.015154013 0.113841504 -0.13941969 0.100640506 -0.16706961 -0.03979025 0.0146343745 0.11236027
-0.18538968 -0.02276298 -0.023065947 -0.03711006 -0.18848954 0.09036674
00000000: 6960 9dbe ed62 183d a612 06be 070c 323e
00000010: b743 c1bc 58a9 c4bd 51b9 d33d f51c b93d
00000020: df5d e2bc 7e6a bdbc 9808 973d 1095 a1bd
00000030: eb0d 443b 8f17 633d 7a10 45be 124b 69bd
00000040: 8a48 783c bc25 e93d 09c4 0ebe 9c1c ce3d
00000050: 4c14 2bbe 1afb 22bd 04c5 6f3c 241d e63d
00000060: cbd6 3dbe 6e79 babc ccf4 bcbc b800 18bd
00000070: 6703 41be 3312 b93d

nn_fun2.0.weight f4 [30, 2]
-0.4606796 -0.46391273 0.6258684 0.31582528 0.5200639 0.25706956 0.708099 -0.32018095
0.5205942 -0.3092668 0.9520392 -0.51907384 -0.37634498 -0.073751114 -0.73888165 -0.6525045
-0.24198894 0.028156381 0.44414657 0.28226173 -0.7030737 -0.08872616 0.06449211 0.26025125
-0.65581053 -0.53506035 0.26013184 0.52437973 -0.32414854 -0.11503023 0.6214924 0.39395127
-0.57387847 0.09394749 0.373751 -0.7696081 -0.69311965 -0.34302723 -0.011071736 -0.45774424
-0.9453549 0.17171372 0.5441036 0.25916824 0.8032791 0.5240366 0.045584857 0.39011502
0.5750807 -0.6705745 -0.45393562 0.1616337 0.10371363 0.12870504 -0.24203427 0.40236652
-0.46741802 -0.4566033 0.3439873 -0.40122712
00000000: 32de ebbe f885 edbe e938 203f dab3 a13e
00000010: e822 053f 9f9e 833e fa45 353f c2ee a3be
00000020: a945 053f 3858 9ebe d7b8 733f 06e2 04bf
00000030: 4ab0 c0be d30a 97bd 5927 3dbf 890a 27bf
00000040: f3cb 77be 36a8 e63c 2e67 e33e 9c84 903e
00000050: a3fc 33bf 10b6 b5bd 7014 843d a73f 853e
00000060: 33e3 27bf b7f9 08bf 0030 853e c03d 063f
00000070: ccf6 a5be f894 ebbd 201a 1f3f fbb3 c93e
00000080: b3e9 12bf 8b67 c03d 4b5c bf3e 0905 45bf
00000090: 4a70 31bf 44a1 afbe 3a66 35bc 745d eabe
000000a0: c702 72bf b9d5 2f3e 604a 0b3f b3b1 843e
000000b0: b3a3 4d3f 4327 063f 30b7 3a3d 28bd c73e
000000c0: 7d38 133f c5aa 2bbf 406a e8be 4e83 253e
000000d0: d067 d43d 41cb 033e d5d7 77be fc02 ce3e
000000e0: 6a51 efbe e8c7 e9be 1a1f b03e a46d cdbe

nn_fun2.0.bias f4 [30]
0.109095246 0.548584 -0.6855806 -0.33920527 0.8250131 0.4242283 -0.50830853 0.095915325
-0.0777777 -0.18510473 -0.4684714 0.6770214 0.3699171 -0.14895582 -0.18162274 0.24314246
-0.67643803 -0.29766473 -0.5344929 0.14547944 0.6504083 -0.06777605 0.22725874 0.5845203
-0.41522217 -0.48852563 -0.10266599 -0.6627108 -0.6495422 0.64482665
00000000: 546d df3d 0070 0c3f 3682 2fbf 50ac adbe
00000010: 0f34 533f 7434 d93e 8220 02bf 416f c43d
00000020: ea49 9fbd 188c 3dbe 7cdb efbe 4651 2d3f
00000030: c665 bd3e e087 18be 50fb 39be 56fa 783e
00000040: 0b2b 2dbf 8367 98be 87d4 08bf 90f8 143e
00000050: 2981 263f 2bce 8abd 84b6 683e 1fa3 153f
00000060: 0098 d4be 0820 fabe 8c42 d2bd 6aa7 29bf
00000070: 6648 26bf 5c13 253f

nn_fun2.2.weight f4 [30, 30]
-0.21484123 -0.09893795 -0.035311982 -0.08827367 0.18159533 -0.09345637 -0.06365341 -0.01115738
-0.114175215 0.087058745 0.07425348 0.046716277 0.024133917 0.079607196 -0.19398284 0.021720516
-0.20209329 -0.03458199 0.062257253 0.030873118 0.16078325 0.11277736 0.035123862 0.033937078
-0.015220872 0.07069608 -0.039139222 -0.045979824 0.06618801 0.1221576 -0.24200465 0.11524817
-0.064436525 0.08638073 -0.09963084 0.2013194 -0.065461054 -0.12333291 0.11101642 0.1839751
-0.074118234 0.06531696 -0.06669699 0.052891713 0.06909902 -0.07308107 0.13420972 0.15823916
0.11386699 -0.119981855 0.06957237 0.031177059 0.102362216 -0.00825465 -0.13374579 0.090373896
0.14281698 -0.079110526 -0.18526699 0.09327523 -0.1395663 0.10851759 0.047172043 -0.11857302
-0.16737835 -0.0800406 -0.1783693 0.05820039 -0.19725436 0.13258614 -0.010059002 0.17851698
-0.19219327 0.05412132 -0.105546065 -0.04625853 -0.012375856 0.21629974 0.15683182 0.019551303
0.14498718 -0.1015133 0.15480894 0.09857772 0.16228402 0.0051672137 -0.04184239 -0.1714395
0.04152616 0.104037486 -0.16393696 0.13346504 -0.1224152 0.120192215 0.19546741 0.18198837
-0.34970152 -0.007763968 -0.13985147 0.17553806 -0.1224145 0.1824278 -0.047359794 0.17744908
-0.04126928 0.09681228 -0.29185057 0.03350544 -0.38636848 -0.086338945 -0.099648334 0.24579003
0.2883806 0.111664176 -0.024872301 -0.038893256 -0.026047358 -0.22350228 -0.2660843 0.2052723
0.059354484 0.13331102 0.1590771 0.05778072 0.132135 0.024282102 -0.03592349 -0.05090936
-0.067722924 0.09621941 -0.25111854 0.19513157 0.04331754 0.04727811 -0.00064652873 0.12565449
-0.26991352 -0.12925357 -0.30655032 -0.20741339 -0.14843635 -0.008093817 0.2654435 0.24645348
-0.18646432 -0.25260982 0.051233947 -0.2102862 -0.036431536 -0.14308554 -0.22016071 0.47603378
0.12923665 -0.17403102 -0.005447993 0.028757812 -0.30403703 -0.09261149 0.014799664 0.009482456
-0.13993001 0.11440385 0.0038440255 0.1635216 -0.380679 0.37327564 -0.15993702 0.09860675
-0.43270123 0.1323853 0.015847523 0.2494155 0.26630932 0.091340005 0.009340196 0.006044187
0.14159578 0.007621776 -0.26303118 -0.03771338 -0.076726586 -0.118289806 0.0032207966 -0.04856363
-0.09962725 -0.30106837 -0.13528603 0.010733649 -0.19248682 0.14509998 0.1431486 -0.0045158407
0.00022404462 0.019256394 0.113863625 0.023741653 0.057640307 0.27186528 -0.15575983 0.12348431
-0.04567172 0.13885161 0.048400603 -0.06266499 0.07049438 -0.059070904 0.08296932 -0.18400443
-0.14503 -0.16765206 -0.23414013 0.4802661 0.06354511 0.0658733 0.2644155 -0.072076425
-0.29826578 -0.26332402 -0.11560969 0.18346083 -0.26379344 0.048749924 -0.07627933 0.13309635
-0.23995718 0.33610708 -0.12010348 -0.1397024 -0.20671679 0.04531457 0.1730758 0.22753435
0.35400227 -0.011625489 -0.23542671 0.018000085 0.14458284 -0.19950902 -0.06983147 -0.07181261
0.059735112 0.19656046 0.15684727 -0.14978592 0.17362206 -0.2020006 -0.113316335 0.04946688
-0.25937045 0.09829102 0.06092699 -0.020348668 -0.060708832 -0.06202869 0.0696173 -0.030524919
00000000: 57ff 5bbe fb9f cabd 4ca3 10bd d3c8 b4bd
00000010: 20f4 393e 0e66 bfbd b85c 82bd 72cd 36bc
00000020: b2d4 e9bd db4b b23d 3512 983d 9159 3f3d
00000030: 7eb4 c53c 1909 a33d 70a3 46be 39ef b13c
00000040: 8bf1 4ebe d8a5 0dbd 7601 7f3d 9fe9 fc3c
00000050: 5da4 243e d1f7 e63d 0ade 0f3d 9b01 0b3d
00000060: f760 79bc 1bc9 903d 7350 20bd 5755 3cbd
00000070: 948d 873d c42d fa3d 11d0 77be 3c07 ec3d
00000080: 4cf7 83bd 61e8 b03d 410b ccbd ac26 4e3e
00000090: 7210 86bd f795 fcbd 945c e33d f863 3c3e
000000a0: 4dcb 97bd e6c4 853d 6e98 88bd fba4 583d
000000b0: c983 8d3d 87ab 95bd 466e 093e 7209 223e
000000c0: 1933 e93d 0cb9 f5bd f57b 8e3d 0867 ff3c
000000d0: 48a3 d13d 833e 07bc a8f4 08be f315 b93d
000000e0: 9d3e 123e b304 a2bd a1b6 3dbe 1507 bf3d
000000f0: 78ea 0ebe 783e de3d 7937 413d 69d6 f2bd
00000100: 3b65 2bbe 53ec a3bd 71a6 36be 8863 6e3d
00000110: 0cfd 49be a9c4 073e 83ce 24bc 28cd 363e
00000120: 50ce 44be 51ae 5d3d 8928 d8bd 9679 3dbd
00000130: 1ac4 4abc ae7d 5d3e 8598 203e 0e2a a03c
00000140: 8577 143e 34e6 cfbd 3c86 1e3e 1ee3 c93d
00000150: c82d 263e bb51 a93b ed62 2bbd d68d 2fbe
00000160: 5617 2a3d 9b11 d53d 17df 27be 0fab 083e
00000170: d2b4 fabd 5627 f63d 9c28 483e 295b 3a3e
00000180: 140c b3be e268 febb 3935 0fbe 40c0 333e
00000190: 74b4 fabd 5ace 3a3e 58fc 41bd 36b5 353e
000001a0: fa09 29bd 8445 c63d 706d 95be 003d 093d
000001b0: 17d2 c5be 79d2 b0bd 6d14 ccbd 62b0 7b3e
000001c0: 9fa6 933e 30b0 e43d ffc0 cbbc 894e 1fbd
000001d0: 4561 d5bc c8dd 64be 343c 88be e732 523e
000001e0: b01d 733d af82 083e 1be5 223e 7aab 6c3d
000001f0: 664e 073e 42eb c63c 8224 13bd 5586 50bd
00000200: 51b2 8abd af0e c53d 9c92 80be 92d0 473e
00000210: bc6d 313d b1a6 413d cf7b 29ba 92ab 003e
00000220: 1b32 8abe 0c5b 04be 2af4 9cbe 2d64 54be
00000230: b3ff 17be ee9b 04bc 36e8 873e 4d5e 7c3e
00000240: 81f0 3ebe 1356 81be b0da 513d 4455 57be
00000250: 3c39 15bd 0485 12be cf71 61be b3ba f33e
00000260: 9d56 043e 3035 32be 1485 b2bb 8195 eb3c
00000270: beaa 9bbe 18ab bdbd 4a7a 723c 4e5c 1b3c
00000280: d049 0fbe 914c ea3d 0cec 7b3b 3572 273e
00000290: 5ce8 c2be fc1d bf3e 88c6 23be 56f2 c93d
000002a0: 048b ddbe 0390 073e aad2 813c c766 7f3e
000002b0: b259 883e 7810 bb3d 9f07 193c 510e c63b
000002c0: 7cfe 103e 17c0 f93b 06ac 86be 5879 1abd
000002d0: d422 9dbd ed41 f2bd 0014 533b a8ea 46bd
000002e0: 5f09 ccbd a225 9abe 6c88 0abe 30dc 2f3c
000002f0: 441b 45be 1795 143e 8c95 123e 9ef9 93bb
00000300: 85ed 6a39 96bf 9d3c 5531 e93d db7d c23c
00000310: 3e18 6c3d ed31 8b3e 817f 1fbe 58e5 fc3d
00000320: 4512 3bbd 1e2f 0e3e b63f 463d 8156 80bd
00000330: 5c5f 903d 55f4 71bd d2eb a93d a86b 3cbe
00000340: bf82 14be fbac 2bbe 6ec2 6fbe 70e5 f53e
00000350: f023 823d 95e8 863d 7861 873e ce9c 93bd
00000360: 4bb6 98be 68d2 86be c6c4 ecbd 28dd 3b3e
00000370: ef0f 87be 00ae 473d 5638 9cbd 694a 083e
00000380: 56b7 75be 3a16 ac3e d0f8 f5bd 250e 0fbe
00000390: 91ad 53be c59b 393d c83a 313e c4fe 683e
000003a0: c93f b53e d678 3ebc b313 71be ea74 933c
000003b0: 860d 143e 184c 4cbe cd03 8fbd 7d12 93bd
000003c0: ceac 743d 2547 493e 929c 203e 7b61 19be
000003d0: fbc9 313e 3fd9 4ebe 6512 e8bd c89d 4a3d
000003e0: 34cc 84be cd4c c93d 948e 793d 40b2 a6bc
000003f0: d3a9 78bd cc11 7ebd 8493 8e3d 650f fabc

nn_fun2.2.bias f4 [30]
-0.10035385 0.12401641 0.19296516 0.15169564 0.06272877 -0.076701045 0.17391066 -0.001372404
0.1463775 -0.014442096 -0.14539549 0.12610456 -0.18105124 -0.040182866 -0.06388977 0.14149304
0.07979778 0.04185584 -0.08499102 -0.038254328 -0.13263243 0.1792693 0.09563858 -0.21608713
0.010382308 -0.02205368 0.049055967 -0.017664734 -0.15355001 -0.16257884
00000000: 5286 cdbd 51fc fd3d a998 453e 1a56 1b3e
00000010: f177 803d 7015 9dbd a315 323e 3de2 b3ba
00000020: fce3 153e 8b9e 6cbc 8ee2 14be 8e21 013e
00000030: 7f65 39be ca96 24bd a4d8 82bd 8de3 103e
00000040: 056d a33d 0771 2b3d c60f aebd 92b0 1cbd
00000050: ccd0 07be 5f92 373e 29de c33d f245 5dbe
00000060: 8e1a 2a3c eba9 b4bc e9ee 483d a2b5 90bc
00000070: 373c 1dbe 117b 26be
