models/neural_network_GATConv_dynamics_PD_graph_size_10/neural_network.pth (torch, 12779 bytes, 16 tensors)

conv1.att_src f4 [1, 1, 30]
000000 97 74 c3 3e c4 a0 bb 3e 99 09 d3 3d d4 1b d1 3e
       0.38174888 0.36646092 0.10304565 0.40841544
000010 77 42 08 3f b1 a2 00 be d2 a3 eb 3d e5 65 23 3e
       0.5322642 -0.12562062 0.115058556 0.15956838
000020 6b c9 ed be 56 92 a7 3d d5 ee 9d 3b c4 99 e9 3e
       -0.46442732 0.08182208 0.0048197308 0.45625126
000030 27 44 88 bd 63 7e f5 bd 7b 44 6a 3e 03 ea 06 bf
       -0.06653624 -0.11986997 0.22877686 -0.52700824
000040 ba f0 8e be f3 ff e0 be f1 18 6d be 61 50 05 bf
       -0.27918035 -0.43945274 -0.23154046 -0.52075773
000050 74 a7 cd 3e d8 c9 0c bf b8 5f ca 3e 72 0d 2e be
       0.4016682 -0.5499549 0.39526153 -0.16997316
000060 40 bf 22 3e c9 51 83 be 11 a2 d5 be 40 75 6d be
       0.15893269 -0.25648335 -0.4172521 -0.23189259
000070 e6 ab 8e 3d d9 d7 01 be
       0.06966381 -0.12679996

conv1.att_dst f4 [1, 1, 30]
000000 ac 45 c0 be df 1d 1c bf 33 1f f7 3e 8c d1 24 bf
       -0.37553155 -0.6098308 0.4826599 -0.64382243
000010 ca f6 d7 be 2a 4f 10 bf 6b 73 86 be 27 a9 33 bf
       -0.42180473 -0.56370795 -0.26259932 -0.7017998
000020 b9 68 04 3f cc c1 16 bf 47 35 2c 3f ae 96 87 be
       0.51722294 -0.5888946 0.67268795 -0.26482147
000030 3b 36 f1 be 0f 7e c0 be 71 07 2a 3e 8e dd 1d 3f
       -0.47111687 -0.37596175 0.16604401 0.6166619
000040 cd e7 8c 3e 6e ae b1 bd b8 37 15 3f fa f8 b3 3d
       0.275206 -0.08675848 0.58288145 0.08787723
000050 b3 f2 00 bf 04 ce 6d bd 52 cd 0e bf 2b 7b 89 3e
       -0.5037033 -0.0580578 -0.55782044 0.26851782
000060 20 e4 8b be 46 af b7 3e d4 61 af 3d 75 79 11 bd
       -0.27322483 0.3587591 0.08563581 -0.03551622
000070 53 e9 cc 3e 6c a5 53 be
       0.40021762 -0.20668572

conv1.bias f4 [30]
000000 b1 f9 2f be 9e 46 80 be e7 48 89 3e 0b 81 e3 3d
       -0.17185093 -0.25053877 0.26813433 0.11108597
000010 77 b3 38 be 1a a8 28 3e bd 5d 88 be 18 a7 81 be
       -0.1803721 0.16470376 -0.26634017 -0.25322795
000020 32 72 1a 3e 51 04 a8 bc b0 5d 28 3e 82 74 ac 3d
       0.15082625 -0.02050987 0.16441989 0.084206596
000030 0d 5a e0 bd 82 6f 5d 3e 1f 98 fd 3d f0 86 0e 3e
       -0.10954676 0.21624568 0.123825304 0.13918662
000040 96 b2 50 3e b9 97 f2 3d 59 1c 38 3e 08 3d 87 3d
       0.20380625 0.11845345 0.17979564 0.06603438
000050 ac 22 25 be b7 ff 31 3e 6b b6 66 be 73 d0 8d 3e
       -0.16126508 0.17382704 -0.22530524 0.27698097
000060 4c 55 97 bd 96 49 f1 3c ac 70 53 3d 21 56 58 3e
       -0.07389316 0.029454034 0.051621124 0.21126606
000070 f3 ea f6 3d 45 6f 09 be
       0.12056532 -0.13421352

conv1.lin_src.weight f4 [30, 1]
000000 4f d0 1b 3e 7d 06 93 3e 01 ee 96 be 31 d1 9e 3e
       0.15216182 0.28715888 -0.29478458 0.31018975
000010 1e 16 23 3e e5 1f 8a 3e 46 e8 f4 3e 5e df b0 3e
       0.15926406 0.2697746 0.4783346 0.34545416
000020 cb 42 93 be aa 94 53 3e 36 1c aa be 95 e2 d8 3e
       -0.28761896 0.2066218 -0.33224648 0.42360368
000030 15 3b 85 3e d9 c9 98 3e 57 c6 ca be f9 30 48 be
       0.2602164 0.29841498 -0.39604446 -0.19549932
000040 1a af 13 bc 3b c9 8a be bb ca aa be 33 cf 78 be
       -0.009013915 -0.27106652 -0.33357796 -0.2429779
000050 01 1b 17 3e 8a 98 5e be 93 a5 f3 3e 69 46 fa be
       0.14756395 -0.21737877 0.4758726 -0.48881844
000060 5c 07 87 3e 0d b0 77 be d7 2d 9a be c9 99 b6 be
       0.26372802 -0.24188252 -0.30113098 -0.35664204
000070 64 74 8d be 1f 47 4d 3e
       -0.27627861 0.20046662

conv1.lin_dst.weight f4 [30, 1]
000000 4f d0 1b 3e 7d 06 93 3e 01 ee 96 be 31 d1 9e 3e
       0.15216182 0.28715888 -0.29478458 0.31018975
000010 1e 16 23 3e e5 1f 8a 3e 46 e8 f4 3e 5e df b0 3e
       0.15926406 0.2697746 0.4783346 0.34545416
000020 cb 42 93 be aa 94 53 3e 36 1c aa be 95 e2 d8 3e
       -0.28761896 0.2066218 -0.33224648 0.42360368
000030 15 3b 85 3e d9 c9 98 3e 57 c6 ca be f9 30 48 be
       0.2602164 0.29841498 -0.39604446 -0.19549932
000040 1a af 13 bc 3b c9 8a be bb ca aa be 33 cf 78 be
       -0.009013915 -0.27106652 -0.33357796 -0.2429779
000050 01 1b 17 3e 8a 98 5e be 93 a5 f3 3e 69 46 fa be
       0.14756395 -0.21737877 0.4758726 -0.48881844
000060 5c 07 87 3e 0d b0 77 be d7 2d 9a be c9 99 b6 be
       0.26372802 -0.24188252 -0.30113098 -0.35664204
000070 64 74 8d be 1f 47 4d 3e
       -0.27627861 0.20046662

conv2.att_src f4 [1, 1, 30]
000000 de 9f 81 bf 9e 7c 33 3f a3 d9 06 bf a9 60 94 3f
       -1.0126913 0.70112026 -0.5267584 1.1591998
000010 40 21 b8 be f7 0d 81 bf e2 7d 66 bf 0b d9 6e 3f
       -0.35962868 -1.0082387 -0.9003583 0.9329993
000020 5b 38 5f 3f 41 25 f6 3e 3b 99 9e bf c8 db 17 bf
       0.87195367 0.48075297 -1.2390512 -0.59319735
000030 55 e2 96 bc 2d d5 9d 3f d7 91 bf bf 01 41 d9 be
       -0.01841847 1.2330681 -1.4966382 -0.42432407
000040 17 60 8c be 03 d8 d0 bf a3 6a 3c bf c2 cd 5c bf
       -0.2741706 -1.6315922 -0.73600215 -0.8625146
000050 5a 83 f0 3e 95 b7 82 be 9a 70 df 3f 40 b7 ef 3e
       0.46975213 -0.25530687 1.7456238 0.46819496
000060 53 a4 b3 bf 06 03 6e bf 63 26 8b 3f a7 41 32 3f
       -1.4034523 -0.92973363 1.087109 0.6963143
000070 65 4e a4 3f a4 ed be be
       1.2836424 -0.3729068

conv2.att_dst f4 [1, 1, 30]
000000 d7 5d 5f c0 7f 34 56 40 a6 25 44 c0 fc a9 93 40
       -3.4901025 3.346954 -3.0647979 4.6145
000010 fd 8d 55 c0 aa 13 32 c0 d3 df 4b c0 52 e0 3d 40
       -3.3367913 -2.7824502 -3.1855361 2.9668164
000020 a6 ad 6c 40 6c 69 be 3f 66 f5 ea bf d3 4d d5 bf
       3.6980987 1.4875922 -1.835614 -1.6664375
000030 1a 89 19 c0 0c 81 8b 3f 5f 6e c9 bf 94 68 58 c0
       -2.398993 1.0898757 -1.5736808 -3.381383
000040 8e ad 42 c0 cf 8a d0 bf 50 b6 ed bf 53 ec c7 bf
       -3.041843 -1.6292361 -1.8571262 -1.5618995
000050 5a c3 1f 40 9c 8b 8a c0 85 5d 8b 40 e2 62 39 40
       2.4962983 -4.329542 4.355166 2.8966603
000060 c0 ff 87 c0 fb 46 09 c0 2e 01 f1 3f 47 09 43 40
       -4.2499695 -2.1449573 1.8828485 3.0474412
000070 d1 e7 01 40 e8 ad 0c c0
       2.029774 -2.1981144

conv2.bias f4 [30]
000000 71 09 ae 3d a5 6f 94 be 13 72 f9 3d 2a ab 0b be
       0.084978946 -0.28991428 0.12179961 -0.13639513
000010 8e 81 22 3e 57 6f cc 3d 6e dd f4 3d 85 e6 d9 bd
       0.15869734 0.09982174 0.11956297 -0.10639671
000020 c1 4c 93 be 49 7a 86 bd b6 fe 86 3d db d6 2f 3e
       -0.28769496 -0.06566293 0.06591551 0.17171805
000030 95 66 2c 3e bd 60 05 bd ef 73 7a bd 58 1e d8 3d
       0.16836007 -0.03256296 -0.06114572 0.105526626
000040 35 e5 69 3c 62 f7 35 be e5 67 16 3e fc e2 04 3d
       0.014275839 -0.1777015 0.1468807 0.03244303
000050 74 1d dd bd 64 44 d1 3e aa 45 ea bc de ab d2 bd
       -0.10796633 0.4087249 -0.028597672 -0.10286687
000060 48 6b 87 3d 53 33 c3 3d 3f 3d 1d be 74 0b bd bd
       0.06612259 0.09531274 -0.15355395 -0.092307
000070 c2 26 83 bc 2c e7 55 3e
       -0.016009692 0.20888966

conv2.lin_src.weight f4 [30, 30]
000000 37 4f b2 bd ba 28 2d bf 2b 8a 3b 3f 47 a1 99 be
       -0.08706515 -0.6764027 0.732577 -0.30005857
000010 00 59 4c be a4 6a 5a bb 7a 13 0c bf bc ea 5b bf
       -0.19955826 -0.0033327723 -0.5471722 -0.8590505
000020 05 19 d1 3e 9c 8f fe 3d b8 e5 0c 3f 13 75 3a 3d
       0.408394 0.12429735 0.55038023 0.045521807
000030 35 94 90 be 3c 8d 8c bd 1a f0 71 3e bd 76 2b 3e
       -0.28238073 -0.06862876 0.23626748 0.16744514
000040 a4 33 5d 3d 98 fb b9 3e d6 5e f5 3d e2 bd b6 3e
       0.054004326 0.36324763 0.11980979 0.35691744
000050 32 60 50 bf b1 da 77 3f 51 ff 15 bf a6 f7 8a 3e
       -0.8139678 0.9681807 -0.58592707 0.27142066
000060 4f a7 fb be 8b 88 bb 3e e7 3e 00 be 1b e6 ce 3e
       -0.49151084 0.36627612 -0.12523995 0.40409932
000070 4e 6a cc bd 77 12 37 be 70 ef 99 3f 4e 4b 86 3f
       -0.099812135 -0.17878138 1.2026196 1.0491731
000080 a5 7d 9a bf cf 8f 07 3d b5 c0 89 3f 76 b0 a5 bb
       -1.2069594 0.03309613 1.0761935 -0.005056436
000090 04 41 38 3f 85 58 55 3f e4 e3 3a bf 0b 60 ee 3d
       0.71974206 0.83338195 -0.73003983 0.116394125
0000a0 62 e4 04 bf a5 71 29 be b3 20 33 3f 39 2c 65 be
       -0.51910985 -0.16547258 0.6997177 -0.22380151
0000b0 8b c3 84 be 50 e8 f6 be fb e2 cd be 5b 34 f8 bd
       -0.25930437 -0.48224115 -0.40212235 -0.12119361
0000c0 f7 af 20 bf 31 a3 d7 bd 93 47 a8 3f 82 ee b0 bf
       -0.627685 -0.10529173 1.3146843 -1.3822787
0000d0 14 77 a5 3e 4f c7 fc be d1 68 f3 3e ce bd cb bd
       0.32317412 -0.4937081 0.47540906 -0.09948312
0000e0 a9 bf df be c4 ad 1c bf 56 f9 97 be 84 15 c5 3e
       -0.43700913 -0.61202645 -0.29682416 0.38492978
0000f0 7e 93 6e be 02 cc 95 be a6 47 26 3f 82 0d 9f bd
       -0.23298451 -0.29257208 0.64953077 -0.07766248
000100 0d ef f7 be ec e5 8c 3d d0 49 8a bd 5d ec 94 be
       -0.4842457 0.068797916 -0.0675236 -0.2908658
000110 9e 2b 4c 3e 14 82 19 be e8 80 85 3e f7 3c c7 3c
       0.19938514 -0.14991027 0.2607491 0.024321062
000120 14 47 d3 be 2e 76 ad bd 00 be d8 3d a3 16 63 3e
       -0.41265166 -0.084698066 0.105831146 0.22176604
000130 62 92 d3 3e b2 84 52 be 6b 8d d4 3e ea 0d 3c be
       0.4132262 -0.20558432 0.41514143 -0.18364683
000140 31 7e 4e bf f6 c6 22 3f ae e8 83 be 6a 96 1c 3e
       -0.806613 0.6358484 -0.25763458 0.15291753
000150 06 be 37 be b6 a0 cf bd 61 96 8f 3e ea 56 a8 3d
       -0.17943582 -0.10138075 0.28044418 0.082197025
000160 78 ee 71 3e a9 7b a3 3d 7e 56 17 3f 4d 5f 5f 3f
       0.23626125 0.07982571 0.5911635 0.8725479
000170 6f 0e b7 bf 59 55 5d be 88 54 10 3f 5e c0 28 bb
       -1.430128 -0.21614589 0.56378984 -0.0025749425
000180 ac a5 42 3f 7a 64 78 3f 64 9a 32 be ae f0 89 3e
       0.76034045 0.97028315 -0.17441708 0.26941437
000190 db 79 0e bf 93 2f eb 3c 18 73 1d 3f 6e 44 5d be
       -0.55654687 0.028709209 0.61503744 -0.21608135
0001a0 21 b7 a5 be 12 b0 42 bf 84 08 da 3d e0 7f 10 bf
       -0.3236628 -0.7604991 0.106461555 -0.5644512
0001b0 e8 f3 0b bf 20 21 d0 3d 25 03 41 3f 95 4b c8 bf
       -0.54669046 0.10162568 0.75395423 -1.5648066
0001c0 65 97 ae 3e a6 07 f5 be 22 74 6b 3e e5 46 02 be
       0.3409988 -0.47857398 0.2299352 -0.12722357
0001d0 1c c9 1b 3d 8b 15 14 bf 3c 07 cf be f1 2d bc 3e
       0.03803359 -0.5784537 -0.40435207 0.367538
0001e0 8f d0 40 bf 68 d7 df bd 96 0d 0f 3f ab a1 f5 3d
       -0.75318235 -0.10929757 0.55880105 0.11993726
0001f0 9f fa 67 bf 82 fc 92 3e 59 0c 1a bd ec 95 38 bd
       -0.9061679 0.28708273 -0.037609432 -0.04506485
000200 92 94 a0 3d 34 39 dd bb bd 8d d3 3e eb fc 8c be
       0.078408375 -0.006751204 0.41319075 -0.2753671
000210 fa 78 91 3d a9 40 81 be 2e 0c 8c 3c ab 5b 29 3e
       0.071031526 -0.25244644 0.017095651 0.16538875
000220 a5 05 f9 3e 6d 35 e5 bd 16 bc ba 3e 86 59 9b 3d
       0.4863712 -0.11191831 0.36471623 0.075854346
000230 9f 76 73 bf 87 3d 5b 3e 51 fa 9e bd b8 9d d3 3e
       -0.95102876 0.2141019 -0.07762588 0.41331267
000240 d6 b8 4c 3d 8e f2 70 3d 59 62 ff 3d 68 cb c1 3e
       0.04998096 0.05882507 0.1246993 0.378505
000250 22 99 97 3e 66 69 fa 3d e8 19 a1 be 58 fb 0b bf
       0.2960902 0.122271344 -0.31465077 -0.54680395
000260 6b 5c e6 bb 32 cb 4f 3e 95 6e 05 bd 20 0b 54 3e
       -0.00703006 0.20292357 -0.032576162 0.20707369
000270 11 24 a1 be 13 44 a4 be 2e a5 a8 3d a4 73 f7 3c
       -0.3147283 -0.32083187 0.082346305 0.030206509
000280 e3 ee aa bd 65 24 d1 3d 77 40 90 be 95 7d 82 3e
       -0.08346345 0.1021202 -0.28174183 0.25486436
000290 73 ef 00 3e 4f b4 ad 3e b6 f9 84 be 3f 8d c0 bd
       0.12591343 0.33926627 -0.25971764 -0.094019406
0002a0 4b c5 a8 3e eb 38 4b 3e 34 8c 79 be 7d 48 49 3e
       0.32963023 0.19845931 -0.2436989 0.19656558
0002b0 10 79 9b be 53 0b f1 3e 8e b9 ac be 59 2d fc 3d
       -0.303658 0.47078952 -0.33735317 0.12313337
0002c0 31 6c 96 3e 76 84 2d 3e 2c 78 64 bd 31 8c 1a 3d
       0.29379418 0.16945061 -0.055778667 0.037731353
0002d0 91 b6 b7 be 27 67 3e be 56 93 22 3f ee b6 59 3e
       -0.35881475 -0.18594037 0.63506067 0.21261188
0002e0 3b 1a eb be 12 4c 94 3e 0e 93 b5 be bb 5b e5 be
       -0.4591845 0.28964287 -0.35463756 -0.44796547
0002f0 e1 4d 4a 3e 67 0b 2c bc c0 f3 78 bd 0f 7a cd bd
       0.19756271 -0.010500765 -0.060779333 -0.100330465
000300 25 17 04 be ee 52 1e 3e f3 52 96 3e 94 c4 0c 3f
       -0.12899454 0.15461323 0.2936016 0.54987454
000310 67 09 25 3e f3 f3 12 3e fd 1b d0 3e 81 d0 60 3e
       0.16116868 0.14350872 0.40646353 0.21954538
000320 af 92 41 bf 8e e1 d8 3e 22 1e c4 be c9 88 b1 3e
       -0.75614446 0.42359585 -0.3830424 0.3467467
000330 1c b2 a8 be 7d 69 be bd 17 e8 f8 bd 66 c8 8c 3e
       -0.32948387 -0.09297464 -0.121536426 0.27496642
000340 0e 37 90 bd d5 55 16 be 34 96 18 3f 37 71 5b 3f
       -0.07041751 -0.1468118 0.5960419 0.8571963
000350 c0 b1 34 bf 0b 75 70 3d 85 73 23 3f c9 ed 17 be
       -0.70583725 0.05870537 0.63848144 -0.14836802
000360 8f 1a d3 3d 15 2b c2 3e f0 d6 01 3c 3d 5d df 3d
       0.103078 0.37923494 0.00792478 0.10906456
000370 b2 a2 fd be f1 fe 3a be ad e5 b0 3e d2 9d a4 3e
       -0.4953819 -0.18261315 0.3455023 0.32151657
000380 e0 79 ad bd 30 d4 3c be 35 0d 51 be de 9d e8 3d
       -0.084705114 -0.18440318 -0.20415194 0.11358236
000390 db 41 fa be 65 ea c0 be 58 ef 20 3e 24 0e 0d bf
       -0.4887837 -0.3767883 0.15716302 -0.550997
0003a0 05 90 c9 3d ed 42 08 bf c4 01 cb 3e 32 bf 14 be
       0.09841923 -0.5322712 0.39649785 -0.1452606
0003b0 63 76 5e bd 75 ee 08 be 00 98 df be 21 0a 29 be
       -0.05431212 -0.13372214 -0.43670654 -0.1650777
0003c0 eb e7 94 3f 17 bf a5 3f 05 4f 89 bf 40 7e 34 be
       1.1633276 1.2948941 -1.072724 -0.17626286
0003d0 65 10 86 3f a5 3c 78 be 09 74 d9 3e c3 6d 8c 3f
       1.0473753 -0.24241884 0.4247134 1.0970997
0003e0 96 02 14 bf 19 1c 8a 3e a8 80 bd be e8 71 34 39
       -0.57816446 0.26974562 -0.3701222 0.00017208571
0003f0 20 4a 13 3e ea b3 81 be 3e 3f af be f8 34 61 bf
       0.14383745 -0.25332576 -0.34227937 -0.8797145

conv2.lin_dst.weight f4 [30, 30]
000000 37 4f b2 bd ba 28 2d bf 2b 8a 3b 3f 47 a1 99 be
       -0.08706515 -0.6764027 0.732577 -0.30005857
000010 00 59 4c be a4 6a 5a bb 7a 13 0c bf bc ea 5b bf
       -0.19955826 -0.0033327723 -0.5471722 -0.8590505
000020 05 19 d1 3e 9c 8f fe 3d b8 e5 0c 3f 13 75 3a 3d
       0.408394 0.12429735 0.55038023 0.045521807
000030 35 94 90 be 3c 8d 8c bd 1a f0 71 3e bd 76 2b 3e
       -0.28238073 -0.06862876 0.23626748 0.16744514
000040 a4 33 5d 3d 98 fb b9 3e d6 5e f5 3d e2 bd b6 3e
       0.054004326 0.36324763 0.11980979 0.35691744
000050 32 60 50 bf b1 da 77 3f 51 ff 15 bf a6 f7 8a 3e
       -0.8139678 0.9681807 -0.58592707 0.27142066
000060 4f a7 fb be 8b 88 bb 3e e7 3e 00 be 1b e6 ce 3e
       -0.49151084 0.36627612 -0.12523995 0.40409932
000070 4e 6a cc bd 77 12 37 be 70 ef 99 3f 4e 4b 86 3f
       -0.099812135 -0.17878138 1.2026196 1.0491731
000080 a5 7d 9a bf cf 8f 07 3d b5 c0 89 3f 76 b0 a5 bb
       -1.2069594 0.03309613 1.0761935 -0.005056436
000090 04 41 38 3f 85 58 55 3f e4 e3 3a bf 0b 60 ee 3d
       0.71974206 0.83338195 -0.73003983 0.116394125
0000a0 62 e4 04 bf a5 71 29 be b3 20 33 3f 39 2c 65 be
       -0.51910985 -0.16547258 0.6997177 -0.22380151
0000b0 8b c3 84 be 50 e8 f6 be fb e2 cd be 5b 34 f8 bd
       -0.25930437 -0.48224115 -0.40212235 -0.12119361
0000c0 f7 af 20 bf 31 a3 d7 bd 93 47 a8 3f 82 ee b0 bf
       -0.627685 -0.10529173 1.3146843 -1.3822787
0000d0 14 77 a5 3e 4f c7 fc be d1 68 f3 3e ce bd cb bd
       0.32317412 -0.4937081 0.47540906 -0.09948312
0000e0 a9 bf df be c4 ad 1c bf 56 f9 97 be 84 15 c5 3e
       -0.43700913 -0.61202645 -0.29682416 0.38492978
0000f0 7e 93 6e be 02 cc 95 be a6 47 26 3f 82 0d 9f bd
       -0.23298451 -0.29257208 0.64953077 -0.07766248
000100 0d ef f7 be ec e5 8c 3d d0 49 8a bd 5d ec 94 be
       -0.4842457 0.068797916 -0.0675236 -0.2908658
000110 9e 2b 4c 3e 14 82 19 be e8 80 85 3e f7 3c c7 3c
       0.19938514 -0.14991027 0.2607491 0.024321062
000120 14 47 d3 be 2e 76 ad bd 00 be d8 3d a3 16 63 3e
       -0.41265166 -0.084698066 0.105831146 0.22176604
000130 62 92 d3 3e b2 84 52 be 6b 8d d4 3e ea 0d 3c be
       0.4132262 -0.20558432 0.41514143 -0.18364683
000140 31 7e 4e bf f6 c6 22 3f ae e8 83 be 6a 96 1c 3e
       -0.806613 0.6358484 -0.25763458 0.15291753
000150 06 be 37 be b6 a0 cf bd 61 96 8f 3e ea 56 a8 3d
       -0.17943582 -0.10138075 0.28044418 0.082197025
000160 78 ee 71 3e a9 7b a3 3d 7e 56 17 3f 4d 5f 5f 3f
       0.23626125 0.07982571 0.5911635 0.8725479
000170 6f 0e b7 bf 59 55 5d be 88 54 10 3f 5e c0 28 bb
       -1.430128 -0.21614589 0.56378984 -0.0025749425
000180 ac a5 42 3f 7a 64 78 3f 64 9a 32 be ae f0 89 3e
       0.76034045 0.97028315 -0.17441708 0.26941437
000190 db 79 0e bf 93 2f eb 3c 18 73 1d 3f 6e 44 5d be
       -0.55654687 0.028709209 0.61503744 -0.21608135
0001a0 21 b7 a5 be 12 b0 42 bf 84 08 da 3d e0 7f 10 bf
       -0.3236628 -0.7604991 0.106461555 -0.5644512
0001b0 e8 f3 0b bf 20 21 d0 3d 25 03 41 3f 95 4b c8 bf
       -0.54669046 0.10162568 0.75395423 -1.5648066
0001c0 65 97 ae 3e a6 07 f5 be 22 74 6b 3e e5 46 02 be
       0.3409988 -0.47857398 0.2299352 -0.12722357
0001d0 1c c9 1b 3d 8b 15 14 bf 3c 07 cf be f1 2d bc 3e
       0.03803359 -0.5784537 -0.40435207 0.367538
0001e0 8f d0 40 bf 68 d7 df bd 96 0d 0f 3f ab a1 f5 3d
       -0.75318235 -0.10929757 0.55880105 0.11993726
0001f0 9f fa 67 bf 82 fc 92 3e 59 0c 1a bd ec 95 38 bd
       -0.9061679 0.28708273 -0.037609432 -0.04506485
000200 92 94 a0 3d 34 39 dd bb bd 8d d3 3e eb fc 8c be
       0.078408375 -0.006751204 0.41319075 -0.2753671
000210 fa 78 91 3d a9 40 81 be 2e 0c 8c 3c ab 5b 29 3e
       0.071031526 -0.25244644 0.017095651 0.16538875
000220 a5 05 f9 3e 6d 35 e5 bd 16 bc ba 3e 86 59 9b 3d
       0.4863712 -0.11191831 0.36471623 0.075854346
000230 9f 76 73 bf 87 3d 5b 3e 51 fa 9e bd b8 9d d3 3e
       -0.95102876 0.2141019 -0.07762588 0.41331267
000240 d6 b8 4c 3d 8e f2 70 3d 59 62 ff 3d 68 cb c1 3e
       0.04998096 0.05882507 0.1246993 0.378505
000250 22 99 97 3e 66 69 fa 3d e8 19 a1 be 58 fb 0b bf
       0.2960902 0.122271344 -0.31465077 -0.54680395
000260 6b 5c e6 bb 32 cb 4f 3e 95 6e 05 bd 20 0b 54 3e
       -0.00703006 0.20292357 -0.032576162 0.20707369
000270 11 24 a1 be 13 44 a4 be 2e a5 a8 3d a4 73 f7 3c
       -0.3147283 -0.32083187 0.082346305 0.030206509
000280 e3 ee aa bd 65 24 d1 3d 77 40 90 be 95 7d 82 3e
       -0.08346345 0.1021202 -0.28174183 0.25486436
000290 73 ef 00 3e 4f b4 ad 3e b6 f9 84 be 3f 8d c0 bd
       0.12591343 0.33926627 -0.25971764 -0.094019406
0002a0 4b c5 a8 3e eb 38 4b 3e 34 8c 79 be 7d 48 49 3e
       0.32963023 0.19845931 -0.2436989 0.19656558
0002b0 10 79 9b be 53 0b f1 3e 8e b9 ac be 59 2d fc 3d
       -0.303658 0.47078952 -0.33735317 0.12313337
0002c0 31 6c 96 3e 76 84 2d 3e 2c 78 64 bd 31 8c 1a 3d
       0.29379418 0.16945061 -0.055778667 0.037731353
0002d0 91 b6 b7 be 27 67 3e be 56 93 22 3f ee b6 59 3e
       -0.35881475 -0.18594037 0.63506067 0.21261188
0002e0 3b 1a eb be 12 4c 94 3e 0e 93 b5 be bb 5b e5 be
       -0.4591845 0.28964287 -0.35463756 -0.44796547
0002f0 e1 4d 4a 3e 67 0b 2c bc c0 f3 78 bd 0f 7a cd bd
       0.19756271 -0.010500765 -0.060779333 -0.100330465
000300 25 17 04 be ee 52 1e 3e f3 52 96 3e 94 c4 0c 3f
       -0.12899454 0.15461323 0.2936016 0.54987454
000310 67 09 25 3e f3 f3 12 3e fd 1b d0 3e 81 d0 60 3e
       0.16116868 0.14350872 0.40646353 0.21954538
000320 af 92 41 bf 8e e1 d8 3e 22 1e c4 be c9 88 b1 3e
       -0.75614446 0.42359585 -0.3830424 0.3467467
000330 1c b2 a8 be 7d 69 be bd 17 e8 f8 bd 66 c8 8c 3e
       -0.32948387 -0.09297464 -0.121536426 0.27496642
000340 0e 37 90 bd d5 55 16 be 34 96 18 3f 37 71 5b 3f
       -0.07041751 -0.1468118 0.5960419 0.8571963
000350 c0 b1 34 bf 0b 75 70 3d 85 73 23 3f c9 ed 17 be
       -0.70583725 0.05870537 0.63848144 -0.14836802
000360 8f 1a d3 3d 15 2b c2 3e f0 d6 01 3c 3d 5d df 3d
       0.103078 0.37923494 0.00792478 0.10906456
000370 b2 a2 fd be f1 fe 3a be ad e5 b0 3e d2 9d a4 3e
       -0.4953819 -0.18261315 0.3455023 0.32151657
000380 e0 79 ad bd 30 d4 3c be 35 0d 51 be de 9d e8 3d
       -0.084705114 -0.18440318 -0.20415194 0.11358236
000390 db 41 fa be 65 ea c0 be 58 ef 20 3e 24 0e 0d bf
       -0.4887837 -0.3767883 0.15716302 -0.550997
0003a0 05 90 c9 3d ed 42 08 bf c4 01 cb 3e 32 bf 14 be
       0.09841923 -0.5322712 0.39649785 -0.1452606
0003b0 63 76 5e bd 75 ee 08 be 00 98 df be 21 0a 29 be
       -0.05431212 -0.13372214 -0.43670654 -0.1650777
0003c0 eb e7 94 3f 17 bf a5 3f 05 4f 89 bf 40 7e 34 be
       1.1633276 1.2948941 -1.072724 -0.17626286
0003d0 65 10 86 3f a5 3c 78 be 09 74 d9 3e c3 6d 8c 3f
       1.0473753 -0.24241884 0.4247134 1.0970997
0003e0 96 02 14 bf 19 1c 8a 3e a8 80 bd be e8 71 34 39
       -0.57816446 0.26974562 -0.3701222 0.00017208571
0003f0 20 4a 13 3e ea b3 81 be 3e 3f af be f8 34 61 bf
       0.14383745 -0.25332576 -0.34227937 -0.8797145

conv3.att_src f4 [1, 1, 30]
000000 95 fa 3e 40 13 47 f2 3f d9 9f d8 bf f5 98 71 40
       2.9840443 1.892794 -1.6923782 3.7749608
000010 bd f2 ba bf a9 59 6f c0 d8 ff 0c c0 3e 5e 31 40
       -1.4605328 -3.7398474 -2.2031155 2.771377
000020 65 a8 61 40 44 61 5c c0 6a c8 44 40 4c c1 ee 3f
       3.525903 -3.4434366 3.0747323 1.865274
000030 aa b0 bd 3f 70 e4 5c 3f ad d7 99 bf 35 09 1c 40
       1.4819539 0.8628607 -1.2018944 2.438062
000040 54 db 6c c0 38 b6 69 bf bc c1 82 be d1 1b df 3f
       -3.7008867 -0.9129367 -0.25538433 1.7430364
000050 0e 6b cc bf 1f c8 37 c0 be 2e 00 40 7c 8a 20 c0
       -1.597017 -2.8715894 2.002853 -2.5084524
000060 66 e5 26 40 55 fa 84 c0 a3 c4 87 3f 48 e2 1d c0
       2.6077514 -4.155558 1.0606884 -2.466936
000070 a0 59 3f 40 99 9b c8 bf
       2.9898453 -1.5672485

conv3.att_dst f4 [1, 1, 30]
000000 d5 c0 94 3f b6 c1 6f 3e 7c d0 1d bf 7d 84 fe 3f
       1.1621348 0.23413739 -0.61646247 1.9884182
000010 57 9a d6 3e e5 c3 db bf d9 06 93 bf 7e 6c 94 3f
       0.41914627 -1.7169157 -1.1486465 1.1595609
000020 f0 fa 12 40 7a e3 e4 bf 24 6b d7 3f fd 1b 8a 3f
       2.296566 -1.788192 1.6829572 1.0789791
000030 07 b3 e3 3e a6 de ad 3e 21 10 71 bf 14 f6 8c 3f
       0.44472525 0.3395893 -0.94165236 1.1012597
000040 b0 3c b6 bf 31 96 75 bf 7a f8 c1 3e f4 d4 9b 3f
       -1.423727 -0.959323 0.37884885 1.2174363
000050 fb 9f 69 bf 93 11 ef bf be fb 57 3f ac 35 61 bf
       -0.91259736 -1.8677238 0.84368503 -0.8797252
000060 44 f4 de 3f 03 0a d6 bf 24 67 79 3f f1 7c 92 bf
       1.7418294 -1.6721805 0.97423005 -1.1444379
000070 e3 58 f7 3f 8b 7e b5 bf
       1.9324001 -1.4179243

conv3.bias f4 [30]
000000 c7 ae 9b 3c c2 ee 36 bc 9f 65 30 bc d4 86 48 3e
       0.019004239 -0.011165323 -0.010766416 0.19582683
000010 a2 cc 1e 3c 4d 95 fe ba 7c b4 8f bc 4f 12 71 bd
       0.009692343 -0.0019423157 -0.017542116 -0.05885535
000020 2c d2 ae 3c 3d 83 5d 3d 05 84 eb 3c 5b 30 a3 bc
       0.021340452 0.054080237 0.028749475 -0.019920519
000030 68 7b 67 b9 a2 ea 90 3b 5f db a3 bc fb 3b 24 3d
       -0.00022075849 0.0044225017 -0.020002065 0.040096264
000040 93 a5 a1 be d2 1f 2e bc 09 05 cf 3b c9 ba e5 3c
       -0.31571636 -0.010627704 0.006317739 0.028043168
000050 7c 02 98 bb 43 02 11 bd d0 be a0 3c 9e aa 37 bc
       -0.004638968 -0.035402548 0.019622236 -0.011210112
000060 46 a6 8e 3e 29 c7 3f be 66 67 b9 3b 38 a5 dd bc
       0.27861232 -0.18728317 0.005658078 -0.027056322
000070 60 85 d1 bb fe 4b 2a bc
       -0.0063940734 -0.0103940945

conv3.lin_src.weight f4 [30, 30]
000000 d6 bd e9 3d ed 00 c0 bd 7c 76 54 3e cd 4e 16 bf
       0.114131615 -0.093751766 0.20748323 -0.5871399
000010 43 17 8a 3e 66 d2 46 bd 96 7b 6a 3e 89 c6 32 bf
       0.26970872 -0.048540495 0.22898707 -0.6983419
000020 de d2 78 be 27 9d 70 be 77 1e 7b 3e af 9a 74 3e
       -0.2429919 -0.23497449 0.2452334 0.23887132
000030 79 18 96 3e e2 92 ad bd 9a 31 8c bd 54 b9 3c 3d
       0.29315546 -0.08475281 -0.06845398 0.04607518
000040 63 67 cc 3e ed 15 02 3d f5 5c a8 3e f1 b4 42 bc
       0.39922628 0.03175919 0.3288342 -0.01188396
000050 ce 06 b4 bc ef 19 45 bc 57 09 b3 be 14 6d 71 3d
       -0.021975901 -0.012030109 -0.34968063 0.058941916
000060 ea 06 37 be bb 1a bc 3d 15 73 92 bd 8f b7 a9 bd
       -0.17873731 0.09184786 -0.071508564 -0.08286964
000070 fb eb 4f 3d 58 da aa bd 6e 0c 06 3e 1b b7 46 be
       0.050762158 -0.08342427 0.13090679 -0.19405787
000080 4e 76 c4 3d bb ef 13 bd ad b1 5b 3e 19 26 8b be
       0.09592877 -0.036117297 0.21454497 -0.27177504
000090 d1 fb 6a 3e 14 7b 18 be 1c 24 91 be 77 4f 7a be
       0.22947623 -0.148907 -0.28347862 -0.24444376
0000a0 92 d1 ce bd c4 41 dd bd ab 22 39 3e 55 59 fe bd
       -0.10098566 -0.108035594 0.18079631 -0.124193825
0000b0 ce 1d 9d 3c 29 b8 a2 3d 14 da 0d bb b6 c2 3e be
       0.019179251 0.07945282 -0.0021644877 -0.18628964
0000c0 6a 33 70 3e 4c 50 94 be c3 b9 48 be d6 be 04 3d
       0.23457113 -0.28967512 -0.19602112 0.032408558
0000d0 68 a4 51 3d 5d 5c 0d 3e 0a 3f 82 be 8e af 04 be
       0.05118218 0.13804765 -0.2543872 -0.12957594
0000e0 fe b9 f0 bd 6b 3a 10 be 1c 95 2f be b2 c6 04 bd
       -0.11754225 -0.14084785 -0.17146724 -0.032416053
0000f0 59 70 5a be 6e 27 04 be 91 1b 89 be 16 df 05 3f
       -0.2133192 -0.12905666 -0.26778844 0.5229353
000100 15 e2 7a be 7d eb a6 be b2 46 b2 be 10 38 20 3e
       -0.24500306 -0.32601538 -0.3481956 0.15646386
000110 69 0b 09 be 99 fd 4b be c4 fd 94 be 36 cc 6a 3e
       -0.13383259 -0.19920959 -0.29099858 0.22929463
000120 06 b8 5a be 5f 87 61 3e 07 56 5d 3e 62 ea db 3d
       -0.21359262 0.22024296 0.21614848 0.10738064
000130 f5 d0 ca bd 0d fa 10 be 66 53 0c 3e 1f 7c 80 3e
       -0.09903137 -0.14157887 0.13703689 0.25094697
000140 69 a1 43 3e ea 70 bc bb 18 87 8e 3b 7d 7f f4 3d
       0.19104542 -0.005750765 0.0043496005 0.11938379
000150 45 74 81 be 51 0d b5 bd ab 31 7c 3e 52 7d 46 be
       -0.2528402 -0.088404305 0.24628322 -0.19383743
000160 15 cc be bd 5a ea 61 be 52 dc 08 3f 2a 25 c1 bf
       -0.09316269 -0.22062054 0.5346118 -1.5089467
000170 1f 85 63 3f 9f 89 93 bf 82 e4 8c 3f 5a c0 06 3f
       0.88875 -1.1526374 1.1007235 0.52637255
000180 18 96 90 3f 91 b9 b1 bf a8 a3 95 bf a9 a6 48 bf
       1.1295805 -1.3884755 -1.1690569 -0.78379303
000190 a5 a8 06 3f ee 7a 92 3e 72 a6 00 3f 01 32 cc bd
       0.5260108 0.28609413 0.50253975 -0.09970475
0001a0 fc 54 48 3e 67 fb 3d 3f 5a db 4e 3e fb c5 a5 be
       0.19563669 0.74211735 0.20200863 -0.3237761
0001b0 1f d3 0c 3f f8 b3 bd 3e ca d7 18 bf 6c 05 9e 3f
       0.55009645 0.37051368 -0.5970427 1.2345405
0001c0 65 45 c0 be ff 1c 82 bf 9b 32 ef 3d 0d 53 3c 3f
       -0.37552944 -1.0165099 0.11679574 0.73564225
0001d0 63 4e 26 bf 8b 3e 8f 3c 3f 3b ad 3c 67 b8 b7 3f
       -0.6496336 0.017485877 0.021146415 1.435315
0001e0 2f 78 88 be 5e 3f bf be c3 fe 0a 3d b4 bc 43 3e
       -0.26654193 -0.37353033 0.033934366 0.19114953
0001f0 26 b0 8f 3e a2 16 8d be b3 a4 27 3e 29 dc 95 3e
       0.28064078 -0.2755633 0.16371422 0.2926953
000200 a5 94 fc bc 74 d8 a8 be 52 95 60 be 9f 2f 06 3c
       -0.030832598 -0.3297764 -0.21931961 0.008190065
000210 9c ed 8f 3e 03 38 04 be 6d 19 c4 be 72 9c 1f 3e
       0.2811097 -0.12911992 -0.38300648 0.15587023
000220 97 7e 30 3d 85 02 34 bd de b5 87 be 02 5a 43 be
       0.043089475 -0.043947715 -0.2650594 -0.19077304
000230 63 c8 77 3e 23 80 ae 3e 7e 93 84 3e a2 48 19 bc
       0.24197535 0.34082136 0.25893778 -0.009355696
000240 31 42 8b be 07 d7 7e be f5 30 66 be 88 cc a7 bd
       -0.27198938 -0.24886714 -0.22479613 -0.08193308
000250 ef ef bf 3e 65 d0 78 3e 78 da 1c bf 44 84 43 3f
       0.37487742 0.24298246 -0.61270857 0.76373696
000260 8b 3d c8 be 49 16 c7 3f a7 d6 27 be 85 6b 80 be
       -0.39109454 1.5553676 -0.16390477 -0.2508203
000270 3e 8e 2d bf 6a 4e 72 3f 45 50 59 3e 13 89 e0 3b
       -0.6779517 0.946509 0.21222027 0.006852278
000280 2d 0d 70 be c9 52 f8 bd f1 0c 72 be 26 7f fd bd
       -0.23442526 -0.12125165 -0.23637749 -0.12377767
000290 6a 32 a8 be 1a 5c 3a be 87 0f ab bd 4f aa be 3d
       -0.32850963 -0.18199196 -0.08352571 0.093098275
0002a0 27 1f 0d 3d 5a de 84 be ca 70 69 3e 78 1c fe be
       0.034453537 -0.2595089 0.22796932 -0.49631095
0002b0 28 4a 82 bd 44 2d 03 3e 3f 98 99 bd 60 f2 c9 bc
       -0.063618004 0.12810236 -0.07499742 -0.024651706
0002c0 ad 30 d5 3d 0a 2c e6 3e c6 77 c8 bd c7 e9 5e bd
       0.10409675 0.44955474 -0.0978847 -0.054422166
0002d0 8c ba 96 bd 44 a9 b4 3e 69 81 aa bd 79 c0 a9 3e
       -0.073598 0.3528539 -0.08325464 0.33154657
0002e0 71 b3 57 3e 39 f4 ae be c4 93 c5 be ec 0a 73 3e
       0.21064545 -0.34170702 -0.385893 0.23734635
0002f0 03 af 32 3e dd 21 dd 3b fe be 51 3e 00 34 95 3d
       0.17449574 0.0067484216 0.20483014 0.07285309
000300 55 c7 cc 3c 73 87 43 3e f2 e7 57 3e 7d 73 35 3e
       0.024997393 0.19094639 0.21084574 0.17719837
000310 80 bc 18 3d 92 e9 ab be 49 a2 c5 bd 89 8e 9a bd
       0.037289143 -0.33576638 -0.09650094 -0.07546718
000320 4d 1c 9a 3d 42 63 99 be 8c b8 5b 3e be e2 62 3e
       0.07524929 -0.2995854 0.21457118 0.22156808
000330 f0 59 46 be 7e 71 66 be d5 79 7c 3e cc 42 23 3e
       -0.19370246 -0.22504231 0.2465585 0.1594345
000340 76 fb 42 bb 35 26 52 3e a1 41 e4 3e 24 2e c2 be
       -0.0029751933 0.20522387 0.4458132 -0.37925828
000350 5b 2f 90 3e 71 2f 1b bf af 28 6a be a7 b7 5a be
       0.2816113 -0.60619265 -0.22867082 -0.2135912
000360 67 42 5a 3e d6 5c 07 bf b7 98 28 3e 36 27 df 3d
       0.21314393 -0.5287603 0.16464506 0.10896151
000370 1f 2b 7b 3e a0 e6 5f 3d 83 ec 9a bd e1 19 af bd
       0.24528168 0.0546633 -0.07564642 -0.08549858
000380 d9 a0 8b be ff 1b b9 3e 2b 79 3e bd 70 08 23 3e
       -0.27271155 0.36154172 -0.046502274 0.15921187
000390 5a 19 61 3e 06 11 15 bd 27 ce 28 3e ed e2 a8 3e
       0.21982327 -0.036393188 0.16484891 0.3298563
0003a0 e1 ca dd be 69 db 8f be de 73 15 be 2e 3d bf 3d
       -0.43318847 -0.28097084 -0.14594981 0.09337841
0003b0 29 a7 8a be 8a dc fe 3c cc 11 89 3e 23 ca 83 3d
       -0.27080658 0.03111102 0.2677139 0.06435039
0003c0 3e be d7 3e 2b f4 92 be 79 ee 3a 3d 05 7a e7 be
       0.4213733 -0.2870191 0.04563758 -0.4521028
0003d0 a9 de d1 3d 12 1a 24 3e f9 89 cd 3e 07 9b 32 bf
       0.10247547 0.1602557 0.40144327 -0.697678
0003e0 7f 02 86 be 85 db f7 3d fd 76 da bd 89 75 44 be
       -0.2617378 0.12102417 -0.106672265 -0.19185461
0003f0 44 9b b5 3d d2 49 05 3e 0c 03 1d be 32 0b a0 3e
       0.08867505 0.13016441 -0.15333194 0.3125854

conv3.lin_dst.weight f4 [30, 30]
000000 d6 bd e9 3d ed 00 c0 bd 7c 76 54 3e cd 4e 16 bf
       0.114131615 -0.093751766 0.20748323 -0.5871399
000010 43 17 8a 3e 66 d2 46 bd 96 7b 6a 3e 89 c6 32 bf
       0.26970872 -0.048540495 0.22898707 -0.6983419
000020 de d2 78 be 27 9d 70 be 77 1e 7b 3e af 9a 74 3e
       -0.2429919 -0.23497449 0.2452334 0.23887132
000030 79 18 96 3e e2 92 ad bd 9a 31 8c bd 54 b9 3c 3d
       0.29315546 -0.08475281 -0.06845398 0.04607518
000040 63 67 cc 3e ed 15 02 3d f5 5c a8 3e f1 b4 42 bc
       0.39922628 0.03175919 0.3288342 -0.01188396
000050 ce 06 b4 bc ef 19 45 bc 57 09 b3 be 14 6d 71 3d
       -0.021975901 -0.012030109 -0.34968063 0.058941916
000060 ea 06 37 be bb 1a bc 3d 15 73 92 bd 8f b7 a9 bd
       -0.17873731 0.09184786 -0.071508564 -0.08286964
000070 fb eb 4f 3d 58 da aa bd 6e 0c 06 3e 1b b7 46 be
       0.050762158 -0.08342427 0.13090679 -0.19405787
000080 4e 76 c4 3d bb ef 13 bd ad b1 5b 3e 19 26 8b be
       0.09592877 -0.036117297 0.21454497 -0.27177504
000090 d1 fb 6a 3e 14 7b 18 be 1c 24 91 be 77 4f 7a be
       0.22947623 -0.148907 -0.28347862 -0.24444376
0000a0 92 d1 ce bd c4 41 dd bd ab 22 39 3e 55 59 fe bd
       -0.10098566 -0.108035594 0.18079631 -0.124193825
0000b0 ce 1d 9d 3c 29 b8 a2 3d 14 da 0d bb b6 c2 3e be
       0.019179251 0.07945282 -0.0021644877 -0.18628964
0000c0 6a 33 70 3e 4c 50 94 be c3 b9 48 be d6 be 04 3d
       0.23457113 -0.28967512 -0.19602112 0.032408558
0000d0 68 a4 51 3d 5d 5c 0d 3e 0a 3f 82 be 8e af 04 be
       0.05118218 0.13804765 -0.2543872 -0.12957594
0000e0 fe b9 f0 bd 6b 3a 10 be 1c 95 2f be b2 c6 04 bd
       -0.11754225 -0.14084785 -0.17146724 -0.032416053
0000f0 59 70 5a be 6e 27 04 be 91 1b 89 be 16 df 05 3f
       -0.2133192 -0.12905666 -0.26778844 0.5229353
000100 15 e2 7a be 7d eb a6 be b2 46 b2 be 10 38 20 3e
       -0.24500306 -0.32601538 -0.3481956 0.15646386
000110 69 0b 09 be 99 fd 4b be c4 fd 94 be 36 cc 6a 3e
       -0.13383259 -0.19920959 -0.29099858 0.22929463
000120 06 b8 5a be 5f 87 61 3e 07 56 5d 3e 62 ea db 3d
       -0.21359262 0.22024296 0.21614848 0.10738064
000130 f5 d0 ca bd 0d fa 10 be 66 53 0c 3e 1f 7c 80 3e
       -0.09903137 -0.14157887 0.13703689 0.25094697
000140 69 a1 43 3e ea 70 bc bb 18 87 8e 3b 7d 7f f4 3d
       0.19104542 -0.005750765 0.0043496005 0.11938379
000150 45 74 81 be 51 0d b5 bd ab 31 7c 3e 52 7d 46 be
       -0.2528402 -0.088404305 0.24628322 -0.19383743
000160 15 cc be bd 5a ea 61 be 52 dc 08 3f 2a 25 c1 bf
       -0.09316269 -0.22062054 0.5346118 -1.5089467
000170 1f 85 63 3f 9f 89 93 bf 82 e4 8c 3f 5a c0 06 3f
       0.88875 -1.1526374 1.1007235 0.52637255
000180 18 96 90 3f 91 b9 b1 bf a8 a3 95 bf a9 a6 48 bf
       1.1295805 -1.3884755 -1.1690569 -0.78379303
000190 a5 a8 06 3f ee 7a 92 3e 72 a6 00 3f 01 32 cc bd
       0.5260108 0.28609413 0.50253975 -0.09970475
0001a0 fc 54 48 3e 67 fb 3d 3f 5a db 4e 3e fb c5 a5 be
       0.19563669 0.74211735 0.20200863 -0.3237761
0001b0 1f d3 0c 3f f8 b3 bd 3e ca d7 18 bf 6c 05 9e 3f
       0.55009645 0.37051368 -0.5970427 1.2345405
0001c0 65 45 c0 be ff 1c 82 bf 9b 32 ef 3d 0d 53 3c 3f
       -0.37552944 -1.0165099 0.11679574 0.73564225
0001d0 63 4e 26 bf 8b 3e 8f 3c 3f 3b ad 3c 67 b8 b7 3f
       -0.6496336 0.017485877 0.021146415 1.435315
0001e0 2f 78 88 be 5e 3f bf be c3 fe 0a 3d b4 bc 43 3e
       -0.26654193 -0.37353033 0.033934366 0.19114953
0001f0 26 b0 8f 3e a2 16 8d be b3 a4 27 3e 29 dc 95 3e
       0.28064078 -0.2755633 0.16371422 0.2926953
000200 a5 94 fc bc 74 d8 a8 be 52 95 60 be 9f 2f 06 3c
       -0.030832598 -0.3297764 -0.21931961 0.008190065
000210 9c ed 8f 3e 03 38 04 be 6d 19 c4 be 72 9c 1f 3e
       0.2811097 -0.12911992 -0.38300648 0.15587023
000220 97 7e 30 3d 85 02 34 bd de b5 87 be 02 5a 43 be
       0.043089475 -0.043947715 -0.2650594 -0.19077304
000230 63 c8 77 3e 23 80 ae 3e 7e 93 84 3e a2 48 19 bc
       0.24197535 0.34082136 0.25893778 -0.009355696
000240 31 42 8b be 07 d7 7e be f5 30 66 be 88 cc a7 bd
       -0.27198938 -0.24886714 -0.22479613 -0.08193308
000250 ef ef bf 3e 65 d0 78 3e 78 da 1c bf 44 84 43 3f
       0.37487742 0.24298246 -0.61270857 0.76373696
000260 8b 3d c8 be 49 16 c7 3f a7 d6 27 be 85 6b 80 be
       -0.39109454 1.5553676 -0.16390477 -0.2508203
000270 3e 8e 2d bf 6a 4e 72 3f 45 50 59 3e 13 89 e0 3b
       -0.6779517 0.946509 0.21222027 0.006852278
000280 2d 0d 70 be c9 52 f8 bd f1 0c 72 be 26 7f fd bd
       -0.23442526 -0.12125165 -0.23637749 -0.12377767
000290 6a 32 a8 be 1a 5c 3a be 87 0f ab bd 4f aa be 3d
       -0.32850963 -0.18199196 -0.08352571 0.093098275
0002a0 27 1f 0d 3d 5a de 84 be ca 70 69 3e 78 1c fe be
       0.034453537 -0.2595089 0.22796932 -0.49631095
0002b0 28 4a 82 bd 44 2d 03 3e 3f 98 99 bd 60 f2 c9 bc
       -0.063618004 0.12810236 -0.07499742 -0.024651706
0002c0 ad 30 d5 3d 0a 2c e6 3e c6 77 c8 bd c7 e9 5e bd
       0.10409675 0.44955474 -0.0978847 -0.054422166
0002d0 8c ba 96 bd 44 a9 b4 3e 69 81 aa bd 79 c0 a9 3e
       -0.073598 0.3528539 -0.08325464 0.33154657
0002e0 71 b3 57 3e 39 f4 ae be c4 93 c5 be ec 0a 73 3e
       0.21064545 -0.34170702 -0.385893 0.23734635
0002f0 03 af 32 3e dd 21 dd 3b fe be 51 3e 00 34 95 3d
       0.17449574 0.0067484216 0.20483014 0.07285309
000300 55 c7 cc 3c 73 87 43 3e f2 e7 57 3e 7d 73 35 3e
       0.024997393 0.19094639 0.21084574 0.17719837
000310 80 bc 18 3d 92 e9 ab be 49 a2 c5 bd 89 8e 9a bd
       0.037289143 -0.33576638 -0.09650094 -0.07546718
000320 4d 1c 9a 3d 42 63 99 be 8c b8 5b 3e be e2 62 3e
       0.07524929 -0.2995854 0.21457118 0.22156808
000330 f0 59 46 be 7e 71 66 be d5 79 7c 3e cc 42 23 3e
       -0.19370246 -0.22504231 0.2465585 0.1594345
000340 76 fb 42 bb 35 26 52 3e a1 41 e4 3e 24 2e c2 be
       -0.0029751933 0.20522387 0.4458132 -0.37925828
000350 5b 2f 90 3e 71 2f 1b bf af 28 6a be a7 b7 5a be
       0.2816113 -0.60619265 -0.22867082 -0.2135912
000360 67 42 5a 3e d6 5c 07 bf b7 98 28 3e 36 27 df 3d
       0.21314393 -0.5287603 0.16464506 0.10896151
000370 1f 2b 7b 3e a0 e6 5f 3d 83 ec 9a bd e1 19 af bd
       0.24528168 0.0546633 -0.07564642 -0.08549858
000380 d9 a0 8b be ff 1b b9 3e 2b 79 3e bd 70 08 23 3e
       -0.27271155 0.36154172 -0.046502274 0.15921187
000390 5a 19 61 3e 06 11 15 bd 27 ce 28 3e ed e2 a8 3e
       0.21982327 -0.036393188 0.16484891 0.3298563
0003a0 e1 ca dd be 69 db 8f be de 73 15 be 2e 3d bf 3d
       -0.43318847 -0.28097084 -0.14594981 0.09337841
0003b0 29 a7 8a be 8a dc fe 3c cc 11 89 3e 23 ca 83 3d
       -0.27080658 0.03111102 0.2677139 0.06435039
0003c0 3e be d7 3e 2b f4 92 be 79 ee 3a 3d 05 7a e7 be
       0.4213733 -0.2870191 0.04563758 -0.4521028
0003d0 a9 de d1 3d 12 1a 24 3e f9 89 cd 3e 07 9b 32 bf
       0.10247547 0.1602557 0.40144327 -0.697678
0003e0 7f 02 86 be 85 db f7 3d fd 76 da bd 89 75 44 be
       -0.2617378 0.12102417 -0.106672265 -0.19185461
0003f0 44 9b b5 3d d2 49 05 3e 0c 03 1d be 32 0b a0 3e
       0.08867505 0.13016441 -0.15333194 0.3125854

lin.weight f4 [1, 30]
000000 19 e3 15 3d 5a b4 15 be 77 82 34 bd b5 f2 25 3d
       0.03659353 -0.1461958 -0.044069733 0.040514667
000010 89 7e 17 be ef 21 05 3d e0 27 16 bc cf ae 61 bd
       -0.14794363 0.032503065 -0.00916478 -0.05509835
000020 8a eb 68 3d d4 c3 30 3d 1a 24 dc 3c 5c 9c b5 bd
       0.056865253 0.043155506 0.026872683 -0.08867714
000030 0f a3 a5 bd 2f 1b a5 3d 32 92 45 3a 05 24 bc 3d
       -0.080877416 0.080618255 0.00075367384 0.09186558
000040 b1 f5 53 be c0 fb aa bd 59 ec 04 be 87 78 01 3e
       -0.20699193 -0.08348799 -0.12980784 0.12643634
000050 63 a4 8d bd 41 4c b5 bd 4c 58 40 3d 23 88 f0 bd
       -0.0691612 -0.08852435 0.046959206 -0.11744716
000060 28 16 98 3e 86 2f 35 3e 05 86 49 3d 93 81 d1 bd
       0.29704404 0.1769391 0.049200077 -0.102297924
000070 4d fb 2d 3d 79 3e 22 be
       0.042475987 -0.15844144
