models/neural_network_GATConv_dynamics_SIS_graph_size_10/neural_network.pth (torch, 12779 bytes, 16 tensors)

conv1.att_src f4 [1, 1, 30]
000000 95 d9 43 bf e0 55 03 3f 48 8a 88 bf b6 c4 81 3f
       -0.7650388 0.5130291 -1.06672 1.0138156
000010 2e 84 2a 3f dd e5 78 3f d6 4c 76 3f 8e 8c e2 3e
       0.6660794 0.97225744 0.9621099 0.4424786
000020 9a 10 8e 3f 63 d5 5a 3f 76 b2 8e bf 0f 97 17 bf
       1.1098816 0.8548185 -1.1148212 -0.5921487
000030 39 d3 2a 3f c7 3f aa 3e f8 25 7c 3f bf 8d 46 3f
       0.6672855 0.33251783 0.98495436 0.7756004
000040 6e 25 c0 be c4 be fd 3e 7f 4e cd 3e 6f c1 88 3f
       -0.37528557 0.49559605 0.4009895 1.0684031
000050 6a 05 1d bf 19 1d 44 bf 6d 90 78 3f c1 36 4e bf
       -0.61336386 -0.766069 0.97095376 -0.805523
000060 03 98 80 bf 37 5e 41 bf 87 c9 ff 3e 26 eb f2 3e
       -1.004639 -0.75534385 0.4995844 0.4744503
000070 7a 0d 56 3f ef 2f 1e bf
       0.83614314 -0.6179189

conv1.att_dst f4 [1, 1, 30]
000000 1a ac 18 3f aa 25 60 bf fc 65 3d 3f 9e 5e 9a bf
       0.59637606 -0.8755747 0.7398374 -1.2060125
000010 5e 49 a7 bf f4 ae 67 bf 58 e5 44 bf 0f c4 79 bf
       -1.3069265 -0.9050133 -0.7691245 -0.97564787
000020 02 5f 60 bf c6 37 25 bf a3 fc 8e 3f ba 86 8b 3f
       -0.8764497 -0.6453823 1.1170849 1.090049
000030 fe 5f 3f bf aa 8d 5f bf d5 e2 88 bf 26 8d 12 bf
       -0.7475585 -0.8732554 -1.0694224 -0.57246625
000040 20 ef 12 3f 22 88 db be d7 18 2c bf a8 99 3c bf
       0.57396126 -0.428773 -0.672254 -0.7367196
000050 6a 08 75 3f 26 12 82 3f 04 f8 84 bf de a4 2b 3f
       0.95715964 1.0161788 -1.0388188 0.6704844
000060 3f 2e 27 3f 23 23 e0 3e fc 2e 4e bf 22 f3 a4 bf
       0.6530494 0.43776807 -0.8054044 -1.2886698
000070 cc 50 12 bf 9b 1c d7 3e
       -0.57154536 0.42014012

conv1.bias f4 [30]
000000 6a 4e b0 3e 66 ce 15 bd ac 16 0c 3e 7d 27 ae be
       0.34434825 -0.03657379 0.13680524 -0.34014502
000010 fa 57 62 be 19 de 51 bd a0 cc 1b be ac ab c7 bd
       -0.22103873 -0.0512372 -0.15214777 -0.09749541
000020 cf be 97 be aa ea c5 bd f0 ca 58 3e 81 1e 86 3e
       -0.29637763 -0.09663899 0.21171165 0.26195148
000030 0a c5 ac be 2c f3 ba be f7 05 99 be 1f a2 97 be
       -0.3374408 -0.3651365 -0.29887363 -0.29615876
000040 2b 5c 44 3c de 88 13 be 13 d8 37 be b4 10 e6 3a
       0.011984865 -0.1440768 -0.1795352 0.0017552585
000050 39 e6 9a 3e ee 00 a8 be 17 3e 06 3e 20 19 b7 3d
       0.3025377 -0.3281321 0.13109623 0.08940339
000060 12 a4 c8 3c d9 54 20 3e d6 16 3c bd 0d d3 3e bc
       0.024492297 0.15657367 -0.045920216 -0.011646998
000070 a7 9c 07 be 06 3c 37 be
       -0.13243352 -0.17893991

conv1.lin_src.weight f4 [30, 1]
000000 b3 7a e6 be 39 f7 23 3f a8 34 d8 be b9 0b d5 3e
       -0.45015487 0.64049107 -0.42227674 0.41610506
000010 7f 2e 79 3e 86 eb 58 3f 9d c6 cd 3f 98 1a f8 3e
       0.24334143 0.8473438 1.6076237 0.4845779
000020 e1 85 07 3f bb 35 10 3f 91 c3 e4 be ae f2 97 be
       0.5293866 0.56331986 -0.44680455 -0.29677337
000030 17 0c 8f 3e 58 e1 f0 3e 6c 99 85 3e ae 05 74 3e
       0.2793891 0.47046924 0.26093614 0.23830292
000040 f2 e9 2a bf 78 99 fd 3e c5 30 db 3e fe ac 81 3f
       -0.6676322 0.4953115 0.42810646 1.0130918
000050 99 86 c0 be fd 2b 95 bd 79 02 c5 3f c4 dc 0a bf
       -0.3760269 -0.07283781 1.539138 -0.5424311
000060 2f 78 6b bf 2c d0 14 bf 48 3b 67 3f 46 9a 29 3f
       -0.9198026 -0.58130145 0.9032483 0.6625103
000070 b0 54 cf 3e 71 1a a1 bf
       0.404943 -1.2586194

conv1.lin_dst.weight f4 [30, 1]
000000 b3 7a e6 be 39 f7 23 3f a8 34 d8 be b9 0b d5 3e
       -0.45015487 0.64049107 -0.42227674 0.41610506
000010 7f 2e 79 3e 86 eb 58 3f 9d c6 cd 3f 98 1a f8 3e
       0.24334143 0.8473438 1.6076237 0.4845779
000020 e1 85 07 3f bb 35 10 3f 91 c3 e4 be ae f2 97 be
       0.5293866 0.56331986 -0.44680455 -0.29677337
000030 17 0c 8f 3e 58 e1 f0 3e 6c 99 85 3e ae 05 74 3e
       0.2793891 0.47046924 0.26093614 0.23830292
000040 f2 e9 2a bf 78 99 fd 3e c5 30 db 3e fe ac 81 3f
       -0.6676322 0.4953115 0.42810646 1.0130918
000050 99 86 c0 be fd 2b 95 bd 79 02 c5 3f c4 dc 0a bf
       -0.3760269 -0.07283781 1.539138 -0.5424311
000060 2f 78 6b bf 2c d0 14 bf 48 3b 67 3f 46 9a 29 3f
       -0.9198026 -0.58130145 0.9032483 0.6625103
000070 b0 54 cf 3e 71 1a a1 bf
       0.404943 -1.2586194

conv2.att_src f4 [1, 1, 30]
000000 7d 7e 42 3f ab 54 53 3f 07 d1 39 bf c7 00 31 3f
       0.75974256 0.8255107 -0.72584575 0.6914181
000010 3d 0a ae 3e 0f cf 0e bf be 34 f6 be 11 32 0e 3f
       0.33992186 -0.55784696 -0.48087114 0.55545145
000020 ef b8 4c 3f a1 c7 76 bf 10 0b 11 3f 53 01 cf be
       0.79969686 -0.9639836 0.56657505 -0.40430698
000030 c2 4b 26 bf a8 21 a3 3e bb 13 53 be 11 64 81 bd
       -0.6495935 0.31861615 -0.20612995 -0.06317914
000040 bd f7 26 bf 7e 03 dc 3d 8b 94 9e be 5b 6e 98 be
       -0.6522177 0.107428536 -0.30972704 -0.29771695
000050 d1 ff 7d be 5c 54 0d 3e 90 66 82 3f 0a cb 38 bf
       -0.24804617 0.13801712 1.018755 -0.72184813
000060 6a 90 4a 3f 75 6a 98 3e e0 c9 fe 3e 57 53 a3 bd
       0.7912661 0.2976872 0.49763393 -0.0797488
000070 48 6c 4a 3f b7 5f 2f 3e
       0.79071474 0.17126356

conv2.att_dst f4 [1, 1, 30]
000000 98 48 03 bf 68 ee 81 40 21 68 f9 3d 3e 76 54 40
       -0.51282644 4.0603523 0.12178064 3.319717
000010 23 c5 34 40 bc 6b 8e be 86 07 ae 3d 44 e1 71 40
       2.8245323 -0.2781657 0.08497529 3.7793741
000020 97 ab 35 40 3f 48 54 c0 44 7f 7f be b0 0d 8f c0
       2.838598 -3.3169096 -0.24950892 -4.470421
000030 ec 35 14 3f ab cd 29 bf a6 ae b4 3f 9a cf 67 c0
       0.5789478 -0.6632945 1.4115798 -3.622046
000040 77 f3 2a c0 58 29 f1 3f ef 48 80 c0 3d 12 ae bd
       -2.67111 1.8840742 -4.008903 -0.084995724
000050 ca c4 05 3f e7 93 44 3f b7 9c 48 40 1a e2 36 be
       0.522534 0.7678818 3.134565 -0.17859688
000060 43 f8 4b 40 02 1b 8d bf 85 9a a1 40 4a 62 20 3f
       3.1870277 -1.1023867 5.0501122 0.6264998
000070 b0 20 ab 3e 22 f6 ad be
       0.33423376 -0.33976847

conv2.bias f4 [30]
000000 e8 8f 1a bd b6 86 2b 3e ae e7 4b bd 31 5c 44 3e
       -0.037734896 0.16750607 -0.049781494 0.19175793
000010 86 ab 7a 3e 0d 49 67 be 0e a4 43 bd 1c 98 73 3e
       0.24479493 -0.2258646 -0.047763877 0.23788494
000020 1b df e5 3d 07 9e 65 be 67 96 e6 3d 2d e3 48 be
       0.112241946 -0.22423564 0.11259156 -0.1961791
000030 02 f6 df bd f3 dc fc ba e4 bb f4 bd 38 b5 63 be
       -0.10935594 -0.0019291922 -0.119499 -0.22237098
000040 f7 7b 09 be 27 40 43 3e 02 08 73 bd e2 b6 1b be
       -0.13426195 0.19067441 -0.05933381 -0.15206483
000050 80 1c 21 be 2c f1 b6 bd d2 2d 11 3e 03 ae 5d be
       -0.15733528 -0.08932719 0.14177635 -0.21648411
000060 c5 4f 3e 3e af c3 e5 3b e5 ea 21 3e 72 3b 4d be
       0.18585117 0.0070118527 0.15812261 -0.20042208
000070 cc 91 bc 3d ec 31 e5 3d
       0.09207496 0.111911625

conv2.lin_src.weight f4 [30, 30]
000000 69 d8 b6 be 61 ce 09 be 15 8e 06 3e f0 27 7a 3e
       -0.35711983 -0.13457634 0.13140137 0.24429297
000010 2d 4a 5b 3e 98 5e 22 3c c1 11 58 3e 79 a5 aa bb
       0.21415015 0.009910248 0.21100523 -0.005207714
000020 ae 38 19 3e 28 78 5d 3e 1f 82 a0 be f5 c3 a0 be
       0.14963028 0.21627867 -0.31349275 -0.31399503
000030 97 a2 77 3e f8 6b 1e 3e b7 60 8b 3e ef 7c d1 3e
       0.24183117 0.15470874 0.27222225 0.4091563
000040 19 1c b4 be 2c 56 ec bc ab dd 11 3e 7c 9d 5f 3e
       -0.35177687 -0.028849684 0.14244716 0.2183742
000050 5e dd b8 3d 38 3e 32 be 51 bf 6f 3e 80 fe 78 be
       0.090265974 -0.17406547 0.23412825 -0.24315834
000060 29 0c f0 bd 11 c7 5e bb 01 dd c5 3e cb 57 10 be
       -0.11721069 -0.0033993165 0.38645175 -0.1409599
000070 7d 18 16 3e 4c 40 fc bc 6a 28 c3 3f 99 9a 70 be
       0.14657779 -0.030792378 1.5246708 -0.23496474
000080 91 9a 90 bc 3b a6 87 bf a1 de 62 bf 28 24 29 3d
       -0.017651828 -1.0597605 -0.88620955 0.041294247
000090 cf 35 7d 3e d8 2f 6c be f2 f0 09 bf c0 0c 5d be
       0.24727558 -0.23065126 -0.5388328 -0.21586895
0000a0 46 b4 33 3f 2c 1a 74 3f 89 f4 03 bf 41 78 eb bf
       0.7019695 0.95352435 -0.51545006 -1.8396074
0000b0 ca b1 53 bf 32 8d c6 be 59 5b 62 3e 06 94 17 bd
       -0.8269316 -0.38779598 0.22105159 -0.0370064
0000c0 7a fe a2 be d5 b7 b8 3d 44 e6 cc 3f ab 72 aa be
       -0.31834775 0.09019438 1.6007771 -0.3329061
0000d0 90 44 0a 3e 50 8c f2 3e 18 8f 62 bc 63 c3 e8 3e
       0.13502717 0.47372675 -0.0138280615 0.45461568
0000e0 9c 68 0f 3e 6f 57 d5 bc f3 d8 03 bf 99 4a 0a be
       0.14004749 -0.026042668 -0.51502913 -0.13505019
0000f0 9a 41 41 be 47 e8 b4 3d 62 9a a8 3e d3 6c b3 3d
       -0.18872681 0.08833366 0.32930285 0.08760991
000100 e6 3e ba bc fe 53 34 3d 1e b6 20 bf a3 90 9f bd
       -0.02273507 0.044025414 -0.6277789 -0.07791259
000110 33 69 68 bd a0 1b 18 be f4 86 a3 3c 82 2c b3 be
       -0.05674095 -0.14854288 0.019961812 -0.34994894
000120 e8 06 ff bd dc ed 90 3e c4 7c 1c 3e 66 b6 94 3e
       -0.12452489 0.28306472 0.1528197 0.2904541
000130 53 88 86 3e 32 6b ec bc da 3d 4e 3d bd 3b 09 bf
       0.26275882 -0.028859708 0.050351955 -0.5360678
000140 14 a0 c4 be bb f5 30 3e f7 e5 df be c3 b9 23 3d
       -0.3840338 0.17281239 -0.43730137 0.039972078
000150 89 25 87 3e 9b 6c 19 3e 52 38 6e be 35 6b 34 bd
       0.26395825 0.14982836 -0.23263672 -0.044047553
000160 80 61 0b be 25 1e 74 3e c0 06 cc 3f c4 98 65 3e
       -0.13611412 0.23839624 1.593956 0.22421557
000170 c3 59 8e bd d5 14 9c bf 91 35 ea be 62 31 4f 3d
       -0.069507144 -1.2193857 -0.45743993 0.050584204
000180 a8 80 ab 3e 26 f9 55 bd 0e 8f a3 be 96 a3 ba be
       0.33496594 -0.05223956 -0.3194508 -0.3645293
000190 18 87 16 3f 58 39 25 3f 6e 37 39 bf 3f f3 a0 bf
       0.58799887 0.64540625 -0.72350204 -1.2574233
0001a0 0c 50 b6 be c9 bd 06 bf 06 01 83 be b1 10 d5 be
       -0.35607946 -0.5263334 -0.25586718 -0.41614297
0001b0 4c 6c 01 bf 7e 5a 83 be 5a 43 9c 3f 82 5c 7d bc
       -0.5055587 -0.25654978 1.2208054 -0.01546395
0001c0 bd 05 a1 bd df 4a 04 be 2e 66 26 3e 8c 73 c0 3e
       -0.078624226 -0.12919186 0.16249916 0.37588155
0001d0 b1 3f 11 bd 1e f0 13 be a1 d0 ab be 2c 6f 96 be
       -0.03546113 -0.14447066 -0.3355761 -0.29381692
0001e0 15 db 77 3f 40 7e 62 be 93 fc d8 3e 92 dc 7d bf
       0.9681867 -0.22118473 0.423802 -0.9916469
0001f0 e9 47 9b be 05 4f 80 be 5c 00 50 bd aa 7a 95 3d
       -0.303283 -0.25060287 -0.050781593 0.07298787
000200 2f 48 02 bf 60 45 e0 3c d3 b5 81 3e 10 bf fc 3e
       -0.50891393 0.02737683 0.25334033 0.4936452
000210 5f a0 05 bf 5d 24 9a bf 86 03 2e bf 3a c7 2f bf
       -0.5219783 -1.2042347 -0.67974126 -0.6866337
000220 66 5b ea bd 21 94 30 be 11 39 0e be 0e 80 cf 3d
       -0.11443214 -0.17244007 -0.13888957 0.10131846
000230 cc ff 8c 3f 5e 79 14 bf 17 10 9a 3d a1 08 ac 3e
       1.1015563 -0.5799769 0.075226 0.33600333
000240 a0 90 30 3e 3f a3 7c 3e c4 5a 08 be d4 9c 82 3e
       0.1724267 0.24671648 -0.13315874 0.25510275
000250 3a db 48 be b0 b2 54 3e 33 2f dc be 19 0a d1 be
       -0.19614878 0.20771289 -0.4300476 -0.40828016
000260 83 e3 11 3c f0 c5 20 3e bd 4a f2 3e d3 a8 53 3d
       0.008904341 0.15700507 0.47322646 0.051674675
000270 63 d3 3b bf 25 55 56 be 6f a4 91 3e ff 80 c6 be
       -0.73369426 -0.20930918 0.28445765 -0.3877029
000280 6f 84 9f bd 82 11 30 bf 54 13 3c 3f 3f 5b ef 3e
       -0.077889316 -0.68776715 0.7346699 0.46749303
000290 a5 2d 41 3f 60 b8 f6 3e e4 bd b8 3e 31 3a 8d 3c
       0.75460273 0.48187542 0.36082375 0.017239662
0002a0 20 7b b6 bb b2 05 11 bf 4c b2 e3 be 0f 13 e7 3e
       -0.005568877 -0.56649315 -0.44471967 0.45131728
0002b0 61 80 ce be 9f d7 c4 3e d4 bc 05 3f 56 b0 c2 3e
       -0.4033232 0.38445756 0.52241254 0.3802516
0002c0 46 42 bc be d6 67 00 bf 77 48 45 3e 95 98 0f 3f
       -0.36769313 -0.5015844 0.19265924 0.56092197
0002d0 b3 a7 68 be 64 50 98 be b4 4a c4 3d b6 10 65 be
       -0.22720222 -0.29748833 0.09584561 -0.22369656
0002e0 9b 58 e4 3e 4f 69 ac bd e5 8a 20 bf 38 02 1a 3e
       0.4459885 -0.084185235 -0.62711936 0.15039909
0002f0 71 22 13 3e 56 4e e0 bb a3 e6 53 bd 9e fc 8d be
       0.14368607 -0.006845276 -0.051733624 -0.27731794
000300 34 02 98 3d fc 26 19 be 6b ca 40 3e fc 42 b5 3e
       0.07422295 -0.14956278 0.18827216 0.35402668
000310 fb 6f 99 3d 79 bc 9c be 3d aa 09 be 2e 39 5e be
       0.07492062 -0.30612543 -0.13443847 -0.217015
000320 6e ca 58 3e 11 51 15 3f 8b 1b a7 be 5a 45 5e 3e
       0.21170971 0.5832682 -0.326382 0.21706143
000330 e6 21 12 3f 86 5f db 3e 57 9f b3 be ce fc db be
       0.57082975 0.42846316 -0.35082504 -0.42966312
000340 91 12 e2 3d ec 11 b0 3c 04 2b b8 3f 4a a5 63 be
       0.110386975 0.02149292 1.4388127 -0.22231022
000350 70 72 d4 3c eb b8 b0 bf c6 8f eb be 35 93 58 be
       0.025933474 -1.3806432 -0.46008128 -0.21149905
000360 bb 48 8e 3e 4a bd c3 be e4 d3 66 be 3a a6 46 be
       0.27789864 -0.38230354 -0.22541767 -0.19399348
000370 ee 6f 76 3e 5d 83 5f 3f 5d 79 46 bf 69 3e bb bf
       0.24066135 0.8730982 -0.77528936 -1.4628421
000380 2a e2 06 bf 3c 87 18 bf 96 4f a1 3e f2 86 ed be
       -0.5268885 -0.5958135 0.31506032 -0.46392018
000390 13 97 59 be f9 47 d4 bc b4 33 ee 3f 81 2b c5 be
       -0.21249036 -0.025913225 1.8609529 -0.38509753
0003a0 c4 d1 d6 3d 39 5e ec 3e 84 f9 a2 bd 2e fb 50 bd
       0.10489228 0.46165636 -0.079577476 -0.051020794
0003b0 d9 90 19 3e 55 5e eb bc a9 2e c6 bc e7 3d b5 3d
       0.14996661 -0.028731504 -0.024192171 0.088496976
0003c0 c5 0a 81 3f c3 a0 f6 3d 08 ee 3d 3e 70 33 24 bf
       1.0081412 0.120423816 0.18547833 -0.6414099
0003d0 e8 98 e7 be 24 e1 c7 bd 60 e0 ae 3c a7 2c 88 be
       -0.45233846 -0.09759739 0.021347225 -0.26596567
0003e0 8f e3 c0 be fe 21 83 be ec d4 0b 3f 32 0f 30 3f
       -0.37673613 -0.2561187 0.5462177 0.68773186
0003f0 60 56 b1 be b8 a8 85 bf 16 31 ff be 39 81 a4 be
       -0.3463621 -1.0442114 -0.49842137 -0.3212984

conv2.lin_dst.weight f4 [30, 30]
000000 69 d8 b6 be 61 ce 09 be 15 8e 06 3e f0 27 7a 3e
       -0.35711983 -0.13457634 0.13140137 0.24429297
000010 2d 4a 5b 3e 98 5e 22 3c c1 11 58 3e 79 a5 aa bb
       0.21415015 0.009910248 0.21100523 -0.005207714
000020 ae 38 19 3e 28 78 5d 3e 1f 82 a0 be f5 c3 a0 be
       0.14963028 0.21627867 -0.31349275 -0.31399503
000030 97 a2 77 3e f8 6b 1e 3e b7 60 8b 3e ef 7c d1 3e
       0.24183117 0.15470874 0.27222225 0.4091563
000040 19 1c b4 be 2c 56 ec bc ab dd 11 3e 7c 9d 5f 3e
       -0.35177687 -0.028849684 0.14244716 0.2183742
000050 5e dd b8 3d 38 3e 32 be 51 bf 6f 3e 80 fe 78 be
       0.090265974 -0.17406547 0.23412825 -0.24315834
000060 29 0c f0 bd 11 c7 5e bb 01 dd c5 3e cb 57 10 be
       -0.11721069 -0.0033993165 0.38645175 -0.1409599
000070 7d 18 16 3e 4c 40 fc bc 6a 28 c3 3f 99 9a 70 be
       0.14657779 -0.030792378 1.5246708 -0.23496474
000080 91 9a 90 bc 3b a6 87 bf a1 de 62 bf 28 24 29 3d
       -0.017651828 -1.0597605 -0.88620955 0.041294247
000090 cf 35 7d 3e d8 2f 6c be f2 f0 09 bf c0 0c 5d be
       0.24727558 -0.23065126 -0.5388328 -0.21586895
0000a0 46 b4 33 3f 2c 1a 74 3f 89 f4 03 bf 41 78 eb bf
       0.7019695 0.95352435 -0.51545006 -1.8396074
0000b0 ca b1 53 bf 32 8d c6 be 59 5b 62 3e 06 94 17 bd
       -0.8269316 -0.38779598 0.22105159 -0.0370064
0000c0 7a fe a2 be d5 b7 b8 3d 44 e6 cc 3f ab 72 aa be
       -0.31834775 0.09019438 1.6007771 -0.3329061
0000d0 90 44 0a 3e 50 8c f2 3e 18 8f 62 bc 63 c3 e8 3e
       0.13502717 0.47372675 -0.0138280615 0.45461568
0000e0 9c 68 0f 3e 6f 57 d5 bc f3 d8 03 bf 99 4a 0a be
       0.14004749 -0.026042668 -0.51502913 -0.13505019
0000f0 9a 41 41 be 47 e8 b4 3d 62 9a a8 3e d3 6c b3 3d
       -0.18872681 0.08833366 0.32930285 0.08760991
000100 e6 3e ba bc fe 53 34 3d 1e b6 20 bf a3 90 9f bd
       -0.02273507 0.044025414 -0.6277789 -0.07791259
000110 33 69 68 bd a0 1b 18 be f4 86 a3 3c 82 2c b3 be
       -0.05674095 -0.14854288 0.019961812 -0.34994894
000120 e8 06 ff bd dc ed 90 3e c4 7c 1c 3e 66 b6 94 3e
       -0.12452489 0.28306472 0.1528197 0.2904541
000130 53 88 86 3e 32 6b ec bc da 3d 4e 3d bd 3b 09 bf
       0.26275882 -0.028859708 0.050351955 -0.5360678
000140 14 a0 c4 be bb f5 30 3e f7 e5 df be c3 b9 23 3d
       -0.3840338 0.17281239 -0.43730137 0.039972078
000150 89 25 87 3e 9b 6c 19 3e 52 38 6e be 35 6b 34 bd
       0.26395825 0.14982836 -0.23263672 -0.044047553
000160 80 61 0b be 25 1e 74 3e c0 06 cc 3f c4 98 65 3e
       -0.13611412 0.23839624 1.593956 0.22421557
000170 c3 59 8e bd d5 14 9c bf 91 35 ea be 62 31 4f 3d
       -0.069507144 -1.2193857 -0.45743993 0.050584204
000180 a8 80 ab 3e 26 f9 55 bd 0e 8f a3 be 96 a3 ba be
       0.33496594 -0.05223956 -0.3194508 -0.3645293
000190 18 87 16 3f 58 39 25 3f 6e 37 39 bf 3f f3 a0 bf
       0.58799887 0.64540625 -0.72350204 -1.2574233
0001a0 0c 50 b6 be c9 bd 06 bf 06 01 83 be b1 10 d5 be
       -0.35607946 -0.5263334 -0.25586718 -0.41614297
0001b0 4c 6c 01 bf 7e 5a 83 be 5a 43 9c 3f 82 5c 7d bc
       -0.5055587 -0.25654978 1.2208054 -0.01546395
0001c0 bd 05 a1 bd df 4a 04 be 2e 66 26 3e 8c 73 c0 3e
       -0.078624226 -0.12919186 0.16249916 0.37588155
0001d0 b1 3f 11 bd 1e f0 13 be a1 d0 ab be 2c 6f 96 be
       -0.03546113 -0.14447066 -0.3355761 -0.29381692
0001e0 15 db 77 3f 40 7e 62 be 93 fc d8 3e 92 dc 7d bf
       0.9681867 -0.22118473 0.423802 -0.9916469
0001f0 e9 47 9b be 05 4f 80 be 5c 00 50 bd aa 7a 95 3d
       -0.303283 -0.25060287 -0.050781593 0.07298787
000200 2f 48 02 bf 60 45 e0 3c d3 b5 81 3e 10 bf fc 3e
       -0.50891393 0.02737683 0.25334033 0.4936452
000210 5f a0 05 bf 5d 24 9a bf 86 03 2e bf 3a c7 2f bf
       -0.5219783 -1.2042347 -0.67974126 -0.6866337
000220 66 5b ea bd 21 94 30 be 11 39 0e be 0e 80 cf 3d
       -0.11443214 -0.17244007 -0.13888957 0.10131846
000230 cc ff 8c 3f 5e 79 14 bf 17 10 9a 3d a1 08 ac 3e
       1.1015563 -0.5799769 0.075226 0.33600333
000240 a0 90 30 3e 3f a3 7c 3e c4 5a 08 be d4 9c 82 3e
       0.1724267 0.24671648 -0.13315874 0.25510275
000250 3a db 48 be b0 b2 54 3e 33 2f dc be 19 0a d1 be
       -0.19614878 0.20771289 -0.4300476 -0.40828016
000260 83 e3 11 3c f0 c5 20 3e bd 4a f2 3e d3 a8 53 3d
       0.008904341 0.15700507 0.47322646 0.051674675
000270 63 d3 3b bf 25 55 56 be 6f a4 91 3e ff 80 c6 be
       -0.73369426 -0.20930918 0.28445765 -0.3877029
000280 6f 84 9f bd 82 11 30 bf 54 13 3c 3f 3f 5b ef 3e
       -0.077889316 -0.68776715 0.7346699 0.46749303
000290 a5 2d 41 3f 60 b8 f6 3e e4 bd b8 3e 31 3a 8d 3c
       0.75460273 0.48187542 0.36082375 0.017239662
0002a0 20 7b b6 bb b2 05 11 bf 4c b2 e3 be 0f 13 e7 3e
       -0.005568877 -0.56649315 -0.44471967 0.45131728
0002b0 61 80 ce be 9f d7 c4 3e d4 bc 05 3f 56 b0 c2 3e
       -0.4033232 0.38445756 0.52241254 0.3802516
0002c0 46 42 bc be d6 67 00 bf 77 48 45 3e 95 98 0f 3f
       -0.36769313 -0.5015844 0.19265924 0.56092197
0002d0 b3 a7 68 be 64 50 98 be b4 4a c4 3d b6 10 65 be
       -0.22720222 -0.29748833 0.09584561 -0.22369656
0002e0 9b 58 e4 3e 4f 69 ac bd e5 8a 20 bf 38 02 1a 3e
       0.4459885 -0.084185235 -0.62711936 0.15039909
0002f0 71 22 13 3e 56 4e e0 bb a3 e6 53 bd 9e fc 8d be
       0.14368607 -0.006845276 -0.051733624 -0.27731794
000300 34 02 98 3d fc 26 19 be 6b ca 40 3e fc 42 b5 3e
       0.07422295 -0.14956278 0.18827216 0.35402668
000310 fb 6f 99 3d 79 bc 9c be 3d aa 09 be 2e 39 5e be
       0.07492062 -0.30612543 -0.13443847 -0.217015
000320 6e ca 58 3e 11 51 15 3f 8b 1b a7 be 5a 45 5e 3e
       0.21170971 0.5832682 -0.326382 0.21706143
000330 e6 21 12 3f 86 5f db 3e 57 9f b3 be ce fc db be
       0.57082975 0.42846316 -0.35082504 -0.42966312
000340 91 12 e2 3d ec 11 b0 3c 04 2b b8 3f 4a a5 63 be
       0.110386975 0.02149292 1.4388127 -0.22231022
000350 70 72 d4 3c eb b8 b0 bf c6 8f eb be 35 93 58 be
       0.025933474 -1.3806432 -0.46008128 -0.21149905
000360 bb 48 8e 3e 4a bd c3 be e4 d3 66 be 3a a6 46 be
       0.27789864 -0.38230354 -0.22541767 -0.19399348
000370 ee 6f 76 3e 5d 83 5f 3f 5d 79 46 bf 69 3e bb bf
       0.24066135 0.8730982 -0.77528936 -1.4628421
000380 2a e2 06 bf 3c 87 18 bf 96 4f a1 3e f2 86 ed be
       -0.5268885 -0.5958135 0.31506032 -0.46392018
000390 13 97 59 be f9 47 d4 bc b4 33 ee 3f 81 2b c5 be
       -0.21249036 -0.025913225 1.8609529 -0.38509753
0003a0 c4 d1 d6 3d 39 5e ec 3e 84 f9 a2 bd 2e fb 50 bd
       0.10489228 0.46165636 -0.079577476 -0.051020794
0003b0 d9 90 19 3e 55 5e eb bc a9 2e c6 bc e7 3d b5 3d
       0.14996661 -0.028731504 -0.024192171 0.088496976
0003c0 c5 0a 81 3f c3 a0 f6 3d 08 ee 3d 3e 70 33 24 bf
       1.0081412 0.120423816 0.18547833 -0.6414099
0003d0 e8 98 e7 be 24 e1 c7 bd 60 e0 ae 3c a7 2c 88 be
       -0.45233846 -0.09759739 0.021347225 -0.26596567
0003e0 8f e3 c0 be fe 21 83 be ec d4 0b 3f 32 0f 30 3f
       -0.37673613 -0.2561187 0.5462177 0.68773186
0003f0 60 56 b1 be b8 a8 85 bf 16 31 ff be 39 81 a4 be
       -0.3463621 -1.0442114 -0.49842137 -0.3212984

conv3.att_src f4 [1, 1, 30]
000000 a1 05 76 bf b2 f5 e1 3e 7a 19 38 bf f8 79 22 be
       -0.9610234 0.44132763 -0.71913874 -0.1586684
000010 a4 88 bc 3d c4 df f3 3d 23 35 e2 be 52 a1 08 3f
       0.0920575 0.11907914 -0.44181165 0.53371155
000020 ef 18 75 3e cc fe 37 3d 24 6c 8b bf bc f5 32 be
       0.23935293 0.044920728 -1.0892377 -0.17476553
000030 39 44 3d 3d 81 15 3a 3e 4b 8e 2b 3e f2 83 2f bd
       0.04620764 0.18172266 0.16753499 -0.042850442
000040 35 aa 25 bf 02 1d b0 bd df 0b ca 3e 37 f9 23 3f
       -0.6471284 -0.08599283 0.39462182 0.64052147
000050 01 9d 94 be ed 51 56 3e f8 8c 0d bf 66 74 7b 3e
       -0.29026034 0.2092969 -0.55293226 0.24556121
000060 27 61 99 3f 24 e0 2f 3f 32 0e 98 bd bd 8b 17 3f
       1.1982774 0.68701386 -0.074245825 0.591976
000070 fd a3 04 3e 30 16 21 3d
       0.12953182 0.0393278

conv3.att_dst f4 [1, 1, 30]
000000 06 6b 84 bf 49 fe f2 bf 15 79 9d 3f 91 6a a7 bf
       -1.0345161 -1.8983852 1.2302576 -1.3079396
000010 6a 12 cb 3e 84 48 fc be bc fb 8a 3f 55 83 36 be
       0.39662486 -0.49274075 1.0858073 -0.17823537
000020 81 57 4e 3f d3 33 d4 3f d5 0f ee bf 2c 94 8d 3e
       0.8060227 1.6578315 -1.8598582 0.2765211
000030 2d a0 66 3f a7 7b a7 be 29 3e 9f be 51 39 9d bf
       0.9008816 -0.32711527 -0.31102112 -1.2283117
000040 5a e6 8a bf ba 99 22 3f 0c 90 9d 3e 3e 6f cb 3f
       -1.0851548 0.6351582 0.30773962 1.5893323
000050 66 e3 3e 3d c6 cb 40 be 85 09 95 3e d9 0c 40 3f
       0.046603583 -0.18827733 0.29108825 0.75019604
000060 b8 d2 7e 3f c8 84 cf 3f d9 0b ee bd 57 94 99 3f
       0.9954028 1.6212397 -0.116233535 1.1998395
000070 f9 24 9f 3e c4 3e fc 3f
       0.31082895 1.9706655

conv3.bias f4 [30]
000000 10 32 88 be 16 eb 78 3d 0a 58 fc 3b b6 f5 42 3d
       -0.26600695 0.06077107 0.0077009248 0.04759761
000010 1e bd ba 3d cc 37 c7 bd b1 b4 bc be 19 2f bc 3d
       0.091181025 -0.09727439 -0.36856607 0.09188671
000020 cf 94 87 3d 43 67 34 bd 5e ca 7b be 3a 4f b2 3d
       0.0662018 -0.04404379 -0.24588916 0.087065175
000030 0c 37 51 3c 7f b3 5d bd 1c 79 b4 3d 0c 57 8f bb
       0.012769472 -0.05412626 0.08812162 -0.0043743905
000040 3a b2 1e be c4 37 01 be 64 e0 85 3d 45 01 87 3d
       -0.15497676 -0.12618929 0.0653694 0.06592039
000050 c2 48 9a bd 37 ec fd 3d 19 fd b7 bd a4 2f 6c bd
       -0.07533409 0.1239857 -0.089838214 -0.05766262
000060 e2 91 2c 3e 47 4b 78 3e 9f c3 ab bd 68 36 a8 3c
       0.16852525 0.24247466 -0.08386921 0.020533755
000070 19 8d 68 bd f7 08 f6 3d
       -0.056775186 0.12013429

conv3.lin_src.weight f4 [30, 30]
000000 de a2 20 3e 45 c3 23 bf 76 e5 b5 3e c8 9b 42 bf
       0.15687129 -0.6396983 0.35526627 -0.76018953
000010 7f cc 5c bf 61 82 01 3f b8 7b 8e 3e 8b ae 2f bf
       -0.86249536 0.5058957 0.27828765 -0.68625706
000020 6f 13 af be de 0e 3e 3f fe 84 fc be ce a9 27 3f
       -0.34194514 0.74241436 -0.49320215 0.65493476
000030 80 58 a2 3d ff da 1f 3d de 17 3a 3e 59 66 55 3f
       0.07927036 0.03902721 0.18173167 0.83359295
000040 15 0c a9 3e 65 b0 19 bf 4f d4 fb 3e 83 75 9b 3e
       0.3301703 -0.6003478 0.49185416 0.30363092
000050 11 28 d1 3e 51 64 9b 3e 25 de 0a be dd c1 26 3e
       0.4085088 0.30349973 -0.13561304 0.1628489
000060 6b 73 65 bf a3 ef 61 be cf d7 ff bd 66 66 30 3e
       -0.8962924 -0.2206407 -0.12492334 0.17226562
000070 95 e6 1f bd c4 93 61 be d8 22 bd 3e 91 f8 ec bf
       -0.03903826 -0.22029024 0.36940646 -1.8513356
000080 68 bd 57 3e 9c f7 92 bf 18 5c 01 c0 ef 0b 9f bd
       0.21068347 -1.1481814 -2.021246 -0.07765948
000090 6e 87 dd 3d 3c 87 22 c0 1e d4 2b bf ee f9 db 3f
       0.10816847 -2.539504 -0.6712054 1.7185647
0000a0 ed 1d 75 be a8 92 d6 3f 44 f8 58 bd 86 e5 71 bd
       -0.23937197 1.6763506 -0.05297114 -0.05905678
0000b0 4a 28 b6 be 3b 2e f1 3f 58 a2 55 3f ea 14 12 be
       -0.35577613 1.8842233 0.8345084 -0.1426579
0000c0 32 36 3d 3f 21 b5 a0 be f9 35 54 be 03 13 d2 3d
       0.7391082 -0.3138819 -0.20723714 0.102575324
0000d0 1d 24 ea bf 73 80 31 3e 90 f4 f3 bf f3 48 d4 3e
       -1.8292271 0.17334156 -1.905901 0.41461906
0000e0 ff 1a a1 bf 1d 24 fb bd e6 82 86 be 7f 5d c2 bc
       -1.2586364 -0.122627474 -0.26271743 -0.023726223
0000f0 60 a4 4a 3e 8c 8a 0c 3f c4 b7 99 3c 2e 7c 5b 3e
       0.19789267 0.54898906 0.018764384 0.2143409
000100 aa 40 fc 3e 93 ac 76 3e 91 e3 d1 3e 6f 59 11 3f
       0.49268085 0.2408927 0.40993932 0.5677709
000110 d9 93 d2 3e 42 c8 b4 be 09 32 1a be b3 84 01 bf
       0.41128424 -0.35309035 -0.1505815 -0.5059311
000120 db 0b 14 be e7 96 e8 bd c6 75 9c 3e a3 2c f9 be
       -0.14457648 -0.11356907 0.30558604 -0.48666868
000130 b6 2c 09 bf a7 dc 8e 3e 79 aa 97 be e9 da 83 3e
       -0.5358385 0.2790272 -0.29622248 0.25752953
000140 68 1d 03 3f d7 a4 c5 3e 47 90 cd bc 2b df fe bd
       0.51216745 0.38602325 -0.02509321 -0.1244491
000150 0e a0 df 3e 2d 1f 86 be c0 1c 85 3e 8c d4 a8 3d
       0.436768 -0.2619566 0.25998497 0.08243665
000160 2f be 40 be d5 3d 14 be 25 36 16 3e 8b c0 20 bf
       -0.1882255 -0.14476712 0.14669092 -0.627938
000170 71 39 db bd ab a0 53 be 65 5d 00 bf 53 52 82 bd
       -0.107043155 -0.20666759 -0.5014251 -0.06363358
000180 21 c8 b2 be 8c 0d 8e be d8 f9 f0 be 82 cb 06 3f
       -0.3491831 -0.2774471 -0.47065616 0.5265428
000190 fb c8 4f 3e e5 5c 80 3e ff c4 88 be 33 ed 8a be
       0.20291512 0.25070873 -0.26712796 -0.27134094
0001a0 40 31 c5 be 34 d6 1a 3f a0 1d 37 3e 1c 1a 82 3e
       -0.38514137 0.604831 0.17882395 0.25410545
0001b0 51 65 12 3f 64 a8 11 be d8 16 88 be ef 9e 82 be
       0.57185847 -0.14224392 -0.26579928 -0.25511882
0001c0 a9 7b c2 be 56 62 05 be a1 55 cb be d3 68 79 3e
       -0.3798497 -0.13025793 -0.39713767 0.24356394
0001d0 b6 97 fa be 4f b2 55 be 18 2d 38 bb d7 05 14 be
       -0.4894387 -0.208688 -0.002810305 -0.14455353
0001e0 24 0a 1a be 0e 37 d6 3e 70 2d 04 bd 20 dd 14 be
       -0.15042931 0.41838878 -0.032269895 -0.14537477
0001f0 cc 0c e4 bd ee 8c 22 3e cc 04 07 3e 88 72 c0 3e
       -0.11135253 0.15874073 0.13185424 0.3758738
000200 66 b1 8f bd d6 17 ed 3d ec 27 81 3e c6 7a 9b bd
       -0.07016258 0.11576812 0.2522577 -0.075917765
000210 2c e7 ee bd 4c 3d b0 3d e6 cd 94 be f9 ee 8a be
       -0.11665186 0.086054415 -0.29063338 -0.27135447
000220 67 87 1a 3e 4f 5d 5e 3d dd f1 93 3d 30 2f a4 be
       0.15090714 0.054288205 0.07223866 -0.3206725
000230 81 9f 34 be 1b 35 5e be 24 cd 44 3e cb 5a a6 be
       -0.17638971 -0.21699946 0.1921888 -0.32491145
000240 77 b4 6b 3e db ea 8f 3c 92 5e a1 3e 5d 4d 8b 3b
       0.2301806 0.017568043 0.31517464 0.004251166
000250 00 25 b6 3d ff fd 9d 3e ef f1 5e bd e9 d5 11 bf
       0.08893776 0.30857846 -0.054429945 -0.56967026
000260 6d 78 bc 3d 13 e6 4f be 86 ec 99 be 15 0f 7b 3e
       0.09202657 -0.2030261 -0.30063266 0.24517472
000270 12 e0 96 3e 52 ce 11 be d7 53 71 be 9f b3 04 3f
       0.29467827 -0.14238861 -0.23567139 0.5183658
000280 87 7e 7b be 71 eb 39 3e df de 93 3e 91 b4 a6 3c
       -0.24559985 0.1815622 0.28880975 0.020349773
000290 3f b2 d0 3d 72 df bc 3d 2f 21 e1 3e a5 19 13 3d
       0.10190248 0.09222306 0.4397063 0.03591313
0002a0 84 04 4f 3e 23 a1 8b 3e fd e4 ff 3c b3 d2 50 3e
       0.20216566 0.27271375 0.03123712 0.20392875
0002b0 bc 89 9b bd a6 7e 8e 3e 82 ae 95 be 83 7b af bc
       -0.0759463 0.27831 -0.292347 -0.0214212
0002c0 06 e7 09 3e c5 b9 94 3e 3b d3 94 be 01 d3 31 3e
       0.13467035 0.2904798 -0.29067406 0.17365648
0002d0 6f c6 0d bf 9f 52 3b 3f f0 db 02 3f 40 5a ec 3e
       -0.5538091 0.73172945 0.5111685 0.46162605
0002e0 8c 4e 95 3f e6 c4 e1 3d bc 43 1e 3f ca 1e 85 3f
       1.1664596 0.110238835 0.61822104 1.0400021
0002f0 8d 78 32 3f a1 45 0a bf 28 d8 f8 be 67 0a 2f bf
       0.69715196 -0.54012495 -0.48602414 -0.6837525
000300 b4 1b 05 3f 41 bc 7a be b5 b8 f4 3e 36 cb 90 bf
       0.51995397 -0.24485876 0.4779717 -1.1312015
000310 62 18 3e bf 13 f1 89 be 5e 33 ff be bd c9 b6 3e
       -0.74255955 -0.26941738 -0.49843878 0.3570079
000320 0b 70 52 3f 5a 53 ba 3e 3f 7e 2e 3f a1 29 46 3f
       0.82202214 0.36391717 0.68161386 0.7740727
000330 d9 01 79 3f 5d 37 7d be 47 20 24 3f 01 dc a2 3e
       0.97268444 -0.2472815 0.6411175 0.31808475
000340 84 55 be be 4a e5 e9 be be e4 eb 3e af 19 1c be
       -0.37174618 -0.45682746 0.46072954 -0.15244173
000350 21 5b 61 be 03 ec a8 be 1f 84 4d bf a0 cc ff bd
       -0.22007419 -0.32992563 -0.80279726 -0.12490201
000360 79 59 3d be cc 27 c3 be 79 3f ff be 79 16 a4 bd
       -0.18491162 -0.381163 -0.49853113 -0.08012099
000370 1c 60 ef 3e bc 3e a9 3e e7 69 c1 be de 3e 06 3f
       0.46753013 0.33055675 -0.3777611 0.5243968
000380 01 ac dc bd e1 a8 f8 3e a5 d5 4f 3f 03 26 ae be
       -0.10774995 0.48566344 0.8118537 -0.34013376
000390 28 7e 90 3e 56 a9 87 be a0 ea 22 bf 4e a6 23 bf
       0.2822125 -0.2649638 -0.6363926 -0.63925636
0003a0 53 09 86 bd 8b 05 52 be 51 ab 6f be 63 c7 7f 3d
       -0.06544747 -0.20509927 -0.23405196 0.06244601
0003b0 8c aa 2a be 9e 4a 74 be 1b c5 c6 3e ca cd 0c 3f
       -0.16666621 -0.23856589 0.38822255 0.5500151
0003c0 a0 ce ce bd a7 ed 00 be 67 dc af 3d c3 e7 5f be
       -0.10098004 -0.12590657 0.0858696 -0.21865754
0003d0 d7 f6 9f 3e c3 99 3e be 8e 86 d3 bd 0c 5e ce 3e
       0.3124301 -0.18613343 -0.10328399 0.40306127
0003e0 91 e6 00 be eb 7e 40 be 1d b8 a5 3e 79 ab 4f 3d
       -0.12587954 -0.18798415 0.3236703 0.05070064
0003f0 67 8e 8c 3e 8c a9 d0 bc 28 13 98 3e 29 e2 82 be
       0.27452394 -0.025471471 0.29702115 -0.25563172

conv3.lin_dst.weight f4 [30, 30]
000000 de a2 20 3e 45 c3 23 bf 76 e5 b5 3e c8 9b 42 bf
       0.15687129 -0.6396983 0.35526627 -0.76018953
000010 7f cc 5c bf 61 82 01 3f b8 7b 8e 3e 8b ae 2f bf
       -0.86249536 0.5058957 0.27828765 -0.68625706
000020 6f 13 af be de 0e 3e 3f fe 84 fc be ce a9 27 3f
       -0.34194514 0.74241436 -0.49320215 0.65493476
000030 80 58 a2 3d ff da 1f 3d de 17 3a 3e 59 66 55 3f
       0.07927036 0.03902721 0.18173167 0.83359295
000040 15 0c a9 3e 65 b0 19 bf 4f d4 fb 3e 83 75 9b 3e
       0.3301703 -0.6003478 0.49185416 0.30363092
000050 11 28 d1 3e 51 64 9b 3e 25 de 0a be dd c1 26 3e
       0.4085088 0.30349973 -0.13561304 0.1628489
000060 6b 73 65 bf a3 ef 61 be cf d7 ff bd 66 66 30 3e
       -0.8962924 -0.2206407 -0.12492334 0.17226562
000070 95 e6 1f bd c4 93 61 be d8 22 bd 3e 91 f8 ec bf
       -0.03903826 -0.22029024 0.36940646 -1.8513356
000080 68 bd 57 3e 9c f7 92 bf 18 5c 01 c0 ef 0b 9f bd
       0.21068347 -1.1481814 -2.021246 -0.07765948
000090 6e 87 dd 3d 3c 87 22 c0 1e d4 2b bf ee f9 db 3f
       0.10816847 -2.539504 -0.6712054 1.7185647
0000a0 ed 1d 75 be a8 92 d6 3f 44 f8 58 bd 86 e5 71 bd
       -0.23937197 1.6763506 -0.05297114 -0.05905678
0000b0 4a 28 b6 be 3b 2e f1 3f 58 a2 55 3f ea 14 12 be
       -0.35577613 1.8842233 0.8345084 -0.1426579
0000c0 32 36 3d 3f 21 b5 a0 be f9 35 54 be 03 13 d2 3d
       0.7391082 -0.3138819 -0.20723714 0.102575324
0000d0 1d 24 ea bf 73 80 31 3e 90 f4 f3 bf f3 48 d4 3e
       -1.8292271 0.17334156 -1.905901 0.41461906
0000e0 ff 1a a1 bf 1d 24 fb bd e6 82 86 be 7f 5d c2 bc
       -1.2586364 -0.122627474 -0.26271743 -0.023726223
0000f0 60 a4 4a 3e 8c 8a 0c 3f c4 b7 99 3c 2e 7c 5b 3e
       0.19789267 0.54898906 0.018764384 0.2143409
000100 aa 40 fc 3e 93 ac 76 3e 91 e3 d1 3e 6f 59 11 3f
       0.49268085 0.2408927 0.40993932 0.5677709
000110 d9 93 d2 3e 42 c8 b4 be 09 32 1a be b3 84 01 bf
       0.41128424 -0.35309035 -0.1505815 -0.5059311
000120 db 0b 14 be e7 96 e8 bd c6 75 9c 3e a3 2c f9 be
       -0.14457648 -0.11356907 0.30558604 -0.48666868
000130 b6 2c 09 bf a7 dc 8e 3e 79 aa 97 be e9 da 83 3e
       -0.5358385 0.2790272 -0.29622248 0.25752953
000140 68 1d 03 3f d7 a4 c5 3e 47 90 cd bc 2b df fe bd
       0.51216745 0.38602325 -0.02509321 -0.1244491
000150 0e a0 df 3e 2d 1f 86 be c0 1c 85 3e 8c d4 a8 3d
       0.436768 -0.2619566 0.25998497 0.08243665
000160 2f be 40 be d5 3d 14 be 25 36 16 3e 8b c0 20 bf
       -0.1882255 -0.14476712 0.14669092 -0.627938
000170 71 39 db bd ab a0 53 be 65 5d 00 bf 53 52 82 bd
       -0.107043155 -0.20666759 -0.5014251 -0.06363358
000180 21 c8 b2 be 8c 0d 8e be d8 f9 f0 be 82 cb 06 3f
       -0.3491831 -0.2774471 -0.47065616 0.5265428
000190 fb c8 4f 3e e5 5c 80 3e ff c4 88 be 33 ed 8a be
       0.20291512 0.25070873 -0.26712796 -0.27134094
0001a0 40 31 c5 be 34 d6 1a 3f a0 1d 37 3e 1c 1a 82 3e
       -0.38514137 0.604831 0.17882395 0.25410545
0001b0 51 65 12 3f 64 a8 11 be d8 16 88 be ef 9e 82 be
       0.57185847 -0.14224392 -0.26579928 -0.25511882
0001c0 a9 7b c2 be 56 62 05 be a1 55 cb be d3 68 79 3e
       -0.3798497 -0.13025793 -0.39713767 0.24356394
0001d0 b6 97 fa be 4f b2 55 be 18 2d 38 bb d7 05 14 be
       -0.4894387 -0.208688 -0.002810305 -0.14455353
0001e0 24 0a 1a be 0e 37 d6 3e 70 2d 04 bd 20 dd 14 be
       -0.15042931 0.41838878 -0.032269895 -0.14537477
0001f0 cc 0c e4 bd ee 8c 22 3e cc 04 07 3e 88 72 c0 3e
       -0.11135253 0.15874073 0.13185424 0.3758738
000200 66 b1 8f bd d6 17 ed 3d ec 27 81 3e c6 7a 9b bd
       -0.07016258 0.11576812 0.2522577 -0.075917765
000210 2c e7 ee bd 4c 3d b0 3d e6 cd 94 be f9 ee 8a be
       -0.11665186 0.086054415 -0.29063338 -0.27135447
000220 67 87 1a 3e 4f 5d 5e 3d dd f1 93 3d 30 2f a4 be
       0.15090714 0.054288205 0.07223866 -0.3206725
000230 81 9f 34 be 1b 35 5e be 24 cd 44 3e cb 5a a6 be
       -0.17638971 -0.21699946 0.1921888 -0.32491145
000240 77 b4 6b 3e db ea 8f 3c 92 5e a1 3e 5d 4d 8b 3b
       0.2301806 0.017568043 0.31517464 0.004251166
000250 00 25 b6 3d ff fd 9d 3e ef f1 5e bd e9 d5 11 bf
       0.08893776 0.30857846 -0.054429945 -0.56967026
000260 6d 78 bc 3d 13 e6 4f be 86 ec 99 be 15 0f 7b 3e
       0.09202657 -0.2030261 -0.30063266 0.24517472
000270 12 e0 96 3e 52 ce 11 be d7 53 71 be 9f b3 04 3f
       0.29467827 -0.14238861 -0.23567139 0.5183658
000280 87 7e 7b be 71 eb 39 3e df de 93 3e 91 b4 a6 3c
       -0.24559985 0.1815622 0.28880975 0.020349773
000290 3f b2 d0 3d 72 df bc 3d 2f 21 e1 3e a5 19 13 3d
       0.10190248 0.09222306 0.4397063 0.03591313
0002a0 84 04 4f 3e 23 a1 8b 3e fd e4 ff 3c b3 d2 50 3e
       0.20216566 0.27271375 0.03123712 0.20392875
0002b0 bc 89 9b bd a6 7e 8e 3e 82 ae 95 be 83 7b af bc
       -0.0759463 0.27831 -0.292347 -0.0214212
0002c0 06 e7 09 3e c5 b9 94 3e 3b d3 94 be 01 d3 31 3e
       0.13467035 0.2904798 -0.29067406 0.17365648
0002d0 6f c6 0d bf 9f 52 3b 3f f0 db 02 3f 40 5a ec 3e
       -0.5538091 0.73172945 0.5111685 0.46162605
0002e0 8c 4e 95 3f e6 c4 e1 3d bc 43 1e 3f ca 1e 85 3f
       1.1664596 0.110238835 0.61822104 1.0400021
0002f0 8d 78 32 3f a1 45 0a bf 28 d8 f8 be 67 0a 2f bf
       0.69715196 -0.54012495 -0.48602414 -0.6837525
000300 b4 1b 05 3f 41 bc 7a be b5 b8 f4 3e 36 cb 90 bf
       0.51995397 -0.24485876 0.4779717 -1.1312015
000310 62 18 3e bf 13 f1 89 be 5e 33 ff be bd c9 b6 3e
       -0.74255955 -0.26941738 -0.49843878 0.3570079
000320 0b 70 52 3f 5a 53 ba 3e 3f 7e 2e 3f a1 29 46 3f
       0.82202214 0.36391717 0.68161386 0.7740727
000330 d9 01 79 3f 5d 37 7d be 47 20 24 3f 01 dc a2 3e
       0.97268444 -0.2472815 0.6411175 0.31808475
000340 84 55 be be 4a e5 e9 be be e4 eb 3e af 19 1c be
       -0.37174618 -0.45682746 0.46072954 -0.15244173
000350 21 5b 61 be 03 ec a8 be 1f 84 4d bf a0 cc ff bd
       -0.22007419 -0.32992563 -0.80279726 -0.12490201
000360 79 59 3d be cc 27 c3 be 79 3f ff be 79 16 a4 bd
       -0.18491162 -0.381163 -0.49853113 -0.08012099
000370 1c 60 ef 3e bc 3e a9 3e e7 69 c1 be de 3e 06 3f
       0.46753013 0.33055675 -0.3777611 0.5243968
000380 01 ac dc bd e1 a8 f8 3e a5 d5 4f 3f 03 26 ae be
       -0.10774995 0.48566344 0.8118537 -0.34013376
000390 28 7e 90 3e 56 a9 87 be a0 ea 22 bf 4e a6 23 bf
       0.2822125 -0.2649638 -0.6363926 -0.63925636
0003a0 53 09 86 bd 8b 05 52 be 51 ab 6f be 63 c7 7f 3d
       -0.06544747 -0.20509927 -0.23405196 0.06244601
0003b0 8c aa 2a be 9e 4a 74 be 1b c5 c6 3e ca cd 0c 3f
       -0.16666621 -0.23856589 0.38822255 0.5500151
0003c0 a0 ce ce bd a7 ed 00 be 67 dc af 3d c3 e7 5f be
       -0.10098004 -0.12590657 0.0858696 -0.21865754
0003d0 d7 f6 9f 3e c3 99 3e be 8e 86 d3 bd 0c 5e ce 3e
       0.3124301 -0.18613343 -0.10328399 0.40306127
0003e0 91 e6 00 be eb 7e 40 be 1d b8 a5 3e 79 ab 4f 3d
       -0.12587954 -0.18798415 0.3236703 0.05070064
0003f0 67 8e 8c 3e 8c a9 d0 bc 28 13 98 3e 29 e2 82 be
       0.27452394 -0.025471471 0.29702115 -0.25563172

lin.weight f4 [1, 30]
000000 d4 fc e1 be 73 da 2f bf 18 1f 78 3e 9e 84 d2 be
       -0.44138205 -0.686927 0.24230611 -0.41116804
000010 00 42 a7 3d 33 28 67 bd 5e 7a ea 3e c4 47 50 3e
       0.081668854 -0.05643482 0.45796484 0.20339876
000020 43 8e c9 3d a4 5f c4 3e ac c4 d0 be 1c e9 2a 3b
       0.098415874 0.38354218 -0.4077505 0.0026078885
000030 be ca 02 3e 5b 76 8a bd 59 60 e9 3d 08 bd 8c be
       0.12772653 -0.06760856 0.1139533 -0.2748797
000040 f8 79 07 be 41 42 03 be fd 96 3c bc 50 6e e5 be
       -0.13230121 -0.12818243 -0.011510608 -0.44810724
000050 5d 84 41 be c7 af 06 3e ea 60 23 be ab 76 11 be
       -0.18898149 0.13152991 -0.15954939 -0.14205424
000060 82 23 92 3e b6 55 81 3e 8c a9 f4 bd b4 a6 8f 3e
       0.28542715 0.25260705 -0.11946401 0.28056872
000070 69 ba 47 bc e8 6f a0 3d
       -0.01219044 0.078338444
