models/neural_network_SAGEConv_single_dynamics_MAK_graph_size_10/neural_network.pth (torch, 2316 bytes, 4 tensors)

conv1.lin_l.weight f4 [30, 1]
0.68770766 0.9419431 0.88717633 0.09413917 0.34156123 -1.8766874 0.43189958 -0.27095896
-0.9453401 -0.9528744 -1.119369 -0.58765584 0.59613186 -0.95530003 -0.06819229 -0.21011965
0.16219264 -0.5324749 0.70126194 -0.74934965 0.38235396 -1.3493651 -0.60769516 0.44645342
0.21818033 0.64737463 0.501272 -1.2800758 0.76973313 -0.1353032
00000000: 9c0d 303f 2f23 713f fd1d 633f 0acc c03d
00000010: 1de1 ae3e 4b37 f0bf f121 dd3e 22bb 8abe
00000020: cf01 72bf 94ef 73bf 7c47 8fbf 9d70 16bf
00000030: 199c 183f 8b8e 74bf 66a8 8bbd 9b29 57be
00000040: d415 263e 4650 08bf e785 333f 61d5 3fbf
00000050: e6c3 c33e ffb7 acbf e991 1bbf 8b95 e43e
00000060: aa6a 5f3e 58ba 253f 5d53 003f 86d9 a3bf
00000070: 3b0d 453f ec8c 0abe

conv1.lin_l.bias f4 [30]
-0.39502236 -0.64068145 -0.21804534 -0.8879753 0.064282596 0.6118406 -0.6171008 0.72362334
-0.17796572 0.28161842 0.22612241 -0.29370078 0.90990925 -0.03881773 0.6889018 -0.28502098
-0.7687086 0.6909177 -0.16014886 0.50865006 0.82941866 0.77566046 -0.8508417 -0.8226317
-0.1757663 -0.25699952 0.629215 0.844394 0.12021357 -0.45040253
00000000: 5f40 cabe b303 24bf 4747 5fbe 5952 63bf
00000010: 98a6 833d 96a1 1c3f 51fa 1dbf 613f 393f
00000020: a53c 36be 4a30 903e a28c 673e f35f 96be
00000030: d0ef 683f 57ff 1ebd de5b 303f 45ee 91be
00000040: 16ca 44bf fbdf 303f 10fe 23be e436 023f
00000050: c854 543f af91 463f c3d0 59bf fe97 52bf
00000060: 15fc 33be 7195 83be 3c14 213f 352a 583f
00000070: 8832 f63d 299b e6be

conv1.lin_r.weight f4 [30, 1]
0.1408027 0.45755848 0.21914865 0.41800302 0.6450094 -0.020125072 0.68614763 0.392831
0.023873698 1.1353351 -0.03903413 -0.04693434 -0.117418684 0.47313577 -0.47237357 0.88352513
0.58165616 -0.14644347 0.014569558 0.18531519 -1.3835522 -0.45044118 -0.3442603 0.10619997
-0.60005546 -0.7153441 0.3054279 -0.44949946 -1.2587475 0.08290666
00000000: 952e 103e 1b45 ea3e 8168 603e 7e04 d63e
00000010: 561f 253f 56dd a4bc 5fa7 2f3f 2521 c93e
00000020: c692 c33c a952 913f 40e2 1fbd 393e 40bd
00000030: 3579 f0bd da3e f23e f3da f1be b42e 623f
00000040: 6be7 143f 47f5 15be 28b5 6e3c 44c3 3d3e
00000050: 3d18 b1bf 3aa0 e6be e342 b0be 5f7f d93d
00000060: 3c9d 19bf ca20 37bf 0c61 9c3e cb24 e6be
00000070: a31e a1bf f8ca a93d

lin.weight f4 [1, 30]
-0.3098445 -0.32679754 -0.014716025 -0.14778109 0.04636022 0.49078685 -0.2665394 -0.20451203
0.14247794 -0.21542974 0.21754153 0.1345589 -0.14746468 0.08837502 0.28485247 -0.39115348
-0.18744382 0.0819097 -0.33246246 0.13585304 0.8470542 0.476986 -0.1225812 -0.1616221
0.17005283 0.29308042 -0.18786067 0.5041019 0.38798785 -0.11046968
00000000: f0a3 9ebe 0252 a7be 7c1b 71bc ed53 17be
00000010: 37e4 3d3d 6a48 fb3e da77 88be 9a6b 51be
00000020: bde5 113e 9d99 5cbe 35c3 5e3e cfc9 093e
00000030: fb00 17be f6fd b43d 2fd8 913e 4545 c8be
00000040: 46f1 3fbe 46c0 a73d 8538 aabe 0f1d 0b3e
00000050: 8bd8 583f 8237 f43e da0b fbbd 4480 25be
00000060: 5422 2e3e a30e 963e 8c5e 40be d20c 013f
00000070: 58a6 c63e ed3d e2bd
