results/FHN_celegans_directed_wcc_multiple_nn_True_6/neural_network.pth (torch, 38491 bytes, 26 tensors)

g.0.weight f4 [30, 2]
000000 84 a5 3a 3e b1 23 9b 3e 37 1b 27 bf d4 65 36 bf
       0.18227202 0.30300668 -0.652759 -0.7124913
000010 b9 a4 2a 3f 78 fc eb 3e 4c 07 1a be 73 bc 0b 3e
       0.66657597 0.46091056 -0.15041846 0.13646106
000020 8f e9 ae 3e b4 15 95 be dc ca ad be 0f 62 bf be
       0.34162566 -0.2911812 -0.33943832 -0.373795
000030 27 2e 8f 3e 92 89 df 3e ab d9 47 bf fd 42 6c 3e
       0.279649 0.43659645 -0.7806651 0.23072429
000040 a3 39 f9 3e 94 fc dd be ae 13 26 3f d3 4e 80 be
       0.48676786 -0.43356764 0.6487378 -0.25060138
000050 1c a9 08 be a7 e8 09 3f b1 39 12 bf e0 68 8b be
       -0.1334576 0.53870624 -0.5711928 -0.2722845
000060 1c 68 fb 3e 08 ba ab be 0f d8 e3 3d 8b ec 25 3f
       0.49102867 -0.33540368 0.11125194 0.6481406
000070 ca 17 aa 3d b0 04 b9 be e9 16 07 bf ff 9c 85 be
       0.08305319 -0.3613639 -0.52769333 -0.2609634
000080 c4 f7 2e bf 84 82 e4 3e 40 8c 01 be e9 7e b6 3e
       -0.6834681 0.44630826 -0.12651157 0.356437
000090 1d 13 e1 be a3 40 c7 3d 82 da ea bd 99 0d f7 bd
       -0.43959895 0.09729125 -0.11467458 -0.120631404
0000a0 9b 39 c0 be 4a d7 70 3e 0c 99 1c bf f6 d0 d2 3e
       -0.3754395 0.23519626 -0.6117103 0.4117505
0000b0 a8 f4 28 3f 41 c2 04 be 67 a8 c3 bd 53 9e b7 3e
       0.65998316 -0.12964727 -0.095536046 0.3586298
0000c0 ad f8 da be 04 03 2c 3e 06 29 16 bf a7 79 fd 3e
       -0.4276785 0.16798025 -0.58656347 0.49506876
0000d0 90 a9 eb 3e c0 ee 0b bd aa b9 8b be 7f 67 b7 3e
       0.46027803 -0.034163237 -0.27290088 0.3582115
0000e0 fc 75 b0 be 29 9d dd be 35 9e 0e bf 2c c1 e3 be
       -0.34465015 -0.43283966 -0.55710155 -0.44483316

g.0.bias f4 [30]
000000 95 a8 83 bd 40 82 29 3f c8 76 3b bf 6e 22 87 3e
       -0.06428639 0.6621437 -0.7322812 0.26393455
000010 f4 2f 23 3f 37 17 03 3f 74 84 dc be 11 c0 12 3f
       0.63745046 0.512073 -0.43069804 0.5732432
000020 f5 17 c8 3e e1 7a 9a 3e 04 74 e0 3e 94 6a 98 3e
       0.39080778 0.30171874 0.43838513 0.29768813
000030 36 9f f8 be 77 64 d3 3e 2a a5 1d be cb 7b 2a bf
       -0.48558968 0.41287586 -0.15395036 -0.66595143
000040 d6 e4 15 bf 17 27 0b bf 3f cd f9 bd b8 e7 17 be
       -0.585523 -0.5435652 -0.12197351 -0.14834487
000050 e0 cd 2a bf 18 d5 a7 bd bc a7 97 3e 20 1c fc bd
       -0.6672039 -0.08194941 0.2962016 -0.12310052
000060 20 75 fe be 6f db 94 3e 05 58 9a 3d 00 a0 03 bf
       -0.49698734 0.29073665 0.0753632 -0.51416016
000070 10 e5 f2 be 29 d7 1f bf
       -0.47440386 -0.62437683

g.2.weight f4 [30, 30]
000000 0f bd ef bd 1b d3 f4 bd 00 0b 78 bd aa 5d 02 3e
       -0.11705982 -0.11954328 -0.060557365 0.12731043
000010 bb df ac 3d 03 8f 85 3c 24 13 94 3d 8d 71 4f 3d
       0.08441111 0.016303545 0.07230213 0.0506454
000020 22 86 86 bd f7 6e 6b 3d 71 92 17 3e 95 65 f4 bd
       -0.065685526 0.05747887 0.14801957 -0.11933438
000030 6f c9 04 ba 28 7e 99 bd 5a ad 9a bd 41 0f ff 3c
       -0.00050654163 -0.074947655 -0.075525954 0.031135203
000040 4a 82 34 3e df ed dc 3d cc 13 d9 bd 6a cd 02 3e
       0.17627826 0.10787558 -0.10599479 0.12773672
000050 0d 78 9c bb e6 c3 89 bd a1 2f a2 3d 07 de 1e be
       -0.0047750534 -0.06726818 0.07919241 -0.15514384
000060 31 6a 3d 3e 71 15 d1 bd 15 d0 72 bb dd b2 10 bd
       0.1849754 -0.10209168 -0.0037050296 -0.035326827
000070 2d c7 43 3e 4c 35 13 bd 38 59 e7 bd 44 76 a5 bd
       0.19118948 -0.0359395 -0.11296314 -0.08079198
000080 ca 7e b6 bd 77 d2 3a 3e b1 32 a9 bd c0 34 5b bd
       -0.08910902 0.18244348 -0.08261622 -0.053517103
000090 d3 73 3f bd ea cb d8 bb f6 78 20 3e 02 1e 11 be
       -0.046741318 -0.0066161053 0.15671143 -0.14171603
0000a0 d2 86 58 3b 51 00 21 3e e4 3f 12 bd 3e 35 63 3e
       0.0033039344 0.15722777 -0.035705462 0.22188279
0000b0 ee a1 61 be 84 35 c7 3d 2d 01 ba bd e4 24 40 3e
       -0.22034428 0.09727004 -0.090822555 0.18764073
0000c0 de ed d9 bd 21 49 ee 3d 23 ae 03 be 1a 68 29 3e
       -0.10641073 0.11635042 -0.12859397 0.16543618
0000d0 2c 8d cb 3d 38 e4 fc bc 86 aa 85 3c 4a 00 df bd
       0.09939036 -0.030870542 0.016316663 -0.10888727
0000e0 26 8d 49 3e 62 71 e8 bd 77 2b 51 3d 3a b1 a4 3d
       0.1968275 -0.11349751 0.051066842 0.08041616
0000f0 08 9b 37 be e1 8e 8d bd b1 fa 1b 3d 4e 9b e5 3d
       -0.17930233 -0.069120176 0.038080875 0.11211263
000100 01 ed 0d be 0f 75 20 3e 1c ac 48 bd b5 0d 19 3e
       -0.13859941 0.15669654 -0.04899226 0.14946635
000110 f4 2c e0 bd 86 ea 1f be 77 9e e0 bd db ec 05 3c
       -0.10946074 -0.15616807 -0.10967725 0.0081741465
000120 7e b0 31 be ec c4 08 be 8e 2a d8 3d c6 77 85 bd
       -0.17352483 -0.1335637 0.10554992 -0.065169856
000130 a3 c6 3b 3e 2d 1c 98 bd 27 db 5b bd 03 d4 31 3e
       0.18337493 -0.07427249 -0.053675797 0.17366032
000140 e6 4c 01 3e 4e 54 ad bd cd 46 e0 bd d4 18 c9 3d
       0.1262699 -0.084633455 -0.10951004 0.09819189
000150 5e c6 a0 bd 4b 06 3f 3d f4 c6 2a 3c ae e0 09 3e
       -0.078503355 0.04663686 0.010423411 0.13464615
000160 4e 88 bb 3c 55 fd 22 3c a3 76 9d bd 3f 27 26 3e
       0.022892144 0.009948094 -0.07688644 0.16225909
000170 f6 13 b3 3d 6c ff 16 3e 09 10 82 3e d0 ee ea bd
       0.087440416 0.14745873 0.2540286 -0.11471331
000180 ee 4f 11 be 83 ec b1 bd 72 f8 2b 3e 50 84 8e 3d
       -0.14190647 -0.08687689 0.16793993 0.0695883
000190 68 cc 6c bd 42 4b c3 3d be 49 c9 3d 64 64 9d 3d
       -0.057812124 0.09535839 0.09828518 0.076851636
0001a0 d0 7b f8 bc 8c e2 f5 3d 79 e1 50 be 3a 89 5a be
       -0.030332476 0.12006101 -0.20398511 -0.2134141
0001b0 02 d3 48 be c3 ec 0c 3e 96 7d 3d be 34 84 56 3d
       -0.19611743 0.13762192 -0.18504938 0.052372172
0001c0 ae c5 93 bd c2 07 35 be dd c4 47 be 17 f9 b5 3c
       -0.07215439 -0.1767874 -0.19508691 0.022213502
0001d0 3e 73 c3 bd 7e 8f 3e 3d 61 64 11 ba 02 8d 2f 3d
       -0.09543465 0.046523564 -0.00055462687 0.042859085
0001e0 24 59 84 3d e9 18 9c bd 68 5d d1 bd 8a e2 d1 bd
       0.06462315 -0.07621939 -0.10222894 -0.10248287
0001f0 ad 4d d6 3d e8 a9 a0 bd 6c e3 2e bc 4a 1a 07 3e
       0.10464034 -0.07844907 -0.010674339 0.13193622
000200 b9 84 3c 3d 52 a2 b3 bd 43 82 0f be ff ec 4c bd
       0.04602501 -0.087711945 -0.14014535 -0.050030705
000210 67 20 16 be 0c a6 c3 bd cf 75 29 bd 3a 81 e5 bd
       -0.14660798 -0.09553155 -0.041372117 -0.11206289
000220 0a 72 ef bd 2d 66 0d 3e ba 51 30 be 66 e8 1b 3e
       -0.11691673 0.13808508 -0.17218676 0.15225372
000230 f4 ad 44 3d 82 b3 29 be bc 9d b9 3b 61 00 8e 3d
       0.048017457 -0.16572383 0.0056645554 0.06933666
000240 88 9b 6a bd 69 98 a8 bd 37 26 df 3d 91 92 80 3d
       -0.057277232 -0.08232195 0.10895961 0.06277955
000250 81 05 c9 3d a0 d2 11 be 35 f5 04 be 6b bc f4 bd
       0.09815503 -0.14240503 -0.12984164 -0.119500004
000260 6f 83 3b bc 0f 54 ad bd 23 ef 47 3d 65 99 e2 bd
       -0.01144491 -0.084632985 0.048812043 -0.11064414
000270 ef 7b f8 3d 91 3f dc 3d 2c 2c d2 3d 64 79 71 bc
       0.121330135 0.10754312 0.10262331 -0.014738414
000280 f4 78 c7 3d 9c 1a 09 3e 1d c8 fe 3d 64 02 65 3d
       0.09739867 0.13389057 0.12440512 0.055910483
000290 c1 ee 17 bd a6 11 07 3d 64 aa 4f bd 98 8f b3 bd
       -0.037092928 0.032975815 -0.050699607 -0.08767623
0002a0 fc f4 3d 3d 2b a5 7e 3e 9e b1 47 3e 55 33 17 3e
       0.046376213 0.24867694 0.1950135 0.14765675
0002b0 b2 5d d6 3d 5d 07 36 be 04 75 82 bd 76 b4 9d bd
       0.1046709 -0.17776246 -0.06369975 -0.07700436
0002c0 9d b1 4b bd 56 bd af 3d 25 16 bc bd 8f 7b bf 3d
       -0.049729932 0.08581035 -0.09183911 0.09349739
0002d0 29 4b 31 be c6 c0 b5 3d 66 a3 01 3c 64 fa a9 3d
       -0.17313828 0.08874659 0.007912492 0.08299711
0002e0 c7 66 84 bd 39 12 83 3e a7 ad 80 be 4b 0b 40 3d
       -0.06464916 0.2559984 -0.25132486 0.04688577
0002f0 52 3a 89 3d 6d 4b 05 be f0 41 ff bd ef 9b 0c 3e
       0.06700577 -0.13017054 -0.124637485 0.13731359
000300 5b b1 2b 3d c9 f2 b1 bd 01 01 66 bd 21 19 11 3e
       0.041917186 -0.08688886 -0.0561533 0.14169742
000310 a0 05 89 bc d7 66 60 bd d2 f0 26 3d 41 3e 34 3e
       -0.016726315 -0.054785576 0.040757008 0.17601873
000320 5e f8 5e bd 30 82 05 3e b0 76 3b 3d c7 a8 03 3e
       -0.05443608 0.13037944 0.045767486 0.12857352
000330 6d 6e 67 3d b5 a7 30 3e 0e 3e 69 be 70 89 b6 bc
       0.056501795 0.17251475 -0.22777578 -0.022282332
000340 14 0c 00 3b c5 56 84 3c 58 b8 6d be a1 e9 87 3e
       0.001953845 0.016154656 -0.23214853 0.26545432
000350 78 f9 11 3d e4 d6 63 3d b8 0c 36 bd 6b b1 5d 3e
       0.035638303 0.055624858 -0.044445723 0.21649711
000360 34 37 16 be 88 bb c1 bd 6f 80 29 bd 84 83 1c 3e
       -0.14669496 -0.09459597 -0.04138225 0.15284544
000370 8b d3 b9 3d d9 98 d0 3d 72 9c 8f 3b c9 d1 ad bc
       0.09073552 0.101854034 0.0043826634 -0.021218197
000380 04 ec 16 3e 21 a8 8e 3c 60 fb 4e 3d 97 34 c8 bd
       0.1473847 0.017414154 0.0505327 -0.09775656
000390 c9 3c 46 3e c5 dd 8f 3d 1c 3a 46 3e 02 7e fb bb
       0.19359125 0.07024721 0.19358104 -0.0076749334
0003a0 1a 2f 13 3c e1 29 07 be 06 15 86 3e 82 6f 0f be
       0.008983398 -0.1319957 0.26187915 -0.1400738
0003b0 eb e1 7c bd 34 f1 a9 bd b1 70 c2 bd 99 67 20 3d
       -0.06173889 -0.08297959 -0.094941504 0.0391613
0003c0 5b c4 b8 3d da 56 97 3d 86 4c b6 bd d9 ff fd bd
       0.09021827 0.073896125 -0.089013144 -0.12402315
0003d0 0e 1e 1a bd 1d c5 06 3e 88 25 0d bd c8 29 9b bd
       -0.03762632 0.1316113 -0.03445962 -0.075763285
0003e0 12 ca 49 3d 6b e1 93 3d 9d 13 a9 3c f2 31 fe bd
       0.049264975 0.072207294 0.020639235 -0.1241187
0003f0 a3 a4 ce bd 82 ee 00 3e d5 5b 8f bd 53 d4 e0 3d
       -0.10089996 0.12590984 -0.069999374 0.10977998

g.2.bias f4 [30]
000000 23 a2 11 3e 67 4f 25 be 1e 70 07 bd e1 b7 5f 3d
       0.14222006 -0.16143571 -0.033065908 0.05461872
000010 1f f5 27 3e 77 bd 9e 3d 66 d9 08 3e 8c fd 14 3e
       0.164021 0.07750981 0.13364181 0.14549845
000020 3e a3 09 be 3d 38 f1 3b c9 7e 9b 3c a8 cc 7f bd
       -0.13441178 0.0073614405 0.018981354 -0.062451035
000030 cb 13 0c be c7 cd 39 3e 78 17 c0 3d c5 05 c0 bd
       -0.13679425 0.18144904 0.09379476 -0.093761005
000040 8d 53 11 3e 70 7c 01 3e 89 59 db bd ee d9 bf 3d
       0.14192028 0.12645125 -0.10710437 0.09367739
000050 10 c0 67 bd 0c a2 29 bd 98 bb bb 3d b2 5b 47 be
       -0.05657965 -0.041414306 0.0916664 -0.19468573
000060 d9 8f ac 3d 0f 38 20 bd a2 56 45 bd cf f7 a3 bd
       0.08425874 -0.03911596 -0.048178323 -0.0800625
000070 76 0f b4 3d 82 9c b7 bc
       0.087920114 -0.022413496

g.4.weight f4 [30, 30]
000000 b3 8a 84 3d c8 a4 1c 3e 5b b0 aa 3d d9 09 00 be
       0.06471767 0.15297234 0.083344184 -0.12503757
000010 9b 2f ff 3d af 23 b6 bd 21 95 95 bc 02 69 f0 3d
       0.12460252 -0.08893525 -0.018259587 0.11738779
000020 6e 77 39 3e 6a fe 16 3e 8c da f3 3d 3d 63 a0 bd
       0.18111965 0.14745489 0.11906919 -0.07831428
000030 a4 d0 91 bd de 9b 28 3d 12 03 1d be 85 cd 30 be
       -0.07119873 0.04116427 -0.15333202 -0.172659
000040 98 33 78 bc 4f 05 1b be 67 2d 95 bd 58 15 11 3e
       -0.01514902 -0.15138744 -0.072840504 0.14168298
000050 c2 2e 39 be ef dd 2e be 79 2b 78 bd b2 b0 c1 3d
       -0.18084243 -0.17076848 -0.060588334 0.0945753
000060 88 58 1d 3e a2 fa 9e 3c b5 81 bc 3d d8 fd 10 3c
       0.15365803 0.01940662 0.09204427 0.008849584
000070 59 ae df bd da 8c 3c 3e ab 27 66 3d 27 6a 31 3e
       -0.10921926 0.18413106 0.056190174 0.1732565
000080 53 37 e8 bd b1 95 89 3d f9 d4 04 bd 17 3b 2c 3e
       -0.11338677 0.067180045 -0.03242967 0.16819416
000090 b9 b4 49 3e d3 0c e4 bc cd bd 20 be bc 27 f1 bc
       0.19697846 -0.027838146 -0.15697403 -0.029437892
0000a0 69 56 ad 3d 42 09 f7 3d 09 06 3b 3d 91 32 20 3d
       0.08463747 0.12062313 0.045660052 0.039110724
0000b0 5b aa 53 be 7c 7e 22 3e 73 81 07 3e d3 92 b5 3d
       -0.20670454 0.15868562 0.13232975 0.08865895
0000c0 8a b4 93 3d 14 7d 2d be 5c fd da bd 14 39 2e bd
       0.072121695 -0.16942245 -0.10692856 -0.042534903
0000d0 0f 51 35 be b9 e8 07 be f3 a8 88 3c 1f 81 76 3c
       -0.17706703 -0.1327237 0.016682124 0.015045433
0000e0 2d d1 1d 3c 02 10 48 3d f6 d2 a4 3b f1 a6 16 be
       0.009632391 0.04884339 0.0050300313 -0.1471212
0000f0 3d f0 29 be a2 7a df 3c 29 51 40 3d e5 d1 54 bd
       -0.1659555 0.027280156 0.0469524 -0.051957984
000100 6d 0b ed bd f5 61 c3 bd 9a 92 4a 3e 9c c3 1c bc
       -0.11574445 -0.09540168 0.19782487 -0.009568121
000110 e8 8d f5 3d 47 df 1f be b0 fe dd bd e4 02 10 3e
       0.11989957 -0.15612517 -0.108395934 0.14063603
000120 56 29 d4 3d f8 b0 6b 3d 2e 3e ae 3c 91 84 e5 bd
       0.10359447 0.057541817 0.021269884 -0.11206926
000130 3c c9 2d be 93 2f af 3d 73 6a 11 3e a7 05 7d 3c
       -0.16971296 0.08553996 0.14200763 0.015443242
000140 d6 0d 85 3d da 84 e6 3d a6 56 94 bd a5 31 9a bd
       0.064967796 0.11255808 -0.072430894 -0.07529
000150 21 3d b4 3c d5 47 fe bd ea 10 88 bd 33 6d 18 3d
       0.022001805 -0.124160446 -0.06643851 0.037213515
000160 b9 0d aa 3c 22 c6 5b bd 69 97 07 3d 8e d1 11 be
       0.020758497 -0.05365575 0.03310338 -0.14240095
000170 c1 c3 d2 3d c5 bb b8 bc 51 7d 3b bc 7b a0 d6 3b
       0.10291243 -0.022550473 -0.011443452 0.0065498925
000180 00 30 c2 3d 20 2e 3b be f2 75 fa bc fb fe 07 be
       0.094818115 -0.18279314 -0.030573819 -0.13280861
000190 d6 80 c8 3d 15 b6 00 3d 7b ee 0d 3c bb d7 18 be
       0.097901985 0.031423647 0.008662815 -0.14926045
0001a0 94 58 d6 bd 9d 9e da bd 32 5b 2f 3e f1 56 fd 3d
       -0.10466114 -0.10674784 0.17124632 0.123700984
0001b0 e4 f8 34 3d 3c 7f 0c 3c 95 8b 36 3e 99 e0 3d 3e
       0.044182673 0.008575257 0.17826684 0.18542708
0001c0 5f b6 64 3d dd 98 dc 3d 7b 54 4e bd 5d 2d bb bd
       0.055837985 0.10771344 -0.050373536 -0.09139512
0001d0 1d d7 31 3c bf 08 aa bb 7f 92 24 bd ed 96 66 3d
       0.01085451 -0.005189031 -0.040178772 0.056296278
0001e0 32 3b 9f 3d 89 c8 3f be 42 39 08 3d 28 22 23 be
       0.077749625 -0.18728842 0.03325773 -0.15930998
0001f0 ee 8f ec 3d cb 89 7c 3d 0a 24 07 3e b2 ca 66 3d
       0.1155089 0.061654847 0.13197342 0.05634565
000200 bc 46 e0 3c 31 89 fa 3c 3a b9 e7 3d da d0 3c be
       0.027377479 0.030582996 0.11314626 -0.18439046
000210 0d 36 d3 bc 8d f6 5a 3c 18 2d 1a 3e 94 ec 1a 3e
       -0.02578261 0.013364446 0.15056264 0.1512931
000220 e6 5f 20 be 77 9c ac 3d af 66 88 3d dc 22 c9 bd
       -0.15661582 0.08428281 0.0666021 -0.09821102
000230 53 da 16 3d 42 d7 4b be 0d a1 88 3c ed 1d e9 3d
       0.036829304 -0.19906333 0.016678357 0.11382661
000240 4a f4 2f 3e 59 a6 c7 bd 5e df a4 3d cd 37 bd 3d
       0.17183033 -0.09748525 0.080504164 0.09239159
000250 a4 01 5a 3e e5 70 f0 bd fc 79 2e 3e 7a b6 bf bd
       0.21289688 -0.11740283 0.17038721 -0.093609765
000260 d1 7f 3a be 68 9d eb 3d a9 47 9b 3d 87 6b 05 be
       -0.1821282 0.11504632 0.075820275 -0.130293
000270 d6 8b 03 3e a4 46 ab 3d ea b1 1e 3c f4 62 f0 bd
       0.12846312 0.08363083 0.009685973 -0.11737624
000280 68 bc 2c be 81 22 e4 3d f3 1a dc 3b c7 c4 a0 3c
       -0.16868746 0.111393936 0.00671708 0.01962508
000290 79 39 02 3d ee e2 42 be 2b a3 de bd 3a f4 14 be
       0.03179309 -0.1903188 -0.108709656 -0.1454629
0002a0 aa 91 14 bc fc f1 c8 3c 64 9d 3d bd c9 38 d6 bd
       -0.009067932 0.02452945 -0.046292678 -0.1046005
0002b0 b1 24 41 3d 21 76 f8 bd 95 83 89 bd c1 75 0d 3e
       0.047154132 -0.12131906 -0.067145504 0.13814451
0002c0 45 f3 1d bd 77 33 52 3d ce 03 19 be 50 8b d5 bd
       -0.038562078 0.051318612 -0.14942858 -0.104269624
0002d0 45 bf ba 3d 19 d0 b3 bd 82 b4 3d 3d 36 c2 bd bd
       0.09118513 -0.08779926 0.046314724 -0.092655584
0002e0 10 4e 7c 3e a6 63 dc 3d 1d 66 a0 bd 75 1a d0 bd
       0.24639153 0.10761194 -0.078319766 -0.10161296
0002f0 a6 13 46 be 8c f0 13 3e 37 51 e7 bd 47 f6 23 3d
       -0.19343433 0.1444723 -0.112947874 0.04002979
000300 de 1d 4c be 6d 7d 3f 3d e1 01 81 3d fa ff 08 3e
       -0.19933268 0.046750475 0.062991865 0.13378897
000310 dd 1b 1e 3e de dd 7d bd e9 a1 b5 3d 79 30 53 3e
       0.15440316 -0.061979167 0.088687725 0.2062396
000320 a8 c5 77 bc e1 6d 34 3d 0f 24 42 be f8 ab ab bd
       -0.0151228085 0.0440501 -0.18959068 -0.0838241
000330 ce 51 0f bd a2 2f f9 bd 75 7e a6 3d 8c 0d 3a 3d
       -0.034990124 -0.12167288 0.081295885 0.045423076
000340 01 a9 8b 3d 8b 97 12 be de aa 7a bd 9c 8f e8 3d
       0.06819344 -0.14315622 -0.061198108 0.11355516
000350 10 00 24 3d 9f 64 fa bd 59 77 08 bd df a5 a3 bb
       0.040039122 -0.12226223 -0.033316944 -0.0049941386
000360 13 c1 4e bd ba 2f 13 be b0 f0 bc 3d 1c 13 c5 bc
       -0.0504771 -0.14373675 0.09225595 -0.024056964
000370 0e eb 47 3d f2 23 10 be 11 df 62 3d a7 4d 27 3e
       0.04880815 -0.14076212 0.055388514 0.16338216
000380 54 f1 e5 3c c4 48 1a be 53 fc f4 3d d3 e0 03 3e
       0.028069176 -0.1506682 0.119621895 0.12878732
000390 97 dc 97 bd 4e e1 20 3e 51 66 27 be e7 de 36 3e
       -0.07415121 0.15710947 -0.16347624 0.17858468
0003a0 ef 5e d7 3c ce 80 90 bd 17 04 66 3c 29 84 22 3d
       0.026290385 -0.070558175 0.014039061 0.03967682
0003b0 42 5e 5c bd 7b 5a 1e be 67 49 7f 3d 9e 8a c9 3d
       -0.05380083 -0.15464203 0.06232586 0.09840892
0003c0 03 8a 0f be 32 50 35 3e 8d 73 f3 3d 2a a3 94 3d
       -0.14017491 0.17706373 0.11887274 0.072576836
0003d0 75 6b c8 3c 36 44 b7 3c 96 0a 14 be 8c b5 fc 3d
       0.024465302 0.022371393 -0.14457163 0.12339315
0003e0 64 54 eb bd fa 00 bd 3d 28 93 d6 3d 47 0d 81 bd
       -0.114907056 0.09228702 0.104772866 -0.063013606
0003f0 a3 82 7c bd 45 3c 10 3e 76 31 cf bd 1a 25 29 3e
       -0.061648022 0.14085491 -0.10116856 0.1651806

g.4.bias f4 [30]
000000 03 70 c0 3d cb 4e 06 3e b7 fc dc bd 0f 2c 00 3e
       0.093963645 0.13115995 -0.10790389 0.12516807
000010 45 91 92 bd 7b 2a 65 bc 2e 45 84 bd 3e f8 86 3d
       -0.07156614 -0.013987179 -0.064585075 0.06590317
000020 bc 8b b0 3d f6 d3 78 3d e0 ff e5 bc 8a 85 1a 3e
       0.08620402 0.060749017 -0.028076112 0.15090004
000030 e4 91 ce bd ff df a2 3d ab 7c 44 3d bc b7 99 3d
       -0.1008642 0.0795288 0.047970455 0.07505748
000040 6f 76 bb 3a 69 99 21 be 20 07 9b bd bc 79 ca 3d
       0.0014302264 -0.15781178 -0.07569718 0.098865
000050 44 03 0a 3e ca 6e b6 bd 27 2f 0d be 2d 1d c1 3d
       0.13477808 -0.0890785 -0.13787518 0.09429393
000060 0d 03 f1 3d b8 07 69 3d 67 88 9f bd 48 60 19 bc
       0.1176816 0.056892127 -0.077896886 -0.009361334
000070 26 12 e8 3d 34 33 33 3e
       0.113315865 0.17500001

g.6.weight f4 [2, 30]
000000 92 97 8d bb 95 6d 9a 3c c7 3e 88 3c 5c 9d f8 3b
       -0.004321047 0.01885108 0.016631497 0.007587118
000010 05 88 4b 3b 9b 8c bf bb ad e9 02 3b 03 42 58 bd
       0.0031056416 -0.005845619 0.0019975707 -0.05279733
000020 b8 52 49 bd c7 aa c7 3c 4f fb e4 bd 41 2f 40 bd
       -0.049151152 0.024373425 -0.11180746 -0.046920065
000030 d7 ad ca 3d 74 55 ab bb a6 29 01 3c 07 ca 32 bb
       0.098964386 -0.0052286927 0.007883465 -0.0027281062
000040 c8 b4 59 bd 6b 0f 9c bd 23 eb 6c 3a 25 63 ab 3d
       -0.053150922 -0.07620128 0.00090377236 0.0836852
000050 ec df c6 3d a7 0f 1a 3e 92 7b 47 3d ca a7 76 3a
       0.097106785 0.15045033 0.04870183 0.0009409158
000060 96 2e f8 bb e6 40 09 bd 60 e0 de 3d 1f ca 8b 3a
       -0.007573913 -0.033509158 0.1088264 0.0010665095
000070 b0 39 c6 bd 6a 42 2e 3e 5d 53 8c 3c d8 ab e4 bd
       -0.09678972 0.17017522 0.017129594 -0.11165589
000080 72 31 fa bc 48 7f cb 3b ce a7 00 bc 35 30 37 3c
       -0.030541155 0.0062102415 -0.007852508 0.011180927
000090 1e a2 0d bc 5d df 3c 3c 45 ac 8e bd fd f7 d1 3d
       -0.008644609 0.011527863 -0.069664516 0.10252378
0000a0 09 bb a4 3d 73 95 27 3d 4a a0 16 3e d7 5f 61 bb
       0.080434866 0.04091401 0.14709583 -0.00343894
0000b0 ae 2a 86 bc 7a 86 3f bd 73 0b 36 be f5 c1 90 bd
       -0.016377773 -0.046759106 -0.17777805 -0.07068244
0000c0 3c 21 b0 bd 06 eb 36 bd 9f 15 3d 3d bb f7 a7 3d
       -0.08600089 -0.04465773 0.046163198 0.08201548
0000d0 e1 84 09 be 70 44 2b 3b e1 4d 30 3d 12 e1 bd bd
       -0.13429596 0.0026133321 0.04304302 -0.092714444
0000e0 13 df a4 bd 99 45 86 3a 98 dc a2 bd db a3 82 3d
       -0.080503605 0.001024413 -0.07952231 0.06378909

g.6.bias f4 [2]
000000 77 fa e3 3d a5 b8 9c bd
       0.11131757 -0.07652406

nn_fun1.0.weight f4 [30, 2]
000000 8b 86 d2 3e 1f e0 e5 3e 43 66 17 3f 6d c0 28 bf
       0.41118273 0.44897553 0.59140414 -0.6591862
000010 ff d6 08 3f 42 93 46 bf e1 ff 96 3e 92 ab 3d 3f
       0.5345306 -0.7756845 0.29492095 0.7408992
000020 60 6f b4 3e 03 ab ae be 1e 02 01 3f f1 59 0f bf
       0.35241222 -0.34114847 0.50393856 -0.55996615
000030 0a b1 8c be d2 0b 3f bf 13 1c 13 3e 4e 0e 34 3e
       -0.2747882 -0.7462741 0.14366178 0.17583582
000040 62 16 ff be c1 2f 54 be 9d 0a 01 bf 53 d1 26 bf
       -0.49821764 -0.20721342 -0.5040682 -0.65163153
000050 79 eb 3f 3f 4c 00 f9 3b 75 95 61 3f 00 61 54 3e
       0.7496868 0.0075989123 0.8811868 0.20740128
000060 30 ed 2f bf f0 37 44 3f 04 56 ff bd 96 04 81 3e
       -0.68721294 0.76647854 -0.12467578 0.2519881
000070 44 ea 5e be 87 14 8f 3d 59 0b e1 3d ca bc 0a be
       -0.21769053 0.06986337 0.109884925 -0.1354858
000080 d8 f8 d1 3c b3 12 bd 3e bb d4 06 3f 7f cc 98 3e
       0.025631353 0.3692833 0.5266835 0.29843518
000090 8e ad 1b 3e db 31 d5 be 07 24 41 3f b8 89 ea be
       0.15202925 -0.416396 0.754456 -0.45808196
0000a0 55 f7 0e be 4f e9 00 3d dd d9 a1 3e 12 d0 49 be
       -0.13961537 0.0314725 0.3161153 -0.19708279
0000b0 9f 3f 02 bf 08 7c 4b be f1 6f 08 3e 34 0b 02 3e
       -0.5087833 -0.19871533 0.13323952 0.12699586
0000c0 0f ad f4 be 27 12 06 bf 94 ae e6 3e 46 aa 35 3f
       -0.47788283 -0.5237145 0.45055068 0.7096294
0000d0 a6 cd 54 3f 13 4d f1 be 5b 83 8f 3e 5a 3c f4 bd
       0.83126295 -0.47129115 0.28029904 -0.11925574
0000e0 3f e8 bf bc fe 6a 21 bd 0c c7 5a 3e 09 9e 22 3f
       -0.023426173 -0.039408676 0.21364993 0.6352239

nn_fun1.0.bias f4 [30]
000000 67 29 b4 3d bd 51 04 bf 1e 98 c3 be 10 fa 07 bf
       0.08796959 -0.5168722 -0.38201994 -0.5311594
000010 46 a3 63 3e 2c f1 8f 3e 01 3e 81 3e 82 40 00 3e
       0.22230253 0.28113687 0.25242618 0.12524608
000020 ec 3c 28 3e df d0 98 be 5a 49 f4 3d cb c1 85 bb
       0.1642949 -0.29846856 0.11928053 -0.00408194
000030 b4 50 88 3e 49 ff 5e 3e a9 36 08 3f 59 50 28 bf
       0.26624072 0.21777071 0.53208405 -0.657476
000040 ff 49 f2 3e 36 31 0f 3f 07 e5 e7 ba ce 9a be 3e
       0.4732208 0.55934465 -0.0017692157 0.37227482
000050 c8 5a 40 3d 9e 88 1d bf 85 5a 2f bf a6 46 ff 3d
       0.046961576 -0.61536586 -0.68497497 0.12464647
000060 e0 d9 5d be 53 7f 97 3d 4a a2 18 3f 16 83 41 be
       -0.21665144 0.07397332 0.59622633 -0.18897662
000070 63 25 2e be 73 85 a1 bd
       -0.1700645 -0.078867815

nn_fun1.2.weight f4 [30, 30]
000000 79 ba a4 bd 54 28 38 3c d3 bd 7e be b5 64 01 be
       -0.08043379 0.011240084 -0.248771 -0.12636073
000010 fc 45 63 3e e0 da 59 bd 6f 2e f2 3d 65 b5 a4 3c
       0.22194666 -0.05318725 0.11825263 0.020106027
000020 f6 91 f4 bc e0 c4 55 3e 73 d5 35 bd 60 09 09 3d
       -0.029854756 0.20875883 -0.044393014 0.033456206
000030 f1 88 17 3e 33 d6 81 bb d4 21 cb bc 8c f7 bc 3c
       0.14798333 -0.003962302 -0.024796404 0.023067258
000040 5d fa d6 bd 7a 52 2c 3d c7 6a 02 be d5 41 47 3e
       -0.10496972 0.042070843 -0.12736045 0.19458707
000050 63 1d 09 3d f1 c1 5b 3d 2c b7 2e 3e 80 d0 ff bd
       0.03347529 0.053651754 0.17062062 -0.1249094
000060 da e7 22 3a b8 0e a4 bd 43 eb 24 bd 61 af 1c 3e
       0.0006214358 -0.0801062 -0.040263426 0.15301277
000070 bc 9d 37 3d 9b db 80 be 08 a2 cc bd 89 00 1f bd
       0.04482816 -0.25167546 -0.099918425 -0.03881887
000080 bd 35 eb bb 4c 41 9e bd 0b 30 28 be 73 c3 17 be
       -0.007178037 -0.07727298 -0.16424577 -0.14820652
000090 5b 0e f2 3d 53 27 d2 3d ec f5 52 3d 68 9d 01 3d
       0.11819144 0.10261407 0.05150406 0.031644255
0000a0 e7 43 78 be 12 04 13 bd a2 d7 68 3d 06 a0 da bd
       -0.24244653 -0.035892554 0.05684627 -0.10675053
0000b0 40 1e 3b 3e 57 b7 01 3e 3b 8c b0 3d 3d e4 d1 bd
       0.18273258 0.12667595 0.08620497 -0.10248611
0000c0 78 c7 5e bd 73 f5 7e bc 39 b1 91 bc e3 76 7f 3d
       -0.054389447 -0.015561449 -0.017784702 0.06236924
0000d0 1f fb 58 3b 9e 4d ce bd 6f 6d e8 3b 78 79 17 3e
       0.0033108664 -0.10073398 0.0070931236 0.1479243
0000e0 b9 1a 0d bc 39 e4 07 bd da a5 7f bd b0 f2 12 3d
       -0.008612328 -0.033176634 -0.062414028 0.035875976
0000f0 fb 83 9f 3d 7d 76 cf 3c cf c5 e9 3b 95 7a 40 3d
       0.07788845 0.025325054 0.0071341763 0.046991903
000100 87 22 9b 3d 19 11 92 3d 12 71 a5 3d 3f 3a 44 3d
       0.07574945 0.07132167 0.08078207 0.04790711
000110 df e0 cc 3d 35 5b d7 3d af bf 8d 3d e9 5a b7 3d
       0.10003828 0.10515443 0.06921326 0.089528866
000120 be da f0 bd 80 e2 4c bd 2d b3 7a bd 12 25 3a 3d
       -0.11760472 -0.050020695 -0.06120603 0.04544551
000130 c4 28 5d 3a 8f b9 3c 3d fb 78 3c 3d 27 72 f6 3c
       0.00084365555 0.0460754 0.046013813 0.030083729
000140 bc a1 b7 3d 48 05 cb 3d 06 4f 0c bd 83 aa ec 3d
       0.08966395 0.09913117 -0.03425505 0.1155596
000150 8e 00 92 3d 92 8a e7 3d 96 df 54 bc 76 29 f6 3d
       0.07129012 0.11305727 -0.01299276 0.12019627
000160 5f f3 66 3d d1 79 16 3e 7d 08 62 be 78 22 72 bd
       0.05638444 0.14694907 -0.2207355 -0.059114903
000170 a7 3f f1 3d e1 15 27 3d 71 f9 71 be 1a 8d 48 3d
       0.11779719 0.04079235 -0.2363031 0.04896269
000180 97 30 47 3e f7 2e 1c bd ed 64 43 3e 12 23 4b bc
       0.1945213 -0.038130727 0.19081469 -0.012398498
000190 f4 08 d6 be ec 18 a0 be 5c 23 4e be e2 71 52 bd
       -0.41803706 -0.31269014 -0.20130676 -0.05137814
0001a0 16 c4 20 3e 75 10 c7 bd 4e d5 3a be 23 c7 68 be
       0.15699801 -0.09719936 -0.18245432 -0.22732215
0001b0 dc be 75 bd b4 4c 0f be 05 05 5d 3e cb f5 12 be
       -0.05999647 -0.13994104 0.21583946 -0.14351575
0001c0 90 77 6a 3d d0 25 27 3d 19 25 b2 3d 2b 7c 3a be
       0.05724293 0.040807545 0.08698482 -0.18211429
0001d0 99 36 cc be c5 86 17 be 65 87 b9 bd 99 5e 9e bd
       -0.39885405 -0.14797504 -0.090590276 -0.07732887
0001e0 9d 9c 26 be 3e 05 64 3d fc 43 fb bd 43 20 2d be
       -0.1627068 0.05566906 -0.12268826 -0.16906838
0001f0 8f 44 2f 3d 92 f3 26 be c5 99 70 3b 48 d8 ba 3c
       0.042789992 -0.16303852 0.0036712748 0.022808209
000200 5a 1c 2b be f5 7b e3 3d 13 76 ad 3d fb 26 cc 3d
       -0.16710034 0.11107627 0.084697865 0.099683724
000210 65 b2 c0 bd 85 73 b5 bd c3 7a dd bd b4 38 1b be
       -0.09409026 -0.08859924 -0.108144306 -0.1515835
000220 e5 09 64 3e 8a a1 f0 bd 8d 5f 50 be 57 a1 2f be
       0.222694 -0.11749561 -0.2034895 -0.1715139
000230 d4 b9 20 bd 1e f7 19 3e 62 fc 74 3d e4 0b d8 3c
       -0.03923972 0.15035674 0.059811004 0.026372857
000240 87 c2 04 be ed 38 f1 3c c3 85 02 3e fc 0c a5 3d
       -0.12964831 0.02944609 0.12746339 0.08059117
000250 01 e6 a7 3d bf 4d 3b be 1a 36 56 3d 1a da a9 bd
       0.08198167 -0.18291377 0.05229769 -0.08293553
000260 92 4a 0b 3e c5 bc 01 be 8f a0 f1 bb c0 d7 97 3d
       0.13602665 -0.12669666 -0.0073738764 0.07414198
000270 03 a4 ed 3d 37 f1 d7 3d 52 41 6c bd a9 06 d1 3d
       0.116035484 0.10544055 -0.05767948 0.102063484
000280 3e 70 94 bd e0 b0 9e 3a a8 68 d2 3d c5 86 ca bd
       -0.07247971 0.0012107156 0.10273868 -0.098889865
000290 c0 7a 8e 3d b0 a1 cf 3d 1b af 37 3e 46 f2 df bb
       0.069570065 0.10138261 0.17937891 -0.006834301
0002a0 fd c0 e1 bc 92 bd c8 bd a6 9e 63 3d 52 cf bf 3d
       -0.027557844 -0.09801783 0.05557122 0.09365715
0002b0 dc 20 70 3d a1 72 87 bc 08 96 e7 bd 8c 04 f5 3d
       0.058625087 -0.016534152 -0.11307913 0.11963758
0002c0 4d 1f ed 3c 90 cf 26 be a8 54 37 be 2f 42 5e bc
       0.02894559 -0.16290116 -0.17903388 -0.013565584
0002d0 5c 11 e8 bb de 62 58 3d 88 bc 35 be 73 49 b9 3d
       -0.0070821475 0.052828662 -0.177477 0.090472125
0002e0 31 e8 9a bd 49 9a 19 bc b3 b3 65 bd 9a a4 bf bc
       -0.07563818 -0.009375163 -0.056079578 -0.023393918
0002f0 99 d6 99 bd cf 9b ec bc 19 0c 2e 3d 2c 4d dc bd
       -0.075116344 -0.02888289 0.042492006 -0.10756907
000300 6e a2 ac 3d c0 04 dc bd 34 1f 0b 3e d9 76 34 bc
       0.084294185 -0.107430935 0.13586122 -0.011014664
000310 8e 45 8e bd dd c6 12 be 57 9b bf bb c6 ab ec bd
       -0.0694686 -0.14333673 -0.0058473754 -0.11556201
000320 84 7d dc bd 26 4b 13 3e 7d db f2 bd 72 cb 97 3d
       -0.10766128 0.14384136 -0.1185827 0.07411851
000330 20 f0 7e bd 43 25 04 be 3d 26 6a 3e a6 1e d7 3d
       -0.06224072 -0.12904839 0.22866149 0.105038926
000340 bd 73 ce 3d 73 06 f2 bd d8 ff c9 3c 72 c4 77 bc
       0.10080669 -0.11817636 0.024658129 -0.01512252
000350 99 3a 1d 3e 31 6d 88 3e 33 ef 82 3d 7d bf 50 3d
       0.15354384 0.26645806 0.0639328 0.050963867
000360 d3 01 ab be ed f3 c9 bd d0 28 07 be 24 97 3a be
       -0.3339983 -0.09860978 -0.13199162 -0.18221718
000370 59 07 9a bd 93 65 58 3d eb 6b 87 bc 65 9b e3 bd
       -0.07520933 0.052831244 -0.016530951 -0.111136235
000380 66 2b 04 be 74 49 a7 3c 8a d0 23 bd 0d 73 b0 3c
       -0.1290718 0.020420767 -0.0399938 0.021539235
000390 eb 7a 2b be f1 bc 4f bc 51 16 23 bd 45 ba 37 bd
       -0.16746108 -0.0126793245 -0.039816204 -0.044855375
0003a0 93 43 0b 3e e0 87 4f 3e 61 13 b3 bc 49 6b 04 bd
       0.13599996 0.20266676 -0.021859827 -0.032328878
0003b0 aa d9 ab be d9 ab 24 bd 9c c2 9a bd a7 d1 85 3e
       -0.33564502 -0.04020295 -0.0755665 0.26136515
0003c0 57 8e 8d 3d 0e 99 47 3e e8 7a f9 bb ba c7 7f 3d
       0.06911915 0.1949198 -0.0076135285 0.062446333
0003d0 ea 4e 12 3e a7 04 2d 3d 81 09 ba 3c 70 75 23 3d
       0.14287916 0.042240765 0.02270961 0.03990692
0003e0 14 d4 1a 3d 4c 32 d9 3d 01 50 fc bb 9a 78 0b bd
       0.03779991 0.106052965 -0.007699967 -0.03405056
0003f0 6b 4e bd bd d3 0f 01 3d 99 2c f8 3b 73 43 d0 3d
       -0.09243473 0.03150923 0.007573676 0.10169115

nn_fun1.2.bias f4 [30]
000000 1e 47 f7 bd 06 87 f1 bd 1d 64 cf bc 9f 17 31 3e
       -0.120741114 -0.11793332 -0.025316292 0.17294167
000010 9b c7 34 3d fd 58 19 bd 95 8c 00 3d 22 08 29 be
       0.04413567 -0.03743838 0.03138407 -0.16507009
000020 eb 49 16 3e 12 aa 13 3e f4 e3 0e bd f1 94 d1 3d
       0.14676635 0.14420345 -0.03488536 0.102334864
000030 7d a7 01 3e 02 4b 3d be d6 b1 dc bd 79 7c ed bc
       0.12661548 -0.18485644 -0.10776107 -0.028990017
000040 d4 ae e0 3c 1a 39 33 be e9 1b 15 be 45 19 09 3e
       0.027427115 -0.17502251 -0.14561428 0.13388546
000050 79 6d e3 bc 13 2b 2b bd 17 46 98 bd bb 00 c6 3c
       -0.027762162 -0.041789126 -0.074352436 0.02417027
000060 2c 4a ef bd ce 9d 0f 3c bc 37 93 bd be f8 4f 3c
       -0.11684069 0.008765651 -0.07188365 0.012693582
000070 00 4c 8b bc 2b 88 2d 3e
       -0.017004013 0.16946475

nn_fun1.4.weight f4 [30, 30]
000000 be 25 02 3e f4 83 4e bb ab 41 5d 3c a5 e2 20 be
       0.1270971 -0.0031511756 0.013504426 -0.15711458
000010 31 af c0 3d 65 d2 53 bc 2c 7d 21 3c f5 c2 88 3d
       0.09408415 -0.01292858 0.009856503 0.0667781
000020 de 2f 77 3d b4 5d 8b 3e af 8f 0f 3e d1 1f 9d 3d
       0.060348384 0.27219927 0.14019655 0.07672084
000030 7b b1 97 3d 80 57 fd 3d 7f 5f 03 be 9c 68 99 3b
       0.074068986 0.12370205 -0.12829398 0.00468166
000040 50 ae fe 3d 03 24 a9 3d 0c 92 dc bd 96 e6 97 3d
       0.12435591 0.08258822 -0.10770044 0.07417028
000050 03 5b 26 3e 35 f8 7f bd 81 ab d8 bc a6 64 9e 3c
       0.16245656 -0.062492568 -0.026448967 0.019335102
000060 ce 4b 58 3d a3 23 54 bd 20 15 e9 bc 60 8e 02 3d
       0.052806668 -0.0517918 -0.028452456 0.03187406
000070 1b a1 84 3d d5 08 f7 bd 54 ad 9b 3b 0b ea a7 3d
       0.06476041 -0.120622315 0.004750887 0.08198937
000080 ae 0b ea 3d 4f 35 30 be d5 6e 92 3d 53 94 89 bd
       0.11428009 -0.17207836 0.07150046 -0.06717744
000090 87 32 0c 3e fb 64 2b 3e 04 21 0e 3e 13 6e a6 bd
       0.1369115 0.1673774 0.13879782 -0.08126464
0000a0 ca d6 19 3e ee 75 f6 3d 4b d8 7e bd 6a 82 07 3d
       0.15023342 0.12034212 -0.06221799 0.033083357
0000b0 5c d8 25 bc bf 4c 93 3d c5 53 b1 bd 65 97 1b 3e
       -0.010122385 0.071923725 -0.08658556 0.15194471
0000c0 a7 1c 60 3e 03 17 ec 3d 70 ec a1 3c 88 1f 86 be
       0.2188593 0.11527827 0.019766062 -0.2619593
0000d0 a1 39 9e bc 6a 81 46 bc 00 c2 ac bc fa 6b c5 bc
       -0.019314589 -0.012115816 -0.0210886 -0.024099339
0000e0 3f 48 57 3e 9e 45 45 3d 7f a6 f7 bd 55 81 80 bd
       0.21023653 0.048162095 -0.120923035 -0.06274668
0000f0 16 2b 32 3e 18 4a c2 3d ac 87 70 bd 65 55 55 be
       0.17399248 0.094867885 -0.058723137 -0.20833357
000100 99 a5 11 3e 95 18 2a 3d e5 4e 1f 3e f1 d5 3e be
       0.14223327 0.04152735 0.1555744 -0.186363
000110 49 53 01 bd df d1 37 3e cb 0e e1 3d a9 64 99 bd
       -0.031573568 0.17951153 0.1098915 -0.074899025
000120 ef 2f 1c 3e 7e 8d 8c bd 17 ff 49 bc 40 75 e9 bd
       0.1525266 -0.06862925 -0.012328885 -0.11399317
000130 a0 6e 3c 3e 4f 46 0f 3e b9 e7 dc 3d 3b 02 47 3d
       0.18401575 0.13991664 0.10786385 0.04858611
000140 9b 16 17 3e a4 8a 27 bc 2d 16 f6 3d 4b 24 2a be
       0.14754717 -0.010225926 0.120159484 -0.16615407
000150 fc 78 46 3e 34 6a 71 3d c4 f4 5a be bc 6d 1a 3d
       0.1938209 0.058939174 -0.21382433 0.037702307
000160 50 f7 83 bd 1f 19 39 3d 7d 7d 1c be f4 8c 15 3d
       -0.064436555 0.045189973 -0.15282245 0.036511377
000170 c0 d5 16 be df 71 57 3e 50 bb db 3c a2 d6 8a 3c
       -0.14729977 0.21039532 0.026822716 0.016948048
000180 34 c3 80 3d 05 d3 45 3e 74 88 b5 3d de 08 43 3e
       0.06287232 0.19318779 0.08863917 0.19046351
000190 ae e7 18 3e a3 0b 8c bd 29 98 39 3d 24 ce a4 bd
       0.14932129 -0.06838157 0.045311127 -0.08047131
0001a0 a3 23 cd 3d bb fb bd bd 13 dd 4a be bb 9c a2 3d
       0.10016563 -0.092765294 -0.19810896 0.0794005
0001b0 99 29 10 3e f2 58 00 be 3e e2 95 bd 89 76 03 3e
       0.14078368 -0.1253393 -0.07318543 0.12838186
0001c0 60 4c a9 3c c2 43 74 bd 64 43 63 be 5e fe 22 be
       0.020666301 -0.05963493 -0.22193676 -0.15917346
0001d0 d0 6b 6f 3d f4 d1 a0 bb de 69 40 be d4 5a 38 3e
       0.058452427 -0.004907841 -0.18790385 0.18003398
0001e0 1a 06 27 be 69 a7 34 3d 82 e2 34 3c 6c a4 c2 bc
       -0.16310921 0.044104967 0.011040332 -0.023760043
0001f0 8c 34 1b be aa 52 99 3d 66 bf 00 bd fb d7 70 bd
       -0.15156764 0.0748647 -0.03143253 -0.058799725
000200 00 f5 4c bc ba 2d 3f 3d db e0 dd 3d 3a 51 ee 3d
       -0.012509584 0.046674468 0.108339034 0.116365865
000210 e2 fd 5b bd e5 ba f2 bd 7e 3e 2f be 7d d8 80 bc
       -0.05370892 -0.118520536 -0.17113683 -0.01572823
000220 1f d5 21 3e 1e cf 83 3d 1b 53 5b 3d 26 cd 9f bd
       0.15803955 0.06435989 0.053546052 -0.07802801
000230 55 3a 1f be c0 96 81 3c c2 f7 bd 3d fe fa 08 3e
       -0.15549596 0.015818954 0.09275772 0.13376996
000240 f5 e7 2b be 8a 89 2c be 8c a3 16 3e 54 9b 05 be
       -0.16787703 -0.16849342 0.14710826 -0.13047534
000250 2b 4e 18 be 17 5c b1 3d 10 cf 5b be c1 0b ed 3d
       -0.14873569 0.08660143 -0.21465707 0.115745075
000260 b1 4e 73 3b bf 18 de bc f7 aa 1b be 15 c1 8a bd
       0.003712576 -0.02711141 -0.15201937 -0.06775109
000270 05 36 b4 bd 94 a0 26 3e a1 6f 11 3e 0a da 3d be
       -0.08799366 0.16272193 0.1420274 -0.18540207
000280 97 14 0c be d0 90 5e bd 5e a3 0b 3e 19 57 78 3c
       -0.1367973 -0.054337323 0.13636538 0.015157484
000290 88 04 61 be fc 60 38 be 8c 62 7f 3d 37 a1 cd 3d
       -0.21974385 -0.18005747 0.06234984 0.10040515
0002a0 7b ad 02 be db db 8f 3d a2 e9 49 bc 05 c9 8b be
       -0.1276149 0.07024356 -0.012323769 -0.27301803
0002b0 08 4d 08 3e 01 35 26 bd 60 b7 1a bc 53 b3 2b 3e
       0.13310635 -0.040577892 -0.009443134 0.16767626
0002c0 1e 90 ee bd 75 b9 ae bc 0b 44 0f be fa c5 f3 bd
       -0.11648582 -0.021328667 -0.139908 -0.119029954
0002d0 d1 67 e3 bd 2b 71 c0 3d 4a 7b b4 bd 6f c9 6d bb
       -0.11103786 0.09396585 -0.08812578 -0.0036283394
0002e0 bd 27 3e be d5 e4 16 be 0d c9 85 3d 5d c1 c9 bd
       -0.18569846 -0.1473573 0.06532488 -0.09851334
0002f0 88 b2 cc bd fa 32 40 bd aa e6 0c be d1 7a 86 bd
       -0.0999499 -0.046923615 -0.13759866 -0.06566394
000300 91 00 04 3e f9 20 a8 3d 88 8c 32 bd 57 86 02 3d
       0.12890841 0.08209414 -0.043591052 0.031866398
000310 b6 2b c8 bc d7 1f d4 3d 1a 71 e4 bc 77 c4 2d 3e
       -0.024434905 0.103576355 -0.027885962 0.16969477
000320 8e 0a 54 b8 a1 60 56 3c 03 19 cd 3d e8 17 58 be
       -5.055457e-05 0.013084562 0.10014536 -0.2110287
000330 1a 0f 30 bd 77 80 a4 bd ee 1b 4e 3d 55 df ae 3d
       -0.042983152 -0.08032315 0.050319605 0.08538691
000340 90 ad b0 3d f5 1a df bd 05 eb 48 be 6f 4f 1a 3e
       0.086268544 -0.108938135 -0.19620903 0.15069364
000350 3e 82 19 be 88 a7 d5 ba 2a ff 28 3e e2 07 fa bd
       -0.1499109 -0.0016300539 0.16503587 -0.12208535
000360 aa 73 f6 3c 0c 67 2f be 79 34 59 bb d6 68 05 be
       0.03008445 -0.17129153 -0.0033142848 -0.13028273
000370 03 92 46 bd 58 fe 83 3d bf 8d c4 bd 8c 33 2d be
       -0.04847909 0.064449966 -0.095973484 -0.16914195
000380 f3 67 b7 3d ba cf 20 bd e2 ae 4a 3d fa 2c 97 bc
       0.089553736 -0.039260603 0.049483187 -0.018454064
000390 56 03 b4 bb 9a 3f 88 bc 7d 4e 80 bd 96 70 0a 3c
       -0.0054935617 -0.01663189 -0.062649705 0.008449694
0003a0 2c 21 f6 bd 6a c1 92 3b fb 44 97 3d d7 19 3b 3e
       -0.12018046 0.004478623 0.07386204 0.18271576
0003b0 5c 1a 8e bd c2 92 7f be 5b b8 94 3d e2 6d d1 3d
       -0.069386214 -0.24958327 0.072617255 0.102260366
0003c0 ed 93 98 3d 85 f6 81 bc 7e 26 28 bd b7 6e c9 bd
       0.074500896 -0.01586462 -0.041052334 -0.0983557
0003d0 0a 96 e5 bd 07 48 ee bd e4 d2 c1 bd a4 6b c8 bd
       -0.11210258 -0.11634832 -0.09464052 -0.09786156
0003e0 76 00 90 3d 98 3f 83 3e 89 10 6d 3d e7 47 b1 3d
       0.07031338 0.25634456 0.057877097 0.086562924
0003f0 aa c3 2a be 62 f7 85 bd 8a a8 4c 3d bd 5e 73 3e
       -0.16676202 -0.06541325 0.04996542 0.23766609

nn_fun1.4.bias f4 [30]
000000 1d 81 ac bd 1b 19 8b bd 1a cb b7 bd 70 31 a8 bd
       -0.08423064 -0.06791898 -0.089742854 -0.082125545
000010 b5 a6 c5 bd 4c d9 62 bd 0f 18 5b bd f4 54 b8 3b
       -0.096509375 -0.05538301 -0.05348974 0.0056253616
000020 db ed 01 be 7d b2 37 3e 1a e8 ff bb 2b 79 8b 3d
       -0.12688391 0.17939182 -0.007809651 0.0681022
000030 6e 8c 85 be 56 c4 9a bd 31 4c 7d be 0b bc ec bd
       -0.26083702 -0.07556979 -0.24736096 -0.11559304
000040 fb 8b 17 3e db c8 30 be 27 3c c0 bc ed 0e 89 3d
       0.14799492 -0.1726412 -0.023466183 0.066923
000050 ab 00 ee bd c7 f5 ef 3d 1c 14 08 3d 92 61 43 3e
       -0.11621221 0.117168 0.033222303 0.19080189
000060 51 aa a8 3d 77 74 b4 3c 34 23 b6 3d 8c 45 8e be
       0.0823561 0.022028191 0.08893433 -0.27787435
000070 f4 e6 76 3d 30 0a f3 3d
       0.060278848 0.118671775

nn_fun1.6.weight f4 [30, 30]
000000 1b b4 ba bd 94 6e 09 bd 43 63 11 3e d5 31 2f bb
       -0.09116384 -0.03355272 0.14198022 -0.0026732583
000010 96 4f ca 3c 04 80 21 be 4d 67 54 3d 95 23 fd bd
       0.024696153 -0.1577149 0.051856328 -0.12360302
000020 44 f4 f3 3b ec e4 07 3e 49 c8 ad 3d 9d 59 58 3a
       0.00744489 0.1327092 0.08485467 0.00082530995
000030 a5 7c 96 3c 67 d7 86 bd 01 27 71 3d 27 39 2f be
       0.018369982 -0.065840535 0.058875088 -0.17111646
000040 48 2f 2b 3e 09 4e 5d bd a0 d4 b9 bd d2 dd 1d bc
       0.16717255 -0.0540295 -0.09073758 -0.009635406
000050 a5 fd bd 3d d3 06 fc 3d b7 5d 2b bc 42 20 f2 bd
       0.092768945 0.12305989 -0.010459355 -0.11822559
000060 5a 14 47 3c 83 17 30 be 54 52 2d 3c 61 6a bb 3c
       0.012150848 -0.17196469 0.010578711 0.022877874
000070 44 65 39 3e e1 91 00 3e 04 05 fa 3d bc 93 54 bd
       0.18105036 0.12555648 0.12207988 -0.051898703
000080 ff 80 1e 3e f5 26 df bc 92 d7 ad 3d ed b4 f1 3c
       0.15478896 -0.027240256 0.084883824 0.029505217
000090 16 3d 69 3c b5 d5 22 3d 33 70 ff 3d 51 93 c9 3c
       0.014235755 0.03975459 0.12472572 0.024606379
0000a0 e7 d3 b1 bc 16 d9 64 bc 30 2f 23 3e 61 af c3 3d
       -0.021707488 -0.013967773 0.1593597 0.09554935
0000b0 c8 39 e5 bd 2c 62 ad b8 33 aa 34 be 6e c4 0b 3d
       -0.111926615 -8.267569e-05 -0.17643051 0.034122877
0000c0 00 da 02 3c f2 8f 65 bd b1 1c 03 3e 2a ea 17 be
       0.007986546 -0.05604548 0.12803914 -0.1483542
0000d0 f6 46 b5 3d 65 4b f4 bd f6 4e 48 3d 53 ad 67 3c
       0.08851425 -0.11928443 0.048903428 0.014140445
0000e0 63 6a 4f bd 5f 2f 33 3e ec 96 56 ba ca b7 88 bc
       -0.050638568 0.1749854 -0.0008185941 -0.0166892
0000f0 da 17 1b 3e bd 75 e0 3c 95 5a 41 3b 65 8c 12 be
       0.15145817 0.027399892 0.0029503454 -0.14311369
000100 43 e4 3a bc d0 c5 0d 3c 82 7b a3 bd db 8f 3b be
       -0.011406961 0.008653119 -0.079825416 -0.18316595
000110 a9 21 1b 3d ca 24 05 3e f9 a7 16 3e 9a e5 49 3e
       0.037873898 0.13002315 0.14712514 0.19716492
000120 87 cd 8a 3d 03 e6 58 be fa 3b ba bd d9 c7 32 be
       0.067774825 -0.21181493 -0.09093471 -0.17459048
000130 13 09 0c 3d 10 de ef 3d d4 af 22 be fa 20 c9 bd
       0.03418834 0.11712277 -0.15887386 -0.09820743
000140 a5 91 ad 3d 2e f8 47 be 4b 15 51 3e fe b1 4d 3d
       0.08475045 -0.19528267 0.20418279 0.050218575
000150 fc b1 7b be 6b f0 ab bd e2 a2 ea bc 22 f0 89 3d
       -0.24579614 -0.083954655 -0.028642122 0.06735255
000160 08 33 63 3e 76 59 8c bc b3 0f 29 3d 36 35 0d be
       0.22187436 -0.017132502 0.041274738 -0.1378983
000170 45 89 32 3e e2 6a 84 bd fc 5d e1 3d d9 b2 5f 3c
       0.17435177 -0.06465699 0.11004254 0.01365348
000180 5c 23 67 bd 38 9e 5a 3e 34 cd 73 3d 9c a8 8f 3d
       -0.056430206 0.21349418 0.05952187 0.070145816
000190 51 a7 e9 3c 6d 90 e7 3d 0b b4 2c bd cc 9c 63 be
       0.028522165 0.11306844 -0.04216389 -0.22227782
0001a0 22 11 37 be 53 19 5a bd 5a 9d 5c 3d 16 77 f1 bb
       -0.1787763 -0.053246807 0.053861 -0.0073689325
0001b0 0e 71 1a 3e fa da af 3d d3 4b f7 bd 31 f1 b8 bd
       0.1508219 0.08586688 -0.12075009 -0.090303786
0001c0 27 e1 3f be b1 5d 38 be da ed 3e 3e cc a0 ef 3d
       -0.18738233 -0.1800449 0.1864542 0.117005914
0001d0 00 68 b4 3c f1 a1 5e be bf 5e 2b 3e ae 5e 9f bb
       0.022022247 -0.21741463 0.16735362 -0.0048635816
0001e0 69 a4 03 be 8d 0a 69 3e 6b 40 01 be d1 96 cc bc
       -0.12855686 0.22757931 -0.1262223 -0.024974259
0001f0 da a5 15 be 43 9e c6 3d ed 30 05 3e be e3 88 3d
       -0.14614049 0.09698155 0.13006945 0.066840634
000200 66 34 7e bd b5 32 f5 3d ff a4 91 bc 1f cc bf 3d
       -0.06206169 0.11972562 -0.017778872 0.09365105
000210 19 4c b9 bd 44 54 ec bd 30 3c 75 bd 78 e1 1c be
       -0.090477176 -0.1153951 -0.059871852 -0.15320385
000220 6d e4 e3 3d 70 67 04 be 2f 60 45 3d 38 76 61 bd
       0.11127553 -0.12930083 0.04818743 -0.055044383
000230 49 f3 24 bd 9f d1 8c bc a7 64 b3 bd ee a5 c5 3d
       -0.040271077 -0.017189799 -0.08759432 0.09650789
000240 ac 79 39 bd f5 34 2c bd 80 06 3b bd 6d 0d 4f be
       -0.04528205 -0.04204269 -0.045660496 -0.20219965
000250 55 ec 25 3e e3 7a 02 bd 79 d8 20 be 2f d5 c4 3d
       0.16203435 -0.031855475 -0.15707578 0.09610974
000260 14 2b a0 bd 7f 68 fd bc e7 eb 02 be 42 88 97 bd
       -0.078207165 -0.030933617 -0.12785302 -0.07399036
000270 e2 d9 1f 3d ef a7 91 3d b1 c0 ba bc 56 33 42 3e
       0.03902615 0.07112109 -0.02279696 0.18964896
000280 bc 4d a2 3d d8 87 cc bb 09 00 f5 bd f3 1d 17 3e
       0.07924983 -0.00624178 -0.11962897 0.14757518
000290 8c fc 3c 3e 5e e7 82 3d 81 f8 e3 bb 62 e9 22 3d
       0.18455714 0.06391786 -0.006957114 0.039773352
0002a0 88 b7 19 3c bc 5f 03 3e 0c 19 e4 bd ae ec 8e bd
       0.009382136 0.12829489 -0.1113759 -0.06978737
0002b0 2a 2a d4 3d d5 c0 c2 bc 36 b3 5d be 6f af ec 3c
       0.10359605 -0.02377359 -0.21650395 0.028892247
0002c0 cc 70 e1 3d de a1 88 bd b2 41 d1 3d ce f0 a2 bd
       0.110078424 -0.06671499 0.102176085 -0.07956086
0002d0 d2 88 02 bd ea cd a5 bc 98 3b 01 3e cd d6 3c 3d
       -0.031868763 -0.020239789 0.1262039 0.046103287
0002e0 8c 82 c5 3c 67 c6 54 be 44 4e 9d bc 0e a8 a6 3c
       0.024110101 -0.2077881 -0.019202359 0.020343807
0002f0 48 f2 8a 3d 8b 6f 40 be b9 ea 6d 3d bb f8 05 bd
       0.06784493 -0.1879255 0.058085177 -0.03270791
000300 37 47 da bd fb be 19 be 5c e8 e8 3d 57 9c 5b 3d
       -0.106581144 -0.1501426 0.11372444 0.053615894
000310 08 3c e5 3d 3c 6d 55 3d 93 d9 95 3d 88 1f 35 38
       0.11193091 0.052106127 0.073168896 4.318313e-05
000320 18 64 0a 3e 7b fa 5b bd ba 9e 53 3e 4a cd 44 be
       0.13514745 -0.053705674 0.20666018 -0.19218937
000330 43 1a bf 3d 73 6d e8 3c 57 bf 3b 3e 64 e3 73 3d
       0.09331181 0.028372502 0.18334709 0.05954303
000340 cb 4e d6 3c a9 7f fa 3d 56 c3 0c be 4f 72 8c bd
       0.026160618 0.122313805 -0.1374639 -0.0685774
000350 23 02 50 3c 77 62 e7 bd 20 22 9a bc 22 bb 82 bd
       0.012695822 -0.112980776 -0.0188151 -0.06383349
000360 7a c4 dc bc d2 42 c5 3d e6 54 00 be 8e 17 89 3c
       -0.026949156 0.096318856 -0.12532386 0.016734865
000370 02 97 03 3e e2 7d 4f 3e e8 38 c6 bd 28 5c c1 3d
       0.12850574 0.20262864 -0.09678823 0.094414055
000380 92 35 cb 3c e4 47 a2 3d 7f 7c 8a 3d e0 46 61 be
       0.024805818 0.07923868 0.06762027 -0.21999693
000390 17 50 85 bb 27 e7 3b 3c 22 d9 bb 3d ae 90 34 3d
       -0.0040683853 0.011468685 0.09172274 0.04408329
0003a0 c3 80 8b 3c a7 d8 01 3d 8e f7 fb bd c2 5f 15 3d
       0.017029172 0.031700756 -0.12303077 0.036468275
0003b0 ec 62 48 3d f3 7e ee bc 56 d1 d0 3c 5f 71 71 3e
       0.048922464 -0.029113268 0.025490444 0.23578404
0003c0 02 b3 32 3e c6 b3 d2 bd e5 19 46 3e cc d6 cb bd
       0.17451099 -0.10288195 0.19345815 -0.09953079
0003d0 52 c0 57 3e 66 6b 18 be 48 4f 46 3d d9 7d d0 bd
       0.21069458 -0.14884719 0.048415452 -0.101802535
0003e0 f2 dd 6a 3e ae 12 c2 bd 50 16 2e 3e 8e a6 e9 bd
       0.22936228 -0.09476219 0.17000699 -0.11408721
0003f0 d9 df 13 be 7b 33 15 be dd 01 06 bc f4 23 8c be
       -0.1444086 -0.1457042 -0.008179155 -0.2737118

nn_fun1.6.bias f4 [30]
000000 e8 e1 09 be b3 76 73 bd 77 1c 5f be 88 9a 59 3e
       -0.13465083 -0.059439372 -0.21788202 0.21250355
000010 5f 18 dd 3d 5b 1c d6 bc e1 d7 ec 3d 5f ca 8d bd
       0.10795664 -0.026136568 0.11564613 -0.06923365
000020 2d 1e 71 3d 85 9a 9d 3c 82 9a c9 3d 3f c8 60 be
       0.05886667 0.01923872 0.09843923 -0.21951388
000030 f8 82 09 3e 96 55 cc bd 5c 70 68 bc 11 ab 11 be
       0.13428867 -0.09977262 -0.014186945 -0.14225413
000040 81 00 3f 3e fc ae 2a 3d 93 c0 31 bc 42 a7 9c 3e
       0.18652536 0.041670784 -0.010849136 0.30596358
000050 59 fc 79 3d 7c a1 81 3e 05 f8 bc bd ad 61 79 3d
       0.061031673 0.25318515 -0.092269935 0.060884167
000060 e4 20 83 3e 65 26 cc bd a3 f3 6d bc df 8f 3d bd
       0.2561103 -0.09968261 -0.01452342 -0.046279784
000070 c4 05 3f be 74 7c 02 be
       -0.18654543 -0.12742788

nn_fun2.0.weight f4 [30, 2]
000000 70 ca 4b bf 96 75 f1 be d3 c1 25 bf 22 74 b2 be
       -0.7960577 -0.47160023 -0.6474888 -0.34854227
000010 c3 1b 60 3f a4 09 dd 3e c7 c0 34 3e 11 b7 9b 3e
       0.8754236 0.43171418 0.17651664 0.30413106
000020 81 21 b7 3e 89 d8 51 3f a6 f1 a0 be 23 28 b8 be
       0.3576775 0.8197103 -0.31434363 -0.35968122
000030 ac 17 c0 be 47 bc e1 be b4 4a e2 be 16 42 f4 bd
       -0.3751806 -0.44088957 -0.4419762 -0.119266674
000040 ae f4 73 bf 00 04 d4 3e 66 15 22 bf b3 d2 f4 be
       -0.95295227 0.41409302 -0.633139 -0.47817
000050 91 6a 25 bf bd b7 e4 be 48 4c 26 bf 45 87 ca 3e
       -0.6461573 -0.4467143 -0.64960146 0.39556327
000060 78 40 fa 3d 28 02 9d 3e 49 2e 05 bf 48 33 95 3e
       0.12219328 0.30665708 -0.5202375 0.29140687
000070 22 2f 42 3e 85 43 32 3e bf d3 0c 3c 88 a5 be 3e
       0.18963292 0.17408569 0.008595406 0.37235665
000080 d1 d1 4c 3f 00 d3 90 be 4d 4a 2d bf d0 08 c3 be
       0.80007654 -0.2828598 -0.676915 -0.3809266
000090 5c ab e0 3e 0a af 49 bd 0c 3b 8c be 8a 18 ea be
       0.43880737 -0.049239196 -0.273888 -0.45721847
0000a0 e1 52 e7 3d 25 d9 2d bf c2 c5 34 3e 98 f8 ec 3e
       0.11295105 -0.6790946 0.17653564 0.46283412
0000b0 cd 04 f6 3e ce 74 a3 3e 6e 50 0d 3d b0 89 27 bf
       0.48050538 0.31925052 0.03450053 -0.6544447
0000c0 74 00 50 3f ef c8 1d 3e ce 94 36 3d c8 93 3f 3e
       0.8125069 0.15408681 0.044575505 0.18708718
0000d0 51 52 e7 bd b6 77 85 3e 9c 27 b5 be 9a d5 38 3f
       -0.112949975 0.26067895 -0.35381782 0.7220093
0000e0 9c b9 0f 3d 3a 60 f5 be 2f 9b 69 3f 4f 27 17 bf
       0.03508912 -0.47924978 0.91252416 -0.59044355

nn_fun2.0.bias f4 [30]
000000 fc e9 90 be 77 cc bc be 3e 9d fe 3e e1 91 4e 3e
       -0.28303516 -0.36874744 0.4972934 0.20172836
000010 13 ac ee 3e 45 b7 78 3e a5 27 b7 3e f2 7d 26 3f
       0.46615657 0.24288662 0.35772434 0.6503593
000020 8f a5 ac 3e 3d 20 22 3f a4 3b 90 bb 34 2b ae 3d
       0.3372006 0.6333044 -0.004401641 0.08504334
000030 06 a0 a2 be 7a ea df be 4d 77 5b be d9 cd c4 bd
       -0.31762713 -0.4373358 -0.21432228 -0.09609575
000040 ad 5a f5 3e b8 e5 31 be 70 b6 c9 3e f6 25 d0 3e
       0.47920743 -0.17372787 0.39397 0.40653962
000050 68 65 02 bf 16 74 1c bf a6 cf e7 be 17 21 39 3f
       -0.50935984 -0.61114633 -0.4527561 0.72316116
000060 4b b1 36 3f 2c cd e8 be 45 58 b8 be bb a0 14 3f
       0.7136428 -0.45469034 -0.36004844 0.58057755
000070 40 b7 c8 3e 76 23 f8 be
       0.3920231 -0.48464555
