models/neural_network_ChebConv_single_dynamics_MAK_graph_size_10/neural_network.pth (torch, 5223 bytes, 12 tensors)

conv1.bias f4 [30]
0.35953248 -0.21050812 0.11842525 -0.41699284 -0.25264928 -0.2303324 0.17797802 1.2207227
-0.003971161 0.13163766 -0.055887956 -0.18851882 -0.3254575 0.16148973 -0.9095429 1.0412259
-0.64339334 0.2750717 -0.4869139 -0.6499069 1.2997327 0.3213899 0.015467424 0.36245927
-0.13442615 0.2116029 0.052129928 1.1496719 0.065353364 0.7460755
00000000: a414 b83e 718f 57be f088 f23d 1680 d5be
00000010: 3f5b 81be 42dc 6bbe df3f 363e a440 9c3f
00000020: 8320 82bb 06cc 063e c5ea 64bd 140b 41be
00000030: 5ea2 a6be 905d 253e ced7 68bf e446 853f
00000040: 6db5 24bf 33d6 8c3e c74c f9be 4c60 26bf
00000050: a45d a63f 388d a43e 146b 7d3c 4394 b93e
00000060: 02a7 09be 6eae 583e 3186 553d 7328 933f
00000070: fcd7 853d cefe 3e3f

conv1.lins.0.weight f4 [30, 1]
-0.050013278 -0.54004973 -0.27814636 0.55159026 0.32048032 -0.8054441 -0.14335777 -0.72456676
-0.41755402 0.2960207 0.020372482 0.3234375 0.30772245 -0.16968006 0.30655023 -0.59722614
0.110219575 0.32081935 0.5485446 0.19526702 -0.27010927 -0.06149381 -0.4529732 1.0676845
0.31489608 -0.04468976 0.32630774 -0.7548808 1.3512884 -0.5182235
00000000: b9da 4cbd b340 0abf 3369 8ebe 0535 0d3f
00000010: ff15 a43e 9631 4ebf 61cc 12be 357d 39bf
00000020: a4c9 d5be 0690 973e 31e4 a63c 9a99 a53e
00000030: cc8d 9d3e 9cc0 2dbe 27f4 9c3e d0e3 18bf
00000040: cdba e13d 6f42 a43e 6b6d 0c3f 14f4 473e
00000050: c34b 8abe efe0 7bbd 1aec e7be e3a9 883f
00000060: 0f3a a13e 9c0c 37bd cf11 a73e de3f 41bf
00000070: 05f7 ac3f 4caa 04bf

conv1.lins.1.weight f4 [30, 1]
-0.35049596 -0.32145947 0.18513867 -0.0687469 0.17068551 0.10672391 0.16023836 0.42416236
0.24108763 0.20984241 0.039543517 -0.16580777 -0.1580555 0.013902425 -0.6132925 0.41144633
0.34693715 0.2049463 -0.3005581 -0.19397336 0.5031321 0.42958236 -0.06322288 -0.052192837
-0.21909931 -0.19964594 0.2887485 0.03395675 0.28433406 -0.4145877
00000000: 3574 b3be 5696 a4be fe94 3d3e 2dcb 8cbd
00000010: 2fc8 2e3e 1192 da3d 8615 243e cf2b d93e
00000020: addf 763e eee0 563e 62f8 213d 83c9 29be
00000030: 4dd9 21be ffc6 633c bd00 1dbf 18a9 d23e
00000040: bfa1 b13e 71dd 513e c0e2 99be f4a0 46be
00000050: 44cd 003f 38f2 db3e ff7a 81bd 28c8 55bd
00000060: 925b 60be fc6f 4cbe d8d6 933e 3c16 0b3d
00000070: 3c94 913e d744 d4be

conv1.lins.2.weight f4 [30, 1]
-0.022062264 0.47109893 0.6152666 -0.55446523 -0.3904261 0.62589824 0.48764828 0.013167853
-0.26921356 0.20763838 -0.31066945 0.32502374 -0.44892302 0.058648862 -0.44296825 0.020307153
0.29540586 0.034074537 -0.15665899 -0.012235296 0.07858194 0.23635519 0.4912526 -0.739551
-0.224002 -0.4417894 -0.04377983 0.5051295 -1.1163841 -0.097610086
00000000: ecbb b4bc e133 f13e 1d82 1d3f 6ff1 0dbf
00000010: eee5 c7be de3a 203f 09ad f93e fabd 573c
00000020: 5cd6 89be 289f 543e 1110 9fbe 8369 a63e
00000030: 3dd9 e5be ca39 703d bccc e2be 305b a63c
00000040: 703f 973e be91 0b3d 376b 20be 8d76 48bc
00000050: 91ef a03d 1807 723e 7685 fb3e 3753 3dbf
00000060: c860 65be 3832 e2be 7b52 33bd 2b50 013f
00000070: ade5 8ebf cce7 c7bd

conv1.lins.3.weight f4 [30, 1]
-0.19515316 0.046124946 0.16318405 -0.31531778 0.21540397 0.61257124 -0.014863266 -0.2127794
0.06100827 0.07197296 0.19866739 -0.2758979 -0.41161326 -0.47328994 0.34877723 -0.17509015
-0.16785479 0.23638488 -0.033299703 -0.028984498 -0.1773561 -0.2682653 0.44788402 -0.66099143
0.42411357 -0.08193709 -0.391357 -0.1768808 -0.3245765 -0.3349311
00000000: 3bd6 47be 83ed 3c3d b819 273e 5571 a1be
00000010: dc92 5c3e 78d1 1c3f 0e85 73bc d8e2 59be
00000020: cfe3 793d 8f66 933d 776f 4b3e 7d42 8dbe
00000030: f9be d2be 0f53 f2be ee92 b23e d54a 33be
00000040: 20e2 2bbe e10e 723e 4565 08bd e670 edbc
00000050: d69c 35be 125a 89be 0e51 e53e bc36 29bf
00000060: 6a25 d93e a2ce a7bd f25f c8be 3e20 35be
00000070: e42e a6be 177c abbe

conv1.lins.4.weight f4 [30, 1]
-0.11713591 -0.09003194 -0.39998618 0.23340301 -0.15312071 -0.3014895 -0.13366118 0.04651176
-0.18875818 0.26554745 -0.1991599 -0.25469205 0.3549301 -0.26111943 0.12603842 -0.3016755
0.47272936 0.3601943 0.25911865 -0.1451072 -0.54247785 0.04030793 0.18942536 -0.24749146
-0.23304403 -0.2545142 -0.39865658 -0.61413586 -0.2897997 -0.25487438
00000000: f4e4 efbd aa62 b8bd fdca ccbe 3301 6f3e
00000010: adcb 1cbe d55c 9abe 7ade 08be 1e83 3e3d
00000020: d349 41be d6f5 873e 93f0 4bbe ff66 82be
00000030: 66b9 b53e 72b1 85be 3710 013e 3675 9abe
00000040: 9509 f23e 636b b83e 33ab 843e fb96 14be
00000050: d4df 0abf ee19 253d b9f8 413e 676e 7dbe
00000060: 18a3 6ebe af4f 82be b71c ccbe 0238 1dbf
00000070: a060 94be e57e 82be

conv1.lins.5.weight f4 [30, 1]
0.29867476 -0.18752277 0.19623926 -0.14906242 0.109545775 -0.61919194 -0.11022778 0.16212304
-0.012967208 -0.009116601 0.04986586 0.28615376 -0.32734066 -0.36195788 -0.70698905 -0.0858949
-0.3775509 0.037670046 0.30081564 0.06354229 0.19317394 -0.11748211 -0.081753075 0.07098379
0.29259434 0.108027704 0.059805587 0.50848186 -0.09014571 0.41812667
00000000: e6eb 983e f805 40be f2f2 483e d2a3 18be
00000010: 8959 e03d 5d83 1ebf 1abf e1bd 9503 263e
00000020: 6a74 54bc cc5d 15bc 2540 4c3d bf82 923e
00000030: 3299 a7be 8b52 b9be 3cfd 34bf aae9 afbd
00000040: 5a4e c1be e84b 1a3d 8204 9a3e 7622 823d
00000050: 64cf 453e 769a f0bd 286e a7bd f35f 913d
00000060: edce 953e a13d dd3d b4f6 743d de2b 023f
00000070: 509e b8bd b314 d63e

conv1.lins.6.weight f4 [30, 1]
-0.24607936 0.2765791 -0.29185954 0.24590372 0.32943374 -0.13028455 -0.30939 -0.18155648
0.35658103 -0.32787803 0.08963272 0.08204674 0.09174138 -0.232817 0.18338068 0.39448667
0.39076498 -0.37728167 -0.18877625 0.32018733 -0.59815544 -0.14047271 -0.37744752 0.26026955
0.10941713 -0.017526114 0.40914753 -0.09641477 -0.03333255 -0.19187889
00000000: 3afc 7bbe c79b 8d3e 9d6e 95be 2fce 7b3e
00000010: 8aab a83e 5069 05be 5e68 9ebe f1e9 39be
00000020: ca91 b63e a1df a7be 5c91 b73d 1f08 a83d
00000030: e8e2 bb3d 9467 6ebe 25c8 3b3e 28fa c93e
00000040: 5912 c83e 102b c1be 904e 41be 98ef a33e
00000050: b720 19bf 14d8 0fbe cd40 c1be 0d42 853e
00000060: 1716 e03d ed92 8fbc c97b d13e 1b75 c5bd
00000070: b687 08bd e67b 44be

conv1.lins.7.weight f4 [30, 1]
0.15827322 0.24911116 -0.07146484 0.17027883 0.11221002 -0.48244646 0.20371746 0.3334645
-0.17801926 0.27443683 -0.1423827 0.14336005 0.34143245 -0.52096194 0.24275494 0.24666022
0.45781514 0.25592908 -0.019677427 -0.26798627 0.24066186 0.19055353 0.21000603 0.10907687
0.24312001 -0.36053836 -0.18582068 0.36838105 0.3433598 0.26437715
00000000: 6012 223e ff16 7f3e 285c 92bd 935d 2e3e
00000010: 5ece e53d 3903 f7be 4f9b 503e dcbb aa3e
00000020: ae4a 36be fc82 8c3e c5cc 11be facc 123e
00000030: 3cd0 ae3e c35d 05bf c094 783e 7f94 7c3e
00000040: bf66 ea3e 2309 833e 8e32 a1bc 7f35 89be
00000050: 1070 763e 7720 433e d20b 573e b263 df3d
00000060: 74f4 783e 7c98 b8be c747 3ebe 719c bc3e
00000070: dbcc af3e 715c 873e

conv1.lins.8.weight f4 [30, 1]
0.007728696 0.31547216 0.3805086 0.06583391 0.3353546 -0.46372142 0.10254591 0.039428253
0.023652235 0.27258033 -0.025927857 -0.028357737 0.1755211 -0.30282474 0.276457 -0.2825274
-0.055509016 -0.26324725 -0.015030471 0.07737286 0.2998446 -0.24187373 -0.058248773 -0.05155689
0.268574 -0.30943817 0.17359294 0.02035749 0.0988286 0.16041201
00000000: 0041 fd3b 9185 a13e 06d2 c23e eed3 863d
00000010: 99b3 ab3e e56c edbe 9703 d23d 857f 213d
00000020: 55c2 c13c a68f 8b3e a866 d4bc 7c4e e8bc
00000030: cebb 333e d80b 9bbe c68b 8d3e 6ea7 90be
00000040: 6c5d 63bd 58c8 86be 5d42 76bc a975 9e3d
00000050: 3b85 993e bfad 77be 4496 6ebd 512d 53bd
00000060: 8882 893e ae6e 9ebe 59c2 313e c0c4 a63c
00000070: a666 ca3d 0c43 243e

conv1.lins.9.weight f4 [30, 1]
0.35386902 0.08621519 -0.00976193 0.15935865 0.35850492 0.03325873 0.36302972 -0.24489766
-0.24713677 -0.3554616 -0.15831062 -0.27577624 0.40525353 -0.021503514 0.31030294 -0.12757573
0.056358308 -0.0054247044 -0.30029193 0.029854272 -0.4641142 0.21084249 -0.099480696 0.23390163
-0.042345934 0.059947938 -0.016796133 -0.53785956 0.68769825 0.014286149
00000000: 522e b53e 9791 b03d 81f0 1fbc ea2e 233e
00000010: f58d b73e 4e3a 083d 08df b93e 74c6 7abe
00000020: 6c11 7dbe 10ff b5be 2e1c 22be 8b32 8dbe
00000030: 647d cf3e 2328 b0bc 07e0 9e3e 36a3 02be
00000040: f8d7 663d b8c1 b1bb ddbf 99be f290 f43c
00000050: 60a0 edbe 18e7 573e 89bc cbbd e983 6f3e
00000060: ee72 2dbd f88b 753d 0b98 89bc 2ab1 09bf
00000070: fe0c 303f 7410 6a3c

lin.weight f4 [1, 30]
0.28439593 -0.43384784 0.20550679 -0.39211255 0.36148456 0.4057027 0.41449583 0.34566757
0.14739731 -0.06395387 0.08826455 -0.20080958 -0.46044457 -0.18537423 -0.767399 0.28480408
-0.34498003 0.32939336 -0.31620273 -0.20338276 0.79063606 0.43062088 0.45194426 -0.6049922
0.44397762 0.42958596 -0.27889162 0.4376354 0.62667865 0.35375535
00000000: 589c 913e 4e21 debe 5f70 523e fac2 c8be
00000010: 8114 b93e 44b8 cf3e cc38 d43e 57fb b03e
00000020: 52ef 163e 3ffa 82bd 0bc4 b43d 07a1 4dbe
00000030: 64bf ebbe bed2 3dbe 4374 44bf d7d1 913e
00000040: 39a1 b0be 3fa6 a83e 53e5 a1be 9243 50be
00000050: 2067 4a3f 577a dc3e 3d65 e73e c5e0 1abf
00000060: 0951 e33e b1f2 db3e e2ca 8ebe bf11 e03e
00000070: 036e 203f 6c1f b53e
