models/neural_network_GraphConv_dynamics_SIS_graph_size_10/neural_network.pth (torch, 18655 bytes, 10 tensors)

conv1.lin_rel.weight f4 [30, 1]
000000 07 9c 57 be a8 22 40 be 2a d7 35 bf f9 55 ff 3c
       -0.21055613 -0.1876322 -0.7103144 0.031168925
000010 64 db fe 3e 99 1c 0f be 8b 0d 58 3e ec 67 75 3e
       0.49776757 -0.13975753 0.21098916 0.23965424
000020 ba 6f 0c bd 19 59 4e bf d2 73 65 bf a4 2f 46 bf
       -0.03428624 -0.806047 -0.8962985 -0.77416444
000030 39 ac 78 3f d9 e5 7d 3e 33 7a 5b 3f 03 da 08 3e
       0.9713779 0.24794711 0.85733336 0.13364415
000040 f9 b7 1c be 48 18 55 bf 6d 33 3a bf 05 a1 82 be
       -0.15304555 -0.83240175 -0.7273472 -0.25513473
000050 d5 4a ab 3d 11 89 5c bf 6e 83 49 3f b7 c5 c2 bc
       0.083638825 -0.86146647 0.7871617 -0.023775918
000060 86 18 28 3f 06 3f b7 be 70 23 d5 3c ba ee 46 bf
       0.6566242 -0.3579027 0.026017874 -0.7770802
000070 2d a7 35 bf 2f 72 13 3f
       -0.70958215 0.57596105

conv1.lin_rel.bias f4 [30]
000000 32 17 69 3f 84 f6 c0 3e 60 75 25 3e 2d 16 37 bf
       0.9105102 0.37688076 0.16158056 -0.7151821
000010 1c 2e d5 3e 69 90 95 3e 40 79 c9 be f0 3d ae 3e
       0.4163674 0.2921174 -0.3935032 0.3403163
000020 71 b0 5d 3f a0 63 79 bf cf 3e 4a 3f 00 54 f6 be
       0.86597353 -0.9741764 0.7900209 -0.48110962
000030 f4 85 ac 3e dd bb 91 3c 99 e8 03 3f 1a 71 86 bb
       0.33695948 0.017789776 0.5152679 -0.004102838
000040 be 21 4d 3f 42 4d 3b 3f e0 9b 9b bf 48 da 53 3f
       0.8012961 0.7316476 -1.2156944 0.82754946
000050 ad b7 65 3e 23 3a e1 be 23 a3 bb 3e 52 28 4f 3f
       0.22433348 -0.43989667 0.366479 0.809209
000060 23 70 95 be a4 bd de 3e 66 36 25 3f e8 9a c4 bd
       -0.29187116 0.4350406 0.6453613 -0.095998585
000070 b1 4b 41 bd 81 64 5b be
       -0.047191326 -0.21425058

conv1.lin_root.weight f4 [30, 1]
000000 6e 88 ce be 4a f7 46 3f 0a 41 32 3f 50 8e c7 3e
       -0.40338463 0.77721083 0.6963049 0.38975763
000010 e7 96 fa 3d a0 dd 30 3f 64 a2 ee 3e 95 d4 87 bf
       0.122358136 0.6908817 0.4660827 -1.061175
000020 7a 74 80 bf 96 84 dc 3e 81 35 49 3e e0 0c b1 3e
       -1.0035546 0.43069905 0.19649316 0.34580135
000030 8b 27 34 bf 47 6f 75 bf ad a2 18 bf b9 0f 89 bf
       -0.7037284 -0.9587292 -0.59623224 -1.0707923
000040 45 3a 71 3f 22 36 8f 3e c6 78 18 bf 41 3c 28 be
       0.9422954 0.27970988 -0.59559286 -0.16429235
000050 f0 93 70 bf 7c 01 17 bf a4 69 42 3e 7b e4 82 bf
       -0.93975735 -0.5898664 0.18985611 -1.0225977
000060 a7 12 14 3f 1f 65 9f 3e 5c de 0a 3f b1 d5 f0 3e
       0.5784096 0.31131837 0.54245543 0.47038034
000070 fd 28 1a 3f da 12 8e 3e
       0.60218793 0.27748758

conv2.lin_rel.weight f4 [30, 30]
000000 bf 27 f0 bd 00 6d 1d 3d b9 f1 62 3e 16 6b 25 3c
       -0.11726331 0.03843403 0.22162522 0.010096332
000010 11 8d d2 bb 43 4a b5 bb da 1d db bc 85 07 5b be
       -0.006425508 -0.0055325343 -0.026747633 -0.21389587
000020 5a 3f ad bc 1d ea 86 bd fe 75 e2 3d fe 32 4d 3e
       -0.021148372 -0.06587622 0.110576615 0.20038983
000030 14 4c 50 be 07 24 24 bd 0a e3 0e be 69 de bc bc
       -0.20341522 -0.04007342 -0.13953796 -0.023055272
000040 eb 2e a0 bc d4 08 98 3d 51 fe 5c 3d 95 4c 2c 3c
       -0.019553622 0.07423559 0.053953473 0.010516305
000050 3e 56 bf 3d 70 9c e4 3d e7 09 0d be 22 7a de 3d
       0.09342621 0.111626506 -0.13773309 0.10863139
000060 0e 5b 93 3d da fa 86 3e 4a 21 f4 bb ec 0b ed bd
       0.07195102 0.2636326 -0.0074502574 -0.115745395
000070 2e f4 5d 3e e9 26 5b be fc 1a 06 be 4a a1 c5 3d
       0.21675178 -0.21401562 -0.13096231 0.09649904
000080 33 10 ac bd c6 56 dd bd 71 e1 97 3d 91 66 ab 3d
       -0.08401527 -0.10807566 0.074160464 0.08369172
000090 1f 02 d8 3b c1 1b c3 bd fe c1 40 be 36 ce 58 bd
       0.0065920497 -0.09526778 -0.18824002 -0.052931033
0000a0 62 59 ae bd 1c 71 0a 3e 43 8b 58 be 16 db 6a 3e
       -0.08513142 0.1351971 -0.21146874 0.22935137
0000b0 85 d5 0d 3e e4 80 4b be 3d 57 03 3d e9 1b a5 bd
       0.13850982 -0.19873387 0.03206562 -0.08061964
0000c0 f6 18 ac bd 20 94 b4 bd 93 68 5a be e9 92 1c 3e
       -0.084031984 -0.08817315 -0.21328954 0.15290417
0000d0 21 1f eb 3d 11 0e e8 bd 97 22 15 3e 65 de 1d bd
       0.11480547 -0.11330808 0.14563976 -0.03854217
0000e0 3a 8c 29 bd 39 84 5c 3e 4e 1c d7 3d 45 20 dd bd
       -0.041393496 0.21534814 0.105034456 -0.107971705
0000f0 7b 81 59 3d d4 84 2f 3e 7a f9 fe bb 4d 45 57 3e
       0.053101998 0.17140514 -0.007781205 0.2102253
000100 90 fd 39 be 25 ee b8 bd 95 e6 e1 bd de 04 4a be
       -0.18163133 -0.090297975 -0.11030308 -0.19728419
000110 56 db 16 3d 3a a1 13 3e 8f 67 d2 bc 11 d7 95 bd
       0.03683027 0.14416972 -0.025684146 -0.07316411
000120 ee 4a 62 bd 68 5a 5a be 78 de 1c 3d 96 63 78 3d
       -0.05524724 -0.2132355 0.0382981 0.060641848
000130 dc 52 34 be c3 a6 37 3e 28 3b e2 3d 4a ca e3 3d
       -0.17609733 0.17934708 0.110464394 0.11122568
000140 b9 8d d9 bd 72 63 c0 3c 44 d2 b8 3b 3d 3c b3 bd
       -0.106227346 0.02348492 0.0056403 -0.08751724
000150 7d 14 80 bd 78 36 54 3e f7 6a dd bd 12 f3 4b 3e
       -0.06253908 0.20723903 -0.108114175 0.19916943
000160 8d 4a 6e 3e a6 ba 81 bc d4 e5 86 bd d6 9d b3 3a
       0.23270626 -0.015836071 -0.06586805 0.0013703655
000170 65 5e d4 3d 95 97 a2 bd 05 ab 4d 3e 04 fe 60 3e
       0.10369567 -0.07939068 0.2008477 0.219719
000180 25 84 94 3b 38 2a 5f 3d 6c 1d 03 be c7 9c 55 be
       0.0045323544 0.054483622 -0.12804192 -0.20860587
000190 b0 20 d2 bd cd ec 96 3d 7a 47 73 3c b6 64 18 bb
       -0.10260141 0.07369385 0.014848584 -0.0023253388
0001a0 3b e5 e3 bd 01 bb 17 3b ff 4e 28 3d 06 33 d6 bd
       -0.111277066 0.0023152234 0.04109096 -0.10458951
0001b0 2b d7 98 bd dd c2 35 bc aa 5e 5f 3d 79 98 59 be
       -0.07462915 -0.011093822 0.054533638 -0.2124957
0001c0 06 68 a2 3d b9 95 45 bd 4e 5b c0 bd 04 e4 0b 3d
       0.07929997 -0.04823849 -0.09392415 0.034153
0001d0 f6 f1 5e 3e 8c 37 1d be 25 a2 bb 3c 92 b6 25 3e
       0.21771988 -0.1535322 0.022904465 0.16182926
0001e0 79 bc d2 3d bb f1 1e 3e fc 70 90 bd b2 8d 07 3e
       0.102898546 0.155219 -0.070528 0.13237646
0001f0 37 16 cc 3b 3c e8 56 be f8 6c 70 3d 95 39 c9 bd
       0.006228234 -0.20987028 0.05869767 -0.09825436
000200 0e 59 1f 3e d3 f4 6f bd 43 8e cc bb 69 d8 ec 3d
       0.15561315 -0.058583092 -0.006242545 0.115647145
000210 54 66 65 be 48 b9 f5 3c d7 78 6e 3d 43 8c 82 3c
       -0.22402316 0.029995576 0.05822071 0.015936023
000220 3f c4 37 be ca fe 98 3a cf 1d 48 3e f7 5c c0 3d
       -0.17945956 0.0011672613 0.19542621 0.09392732
000230 71 b8 d9 bd d5 32 03 3e 4e 1a 4e bd 36 e3 06 be
       -0.106308825 0.1281236 -0.050318055 -0.13172612
000240 6f e8 24 be 64 2e 22 3e ff aa d1 3d 67 25 a4 3d
       -0.16104291 0.15838009 0.10237693 0.080149464
000250 9d d9 17 3e 33 d7 b4 3c 41 d6 7f 3c 90 80 b3 3e
       0.14829107 0.022075271 0.015615047 0.35059023
000260 f6 7a 70 be 09 3d 25 3b 12 c5 cb bd c6 c3 18 bd
       -0.23484406 0.0025213382 -0.099496976 -0.03729608
000270 2f 1f 07 3d 30 b0 c7 3d cb ad 32 bd 94 f1 f7 bd
       0.032988723 0.09750402 -0.043622773 -0.12106624
000280 cc ac 44 be ae 05 c3 bd 7f bb 61 3e c9 1c 27 be
       -0.19206542 -0.09522568 0.2204418 -0.16319574
000290 7a e2 a2 bd 07 6d a9 be 0d d1 8e 3d 4b c6 8f bd
       -0.07953353 -0.33090994 0.06973467 -0.07020243
0002a0 7b 4b 75 be ac 36 13 bc e8 34 1d bf 94 d4 84 3d
       -0.23954575 -0.008985203 -0.61408854 0.064858586
0002b0 a5 c5 35 bc 6f fc 4b be e8 55 fe bc cf 82 14 3e
       -0.011094485 -0.19920515 -0.031046823 0.14503025
0002c0 ea 1f 56 3e 04 d5 e8 3d 94 7a ee 3d fa 9d 89 3d
       0.20910612 0.113687545 0.11644474 0.06719585
0002d0 2d b9 c9 3c dc 32 b2 bc d8 17 00 be 7c 14 de 3d
       0.024624432 -0.021752767 -0.12509096 0.10843751
0002e0 3b 4a e0 3d 1b e9 9f bb e5 49 fe bd 44 d5 84 3d
       0.10951658 -0.0048800833 -0.12416438 0.0648599
0002f0 cd 24 e5 3b 88 4e 19 3b 86 d7 a8 3d 87 a3 99 bd
       0.0069929124 0.0023392756 0.08244233 -0.075018935
000300 73 92 01 3d d3 da d4 3c a2 a3 3f 3e 30 62 2a bd
       0.031633805 0.02598325 0.18714765 -0.041597545
000310 07 a4 2d 3e 4b 89 03 bd 8d 27 81 bd 39 5e 42 be
       0.16957103 -0.032113355 -0.06306372 -0.18981256
000320 9f dd ca bc 71 01 aa bd 18 69 c8 3d 2d 5c b0 bd
       -0.02476388 -0.08301056 0.0978567 -0.08611331
000330 b3 0c cd 3d a5 d5 39 be e3 80 df bd fe cb 2d be
       0.10012188 -0.18147905 -0.10913255 -0.16972348
000340 33 01 ea 3d bf 7a 18 3e 2f fb 78 bd 8a 62 08 3e
       0.1142601 0.14890574 -0.060786422 0.1331884
000350 05 3a 33 3e 6c 6c f8 bd c1 a8 0b be 89 f0 2b be
       0.17502601 -0.12130055 -0.13638593 -0.16790976
000360 a4 ab 14 be 95 16 d5 bd 7e 6e 36 3c ca 36 c9 bc
       -0.145186 -0.10404698 0.011134742 -0.024562258
000370 72 a9 d1 3c be 2e c7 3d 98 03 19 be 1a fb ce 3d
       0.025593493 0.09725712 -0.14942777 0.101064876
000380 f5 13 01 be 7f 0f 3b 3e b1 70 d3 3d cd 84 d9 bd
       -0.12605269 0.1826763 0.103242286 -0.10621033
000390 e5 3b ba 3d 80 00 c8 bd 50 7b 29 be 8b f1 d8 3d
       0.09093455 -0.0976572 -0.16550946 0.10592946
0003a0 93 2c 23 bd 89 94 f3 3d fa 38 fd bd 3c 98 8f bd
       -0.03983743 0.11893565 -0.12364383 -0.07011458
0003b0 26 66 0a be ef 16 09 3e 29 d7 9c 3d d2 c6 a7 bd
       -0.13515529 0.13387655 0.07658226 -0.08192219
0003c0 ed 87 87 3d 06 1f 97 3d 77 5b 2b 3d 23 dc 2f be
       0.06617723 0.07378964 0.041835275 -0.17173819
0003d0 67 ac 90 bd c8 0f 22 3d 81 1a b6 bd 30 82 f2 3d
       -0.07064133 0.03956583 -0.08891774 0.118412375
0003e0 bd b6 77 3d a4 f0 1d be 31 fc 16 3e dd 22 ae 3d
       0.060477007 -0.15423828 0.14744641 0.085027434
0003f0 66 bb e2 3d 61 41 85 bc c5 2f 4a 3e 1a df a7 bd
       0.110709 -0.016266527 0.19744785 -0.0819685

conv2.lin_rel.bias f4 [30]
000000 54 46 c4 bd d0 88 c2 bd 3f fe f4 bd 70 a2 46 3e
       -0.095837265 -0.09498751 -0.11962556 0.19397902
000010 d4 2c 4d 3d 2c ba 32 be 1e 73 96 bd 27 95 bb bd
       0.05009158 -0.17453831 -0.073461756 -0.09159308
000020 5a 97 8c bd 40 09 cc bd bf df 10 be 42 7c 62 be
       -0.068648055 -0.09962702 -0.14147852 -0.22117713
000030 c0 33 44 be b5 60 ee 3d d8 bd 04 be 08 09 3f 3e
       -0.19160366 0.11639539 -0.12963045 0.18655789
000040 f5 5e 6e be 69 04 c6 bd 0f 6d bf 3d fb b6 00 3e
       -0.2327841 -0.0966881 0.09346973 0.12569802
000050 03 25 fd 3d 0a 2f 97 3d fe a5 37 be 7a 97 ee 3d
       0.12360575 0.07382019 -0.17934415 0.116499856
000060 85 38 9e 3c 4b 04 1f be 05 20 55 3e 91 fd aa 3d
       0.01931406 -0.15528981 0.20812996 0.08349145
000070 63 42 0b 3e a4 a6 50 3d
       0.13599543 0.05094017

conv2.lin_root.weight f4 [30, 30]
000000 0e b0 82 bc 67 2f 22 be 79 39 f0 bc 9c 7b 7e bd
       -0.01595309 -0.15838395 -0.02932428 -0.0621296
000010 73 d0 d0 3d 50 c3 af bd 87 dd 8e bd 8c 57 a5 bd
       0.101960085 -0.08582175 -0.06975847 -0.08073339
000020 0f 39 0f be 49 cb fb 3d 7d 90 7e bb 0b 76 0f 3d
       -0.1398661 0.12294633 -0.0038843446 0.035024684
000030 51 e3 2b 3d 14 bf e3 bd 6d 8a 73 be 22 01 c1 3c
       0.041964833 -0.1112043 -0.23783274 0.02356011
000040 fc 58 3a 3d bb ad 33 bd e0 07 3b 3d 01 ea 92 3d
       0.04549502 -0.043866854 0.045661807 0.07173539
000050 2d 45 ab bd 67 03 4c 3e bb 17 21 be e5 2b fd bd
       -0.083628036 0.19923173 -0.15731709 -0.12361888
000060 9a de 59 3d 07 c1 34 3e b2 80 63 be c7 1c 62 3e
       0.053190805 0.17651759 -0.22217062 0.2208129
000070 05 93 55 3d 1e 49 d1 bc 1c 84 79 bf 64 18 d2 3d
       0.052142162 -0.02554756 -0.9746721 0.102585584
000080 fd ef bb bd 9c 01 13 3f ca ac be bd 64 6f 8f 3d
       -0.091766335 0.5742433 -0.09310301 0.07003668
000090 d7 1e ed 3d 45 22 b8 be e3 64 e8 bf ad b2 ef 3d
       0.11578148 -0.35963646 -1.8155788 0.117040016
0000a0 a3 38 45 3d ee ef d3 3d 95 2b 40 be 5e 0c 5b bf
       0.048149716 0.10348497 -0.18766625 -0.85565746
0000b0 3a 73 06 be 37 a4 92 be c2 20 10 be 60 0d 01 3d
       -0.13129893 -0.2864091 -0.14074996 0.031506896
0000c0 98 ad e3 3d 64 43 59 be 66 dd b3 be 73 6a 35 3e
       0.11117095 -0.21217114 -0.3512985 0.17716388
0000d0 4f f6 88 be e0 fe b0 bf d3 63 54 be 29 6d 38 3d
       -0.2675042 -1.3827782 -0.20741205 0.04502598
0000e0 59 41 1e bd 4b cd f8 3d 5f e1 4e 3b e6 98 86 bd
       -0.03863654 0.121485315 0.0031567437 -0.06572132
0000f0 a5 c1 25 be 70 4f 64 be 85 93 2c 3d df 3d 21 3e
       -0.16187151 -0.22295928 0.042132873 0.15746258
000100 8c f9 11 be e0 80 ef 3d e6 95 fc 3d b5 ca b3 3d
       -0.14255351 0.11694503 0.12333278 0.08778898
000110 2a a9 1e 3d 83 c4 08 bb 04 87 79 3d 1a 42 90 bd
       0.038735546 -0.0020869083 0.060919777 -0.07043858
000120 e0 01 39 3c 72 3d d4 bd f9 0c 20 3d 6d fa 14 3e
       0.011291951 -0.10363282 0.03907487 0.14548655
000130 2d 63 c7 3c 1d c6 64 3d d1 19 02 3c 79 ab c5 bb
       0.024339283 0.055852998 0.007940725 -0.006032404
000140 e2 3e 14 3e a1 4f c9 bd ae 27 52 be ec 26 97 bc
       0.14477113 -0.09829641 -0.20522949 -0.018451177
000150 f9 45 3b be dc 58 4b be 7b 65 9a 3b 35 64 53 3e
       -0.18288411 -0.19858116 0.0047118044 0.20643695
000160 55 a6 e4 3d 04 32 76 be 69 e5 14 3d 9d ba 45 3d
       0.11164538 -0.24042517 0.036351595 0.04827367
000170 6d 8c d2 3d e2 fd 6b 3c 1b 13 2e bd 85 f4 e2 bd
       0.1028069 0.014403792 -0.04249869 -0.11081795
000180 03 cc fa 3c e5 79 2d 3e 0c 6b 11 be e7 5e 0c 3d
       0.030614858 0.1694103 -0.14200991 0.034270193
000190 73 f9 27 39 77 f5 97 3d 7e 99 d8 bc 5e 26 cb bd
       0.00016019288 0.074198656 -0.026440378 -0.09919427
0001a0 d2 77 39 bc 75 35 32 bd 3c a7 15 3d 61 d3 7c be
       -0.011320071 -0.04350801 0.03653644 -0.2469001
0001b0 48 ed a8 bd 30 62 d7 3d 1e d2 63 bd dd 09 af 3d
       -0.08248383 0.10516775 -0.055620305 0.08546803
0001c0 bf 36 3e bd 53 dc 03 3e db 87 85 3d 01 01 79 bd
       -0.04643893 0.12877016 0.06520053 -0.060791973
0001d0 6b d4 27 3e 0b 6c 52 be 19 87 16 3d d7 d8 e3 3c
       0.16389625 -0.20549028 0.036749933 0.027813358
0001e0 bf f9 a3 bc ee d9 8e bd fd e0 a3 bd 0c 0c a3 3c
       -0.02001655 -0.069751605 -0.080018975 0.019903205
0001f0 8f 2a 16 be 2f 09 eb bc ad 19 ef 3d 8c ab 12 be
       -0.14664672 -0.028690903 0.11674819 -0.14323252
000200 de 48 16 3d 07 d4 1c 3d 34 4c c0 3d bb b3 70 3e
       0.036690585 0.038288143 0.093895346 0.23506062
000210 4c 1c e6 bd 88 f6 72 bd 6d f9 28 be a1 e3 c3 bd
       -0.11235866 -0.05931714 -0.16501398 -0.09564901
000220 3f 9b 46 bc 2a 3a 54 3e e9 5a 70 3d 01 28 b8 bc
       -0.0121219745 0.20725313 0.05868045 -0.022480013
000230 4a 51 45 bd 09 44 61 3e 4e f6 c2 3d aa e9 e7 bd
       -0.048173226 0.2199861 0.09519635 -0.11323865
000240 0a af d3 3d eb df 26 3e 5e bf 2e be 1f 8d 61 bc
       0.103361204 0.16296355 -0.17065188 -0.013766556
000250 b7 34 b9 bd 85 f7 4e 3d 2c 38 66 bf c1 91 09 bf
       -0.09043258 0.05052902 -0.8992946 -0.5373803
000260 5a 5d 22 be f1 f3 cd 3c 03 4c a8 bd b6 9d 2d be
       -0.15855923 0.025140734 -0.08217623 -0.16954693
000270 62 02 75 3e 84 36 0c 3f 99 35 2a bd 62 d7 3b 3e
       0.2392669 0.54770684 -0.04155502 0.18343881
000280 2f 09 87 be 07 88 9b 3d b2 b4 58 3e 93 e0 35 3f
       -0.26374194 0.075943045 0.2116268 0.710458
000290 50 49 28 be fb 8d f7 3d fd 45 3d be 86 88 f2 be
       -0.16434216 0.120876275 -0.1848373 -0.47369784
0002a0 e9 31 14 3d e9 44 87 bf 33 70 73 3e 81 9a 94 3e
       0.03618041 -1.0567905 0.2377327 0.29024127
0002b0 50 42 f0 bd 2f ec a3 bd 02 44 77 3b 84 91 49 bf
       -0.11731398 -0.08004033 0.0037729745 -0.78737664
0002c0 33 23 ee bc 8d cc 16 be eb f5 95 be 4e 2c ec bc
       -0.029069519 -0.14726467 -0.29289183 -0.02882972
0002d0 68 d6 87 3d 96 2b 84 3e 6e 6f 57 bd 3c 55 61 bd
       0.066326916 0.25814503 -0.052596502 -0.055012926
0002e0 05 3e b4 3d a2 50 44 3e 49 16 9e bd 79 f0 33 3e
       0.08800892 0.19171384 -0.07719094 0.17572202
0002f0 e8 e7 3d 3d be e7 91 3d 13 db c3 3d d9 34 48 bd
       0.04636374 0.071242794 0.095632695 -0.048878524
000300 a3 4d 85 bd d5 60 7a bd 78 6c 69 3e f1 d6 90 3c
       -0.06508949 -0.061127502 0.22795284 0.017680617
000310 8a 17 24 3e 22 e5 b9 3c a7 dd 6f be 27 e1 57 bd
       0.16024604 0.022692267 -0.23424397 -0.052704956
000320 83 7f 23 be 32 fb 35 be 45 3b ca 3d 7d f3 11 3e
       -0.1596661 -0.17771605 0.09874586 0.1425304
000330 17 e8 aa bd db 80 3c bb e8 8c 03 3e 7d ad 34 3c
       -0.08345049 -0.0028763327 0.1284672 0.011027691
000340 67 98 b1 3d c7 53 60 3e 2a 7a 69 be fb 7c 15 bc
       0.086716466 0.21906959 -0.22800508 -0.009124036
000350 e1 fb 1b 3e a4 24 52 3e 42 f4 61 be fe 75 c7 3b
       0.15232803 0.2052179 -0.22065833 0.006087064
000360 5b d4 1a bd b7 ce 6a bd 6e 5e cd bd 21 77 1f 3e
       -0.037800174 -0.057326045 -0.10027777 0.15572788
000370 64 a9 1a bd a9 c3 b0 bc 3f d7 35 bd 61 be eb bb
       -0.0377592 -0.021577673 -0.044394728 -0.007194326
000380 f1 e9 88 bd b6 cf 92 bd 84 7b da bc e8 10 9c 3d
       -0.06685246 -0.07168524 -0.026670225 0.07620412
000390 91 90 8a 3d 57 19 ad 3d bc 74 80 3d 86 0f 0c 3e
       0.06765855 0.08452099 0.06272265 0.13677797
0003a0 e7 72 6d bd c2 18 36 be ba bc 46 be be a6 5d 3d
       -0.057970908 -0.17782882 -0.19407931 0.054114096
0003b0 87 18 14 be 5a bb 02 3e d4 13 64 3e 02 ab 26 be
       -0.14462481 0.12766781 0.22273189 -0.16276172
0003c0 5b 98 3c 3f 67 92 ee be 53 d1 87 be 36 34 9d be
       0.73669976 -0.4659607 -0.2652689 -0.30703896
0003d0 f1 45 12 3e 21 d6 5d be 3f 12 99 be 51 fd a4 3e
       0.14284493 -0.21663715 -0.29896733 0.32224515
0003e0 d2 69 63 3f 04 56 42 bc 1c 76 90 bd 99 75 38 be
       0.88833344 -0.011861328 -0.070537776 -0.1801361
0003f0 06 5e 10 3e 16 5b 13 3f ec 52 b9 bd 2e 87 de 3e
       0.14098367 0.5756086 -0.09049019 0.4346251

conv3.lin_rel.weight f4 [30, 30]
000000 5d a8 c2 3d f7 24 90 3d 09 5d dc 3d 69 4f 42 3e
       0.09504769 0.070383005 0.107599325 0.18975605
000010 62 52 12 be 3b 8d 15 3e 1f a1 5f 3e 8d 80 07 3e
       -0.14289239 0.14604656 0.21838807 0.13232632
000020 c3 0f 17 bd 87 18 05 be 01 76 1d 3d d6 40 81 bd
       -0.036880266 -0.12997638 0.038442615 -0.063111946
000030 de 6d a3 be 09 3f e4 bc 10 c6 f8 bd 28 b6 16 3d
       -0.3191976 -0.027862089 -0.121471524 0.03679481
000040 55 8c 5a be 4a 01 07 3e 37 66 98 3d 1f 3d 08 be
       -0.21342595 0.13184085 0.07441371 -0.13304566
000050 27 34 40 be 1a 90 6a bd 47 af 3d 3d d2 7a 31 3e
       -0.18769895 -0.057266332 0.046309736 0.17332008
000060 73 db d1 3d c9 d3 44 3e af 76 f8 bb 7b 96 a6 3d
       0.10246935 0.19221415 -0.0075825076 0.081341706
000070 5b 12 43 bc 0b a6 02 be fc 01 9f 3d bb aa ca 3d
       -0.011906232 -0.12758653 0.0776405 0.098958455
000080 1a 8d 1c 3e bc f1 1f be f3 40 db bd 94 a8 b7 bd
       0.15288201 -0.15619558 -0.107057475 -0.089677006
000090 81 73 77 3c 3e 84 d4 bd 48 c5 27 3d 7e 44 e1 bd
       0.015103222 -0.10376786 0.040959626 -0.10999392
0000a0 3b e0 e2 bd c2 cd 10 be cc a4 85 bc b5 59 b8 3d
       -0.11077925 -0.1414099 -0.016313933 0.09001485
0000b0 dc 2b 45 be 63 92 1a 3d f3 f4 3d 3e d3 18 82 3c
       -0.19255012 0.03773726 0.18550472 0.015880978
0000c0 2b 7d cb bd c7 af a8 bd 4a 2e 39 3e ad b2 56 bd
       -0.09935983 -0.08236652 0.18084064 -0.052416492
0000d0 ee c5 4b 3e 22 bf 9e 3d 95 93 14 3e 1d 8a b4 bd
       0.19899723 0.077512994 0.14509423 -0.088154055
0000e0 59 6f a2 bd 21 c3 0e 3e e4 06 ad 3c 93 d4 5c bd
       -0.07931394 0.13941623 0.02112145 -0.053913664
0000f0 10 59 07 3e 14 b8 85 3d fe 50 d6 3d 16 dd c3 bc
       0.13217568 0.06529251 0.10464667 -0.023909133
000100 66 73 65 3b 99 4d 2f be 55 65 90 bd 29 84 24 3e
       0.003501141 -0.17119445 -0.070505776 0.1606604
000110 47 32 d3 bd 69 d9 ec bd 51 59 c8 3d 62 9e b4 bd
       -0.10312324 -0.11564905 0.09782661 -0.088192716
000120 23 7b 17 3e da 8d f9 bd 5e 9e 5a 3c 4f b2 33 be
       0.14793067 -0.12185259 0.013343422 -0.17548488
000130 0b d0 8f 3c 91 e2 c6 bd 52 a6 b5 bd 3d 6a 30 bc
       0.017555257 -0.09711183 -0.08869614 -0.010767517
000140 06 7e 06 bd 6c b9 2b 3e cd 68 e6 ba 4c e9 8e 3b
       -0.03283503 0.16769952 -0.001757884 0.0043613072
000150 75 04 c1 bd 9d 84 94 3d 46 d4 0f be c2 ff 51 be
       -0.09424678 0.072518565 -0.1404582 -0.2050772
000160 f2 c4 28 be 01 f9 cf 3b 13 61 18 3e 7c 86 86 bc
       -0.16481379 0.0063468223 0.14880781 -0.016421549
000170 c4 94 d3 bd de ed 2d be dd d5 0a 3d 17 0a 1f be
       -0.10331109 -0.1698527 0.033895362 -0.15531193
000180 85 01 11 3e 2e d0 b6 3d f6 d4 00 3e 3c cd 00 bd
       0.14160736 0.08926426 0.12581238 -0.031445727
000190 05 be 10 be 23 76 a9 bd e6 d5 9b 3d 70 70 d7 bd
       -0.14134987 -0.08274486 0.07609157 -0.105194926
0001a0 9f cd 7d bc 0e 0f 0b be 42 5d 0d be 64 b3 22 be
       -0.015490918 -0.13579962 -0.13805106 -0.15888745
0001b0 d3 64 2a 3e f7 fb d2 bd 78 a4 e6 3d e6 90 bd bd
       0.16640024 -0.10301965 0.11261839 -0.09256153
0001c0 72 e5 79 be ae 37 83 bb 84 b4 a6 bd 4e 0a 00 be
       -0.24403933 -0.0040044403 -0.081398994 -0.12503931
0001d0 de c2 13 bd c5 72 6c be 62 56 0e bc da c6 80 3d
       -0.03607451 -0.23090656 -0.008687587 0.06287928
0001e0 cc c6 bd bd 71 bb e4 bd ad d6 79 3b fd a2 12 be
       -0.09266433 -0.11168564 0.0038122342 -0.14319988
0001f0 86 17 05 3e f7 62 0e 3e 32 87 48 3d 29 f6 20 3e
       0.12997255 0.1390494 0.048957057 0.15718903
000200 a5 d5 14 3e eb 3e 2e 3d e2 1e e7 bc 5f ce 01 3e
       0.14534624 0.042540472 -0.028212968 0.1267638
000210 75 71 0a be 58 26 e9 3c 58 b0 ea bc 44 ae 94 3b
       -0.13519843 0.028460667 -0.02864854 0.0045373756
000220 1b 75 a7 3d 17 40 8b bd f6 09 21 be 1a d1 01 3c
       0.08176633 -0.067993335 -0.15726456 0.007923389
000230 b3 03 0b 3e bc ba 37 bd 9b 92 df bd 36 6a cc 3d
       0.1357563 -0.04485582 -0.10916635 0.09981196
000240 e9 d6 bf bd 0f 69 c0 bd 7b 5f 20 3e ae 76 5e bd
       -0.09367163 -0.09395038 0.15661423 -0.0543124
000250 46 91 3a bd 56 99 25 3e 99 35 0d 3d 5a 4e e6 3d
       -0.0455487 0.16171774 0.034474943 0.11245413
000260 c0 ce 58 3c a6 d9 18 3e 34 e1 c8 bd 82 e1 4b 3d
       0.013232887 0.14926776 -0.09808579 0.049775608
000270 09 16 e4 bd d5 a0 a8 bd fd 72 33 bd 64 de 97 bd
       -0.11137015 -0.08233801 -0.043810833 -0.074154645
000280 fd cd 5f 3d 92 35 92 bd 1b ed c5 3d 9f 76 db bd
       0.054639805 -0.07139124 0.09664365 -0.107159846
000290 47 a0 10 bd d6 aa 47 3e ff 2c 31 be 01 0a 96 3d
       -0.035309102 0.19498762 -0.17302321 0.07326127
0002a0 9f 59 cf 3d 40 88 92 bd 3d c1 4f bd 15 c3 8a 3d
       0.10124516 -0.07154894 -0.050721396 0.0677549
0002b0 d1 d6 26 3e 55 8b fb bd a2 69 2d be 64 cb d2 bd
       0.16292883 -0.12282435 -0.16934827 -0.102927
0002c0 66 5c ca 3d 11 21 e0 3d 59 3b 82 bd b1 c7 00 3d
       0.09880905 0.10943807 -0.06358976 0.03144044
0002d0 74 a8 00 3e b1 46 56 3d 92 02 f3 bc e1 d5 23 be
       0.1256426 0.05231351 -0.029664312 -0.15999557
0002e0 dd d1 12 3e 22 08 09 be c6 f6 11 3e 17 49 42 bd
       0.14337869 -0.13382009 0.14254293 -0.047432985
0002f0 d8 83 c0 b8 49 b5 b2 3d 43 da 2f be d3 29 84 3d
       -9.179831e-05 0.08725984 -0.17173104 0.0645329
000300 64 2f 81 bd 63 78 cd bb a4 4d 9e be 97 65 3c bd
       -0.06307867 -0.0062704547 -0.3091861 -0.04599532
000310 04 62 3a be 8a 90 fe 3d 27 33 fa 3d b7 ad fa 3d
       -0.18201452 0.124299124 0.12216788 0.12240165
000320 ee c6 33 be 6c 40 be bd b2 d5 e7 3d 0d b6 98 bc
       -0.17556354 -0.09289631 0.11320056 -0.018641496
000330 b8 56 00 be 0e f4 10 3d c0 3e c1 bd bb 24 77 3e
       -0.1253308 0.035389 -0.09435797 0.24135105
000340 5f 1e b4 bd 08 c3 1d 3d 30 df f3 bd 55 bc a8 3b
       -0.08794855 0.038516074 -0.11907804 0.005149404
000350 e7 88 b1 3d d2 18 28 3d d3 3a ed 3d af e1 c5 bb
       0.0866869 0.041039295 0.115834855 -0.0060388665
000360 9b d8 d0 3d 03 d3 09 3e 69 31 9e bd 42 57 cc bd
       0.10197564 0.13459401 -0.07724268 -0.099775806
000370 d4 20 9d bd aa 35 22 3e 00 c7 dd 3c 84 32 1b 3e
       -0.07672277 0.15840784 0.02707243 0.15155989
000380 11 17 a9 bd 4f 4e 3a 3c f4 f3 55 bd c2 c6 84 bd
       -0.08256353 0.011371209 -0.052234605 -0.064832225
000390 77 89 34 3d 27 c4 37 be 2f 49 dd bd 40 50 71 3d
       0.04407641 -0.1794592 -0.10804974 0.058914423
0003a0 8a 8a 92 3e 96 70 22 3c 99 05 a1 3d fd cc 25 3d
       0.28621322 0.009914538 0.07862396 0.040478695
0003b0 b1 02 95 3d 40 74 4d 3e c4 79 c2 3d 9e 5e 04 be
       0.07275904 0.20063877 0.09495881 -0.12926719
0003c0 b2 2e 08 bd 9d 50 47 3e 84 48 1f be 28 03 0a 3d
       -0.033247657 0.19464345 -0.15555006 0.033694416
0003d0 40 d8 47 be be d2 34 3e 67 7d f9 3d 73 6f 2c be
       -0.19516087 0.17658517 0.12182122 -0.1683939
0003e0 d4 d7 b9 3e d7 21 85 3d 83 cf fe bd 4f 20 19 3e
       0.36297476 0.06500595 -0.124419235 0.14953731
0003f0 bb d0 f7 3d a7 48 4f 3e ce c4 bd 3d ca 49 df bd
       0.12100359 0.20242558 0.09266053 -0.10902746

conv3.lin_rel.bias f4 [30]
000000 cf 81 f9 bd b0 6d 2d 3e 87 09 a0 3d 51 d2 70 3e
       -0.12182962 0.16936374 0.07814317 0.2351773
000010 c9 b9 fd 3d cb 16 36 bd db 3d 8d be ee ff 0d 3e
       0.12388951 -0.04445533 -0.27586254 0.1386716
000020 60 c2 4c be a5 db c2 bc e2 74 a9 bc 25 19 3d be
       -0.19996023 -0.023786375 -0.020685617 -0.18466623
000030 0a 92 46 3c 12 b1 10 3e 4e 6e 47 bd 57 79 0a 3d
       0.012119779 0.14130047 -0.04868918 0.033807125
000040 59 d2 84 3d 3c 78 6b bd f0 a2 3c 3e 20 ae c4 bc
       0.06485433 -0.05748771 0.1842153 -0.02400881
000050 ea d3 89 bd 40 aa ab 3d a4 54 27 be 85 51 11 3e
       -0.067298725 0.08382082 -0.16340882 0.14191253
000060 19 5e 1b bd 4e 2b 81 be 2c b9 8b 3e bd 9d 74 3e
       -0.037931535 -0.2522835 0.27289712 0.23888297
000070 d0 95 42 3d 1a ca 75 bd
       0.047506154 -0.060007192

conv3.lin_root.weight f4 [30, 30]
000000 0e 34 c1 bd 3e e6 35 3e e6 f9 5d be f1 c4 2f 3e
       -0.09433757 0.17763612 -0.2167736 0.17164971
000010 09 b4 8f bd 65 68 c2 bd 22 9b 31 3e d2 6e 20 be
       -0.07016761 -0.09492568 0.17344335 -0.15667275
000020 72 a5 89 bd 17 b3 d3 bd 9e 7f f1 3b 9a fc 50 bd
       -0.06721009 -0.10336893 0.0073699495 -0.05102215
000030 3c 8b 2d be 34 68 e8 3d 9a ad 1b 3e 3b 89 c7 3d
       -0.16947645 0.11348 0.15202942 0.097429715
000040 9e 2d 6d be 9b ef 00 3e 05 d7 02 3e e0 f1 68 bb
       -0.23161933 0.12591402 0.12777336 -0.003554456
000050 84 6d 02 be ec 07 ce 3d e6 e2 f3 3c 24 81 4d 3c
       -0.1273709 0.10060105 0.02977128 0.012542997
000060 5a 8b 9c bd 05 ca fc 3d d2 58 95 3d a2 8c 4d bd
       -0.07643767 0.1234322 0.07292332 -0.050182946
000070 26 11 ad bd c6 22 62 3c 35 fc 53 be fe e8 37 bf
       -0.084505364 0.013802236 -0.20701678 -0.7183989
000080 5b e0 38 be 23 32 3c 3b 5f 1e 9c 3d 61 34 4a be
       -0.18054335 0.0028716407 0.0762298 -0.19746543
000090 64 2e 6a 3e d4 e5 80 be f4 b9 8a 3f 34 0e 6a be
       0.22869259 -0.25175345 1.0837998 -0.2285698
0000a0 53 d7 05 be 57 18 1e be 2e 4e 61 be 4b 8e 72 3e
       -0.13070421 -0.15438972 -0.2200248 0.23687093
0000b0 89 29 a8 3e 7e 77 42 3e 0c 78 91 3d cf 02 6f 3e
       0.3284419 0.18990895 0.07102975 0.23340915
0000c0 29 f3 29 3e 63 7e 22 3e 9c cb f9 3c f2 a8 36 be
       0.16596664 0.15868525 0.030492596 -0.17837885
0000d0 75 a3 c0 be 7a 06 77 bb 3c e6 03 3e 90 ac 6c bd
       -0.37624708 -0.003769307 0.12880796 -0.057781756
0000e0 fa 41 71 3e f6 71 61 bf 32 ad c5 bd 80 0d 3b 3e
       0.23560324 -0.88064516 -0.09652175 0.18266869
0000f0 b9 f5 cf bd f7 38 50 be 4a e3 d0 bd e0 f3 25 be
       -0.1015429 -0.2033423 -0.10199602 -0.16206312
000100 3d e3 0b 3c 7f 91 4c be c5 6d 1c be 40 af 05 3e
       0.008538065 -0.19977377 -0.15276249 0.13055134
000110 87 b8 66 3e 9e 47 ff ba 60 22 82 3d 2a 49 ab bd
       0.22531329 -0.00194763 0.06354213 -0.08363564
000120 6a 65 95 bd f1 ae 02 3e a2 98 c0 3d f6 ba 00 3e
       -0.07294734 0.12762047 0.094041124 0.1257132
000130 f6 24 02 3c 7c 11 5a be d6 bb db 3d e3 a2 c2 3d
       0.0079433825 -0.21295732 0.10729186 0.095037244
000140 92 27 05 be 81 32 be bc f0 00 e1 bd c1 2d f5 3d
       -0.13003376 -0.023217442 -0.10986507 0.119716175
000150 1a 7a 0e 3e a7 14 1e be 39 91 3e be f5 dc 52 bc
       0.13913766 -0.15437566 -0.18610086 -0.012870063
000160 ad b6 fa 3c a4 02 57 3e c0 40 81 be 7f 1c 2b 3e
       0.030604685 0.20997101 -0.25244713 0.16710089
000170 56 9f 4c bd 61 a3 88 3e d6 4c 18 be b1 a3 83 3e
       -0.049956642 0.26687148 -0.1487306 0.25710824
000180 0d 8c 65 3e 01 dd 6b be 78 e7 3e bf a7 fd f5 bd
       0.22416706 -0.23033525 -0.74571943 -0.12011271
000190 27 d0 42 be 47 10 dd bd 51 6f 10 be 4c e9 13 3e
       -0.19024716 -0.1079412 -0.14104964 0.14444464
0001a0 54 ae 5d bf ef 33 8e 3e ee de 1e be 66 a3 87 3e
       -0.8659413 0.27773997 -0.15514728 0.2649185
0001b0 9f 0c 0a 3e d4 4e 2a 3a bc 7a 4d be 3d 61 6b be
       0.13481377 0.00064967317 -0.2006635 -0.22986312
0001c0 61 ee 91 3e 07 66 e9 3d 37 37 9c 3d d4 d5 8b 3e
       0.2850218 0.11396413 0.07627719 0.27311575
0001d0 2e 7c 6d 3e 9a 1c 3a 3f 02 3c 5c 3e 1c b3 46 bf
       0.23191902 0.7269989 0.21507266 -0.7761705
0001e0 86 47 2f bd 28 66 5e 3e ed 47 15 be b4 ea 84 3e
       -0.04279282 0.21718657 -0.14578219 0.25960314
0001f0 0e ab f0 3c 8a 8e 1a 3e 20 f6 25 3e 4f ae 1b be
       0.02937844 0.15093437 0.1620717 -0.15203212
000200 44 f7 7b bf f2 11 72 be 35 2e 63 bd 7d c7 54 be
       -0.9842417 -0.23639658 -0.05546399 -0.20779224
000210 e7 bd 05 be f0 8f 83 3e 86 76 e8 be df ca 2e 3e
       -0.13060723 0.25695753 -0.45402926 0.17069577
000220 94 a4 70 bd ab d8 45 bd aa 20 70 3e 6a 4a d4 3d
       -0.058750704 -0.048302334 0.2344996 0.10365756
000230 60 a0 d9 bd d9 5c b0 bd e4 7a a1 3e 0c c1 a6 3d
       -0.10626292 -0.08611459 0.3153907 0.081422895
000240 e0 ca 90 3c 5c a7 6e bb 24 74 78 3e 3a 41 4b 3f
       0.017674863 -0.0036415672 0.24263054 0.793964
000250 1f 5c a4 bd 51 38 0d bf 02 00 1e bc 62 6e 0b bf
       -0.08025383 -0.55164057 -0.009643557 -0.54465306
000260 26 ec 5a 3d a3 ad 86 3e 78 b3 ac 3d 75 ee 8a 3c
       0.053447865 0.2630435 0.084326684 0.016959408
000270 f2 35 98 3d 52 bd 30 be 62 4a 87 3f da 00 f1 3b
       0.07432164 -0.1725972 1.0569575 0.007354838
000280 4f f8 88 bd f3 50 1f be a9 a7 16 be d2 ce 1e 3e
       -0.06687986 -0.15558223 -0.14712395 0.15508583
000290 cc 11 9e 3e 53 be de bd 33 95 f5 bc 0d 81 2d bd
       0.30872953 -0.10876145 -0.02997837 -0.0423594
0002a0 9c 03 52 3d 2b 02 de 3b 40 bc a1 3d a2 2f 3b be
       0.051272973 0.006775161 0.07897234 -0.18279889
0002b0 51 44 f2 be 20 a7 55 3e 16 b0 3c 3e 6a 99 8b 3d
       -0.47317746 0.20864534 0.18426546 0.06816371
0002c0 b6 3f 16 bc 77 e1 7b bf fb 02 55 3e ab 7a 85 3e
       -0.009170463 -0.9839091 0.20801918 0.2607015
0002d0 7d 06 48 bb df 21 e3 3d 0c a9 13 3e 07 8f 74 be
       -0.0030521445 0.11090445 0.14419955 -0.23882686
0002e0 6f bc 39 3e b0 3e cc bd 5f 17 93 bd 08 1c 2d 3d
       0.18138288 -0.09972894 -0.07182192 0.04226306
0002f0 52 55 38 3f 4b bc 0e 3e 03 f7 81 3e 3d f9 ae 3d
       0.7200519 0.13939016 0.25383767 0.08543632
000300 d4 17 8e 3d a7 bb 96 bd 3b 2c 3c 3f 66 f7 44 be
       0.069381386 -0.073600106 0.7350499 -0.19235
000310 0c 2f 8b 3c e0 37 95 bc c4 bb 24 be 2d ff ed 3b
       0.016990207 -0.01821512 -0.16087252 0.0072630853
000320 bf d3 4d bd b0 12 85 bc 55 c9 73 be 30 a3 7e be
       -0.050250765 -0.016244262 -0.23807271 -0.24866939
000330 f3 9c 2c be 88 1c 62 be fe ec 2c 3d e4 2e 92 be
       -0.16856746 -0.22081196 0.0422182 -0.285514
000340 9e 32 94 bd a6 96 02 3f 54 a6 05 be 95 33 df bd
       -0.07236217 0.5101112 -0.1305173 -0.1089851
000350 2d fb 41 bd 6a 54 cd bd a6 d1 23 3e 9d 4b fa bc
       -0.04735868 -0.10025866 0.15997943 -0.030553633
000360 c5 c5 15 be 5d d7 5e 3d e5 c7 9a 3f 4a 23 d7 bd
       -0.14626224 0.054404605 1.2092253 -0.10504778
000370 02 3f e6 bd 44 31 ea bd c1 72 5c 3c e3 7f f4 3d
       -0.112424865 -0.11435178 0.013455094 0.11938455
000380 05 5f 61 3e da f7 78 3d b1 53 98 3d a5 76 12 3d
       0.22008903 0.060783245 0.07437838 0.03575768
000390 62 be 41 3c e7 c7 de 3d 9a 0a 17 3d aa c7 cf bd
       0.011825176 0.10877972 0.036875345 -0.10145505
0003a0 6f be ef be 0c 66 1e bd 60 3c 39 3e e8 09 dc bd
       -0.46824977 -0.03867154 0.18089437 -0.10744077
0003b0 75 00 4a 3d 93 f2 82 bf c4 48 26 be 0e d8 c3 3e
       0.049316842 -1.0230278 -0.16238695 0.38250774
0003c0 a5 c5 8a bd 52 df 92 be 5d 1d 56 3e 45 2e c3 bd
       -0.06775979 -0.28686005 0.20909639 -0.095303096
0003d0 d1 da 98 3d a7 8e 36 bb da ab d3 bd a7 32 a6 3d
       0.07463611 -0.0027856024 -0.103355125 0.0811513
0003e0 9e e5 a3 be 9f fd b2 bd 7a 9f a1 bd 81 39 24 bd
       -0.32011122 -0.08739781 -0.07891746 -0.040093902
0003f0 e4 dc 34 3d 40 4e 98 bd a4 4c 0f bf d9 28 0f be
       0.04415597 -0.074368 -0.5597632 -0.13980426

lin.weight f4 [1, 30]
000000 e0 49 aa 3e be 7f 28 3f 14 f9 02 be 78 04 ee be
       0.33259487 0.6581992 -0.12790328 -0.46487784
000010 9a 52 2d bf 37 e9 11 3f 3a 3e 06 3f a2 ef 37 3f
       -0.67704165 0.5699648 0.524387 0.71850026
000020 dd 4a eb 3e cc ae 2b 3f 48 33 84 be 12 cb 0a 3f
       0.45955554 0.67063594 -0.25820374 0.5421611
000030 0e 3e 93 3e 14 cf 28 bf 0e 50 ad 3e 69 c2 cb bd
       0.2875828 -0.65940976 0.3385014 -0.0994919
000040 28 e7 c5 3e da 83 89 be 77 5e b2 3e 7c cf d4 be
       0.3865292 -0.26858407 0.34837696 -0.41564548
000050 5b 83 fe be e2 7a ef be de a7 55 be f5 0c 24 bf
       -0.4970959 -0.4677344 -0.20864818 -0.6408227
000060 25 ac f6 be 75 d5 18 3f 6b 0a 85 3e 43 fe 11 bf
       -0.4817821 0.5970071 0.2598451 -0.570286
000070 5a 4f 7f be b4 15 0f bf
       -0.24932614 -0.5589249
