models/neural_network_SAGEConv_dynamics_PD_graph_size_10/neural_network.pth (torch, 18591 bytes, 10 tensors)

conv1.lin_l.weight f4 [30, 1]
0.56706697 0.67649955 0.767661 -0.91336286 1.0426283 -0.34749535 0.93465525 -0.5712982
0.26955256 1.0640154 0.62442887 -0.59231687 -0.5271394 0.014189166 0.57250506 -0.7917919
0.18064636 0.933232 -1.013774 -0.26836276 0.0363247 -0.33822972 -0.64599496 0.13183783
-0.19807261 0.25313953 0.31913617 0.9841622 -0.39076498 0.5845581
00000000: 4d2b 113f 132f 2d3f 6e85 443f 26d2 69bf
00000010: d874 853f e9ea b1be 9145 6f3f 9940 12bf
00000020: cb02 8a3e a831 883f 92da 1f3f 14a2 17bf
00000030: 9cf2 06bf ad79 683c b18f 123f e0b2 4abf
00000040: 5cfb 383e 4be8 6e3f 59c3 81bf d866 89be
00000050: 35c9 143d 722c adbe ed5f 25bf 7f00 073e
00000060: 8cd3 4abe 819b 813e d165 a33e 0ef2 7b3f
00000070: 5912 c8be 9aa5 153f

conv1.lin_l.bias f4 [30]
-0.64948916 0.6531342 0.21665347 0.79566264 0.11092045 -0.76709867 -0.17238516 0.7111664
0.21823302 -0.70580864 0.32214642 -0.6576064 0.16903056 0.77805763 0.8895352 1.0276777
-0.42814216 0.056213915 0.85327137 0.26726967 0.23649353 -0.38727158 -0.598447 -0.11574895
-0.47788307 -0.8343962 -0.9103583 -0.06466231 -0.7460606 0.776137
00000000: ec44 26bf ce33 273f 68da 5d3e 8cb0 4b3f
00000010: 432a e33d 9460 44bf bc85 30be 000f 363f
00000020: 7a78 5f3e e0af 34bf 60f0 a43e e558 28bf
00000030: 5916 2d3e c92e 473f 94b8 633f f18a 833f
00000040: 7335 dbbe 9040 663d fe6f 5a3f 92d7 883e
00000050: 5c2b 723e 7648 c6be d333 19bf c90d edbd
00000060: 17ad f4be fd9a 55bf 3e0d 69bf ac6d 84bd
00000070: d4fd 3ebf eab0 463f

conv1.lin_r.weight f4 [30, 1]
0.38061142 -0.047052957 -1.0378201 0.30095804 -0.06760902 1.1082934 -0.8557933 -0.4943048
-0.37794176 -0.088082455 0.97242826 0.22537939 -0.67363447 0.6791005 -0.7687601 -0.64284366
0.69088733 -0.103695504 -0.15055113 -0.82512766 0.4522637 0.44267845 1.0455551 -0.24126026
0.9445468 -0.4733108 0.8854716 -0.8364908 0.62977445 -1.0130427
00000000: 80df c23e 9aba 40bd 4ad7 84bf 2c17 9a3e
00000010: 9976 8abd 8fdc 8d3f 4515 5bbf 8515 fdbe
00000020: 9581 c1be 9364 b4bd 0ff1 783f dbc9 663e
00000030: 4f73 2cbf 88d9 2d3f 76cd 44bf 6791 24bf
00000040: fedd 303f 4f5e d4bd 132a 1abe 913b 53bf
00000050: 1c8f e73e c0a6 e23e c0d4 853f ee0c 77be
00000060: d2cd 713f cb55 f2be 44ae 623f 4324 56bf
00000070: e638 213f 62ab 81bf

conv2.lin_l.weight f4 [30, 30]
0.14676689 -0.065472946 -0.31055078 -0.06668702 -0.011293565 0.19626328 0.057746813 -0.40128982
-0.09936967 0.023207268 -0.10254877 -0.16246782 -0.0051261615 -0.15709595 0.013964379 -0.3620726
0.17880656 0.17080584 -0.18347743 0.06537058 -0.13818316 -0.051848795 0.03322132 0.050505776
0.38124964 -0.12039276 0.33032984 -0.1946119 -0.09529949 -0.09296476 0.1299376 -0.13353007
0.84747136 0.014584979 0.05537369 -0.058612593 0.0809303 0.09825403 0.035320003 0.22968526
0.13189752 -0.14796743 0.13419853 0.08518326 0.12408245 -0.2373547 -0.16309287 0.027970696
-0.132176 0.19382446 -0.17804372 -0.07052122 -0.2111456 -0.058310293 -0.63797224 0.012027756
-0.11019439 0.21453065 -0.118665606 0.1961561 0.03176069 -0.17967314 -0.4644214 0.07108657
-0.067046516 -0.081290916 -0.5507294 0.23135643 0.03305066 -0.26287252 0.020608837 -0.019280829
-0.14659536 0.04554902 -0.041964475 0.27789074 -0.09857348 0.14134263 0.27851066 -0.12565698
0.11534396 -0.111936554 -0.080726564 -0.071033545 0.5634411 -0.131629 0.24407157 -0.4546889
0.12944303 -0.15152052 -0.38121465 0.0935279 -0.21165663 -0.15012628 -0.12736548 0.011861472
-0.22353089 0.27731726 0.07535254 -0.15852344 0.14166635 0.0636733 0.18224838 0.053692006
0.028410261 0.10824688 -0.1623841 0.0102946265 0.39086866 -0.012645356 -0.04058117 0.03875241
-0.092939265 0.06404351 -0.10487973 0.025528332 -0.027834233 -0.12688997 -0.10209537 -0.18358691
0.19255519 0.11204902 -1.5115913 0.080251396 0.08056937 0.33070424 -0.86819696 -0.16923295
-0.41351286 -0.04751511 -0.09469155 0.23482144 0.07548127 0.12147896 -0.24971668 -0.27168754
0.15204144 0.023376469 0.20373306 -0.2006447 0.105003186 0.09002742 0.18463114 -0.0055620177
1.1244364 0.07345496 0.8441662 -0.86146367 0.091084756 -0.17745985 0.060392614 0.005799217
-0.053698074 0.00038537162 -0.14658695 0.13880955 0.20054516 -0.0007288827 0.21647356 -0.04430631
0.0037788865 0.07119868 -0.07700324 -0.08651995 0.14405484 -0.26366723 0.0679423 0.05846874
-0.22522914 0.13826509 -0.008223581 -0.045218393 -0.012625369 -0.09999705 -0.15908429 -0.016329527
0.01485186 0.07193607 -0.005651901 0.0008711799 -0.031774912 0.09406321 -0.03941504 0.14687881
0.0320414 0.16936319 -0.09268092 -0.11624179 -0.06528492 -0.0720985 0.19322525 -0.12747043
-0.02965891 0.021969616 0.027161695 -0.04420927 -0.15198511 0.13589545 0.017462658 0.023990702
-0.15484524 -0.06632641 -0.05290163 0.09601518 0.13060986 -0.095539086 -0.12038345 -0.20369595
-0.13968672 0.021993602 0.044634115 -0.16038513 0.019704243 0.21751907 -0.142355 -0.1423006
-0.13792102 0.242382 -0.098188244 0.035669602 0.022334285 0.14910936 -0.05277141 -0.026610013
-0.05153414 0.25987494 0.027946977 0.16503707 0.22897875 -0.115436666 0.06989948 -0.017046185
0.12971014 -0.06244351 -0.03171535 0.12434856 -0.1809421 -0.08101691 0.06097463 0.13119325
0.07902035 -0.093095034 0.031987175 0.061164714 0.10946002 0.21840146 -0.11805769 0.009680304
-0.13136141 0.0092135975 0.04189522 0.16210274 -0.09933678 -0.1772094 -0.11153342 -0.055854466
00000000: 0f4a 163e ae16 86bd 8300 9fbe 3493 88bd
00000010: a508 39bc 3ef9 483e ec87 6c3d dc75 cdbe
00000020: 5382 cbbd 2b1d be3c 1705 d2bd f75d 26be
00000030: 5cf9 a7bb c3dd 20be daca 643c 9461 b9be
00000040: 1119 373e bae7 2e3e 82e1 3bbe 03e1 853d
00000050: e37f 0dbe 675f 54bd 1413 083d 25df 4e3d
00000060: 2733 c33e 7b90 f6bd fe20 a93e 5848 47be
00000070: 612c c3bd 4f64 bebd 5d0e 053e 1bbc 08be
00000080: e2f3 583f d6f5 6e3c 86cf 623d c213 70bd
00000090: c9be a53d 6939 c93d b5ab 103d 9d32 6b3e
000000a0: 2510 073e c684 17be 576b 093e 9074 ae3d
000000b0: f11e fe3d 1c0d 73be d101 27be cd22 e53c
000000c0: 2559 07be eb79 463e 1851 36be 6e6d 90bd
000000d0: 8d36 58be c6d6 6ebd 2652 23bf 1110 453c
000000e0: 99ad e1bd ecad 5b3e f406 f3bd 25dd 483e
000000f0: 7f17 023d 3cfc 37be a4c8 edbe d695 913d
00000100: af4f 89bd da7b a6bd 9afc 0cbf b3e8 6c3e
00000110: 2160 073d 3a97 86be ddd3 a83c d4f2 9dbc
00000120: 181d 16be 9c91 3a3d f1e2 2bbd b247 8e3e
00000130: e5e0 c9bd 1fbc 103e f398 8e3e 39ac 00be
00000140: 7439 ec3d fe3e e5bd f853 a5bd 097a 91bd
00000150: ad3d 103f c1c9 06be e6ed 793e fccc e8be
00000160: b78c 043e 3228 1bbe 912e c3be 8e8b bf3d
00000170: 84bc 58be b4ba 19be 196c 02be 9f56 423c
00000180: 48e5 64be 87fc 8d3e 6f52 9a3d f853 22be
00000190: fc10 113e 2667 823d 529f 3a3e 26ec 5b3d
000001a0: a3bc e83c 8ab0 dd3d 0448 26be cbaa 283c
000001b0: f01f c83e 782e 4fbc 7138 26bd d9ba 1e3d
000001c0: f156 bebd 3e29 833d 2fcb d6bd cb20 d13c
000001d0: 9e04 e4bc 72ef 01be 6117 d1bd 35fe 3bbe
000001e0: 302d 453e f579 e53d d37b c1bf d85a a43d
000001f0: 8e01 a53d 1152 a93e 2842 5ebf 674b 2dbe
00000200: f5b7 d3be 349f 42bd a5ed c1bd 0875 703e
00000210: ed95 9a3d f6c9 f83d bbb5 7fbe a11a 8bbe
00000220: c0b0 1b3e 0280 bf3c 669f 503e ce75 4dbe
00000230: e90b d73d 4c60 b83d f20f 3d3e 9641 b6bb
00000240: 88ed 8f3f 8e6f 963d 471b 583f e288 5cbf
00000250: a58a ba3d 09b8 35be 3f5e 773d 5c07 be3b
00000260: 83f2 5bbd b40b ca39 e41a 16be 1724 0e3e
00000270: b65b 4d3e 7d12 3fba 3fab 5d3e 897a 35bd
00000280: 32a7 773b 9dd0 913d e0b3 9dbd 5f31 b1bd
00000290: 1d83 133e 64ff 86be 5525 8b3d eb7c 6f3d
000002a0: 78a2 66be 5d95 0d3e 33bc 06bc ec36 39bd
000002b0: a3da 4ebc 41cb ccbd fee6 22be 80c5 85bc
000002c0: 3755 733c 3853 933d 9533 b9bb e55f 643a
000002d0: 6926 02bd 36a4 c03d aa71 21bd 6667 163e
000002e0: d83d 033d 8b6d 2d3e 7fcf bdbd 2d10 eebd
000002f0: 1ab4 85bd 61a8 93bd d7dc 453e 9c87 02be
00000300: 3ef7 f2bc a0f9 b33c 3482 de3c c814 35bd
00000310: fca1 1bbe 2d28 0b3e d90d 8f3c 2688 c43c
00000320: c08f 1ebe 24d6 87bd 61af 58bd 9ba3 c43d
00000330: 97be 053e ffa9 c3bd 998b f6bd ac95 50be
00000340: 090a 0fbe ed2b b43c 43d2 363d 003c 24be
00000350: cb6a a13c 52bd 5e3e 82c5 11be 40b7 11be
00000360: 2b3b 0dbe fd32 783e eb16 c9bd 4a1a 123d
00000370: 64f6 b63c 20b0 183e d626 58bd 3efd d9bc
00000380: 7615 53bd 540e 853e 0ff1 e43c 7aff 283e
00000390: 6879 6a3e 0f6a ecbd 7527 8f3d 71a4 8bbc
000003a0: bcd2 043e c4c4 7fbd f4e7 01bd 75aa fe3d
000003b0: e348 39be 32ec a5bd 89c0 793d 8657 063e
000003c0: 6cd5 a13d 9ca8 bebd fc04 033d da87 7a3d
000003d0: 932c e03d a2a4 5f3e 3bc8 f1bd 239a 1e3c
000003e0: 9b83 06be a1f4 163c 529a 2b3d 43fe 253e
000003f0: 1571 cbbd 6276 35be a26b e4bd a7c7 64bd

conv2.lin_l.bias f4 [30]
0.059121642 0.14911127 -0.08909061 0.15989742 0.13224174 -0.040005106 0.16465324 -0.11090608
0.06447823 0.13725257 -0.15545098 0.061624046 -0.21162842 0.046488676 -0.1289591 0.04705788
0.009747855 0.06970246 0.055647578 -0.17580676 0.08793923 -0.07400631 0.12656222 0.08477169
0.094747774 0.09814388 -0.09277599 -0.015510472 -0.1595754 -0.06444991
00000000: 8929 723d a0b0 183e 2375 b6bd 26bc 233e
00000010: 616a 073e 65dc 23bd dc9a 283e ba22 e3bd
00000020: 2a0d 843d f08b 0c3e 8b2e 1fbe 7f69 7c3d
00000030: 1fb5 58be e96a 3e3d db0d 04be c3bf 403d
00000040: 78b5 1f3c 2ac0 8e3d b7ee 633d b006 34be
00000050: 7c19 b43d 9f90 97bd 8799 013e c89c ad3d
00000060: 1f0b c23d a9ff c83d 5701 bebd a21f 7ebc
00000070: bc67 23be 50fe 83bd

conv2.lin_r.weight f4 [30, 30]
-0.004647212 -0.13147785 0.34266725 -0.20052841 -0.01195593 0.018318009 0.12270673 -0.12643747
0.22032844 -0.014247956 -0.08709829 -0.1017951 -0.005200788 0.11295174 0.01901601 -0.18153223
0.046705037 -0.08427928 -0.311263 0.016285058 0.08249279 -0.034493357 -0.21646641 0.09403981
-0.11393349 0.14719717 0.10703204 0.3625395 -0.0850844 0.18825363 -0.09876692 -0.10025001
0.24002375 -0.2117344 0.003946346 -0.07481747 0.33403498 0.45072362 -0.018610165 0.15586041
-0.097057156 0.1328457 -0.07694264 -0.123413734 0.106980965 0.3405942 -0.17574306 -0.20076147
0.14370272 0.035771273 -0.016189042 0.13991185 0.07242162 -0.013773499 -0.2954473 -0.08433654
-0.40197912 0.20401795 -0.13851118 -0.02379828 0.24455567 -0.1706422 -0.49907365 -0.12375462
0.076071106 0.275301 -0.24435358 -0.55852395 0.033047106 -0.011370849 -0.10432469 0.052277807
-0.065091126 0.10907424 0.09315639 -0.53220004 0.14067903 0.09243977 -0.51451087 -0.12694839
-0.10466642 0.101315685 0.029675141 -0.21261396 0.16676387 0.021337753 0.71077013 -0.34516042
0.023835845 0.11366981 -0.09278505 -0.18347667 -0.015181372 0.0025666293 -0.06020485 0.12374902
0.13970715 0.064566076 -0.16378681 -0.09911652 0.11849181 -0.11016589 -0.15180075 0.1699861
-0.16885728 0.019279726 -0.0068953843 -0.0155610135 0.058708306 -0.009070482 -0.14904055 -0.1494544
0.08854914 -0.010744975 0.15210263 -0.04321489 0.037262958 -0.14252375 0.13171263 -0.17713603
0.5912767 -0.1456024 0.27301154 -0.39092976 -0.14929235 -0.13935407 0.49320096 -0.516507
0.12106262 0.58687145 0.11296119 0.15342155 0.00094871246 -0.090958916 -0.048406947 -0.64624995
0.048230927 0.15559907 -1.2290571 -0.14855662 0.006870155 -0.08204871 0.16574936 -0.03704574
-0.053517755 0.05438689 0.4471016 0.324147 0.18641645 -0.18264614 -0.387173 -0.014618165
0.3658796 -0.024456982 -0.0068000206 -0.3978591 0.33783573 0.24216685 0.2755867 -0.16035627
0.122047335 -0.18689463 0.045035735 -0.07681781 0.016378855 0.24446237 0.12415484 0.15596691
0.2196914 0.09293436 -0.14075214 -0.14242266 -0.052769754 0.15468058 -0.32907012 0.049420543
-0.5096198 0.30583066 -0.083063915 -0.047893174 0.08107442 0.16545303 -0.08865898 -0.041852333
-0.060084585 0.10016984 0.03898646 -0.103163645 0.06300989 -0.020479398 -0.12608108 0.010388969
-0.055671565 0.17090105 0.01450935 -0.14569291 -0.019694507 -0.081146054 -0.042308364 -0.15613684
0.054285318 -0.09284231 0.10676188 0.06625315 0.07069227 -0.13997246 0.08196016 0.013517987
-0.13070838 0.14699836 0.10704384 0.13012761 -0.20716685 0.08715758 0.1461627 0.053595744
0.05943684 0.012011733 0.07919424 -0.13334428 -0.18498425 -0.0970461 0.056509946 0.011726732
-0.01849968 -0.13035543 0.028851056 0.15544143 0.13502426 0.16438667 -0.024918955 0.016465383
-0.03353827 0.14456196 -0.022747269 0.020331055 -0.0017754515 -0.08606384 -0.0067829844 0.17492087
0.33407316 1.1911936e-05 -0.32900283 0.042826284 -0.18070304 0.45458245 -0.32003334 -0.4236702
-0.3702779 0.13827512 0.032761753 0.17868102 0.11841995 0.073815025 -0.24383636 -0.3344717
00000000: a447 98bb 21a2 06be 1572 af3e 5257 4dbe
00000010: cee2 43bc a60f 963c ab4d fb3d d378 01be
00000020: c79d 613e 4270 69bc 9760 b2bd f379 d0bd
00000030: 5f6b aabb 3e53 e73d 77c7 9b3c 96e3 39be
00000040: c84d 3f3d 9d9a acbd dd5d 9fbe 3e68 853c
00000050: fbf1 a83d e848 0dbd 5fa9 5dbe f297 c03d
00000060: f655 e9bd dbba 163e 9d33 db3d c79e b93e
00000070: bb40 aebd 8fc5 403e 5046 cabd e14f cdbd
00000080: c9c8 753e e7d0 58be 5a50 813b e739 99bd
00000090: a206 ab3e 3fc5 e63e 5874 98bc df99 1f3e
000000a0: e7c5 c6bd b408 083e 1a94 9dbd 57c0 fcbd
000000b0: d618 db3d 5d62 ae3e fdf5 33be 6a94 4dbe
000000c0: ce26 133e e684 123d e29e 84bc 0d45 0f3e
000000d0: c951 943d 3eaa 61bc de44 97be a3b8 acbd
000000e0: 35d0 cdbe 15ea 503e e0d5 0dbe 9cf4 c2bc
000000f0: cd6c 7a3e d4bc 2ebe 9586 ffbe 1073 fdbd
00000100: 2bcb 9b3d 41f4 8c3e d337 7abe 6dfb 0ebf
00000110: 675c 073d cc4c 3abc 2fa8 d5bd 4121 563d
00000120: 7f4e 85bd 5162 df3d c7c8 be3d 433e 08bf
00000130: 2a0e 103e 1051 bd3d fcb6 03bf c2fe 01be
00000140: 595b d6bd 997e cf3d 4819 f33c 79b7 59be
00000150: 26c4 2a3e 83cc ae3c 08f5 353f deb8 b0be
00000160: 6443 c33c b8cb e83d 1706 bebd 4fe1 3bbe
00000170: 4abb 78bc e534 283b 5c99 76bd 2070 fd3d
00000180: 640f 0f3e 383b 843d bbb7 27be 9afd cabd
00000190: d6ab f23d a79e e1bd a871 1bbe d610 2e3e
000001a0: ece8 2cbe 84f0 9d3c adf2 e1bb 9ff3 7ebc
000001b0: 1f78 703d 5c9c 14bc 169e 18be 930a 19be
000001c0: 4059 b53d b10b 30bc cbc0 1b3e 1902 31bd
000001d0: 0ba1 183d bff1 11be addf 063e 2663 35be
000001e0: e95d 173f cc18 15be 2bc8 8b3e f227 c8be
000001f0: 18e0 18be d5b2 0ebe d684 fc3e ce39 04bf
00000200: aeef f73d 353d 163f 3258 e73d 8a1a 1d3e
00000210: 04b3 783a ab48 babd 5d46 46bd a370 25bf
00000220: cb8d 453d 5d55 1f3e be51 9dbf 3a1f 18be
00000230: 0a1f e13b 2709 a8bd 33ba 293e 46bd 17bd
00000240: 6f35 5bbd cac4 5e3d 80ea e43e 98f6 a53e
00000250: f4e3 3e3e 9707 3bbe 8a3b c6be 0781 6fbc
00000260: 9254 bb3e 025a c8bc b5d2 debb 30b4 cbbe
00000270: cef8 ac3e 96fa 773e b319 8d3e 6f34 24be
00000280: f4f3 f93d 4e61 3fbe 6477 383d a852 9dbd
00000290: f32c 863c 5854 7a3e e544 fe3d cab5 1f3e
000002a0: c8f6 603e 5f54 be3d 5421 10be 3fd7 11be
000002b0: 1925 58bd 9664 1e3e e17b a8be 326d 4a3d
000002c0: 7176 02bf d695 9c3e 6a1d aabd a22b 44bd
000002d0: 580a a63d 856c 293e d792 b5bd 5a6d 2bbd
000002e0: 411b 76bd d825 cd3d 44b0 1f3d 7647 d3bd
000002f0: 540b 813d 69c4 a7bc 661b 01be 7f36 2a3c
00000300: de07 64bd af00 2f3e a0b8 6d3c 8630 15be
00000310: 6056 a1bc e72f a6bd 894b 2dbd 56e2 1fbe
00000320: 485a 5e3d 1c24 bebd f9a5 da3d bbaf 873d
00000330: 1cc7 903d f154 0fbe bada a73d 8c7a 5d3c
00000340: 6bd8 05be bd86 163e cd39 db3d 2c40 053e
00000350: 8c23 54be ac7f b23d adab 153e 3687 5b3d
00000360: 0b74 733d dccc 443c 9730 a23d 678b 08be
00000370: 836c 3dbe 1bc0 c6bd f976 673d 7b21 403c
00000380: a48c 97bc e57b 05be 0d59 ec3c 0a2c 1f3e
00000390: cd43 0a3e fb54 283e d622 ccbc 69e2 863c
000003a0: 6d5f 09bd 0d08 143e 7b58 babc 508d a63c
000003b0: 44b6 e8ba 3d42 b0bd cc43 debb 751e 333e
000003c0: a30b ab3e 60d9 4737 0f73 a8be 9d6a 2f3d
000003d0: 380a 39be 08bf e83e 69db a3be 4deb d8be
000003e0: 1195 bdbe fe97 0d3e 3031 063d 28f8 363e
000003f0: 2986 f23d 552c 973d 3db0 79be e03f abbe

conv3.lin_l.weight f4 [30, 30]
-0.17817846 -0.27044073 0.28120437 -0.025369076 0.39045158 -0.26606718 -0.06372862 -0.080204695
0.13435294 -0.21675237 -0.25546715 0.31200096 -0.09689061 -0.18759346 0.15315285 -0.04667728
-0.11122293 0.095313765 0.17654243 -0.25167087 0.14845513 0.2263061 -0.029871272 -0.23574544
-0.16651645 -0.080846205 0.019034682 -0.17739546 0.11007889 -0.18414481 0.08900905 0.049515296
0.15026058 -0.008752298 0.4528475 0.14959638 -0.16670673 0.12156375 -0.117894255 -0.084529094
0.13031948 0.21799137 -0.033691086 -0.20757759 0.00805424 0.17100616 -0.10489467 -0.03678386
0.04097212 -0.2001117 -0.053603347 -0.124354035 -0.11118376 -0.05369635 -0.009288701 -0.04189432
0.009602808 -0.027226064 -0.03395648 -0.10761746 -0.08522318 0.19471526 0.021895127 0.07567455
0.29848632 0.11712682 0.08992231 0.2132968 0.17511536 -0.047573783 0.15838277 0.03655001
0.02062867 0.015958661 0.18603647 -0.21354772 -0.10666289 -0.103819646 0.12983404 0.22668293
-0.11588439 0.15442091 -0.050522167 0.011043273 0.032231297 0.3311749 -0.068927914 -0.12780651
0.011650215 -0.039771948 0.051550567 -0.09457963 0.18563296 -0.1177486 0.22713001 0.13134307
0.15526146 0.055404536 0.16168778 0.09633512 0.006831853 0.040880635 -0.1338375 0.06922691
0.076828286 0.16947024 0.18779948 -0.00075358315 0.12946369 0.015932862 0.11410883 0.034485973
0.012368392 0.09116214 -0.22262332 0.17552197 -0.16492382 0.041232545 0.022913018 -0.059604194
-0.25522614 -0.18506056 0.23999798 0.21606371 -0.3622673 -0.33023062 0.18765886 0.16621992
0.27259076 -0.15622734 -0.1967123 -0.09345918 0.05583669 -0.08570769 0.20650364 0.00082082517
0.04529333 -0.069385126 0.03010383 0.060170498 -0.109424725 0.041908633 -0.046272527 -0.036488827
0.14765635 -0.2473789 0.103038594 -0.1906123 -0.20062385 0.1901474 0.06831999 0.16163942
-0.014265731 -0.08903584 0.19266884 -0.061118748 -0.033277407 0.080212444 -0.022604883 0.13852517
-0.058476437 -0.09834229 0.13533539 0.011059141 0.029004164 -0.19708535 0.08959386 0.14723851
0.23565632 0.20890595 -0.11127597 0.026242742 -0.04010554 -0.1150853 -0.25372833 0.28033432
-0.058334194 -0.11099223 -0.0918967 -0.12558323 -0.08792564 0.34912315 -0.40112206 -0.2516367
-0.1513412 -0.05437769 -0.0047010584 0.15629078 0.09225988 -0.19173662 -0.08127336 -0.16136514
0.0533502 -0.4615841 -0.14537808 0.002646199 -0.09784716 -0.06626322 0.13233592 0.22605205
0.22438984 -0.09209759 0.040588494 -0.25119054 -0.12148559 0.5623737 0.10528573 0.076129414
-0.16875654 -0.18163879 -0.10759427 0.13549209 -0.07592768 0.30078316 -0.36282668 0.09595826
-0.09862366 0.063878655 0.06227294 -0.19384557 0.0074656876 0.16484955 -0.16037327 -0.20692761
-0.08270392 0.16213655 0.13321023 0.0964862 0.07273406 -0.13556142 0.102515705 0.14440133
-0.003679736 -0.099525675 0.10626874 -0.14346324 0.13945194 -0.5025356 -0.27555144 0.18016754
-0.24690911 -0.2929257 0.25532168 0.10343006 0.39075783 -0.26810575 -0.016734092 -0.01512338
0.18805389 0.05852945 -0.24141264 0.40178388 -0.306267 -0.40629506 -0.027046548 0.098006696
00000000: 6a74 36be 3577 8abe 05fa 8f3e cfd2 cfbc
00000010: 45e9 c73e f539 88be 2784 82bd 5c42 a4bd
00000020: d193 093e 55f4 5dbe 97cc 82be 97be 9f3e
00000030: 966e c6bd 8018 40be 1ad4 1c3e ad30 3fbd
00000040: d9c8 e3bd dd33 c33d 8ac7 343e 01db 80be
00000050: 9f04 183e c9bc 673e 99b4 f4bc 4167 71be
00000060: 4a83 2abe b292 a5bd 9fee 9b3c 28a7 35be
00000070: 0b71 e13d 7590 3cbe 604a b63d 8dd0 4a3d
00000080: e9dd 193e cc65 0fbc a1db e73e cb2f 193e
00000090: 2bb5 2abe 6af6 f83d 8b72 f1bd 971d adbd
000000a0: 7872 053e 2139 5f3e aaff 09bd 388f 54be
000000b0: eef5 033c 3d1c 2f3e 04d3 d6bd acaa 16bd
000000c0: 62d2 273d 15ea 4cbe 2f8f 5bbd 54ad febd
000000d0: 50b4 e3bd b4f0 5bbd a32f 18bc 6199 2bbd
000000e0: 1955 1d3c 3209 dfbc f315 0bbd 8b66 dcbd
000000f0: 7e89 aebd 7063 473e 695d b33c 42fb 9a3d
00000100: 33d3 983e 30e0 ef3d 3029 b83d 7a6a 5a3e
00000110: 7151 333e badc 42bd 182f 223e 77b5 153d
00000120: 75fd a83c bdbb 823c 5880 3e3e 41ac 5abe
00000130: 1372 dabd 659f d4bd 37f3 043e 921f 683e
00000140: cc54 edbd 8420 1e3e 55f0 4ebd d8ee 343c
00000150: f704 043d c28f a93e 142a 8dbd b6df 02be
00000160: 8be0 3e3c e9e7 22bd b026 533d f7b2 c1bd
00000170: 9116 3e3e 2e26 f1bd c594 683e cc7e 063e
00000180: dcfc 1e3e deef 623d 7b91 253e 594b c53d
00000190: bddd df3b 7472 273d b30c 09be d7c6 8d3d
000001a0: 2658 9d3d 9b89 2d3e 824e 403e 1c8c 45ba
000001b0: 2192 043e a285 823c e4b1 e93d 2a41 0d3d
000001c0: cca4 4a3c 37b3 ba3d 5ef7 63be 08bc 333e
000001d0: cae1 28be 75e3 283d 15b4 bb3c 8723 74bd
000001e0: 00ad 82be 8480 3dbe 08c2 753e ce3f 5d3e
000001f0: 197b b9be fd13 a9be a529 403e 8e35 2a3e
00000200: 0491 8b3e 0ffa 1fbe f36e 49be 8767 bfbd
00000210: 03b5 643d 8387 afbd b175 533e a52c 573a
00000220: 8085 393d ca19 8ebd 4f9c f63c 5775 763d
00000230: 121a e0bd 63a8 2b3d 4388 3dbd 4f75 15bd
00000240: 3a33 173e e550 7dbe e605 d33d df2f 43be
00000250: 5770 4dbe 00b6 423e 5aeb 8b3d ce84 253e
00000260: d0ba 69bc 6c58 b6bd fb4a 453e a757 7abd
00000270: e44d 08bd 6c46 a43d e02d b9bc 8bd9 0d3e
00000280: fd84 6fbd af67 c9bd 5c95 0a3e 6631 353c
00000290: 249a ed3c bed0 49be fc7c b73d b1c5 163e
000002a0: e44f 713e 71eb 553e a8e4 e3bd 05fb d63c
000002b0: b545 24bd d7b1 ebbd aee8 81be fb87 8f3e
000002c0: d6ef 6ebd e54f e3bd 5634 bcbd e498 00be
000002d0: 5c12 b4bd 45c0 b23e df5f cdbe 87d6 80be
000002e0: 30f9 1abe 24bb 5ebd 560b 9abb b10a 203e
000002f0: bff2 bc3d 9b56 44be a672 a6bd e73c 25be
00000300: bd85 5a3d c054 ecbe fedd 14be da6b 2d3b
00000310: 1864 c8bd 03b5 87bd 1183 073e 307a 673e
00000320: 73c6 653e a99d bcbd 1f40 263d 0c9c 80be
00000330: 70cd f8bd b9f7 0f3f 0ba0 d73d bde9 9b3d
00000340: 84ce 2cbe 85ff 39be 625a dcbd 70be 0a3e
00000350: f97f 9bbd 4000 9a3e 6bc4 b9be c485 c43d
00000360: 34fb c9bd d0d2 823d e911 7f3d 747f 46be
00000370: baa2 f43b 52ce 283e e438 24be d5e4 53be
00000380: ac60 a9bd 2007 263e 4368 083e 8f9a c53d
00000390: 98f5 943d 9dd0 0abe c1f3 d13d f1dd 133e
000003a0: ba27 71bb 1ed4 cbbd 6da3 d93d 07e8 12be
000003b0: 7dcc 0e3e 2ca6 00bf 1415 8dbe d77d 383e
000003c0: bed5 7cbe 5bfa 95be 86b9 823e 24d3 d33d
000003d0: 6911 c83e 2845 89be ef15 89bc 0ec8 77bc
000003e0: 3391 403e 94bc 6f3d e034 77be 9eb6 cd3e
000003f0: 07cf 9cbe e805 d0be b990 ddbc bcb7 c83d

conv3.lin_l.bias f4 [30]
0.14557676 0.10414552 -0.1294882 -0.17577589 0.20881882 -0.039047178 0.21742995 -0.15266974
-0.13690135 -0.1419363 -0.06388413 0.12971056 -0.16982514 -0.035863165 0.113573596 -0.038452793
0.07618097 -0.25259918 0.16948701 0.033010162 0.24104026 -0.05726971 0.015189181 0.1401534
0.13389371 0.0996993 -0.184775 -0.048072703 0.02884475 -0.066016495
00000000: 1312 153e 3f4a d53d 8e98 04be 98fe 33be
00000010: 9ad4 553e efef 1fbd f5a5 5e3e 7555 1cbe
00000020: de2f 0cbe c057 11be afd5 82bd d8d2 043e
00000030: a4e6 2dbe 41e5 12bd 4699 e83d ad80 1dbd
00000040: c504 9c3d ae54 81be 018e 2d3e aa35 073d
00000050: 42d3 763e a593 6abd 0bdc 783c 5f84 0f3e
00000060: 6f1b 093e 262f cc3d a835 3dbe e2e7 44bd
00000070: d34b ec3c a833 87bd

conv3.lin_r.weight f4 [30, 30]
0.015248884 -0.18682642 0.3341899 0.20178357 0.1635456 -0.027489584 -0.10775728 -0.117249675
-0.13201866 0.24416208 -0.017367171 0.099872395 -0.028785545 0.0381895 -0.15749095 0.26605362
-0.030200278 -0.15023085 -0.30814046 -0.12198676 -0.034869704 -0.13930026 0.08756812 0.081120834
-0.008433744 -0.34302688 -0.10722529 -0.23557104 0.108216606 0.14924036 0.22975738 -0.11879931
-0.24793813 -0.07120119 -0.12788308 0.24239299 0.1031592 -0.1504359 -0.13718922 0.27288336
0.22798388 -0.19443329 0.054268997 0.30852467 -0.295466 -0.028227214 -0.07664487 -0.29080632
-0.2993772 0.1770324 -0.11905935 -0.105701424 0.04753774 0.25680408 0.020336982 0.045375723
0.05932333 0.23599876 -0.06807974 0.15556403 0.086661376 -0.14353573 -0.022863211 -0.030166507
0.045684062 0.14109948 0.05684451 -0.12956542 -0.03195928 0.1402245 -0.051188674 -0.1537982
-0.04508603 0.11907158 0.033445463 0.22025357 0.09465123 0.14370418 -0.17469215 -0.13870344
0.051093657 -0.1402507 -0.08406678 0.11730993 0.09566523 -0.15261187 0.07933062 -0.0778132
0.04940672 -0.11225811 0.0044147107 0.0008029377 -0.3444007 0.026525728 -0.1248309 0.24372983
-0.11784241 0.0059229457 -0.15235011 0.071156584 -0.12001006 -0.16905804 -0.1371774 -0.12726513
0.01668353 -0.09002909 -0.11749039 -0.074825086 0.16196448 -0.06489026 -0.13013327 0.13116907
-0.12312992 0.062872894 -0.22556086 0.03413133 0.09837777 0.12032813 -0.24939033 -0.0048482306
0.19823009 -0.18891941 0.15679495 -0.1042647 0.4886448 -0.2311897 0.12439556 0.045609534
0.31692886 0.10658913 -0.06716146 -0.030423451 -0.11042671 -0.11767159 0.14953062 -0.09872033
0.15377112 -0.118469454 0.18979615 -0.20276651 -0.048006102 -0.017721362 0.1458683 -0.12761952
-0.07597145 -0.30239272 -0.042672075 0.03146549 -0.06852062 -0.034439113 0.15995084 -0.09035194
0.21960624 0.14057346 -0.0062189377 -0.0068208775 -0.11041432 0.13819697 0.020007897 -0.12828757
0.14041373 -0.106184445 0.07969462 0.20999503 0.05670936 0.06966879 0.07923896 0.0014572593
0.059766557 0.13616686 0.11543018 0.057292875 0.037971906 0.025845142 0.0077627823 -0.121512435
0.19505338 0.10563314 -0.1513721 0.039701633 -0.029764205 -0.07365701 0.0012163266 -0.13477866
-0.076281376 0.23353414 -0.0383428 0.06359515 -0.21954034 0.29620346 -0.20548604 0.018683018
-0.018907452 -0.113945566 -0.27797785 0.106651165 -0.1904025 0.15745863 -0.103752896 -0.10211213
-0.13762864 -0.06711296 -0.039159782 0.09955065 0.0702093 -0.1450782 0.1737928 -0.25290665
-0.19566883 0.019959044 -0.08641391 0.012899503 -0.15610759 0.15595357 0.21011055 -0.14870018
-0.04229009 0.045313004 0.28103286 -0.0152402315 0.044810668 0.22750868 0.044305 0.043487985
0.21433413 0.11344343 -0.010676196 0.15442511 0.3291586 -0.2282974 -0.14218383 0.19102916
-0.1643216 0.09025577 0.083695896 -0.24658975 0.013331791 -0.27530113 -0.087992206 -0.02723019
-0.19328582 -0.3319198 0.29211205 0.06733482 0.315372 -0.013359202 0.20275365 -0.15020993
-0.09679354 0.20400049 0.004201825 0.24656226 -0.18741581 -0.14612266 -0.2469767 0.10155378
00000000: 75d6 793c 6d4f 3fbe f01a ab3e 5aa0 4e3e
00000010: 7f78 273e d631 e1bc d9af dcbd 9920 f0bd
00000020: e62f 07be a005 7a3e 9945 8ebc e689 cc3d
00000030: aacf ebbc 986c 1c3d 4f45 21be 2e38 883e
00000040: 9366 f7bc 1ed6 19be 96c4 9dbe 32d4 f9bd
00000050: 89d3 0ebd baa4 0ebe ea56 b33d ae22 a63d
00000060: b02d 0abc 38a1 afbe ef98 dbbd 8939 71be
00000070: aba0 dd3d 77d2 183e 8545 6b3e 0d4d f3bd
00000080: 7ee3 7dbe eed1 91bd c8f3 02be de35 783e
00000090: 2145 d33d de0b 1abe 557b 0cbe 5eb7 8b3e
000000a0: 9b74 693e 8519 47be 2b49 5e3d f2f6 9d3e
000000b0: 5247 97be c23c e7bc fcf7 9cbd 91e4 94be
000000c0: f847 99be fb47 353e 63d5 f3bd fd79 d8bd
000000d0: efb6 423d d37b 833e be99 a63c e5db 393d
000000e0: 05fd 723d a9a9 713e 646d 8bbd 2d4c 1f3e
000000f0: 857b b13d 08fb 12be a14b bbbc c01f f7bc
00000100: 361f 3b3d 627c 103e cad5 683d ccac 04be
00000110: bce7 02bd 0397 0f3e 37ab 51bd 467d 1dbe
00000120: 21ac 38bd cddb f33d 1cfe 083d 278a 613e
00000130: 81d8 c13d 3027 133e 80e2 32be 4608 0ebe
00000140: 9547 513d e19d 0fbe 342b acbd 3040 f03d
00000150: 22ec c33d 4946 1cbe 1878 a23d 875c 9fbd
00000160: b35e 4a3d 94e7 e5bd 47a9 903b 3d7c 523a
00000170: 4a55 b0be 7c4c d93c 58a7 ffbd 5094 793e
00000180: 5d57 f1bd 4515 c23b ab01 1cbe 8bba 913d
00000190: d6c7 f5bd 8d1d 2dbe 3b78 0cbe ca51 02be
000001a0: e6ab 883c 2c61 b8bd cd9e f0bd e53d 99bd
000001b0: 04da 253e 2fe5 84bd a841 05be 2f51 063e
000001c0: 8a2b fcbd 81c3 803d 6df9 66be 4bcd 0b3d
000001d0: 497a c93d 986e f63d 2e60 7fbe e8dd 9ebb
000001e0: d4fc 4a3e 1774 41be db8e 203e bb88 d5bd
000001f0: a72f fa3e febc 6cbe 19c3 fe3d 10d1 3a3d
00000200: 8044 a23e 674b da3d f38b 89bd 9a3a f9bc
00000210: 6627 e2bd cdfd f0bd 8e1e 193e e22d cabd
00000220: 2d76 1d3e 1da0 f2bd ec59 423e 06a2 4fbe
00000230: 0ca2 44bd 642c 91bc 805e 153e b1ae 02be
00000240: eb96 9bbd 38d3 9abe eac8 2ebd f5e1 003d
00000250: 8a54 8cbd 0710 0dbd 27ca 233e 700a b9bd
00000260: 75e0 603e 7df2 0f3e 3bc8 cbbb ab81 dfbb
00000270: e720 e2bd 8283 0d3e 9ae7 a33c d15d 03be
00000280: 9ec8 0f3e 3b77 d9bd ef36 a33d f008 573e
00000290: 1348 683d 83ae 8e3d 0948 a23d 8201 bf3a
000002a0: c7cd 743d 536f 0b3e a966 ec3d efab 6a3d
000002b0: 6e88 1b3d 31b9 d33c f05e fe3b 83db f8bd
000002c0: 13bc 473e 3056 d83d 4a01 1bbe 2e9e 223d
000002d0: 10d4 f3bc 7dd9 96bd 266d 9f3a 6b03 0abe
000002e0: 6939 9cbd 9323 6f3e 570d 1dbd 2d3e 823d
000002f0: 2fcf 60be fba7 973e ef6a 52be 210d 993c
00000300: cde3 9abc 4b5c e9bd 1d53 8ebe ed6b da3d
00000310: dff8 42be d63c 213e 667c d4bd 2a20 d1bd
00000320: 86ee 0cbe 8572 89bd 0266 20bd 36e1 cb3d
00000330: e5c9 8f3d 618f 14be bdf6 313e fb7c 81be
00000340: 695d 48be 2681 a33c c7f9 b0bd 7058 533c
00000350: abda 1fbe 4bb2 1f3e 3827 573e dc44 18be
00000360: 6038 2dbd 219a 393d 8ae3 8f3e 2ab2 79bc
00000370: 648b 373d 09f8 683e 2979 353d 7520 323d
00000380: 687a 5b3e 0755 e83d 36eb 2ebc 9e21 1e3e
00000390: 7a87 a83e cbc6 69be a398 11be 269d 433e
000003a0: ec43 28be 04d8 b83d c168 ab3d 0682 7cbe
000003b0: 966d 5a3c 45f4 8cbe 4235 b4bd d911 dfbc
000003c0: b8ec 45be 64f1 a9be b68f 953e d7e6 893d
000003d0: 7078 a13e 8ee0 5abc a79e 4f3e a2d0 19be
000003e0: b13b c6bd 81e5 503e 76af 893b d17a 7c3e
000003f0: eee9 3fbe 2ea1 15be 76e7 7cbe 6efb cf3d

lin.weight f4 [1, 30]
0.36143488 0.107625104 0.2265235 0.05661201 -0.12762076 0.18659046 0.21335675 -0.22000971
0.2706268 -0.1868405 0.15704483 0.2736284 0.11170548 -0.10818122 0.1702756 0.12526055
-0.14541669 -0.15000658 -0.09317043 0.1174967 -0.08668069 -0.13841969 0.15544121 0.20973687
0.16136293 -0.14949417 0.14407371 0.2246711 0.13252681 0.16346271
00000000: fe0d b93e 8d6a dc3d c7f5 673e ffe1 673d
00000010: 04af 02be 9211 3f3e 317a 5a3e 3a4a 61be
00000020: 998f 8a3e 1e53 3fbe 5cd0 203e 0619 8c3e
00000030: d8c5 e43d 1e8e ddbd ba5c 2e3e 4d44 003e
00000040: 1de8 14be 539b 19be 23d0 bebd 1ca2 f03d
00000050: a585 b1bd e4bd 0dbe fb2b 1f3e 43c5 563e
00000060: 533c 253e 0015 19be 0f88 133e 2e10 663e
00000070: 1cb5 073e c562 273e
