models/neural_network_GraphConv_dynamics_MAK_graph_size_10/neural_network.pth (torch, 18655 bytes, 10 tensors)

conv1.lin_rel.weight f4 [30, 1]
00000000: 2226 d03e 44e9 cc3e 473d 8a3f e017 fabd
00000010: 73e8 49bf cfc0 30bf 7172 37be 1cf5 aebd
00000020: 0a38 18bf 2dd9 873d 3555 2ebf 6b7d d3be
00000030: 9fdf 453f 778d 2f3f 36aa 983e 9dc4 73be
00000040: 3341 2d3f 8021 01bc e020 0ebe 2c5e efbe
00000050: e5f8 88bf a387 e93e 5d3b 373f ee6b c7bc
00000060: bd67 ae3e fd56 0cbf ae48 a7be 1c78 3e3f
00000070: 09c4 fd3e 04a7 da3e
0.40654093 0.40021718 1.079995 -0.12211585 -0.78870314 -0.690442 -0.1791475 -0.08542845
-0.5946051 0.0663322 -0.68098766 -0.41306624 0.77294344 0.68575233 0.2981736 -0.23805471
0.6767761 -0.007881522 -0.13879728 -0.46751535 -1.0700957 0.45611295 0.71574956 -0.024343457
0.3406352 -0.54820234 -0.32672638 0.7440202 0.49563625 0.42705548

conv1.lin_rel.bias f4 [30]
00000000: 1515 60bf e4dd 423f 85fb 343f 39fb 173f
00000010: 6d47 a43e fb29 89bf ced9 74bf 7465 193f
00000020: 2f9d 6e3e ac13 853e 9a02 47bf 912e 773f
00000030: 7da1 a43f 951f 46bf cdf6 173f 6a6e b43e
00000040: 8f5b 403f 3288 33bf 4449 c4bd deca d33d
00000050: 02be 73bf cb70 9cbd fcf0 4cbf 9d00 b53d
00000060: 44c7 72bf 48ca 1abf f4c4 553e a992 1e3e
00000070: 2bf8 b0be 7b9f 46bf
-0.8753217 0.7611983 0.7069629 0.5936771 0.32085744 -1.0715936 -0.95644844 0.5992043
0.23302148 0.2599157 -0.77738345 0.9655543 1.2861782 -0.7739194 0.59360963 0.3524049
0.7513971 -0.7012969 -0.09584287 0.10341428 -0.95211804 -0.07638701 -0.8005521 0.088380076
-0.94835305 -0.60464907 0.20875913 0.15485634 -0.34564337 -0.775871

conv1.lin_root.weight f4 [30, 1]
00000000: cdd6 1dbf 8fdf 1cbf fdb8 30bf 9b8f 34bf
00000010: 09e1 04bd 8990 83bf 5b5e 1dbf acfe 30bf
00000020: d18a 6b3e 4ea4 52bf 37ef b23d 2445 90be
00000030: a4d5 e73e 6c24 273f fef4 273f 5029 163f
00000040: 64ab 9cbe 9230 8e3f 70ad c73e c90b 433f
00000050: d5cb 81bf 63c5 0a3e 8aa2 38be 1c46 9f3e
00000060: 6954 74be 343d 613f a6a0 533f 036d 333f
00000070: d906 45bf 90db 6ebf
-0.61655885 -0.61278623 -0.6903227 -0.70531625 -0.032441173 -1.0278484 -0.614721 -0.691386
0.23002173 -0.8228196 0.08737033 -0.2817775 0.45280182 0.6528995 0.65608203 0.5865679
-0.3059951 1.1108572 0.3899951 0.7618986 -1.014033 0.1355186 -0.18030754 0.31108177
-0.23860325 0.87984014 0.82667005 0.70088214 -0.76963574 -0.93303776

conv2.lin_rel.weight f4 [30, 30]
00000000: 937e 013e 694c fbbc 2958 403e c056 cd3c
00000010: 0f2a cdbd 5da7 433b 791c 3fbe 597b e03d
00000020: d7c5 833c 9ded 133e a7bb 583c ab59 2ebe
00000030: d463 f23d a5f3 733c 3bf6 7d3d 9135 883d
00000040: 8182 7c3d efa1 c3bd 28f5 2b3d 7425 96bd
00000050: 29e3 4cbe c969 533e b54d f8bd 385b e43c
00000060: 9829 d53d f649 e63d 3068 f6bd 34b0 9bbd
00000070: 944c 5dbd 9e06 aa3c 8bd7 523e 3409 69be
00000080: fb30 24be e1f3 71ba 22e6 a03d 600e 96bd
00000090: c37a 01be 07df 063d f3a6 163e 8ea3 3abe
000000a0: df91 143d 8ebb f03b d8b6 25be ed0f 2e3d
000000b0: 99f6 fbbd dfdf 0abe 39dc 02be ffb4 06bc
000000c0: ec53 ecbd 5808 2a3e 1281 a6bd 8afa cbbd
000000d0: a7d8 e23c 4493 a73d 0a6d 00bd d25b 243e
000000e0: b784 0d3c 7214 5c3d d835 ab3d 9b31 163d
000000f0: ea56 f33d 114c ce3d 4693 06be bc1e 243e
00000100: f756 7fbc c900 8b3d 87d7 883d 06e6 dbbd
00000110: 082b c9bd ca2c 9d3e 2a9f afbd b88a bb3d
00000120: 9a7c 0ebd 398c 7e3d 0a54 aabb 0c1e c83d
00000130: c9b2 f63c bdab 3dbf 604b 4bbe 73e6 a73d
00000140: 4a42 47bd 690a f2bd 6dce f8bd cac5 2dbe
00000150: 8061 7cbe cda0 083e 515b 43be 0fa4 433e
00000160: c4e7 ffbd 2e76 b63d 94b1 013e 4a54 9b3d
00000170: 466f 523d 49bd aebd d4b4 873d 83c5 96bd
00000180: 6d94 fcbd d9ce 1c3e de01 a3bd 1089 8cbe
00000190: 62f8 0abe afa2 343d f3e7 ac3d a3fc 203e
000001a0: a93e 17be ecad 9fbd e0e7 22be 560e 093f
000001b0: c6fa 0abe aeea 57bd 8868 b3bd d01c 35be
000001c0: 259d 1e3d 2e26 0fbe 2cea c5bd 3798 c93d
000001d0: 65d3 8abd 7bb6 f5bd 1082 1cbe 5323 ddbd
000001e0: 443b 05bd 3661 383e 9c7b 1fbd 16b7 75bd
000001f0: 4499 1a3e 565d e8bd 7f64 153e f49d 543e
00000200: cb5c 1a3e de6f c73d 2412 f73d f036 c83d
00000210: 529d fcbd 1e9e 06be 652b 02be 4ec1 423d
00000220: 9433 9b3d 2619 d3bd 1f44 063e 8a76 3abc
00000230: 0a5e 29be fabb 313b f278 ee3b cecd 303e
00000240: 0e1a d6bd e64f 643d f2b0 1f3e f6aa c83d
00000250: 1983 593b b276 e1bd 36ee 35bd ce04 11be
00000260: 4bf4 e2bc 2c83 37be 8bdf 1dbe 6418 103e
00000270: 5489 23bd a529 8fbd dbf4 82bd ed52 73be
00000280: 84f7 393e a211 64bd 6e30 ee3d 0b51 b13d
00000290: 08fb f43d 6bc5 bfbd 6107 fdbd bcae de3e
000002a0: b9ba f2bd 64e3 d53d 2d92 053e 7f1d e83d
000002b0: 1540 edbd a302 293e 6e49 80ba ee95 19be
000002c0: 80b0 7bbc 3e2d a23d f007 42be 54eb f73d
000002d0: b22a 463e 43d6 f7bd 9dff 9e3d 945c 07be
000002e0: 1ac8 37be c058 273e 228f 0c3e 33fd 2dbe
000002f0: 5fa8 abbc 7566 3fbd b332 a43c d4e3 39be
00000300: 0b8d b5bd f1d5 b2bd 7c1a a93c 9a96 a63d
00000310: 7b9c d4bc 49ab 2f3f b74d afbd c65f 45bd
00000320: 4c90 a53d 5c6b dbbd 0fad bc3d 63ae cc3b
00000330: 315e a43d 2f79 233d 3af7 d33d 1ed6 023e
00000340: dae5 e13d 0eb5 853d 99a0 323d bc62 463e
00000350: f554 d33d cd1e 77bb cdec 52be 9219 8cbd
00000360: 86a6 4dbe a2f1 523d 6f81 24be 8720 2f3e
00000370: 6192 363d 4d6d 32be c0c1 e2bd 241e 403e
00000380: 88b4 c1bd b815 42be a8fb af3c f4c7 44be
00000390: 8c8d 643d 052c 2ebe f9de d8bd ea18 6d3e
000003a0: 8be8 02bd c580 c6bd 24ad d9bd 14b4 52be
000003b0: c14f 15be 5bbb 85bc da7f ecbd 9b62 78bc
000003c0: 5b39 c73d 7c24 a13c 6434 2ebe 63d6 1f3e
000003d0: fd8e a23d e547 793d 23ae 483d 9413 0c3e
000003e0: af17 033e 7f6e 5e3d 8e24 adbd 2a03 5b3e
000003f0: 800f ecbd 28b4 3abd f6ba 113d 6fce f73d
0.1264594 -0.030676084 0.1878363 0.02506578 -0.10017788 0.0029854395 -0.18663205 0.10961027
0.016085548 0.14446111 0.013228334 -0.17026393 0.11835447 0.014889632 0.0620024 0.06650842
0.061647896 -0.09552371 0.041981846 -0.07331362 -0.2000853 0.20645823 -0.121241964 0.027875528
0.10408324 0.11244576 -0.12031591 -0.076019675 -0.05402811 0.020755108 0.20590036 -0.22757417
-0.1603431 -0.0009229761 0.07856394 -0.073269606 -0.12644486 0.03292754 0.14712124 -0.18226454
0.036271926 0.007346577 -0.1618303 0.042495657 -0.12302894 -0.13561963 -0.12779321 -0.008221864
-0.11539444 0.16604745 -0.08130087 -0.09959896 0.027691199 0.081823856 -0.031353988 0.16050652
0.008637599 0.053730436 0.08359879 0.0366684 0.11881812 0.10073102 -0.13142118 0.16027349
-0.015584699 0.06787259 0.066817336 -0.10737233 -0.09822661 0.30698234 -0.0857528 0.09157318
-0.034786798 0.062145445 -0.0051980065 0.09771356 0.030114548 -0.74090177 -0.19852972 0.081982516
-0.048647203 -0.11818392 -0.121487476 -0.16969982 -0.24646568 0.1334259 -0.19077803 0.19105552
-0.12495378 0.0890926 0.12665397 0.07584436 0.05137565 -0.08532197 0.06626287 -0.07361891
-0.123329975 0.15313281 -0.079593405 -0.2744832 -0.13571313 0.04410046 0.08442678 0.15721373
-0.14769997 -0.07796845 -0.15908766 0.535375 -0.13572225 -0.052714042 -0.08760172 -0.17686772
0.038724083 -0.13979408 -0.09663805 0.09843486 -0.067786016 -0.11997696 -0.1528399 -0.10797753
-0.032527223 0.18005833 -0.038936242 -0.059989057 0.15097529 -0.113459274 0.14589117 0.2076338
0.1507446 0.09738134 0.12064007 0.097761035 -0.12334694 -0.13146254 -0.12711866 0.04754763
0.07578197 -0.10307531 0.13111924 -0.011380801 -0.1653978 0.00271201 0.0072776014 0.17266008
-0.10454188 0.05574026 0.15594843 0.09798233 0.0033189713 -0.110089675 -0.04441663 -0.14161989
-0.027704379 -0.17921132 -0.15417306 0.14071804 -0.03992589 -0.06990365 -0.06394359 -0.23762102
0.18160826 -0.05568088 0.11630331 0.08658036 0.11961943 -0.09363826 -0.12354923 0.43492687
-0.11852021 0.10443762 0.13044043 0.11333751 -0.11584488 0.16504912 -0.0009787509 -0.149986
-0.015361905 0.079187855 -0.1894834 0.12105432 0.19352224 -0.12101414 0.07763598 -0.1321891
-0.17947426 0.16342449 0.13726476 -0.16991119 -0.020954309 -0.04672857 0.020043707 -0.18153316
-0.088647924 -0.08732212 0.020642512 0.08134194 -0.025953522 0.68620735 -0.08559745 -0.04818704
0.08084163 -0.107138366 0.09212696 0.0062463745 0.08025778 0.03991049 0.10349889 0.12776992
0.11030169 0.06528674 0.04361019 0.19373602 0.10318939 -0.0037707568 -0.20598145 -0.06840815
-0.20083055 0.05149997 -0.16065 0.17102252 0.04457319 -0.17424507 -0.11072111 0.18761498
-0.09458262 -0.18953598 0.021482304 -0.19216901 0.055799052 -0.1700898 -0.10589404 0.23154035
-0.03196005 -0.096925296 -0.10628727 -0.20576507 -0.14581205 -0.01632469 -0.11547823 -0.015160228
0.097277366 0.019670717 -0.17012173 0.15609126 0.07937429 0.06085958 0.048994195 0.13679343
0.12802003 0.054304596 -0.08454238 0.21387926 -0.11526394 -0.045581967 0.03557869 0.12099921

conv2.lin_rel.bias f4 [30]
00000000: 2fab 1a3d d7ff 58bd a3b2 993d 20a2 c4bd
00000010: 0f1b 053e 5773 e1bd b794 02be 60d1 5dbd
00000020: 5c3a b23d b888 2ebc 4131 5e3e 9162 9b3d
00000030: d574 02be 5dcc e4bb c9c9 d4bc e20c 353d
00000040: c759 8dbd 53c0 c03d 9d33 233e 23f1 00be
00000050: 5207 0fbe 7b79 493d e5dc ca3d 934c 42be
00000060: a8a8 653e f7d3 4b3e 5100 0abe 3878 c0bc
00000070: c48f 8fbd 10ca 923d
0.03776091 -0.052978363 0.075047754 -0.096012354 0.12998603 -0.110083275 -0.12752043 -0.054154754
0.087025374 -0.0106527135 0.21698476 0.075871594 -0.1273988 -0.00698237 -0.025975125 0.04420174
-0.06901889 0.09411683 0.15937658 -0.12591986 -0.13967636 0.04918812 0.099054135 -0.18974523
0.22427619 0.19905077 -0.13476683 -0.023494825 -0.07009843 0.071674466

conv2.lin_root.weight f4 [30, 30]
00000000: a6d6 9dbd 1e23 b5bd 193d cbbc 349a 073e
00000010: e9e1 cebd e72e 463d 8521 b6bd 5fc3 213d
00000020: d24f d03c 7356 d63d a9b8 9cbd 9fb3 723d
00000030: 3298 d4bd a748 c1bd 2bc8 5a3e 82c4 a83b
00000040: c7aa ca3d 2ae4 3cbe bb01 a43d ff40 07bd
00000050: 4bbd c0bc 0a1f ed3d 927b 3cbd f9c2 a43d
00000060: e926 dd3d 075c 85bd 2ef0 a1bd 54d3 10be
00000070: bd66 0c3e 67e4 b7bd a644 28be 8efa 9dbc
00000080: 24d2 66b9 443a e53d 2099 133e 7da6 fc3d
00000090: 5721 333e 5d5d cdbd efe5 39bd 9f0c 473d
000000a0: 693d fe3d 3a95 9dbd b84e f23d 7ffc 4d3c
000000b0: 86e1 bb3d 8887 e3bd 9956 2dbe 8830 83bd
000000c0: 3e82 333e 500b 86bc ee8d 5cbb 4016 d43c
000000d0: cb9a 783d 1a63 8abd b173 fdbd e707 21be
000000e0: 5128 a03d 3948 e53d 878a c63d 8a24 2abe
000000f0: d726 28be d8eb 903d eb9e 523e b436 723e
00000100: 885e 0a3d 0ee2 d9bd b7ca 6abd fdba ec3d
00000110: 638a acbd 4b1c ca3e 6a66 5abd 5d25 153e
00000120: 3d9b 503e 6229 ba3d f2bf 5c3e 6152 a4bd
00000130: f36f dc3c b309 6fbf 462a d0bd 884c 4a3e
00000140: 1888 96bd 884b 063e 1096 98bd 87e5 0cbe
00000150: 09e7 37be 4bfd 113d 46c7 463e 6a11 e6bc
00000160: 7e76 2d3d 4efa 25be d7f3 98be 7781 6a3c
00000170: 7165 4abd 1768 d3be eb04 453d 6e24 b6bd
00000180: 48a1 01be 6f0d b0be 32c4 db3c d8b1 95bf
00000190: 95ca fb3c 108d 2bbe b44b 4bbe ece0 473c
000001a0: 66e1 af3c 557d 1f3e 1a1c 10be fdea cc3f
000001b0: b598 333e 294e c0bc d4cb 453e 52d4 b5bd
000001c0: e98f 9d3d 15e9 5a3e daa0 6abe d69e 54bd
000001d0: e07c 1f3e 9d52 b3bd 76fc 40bd 4fdc f2be
000001e0: 69c0 4cbf 75a1 103c 44b9 2f3d 3d33 01be
000001f0: 4e36 4bbd 815c a8be f331 86be 40c1 e1bd
00000200: c036 5abe 98d9 1bbf f07e 42be e9ee 9ebc
00000210: d1ba 613e 66c7 b43e 9a3f 85bb fa37 c83d
00000220: 1c31 56bc e5a8 8b3e 8148 843e 7df5 0cbd
00000230: 5d70 a7be b358 f63d 5685 75bd b5cf db3e
00000240: 0e39 0fbf 466e a5ba 5958 923e daa6 7b3e
00000250: 760b 0d3e ccdd 8dbf e0cf ce3d 3041 25be
00000260: d4a2 a83d de11 38be dab3 283d ba8b 4f3e
00000270: f04a d9bc 99fb e8bd e010 27be ef6d 62bf
00000280: 4c88 123e f06f c8ba 0c42 50be 948b 9ebd
00000290: 021b fb3c 3520 623d 48d8 9b3d 50e4 bb3f
000002a0: f55b f3bb 2dd9 ef3d bc34 f63d caa1 e6bd
000002b0: d6d6 cebd 76b8 c93d 5e3c 9e3e dfbf 233e
000002c0: e874 06be 7a82 19be d75f a93d 40a9 cebd
000002d0: db92 b53d 62c1 eabd e790 f23d 33c1 4b39
000002e0: d84d da3d 6ccb 75bd 33c8 02be 94d7 94bd
000002f0: 08f3 31be 2b02 c3be fc4c f8bd fa77 123d
00000300: 197f cc3c c8e9 583e de3d 2a3e 2d84 a8bc
00000310: 607b f73b fd23 4e3f 0146 9fbd 799e d23d
00000320: e61d 51be dc14 b8bd bedd 363e b735 1a3e
00000330: 4782 0ebd e68b 13be 32d8 233e 30e1 39bc
00000340: 8012 9a3d cf18 f8bc 58d0 30bc 2242 95bd
00000350: 6d51 d83d 0357 ae3c fedb 97bd 3574 e9bb
00000360: 907f 62be 7046 cd3d 2bf3 57be df33 83bd
00000370: e000 29be 6e75 3a3e 75cd dd3d 24df 283b
00000380: 6188 493e 930b f03d b2fa 85bd fd84 ec3b
00000390: efc0 a93d 87b0 373d ad89 2abe c2f3 283c
000003a0: 3c8f 283e c937 f43d e0fd 4cbd d9c4 2ebe
000003b0: 3347 f43d fc54 e83d 15fa 55bd 6be5 433c
000003c0: 0d45 183d 45f1 333d c720 eebd 6772 1c3d
000003d0: ad08 303e 9649 bc3d 5758 533e 205f 4abc
000003e0: 05bd 1cbd 1ef5 0dbe 4c8a bf3c 4c33 a13d
000003f0: 86e7 c13b eb86 50bd d90b cdbd 6c7b 203e
-0.077069566 -0.08844589 -0.024809407 0.13242418 -0.10101683 0.048384573 -0.08893112 0.03949296
0.025428686 0.10465708 -0.07652409 0.05925333 -0.103805915 -0.094376855 0.2136542 0.0051503787
0.098958544 -0.18446413 0.080081426 -0.03302097 -0.023527762 0.11578186 -0.046016283 0.080450006
0.10798437 -0.065116934 -0.07907139 -0.14143115 0.13711067 -0.08979111 -0.16432437 -0.019284513
-0.00022012793 0.11192754 0.14413881 0.123364426 0.17493187 -0.10027573 -0.045385297 0.04859602
0.12414057 -0.07694478 0.11831421 0.012572407 0.091738746 -0.11109835 -0.16927566 -0.06405741
0.17530152 -0.016362816 -0.0033653933 0.025889516 0.060694497 -0.067571834 -0.12375582 -0.15725671
0.0782019 0.11195416 0.09694391 -0.16615501 -0.16421066 0.070762336 0.20568435 0.2365368
0.03378156 -0.1063882 -0.05732223 0.11559103 -0.08424833 0.3947471 -0.053320326 0.14565034
0.20371719 0.090899244 0.21557596 -0.08023525 0.02690885 -0.93374175 -0.10164313 0.19755757
-0.073501766 0.1311475 -0.07450497 -0.13759433 -0.17959227 0.03564195 0.19411954 -0.028084476
0.04234933 -0.16208765 -0.29873535 0.014313093 -0.04941315 -0.41290352 0.048100393 -0.08893667
-0.1265918 -0.3438525 0.026826952 -1.1694899 0.030736247 -0.1675303 -0.19853097 0.012199622
0.021469783 0.15575154 -0.1407322 1.6009213 0.17538722 -0.02347477 0.19316036 -0.088783875
0.07693464 0.21377976 -0.22912923 -0.05190929 0.1557498 -0.087559916 -0.047115766 -0.47433707
-0.79981095 0.008827557 0.042901292 -0.12617202 -0.049612336 -0.32883075 -0.26209983 -0.11023188
-0.21309948 -0.60878897 -0.18993735 -0.01940103 0.22043921 0.3530838 -0.00406642 0.09776302
-0.013073232 0.27277294 0.25836566 -0.034413803 -0.32702914 0.12028637 -0.059941612 0.42931905
-0.55946434 -0.0012621365 0.2858303 0.24575368 0.13773903 -1.1083312 0.10098243 -0.16138148
0.08234182 -0.17975566 0.041187145 0.20268145 -0.02652499 -0.113761134 -0.16315031 -0.88448995
0.14309806 -0.0015292149 -0.20337695 -0.07741466 0.030652527 0.055206496 0.07609612 1.467905
-0.0074267336 0.11711345 0.12021777 -0.112613276 -0.100995705 0.09849636 0.30905432 0.15991162
-0.13130534 -0.14991179 0.08270233 -0.100908756 0.08865901 -0.11462666 0.11844044 0.00019431561
0.10659379 -0.06000845 -0.12771682 -0.07267681 -0.17377865 -0.38087592 -0.121240586 0.03575895
0.024962949 0.2118293 0.16625163 -0.020570839 0.0075525492 0.80523664 -0.07777024 0.102841325
-0.20421562 -0.089883536 0.17858025 0.15059553 -0.03479221 -0.14408836 0.1600044 -0.011345193
0.0752306 -0.030285267 -0.0107918605 -0.072880045 0.10562406 0.021281725 -0.07415007 -0.0071244487
-0.22118974 0.100232005 -0.21088855 -0.06406378 -0.1650424 0.18208858 0.108302034 0.0025767768
0.1968093 0.117209576 -0.06541957 0.007218002 0.08288752 0.044846084 -0.16654082 0.010312023
0.1646089 0.11924703 -0.0500468 -0.17067279 0.11927643 0.113443345 -0.05224045 0.011956553
0.037175227 0.043931264 -0.116273455 0.03819504 0.1719081 0.09193723 0.20639168 -0.012351781
-0.0382662 -0.13863036 0.023381375 0.07871112 0.0059174923 -0.050909918 -0.100120254 0.15672082

conv3.lin_rel.weight f4 [30, 30]
00000000: c20a c8bd ac83 63bd f4e2 b63d 4d80 ae3d
00000010: d31f 58bd 5fe7 393d 35f4 e23d e501 d83d
00000020: cd07 fdb9 ffeb 3e3d dd0a 7ebc 2eee 23be
00000030: c4d5 bebd d69e 09bc 441c 1bbd b728 1bbe
00000040: c879 bc3d 5b35 b8bd 6b45 25be 9604 ff3c
00000050: 8d32 dabd 3c3e 9abd 7dc2 1c3e c9b3 0abe
00000060: 2860 043e c846 253e f495 3bbe 69e3 d0bc
00000070: 2030 a0bd 1eba 1f3e 0cbe 1e3d 4bd3 2abd
00000080: 98db 073d 8379 6abe 6ad2 83bd 4c57 a3bc
00000090: 6d23 7bbd e4bf a8bd c5c6 863d 9c61 45bd
000000a0: f0ec f53d fb85 7c3d 6b6e b8bc 7a71 6a3d
000000b0: 5e11 2c3d deec 71bd 81c9 2dbe 5548 b7bc
000000c0: c3fd e53d e34d af3d abe7 75bd f090 9dbd
000000d0: fee0 2f3e 0bc2 bcbd 5518 ab3d c090 09bd
000000e0: ed56 833d ce61 ca3c 9e57 f13d fa4a dbbd
000000f0: 0a6d 87bd 05bb 34be d43d bc3d 9e92 c3bd
00000100: b5d0 c9bc 9776 b43d b58e 0ebd f073 2bbe
00000110: c590 84bc be34 063e 18be 033e c119 9c3c
00000120: 2f7d 9ebc a42c 0abe 31d5 333e c604 afbd
00000130: 836b 3abd d28e 503c 8489 c1bd e426 dbbb
00000140: 7e12 313e 9cf1 ee3d e83b 133c f8d6 2b3e
00000150: 9f55 92bd f9be 933c 868d bc3d 8276 ddbd
00000160: 2b9f fdbc e2ac 85bc 627a 493d c14a 1e3d
00000170: 0aa7 bbbd 79c2 d5bd cb11 00bd 9903 053e
00000180: 6ba1 1fbe 05a8 0c3e 9ea7 203e fbc1 56bc
00000190: 54cf 8d3d 2d6e 8cbc 0f4b 44be 2670 fdbd
000001a0: 578c 82bd 2687 b5bc cd38 983d 6a0a 15be
000001b0: 692b 0f3e 5e2d fcbc 122e a6bd 403b 5d3d
000001c0: 3a1f f13d c426 603d 0c1d 263e f23a 3e3d
000001d0: bf66 d7ba d522 863d f547 1ebe 1bd8 e63c
000001e0: ce26 f9bd 6cb4 3c3e 0b42 313e a7b9 b53c
000001f0: 9cb7 00bd 0f1e 82bc a8c1 37be 6a6b 25be
00000200: 0ecd 9c3d 59ce 473e 6b70 2dbe f989 7abe
00000210: 5320 083e e9d7 ddbd 5b0f 133e fd70 c539
00000220: 3231 31be 375f 4b3d 572e c5bd 5055 033c
00000230: 7c31 6a3c 6d4d 3f3e 0ad8 cdbd cb32 203e
00000240: ded3 8dbc 4a42 bfbc 576b 023e e6b3 83bc
00000250: 6018 9bbd 55ab e5bd 13e9 1dbe 7583 ec3c
00000260: 9431 413e ad56 993d d13f b8bd 43e4 75bd
00000270: 1b7c a5bd d156 a9bc b194 1cbe 1976 4ebd
00000280: 84a4 9abc 0b67 933c a1df 023e 8a1e 1fbe
00000290: dacf ac3d c2bb e8bd c847 183e 83c0 00be
000002a0: 3403 923d 3829 cdbc 9362 8a3d 0d54 14be
000002b0: bab0 d73d 4529 303d 2621 8a3d 3a0f e1bd
000002c0: a43f 393e b151 2dbe 3ed9 af3c 4caf 1d3e
000002d0: f812 4bbc c989 77bd bbf6 a9bd 83c3 d0bb
000002e0: a67c 79bd bee0 c6bd 8def 7dbd d8b7 ad3c
000002f0: a5ac e9bd 5221 f3bc e74c ca3c 95d6 4fbe
00000300: a0da 083d 2d93 4e3e 4350 ad3d 0e8a 3abd
00000310: 06f2 c1bd 210f 1fbd 1774 bdbd 374f adbd
00000320: e0e2 1bbe d49a 8dbd 916c 9a3d 5ef6 e03d
00000330: 283a fa3c fac6 a03c 4fe0 0cbe 7723 a9bb
00000340: 54bd e23d ba80 783c 0a02 6f3d 3b28 16be
00000350: 605b 82bd c586 d4bd b3e4 2a3e 16de d8bb
00000360: 002f bdbc dee0 f33d 41f4 c23d 271b 063e
00000370: 82e5 983d a756 54be ff3f e53d 4ea9 9ebd
00000380: b722 f63c 73a6 11be c0c2 98bd 7008 f2bd
00000390: 1771 b9bd 555e b6bd 84da 2ebe ca81 d5bc
000003a0: 6c60 c43a 8acc d8bd 2017 233e bb25 1c3e
000003b0: 3788 e6bd 41a1 093e 0fc4 313e fba1 b9bd
000003c0: c693 a4bd a11b 1e3e 8d20 3e3d 0fbc 5abe
000003d0: 0d23 ac3d f7ba 143c 163a 143e 6a7f 843c
000003e0: b7f2 f5bd 128c 403d 8c3c 18be 760e 1c3e
000003f0: 3b66 fcbd e88d 1d3e 6332 0f3e 2d19 0dbe
-0.09767677 -0.055545494 0.089300066 0.08520565 -0.052764725 0.04538667 0.11081735 0.10547236
-0.00048261732 0.046611782 -0.01550552 -0.16008827 -0.09318116 -0.008399686 -0.037868753 -0.1515225
0.092029154 -0.08994552 -0.16139762 0.031130116 -0.10654173 -0.075314015 0.15308566 -0.13545145
0.12927306 0.16140282 -0.18318921 -0.025499063 -0.07821679 0.15598342 0.03875546 -0.04170541
0.033168405 -0.22897916 -0.06436618 -0.019939087 -0.06131308 -0.08239725 0.06580881 -0.04818879
0.12008083 0.06165121 -0.022513589 0.057237126 0.04200875 -0.059063785 -0.16971399 -0.022373358
0.11230042 0.085597776 -0.06003539 -0.0769366 0.17175671 -0.09216698 0.0835425 -0.03358531
0.06413064 0.02470484 0.1178429 -0.1070766 -0.066125944 -0.17649467 0.0919148 -0.095494494
-0.024635652 0.08811682 -0.034804065 -0.16743445 -0.016182313 0.13106057 0.12865484 0.01905525
-0.019346802 -0.13493592 0.17561795 -0.08545832 -0.045512687 0.0127293635 -0.09450057 -0.0066879857
0.1729221 0.11667177 0.008986451 0.16781223 -0.07145237 0.018035399 0.09206681 -0.10813619
-0.030959686 -0.016317789 0.04918898 0.03864551 -0.091627195 -0.10437483 -0.03126697 0.12989654
-0.1558892 0.1373597 0.15688941 -0.013107772 0.0692431 -0.01714238 -0.19169258 -0.12374906
-0.06374424 -0.02215917 0.07432709 -0.14554754 0.13981403 -0.030783352 -0.08114256 0.054011583
0.11773534 0.05472447 0.16222018 0.046442933 -0.0016433819 0.065496124 -0.15457137 0.028179219
-0.121656045 0.184282 0.1731035 0.022183252 -0.031425104 -0.015883474 -0.17944968 -0.16154256
0.076562986 0.19512309 -0.16937415 -0.24466695 0.1329358 -0.10832197 0.14361326 0.0003765895
-0.17303923 0.04965135 -0.09627979 0.008015946 0.014294025 0.1868188 -0.10050972 0.15644376
-0.01731294 -0.023347039 0.1273626 -0.016076993 -0.075730085 -0.112143196 -0.15420942 0.028871277
0.18866569 0.07487235 -0.08996547 -0.06003214 -0.08080312 -0.02067128 -0.15291096 -0.050405595
-0.018877275 0.01799347 0.1278062 -0.15538993 0.08438082 -0.11363937 0.14871132 -0.12573437
0.07129517 -0.025044069 0.06757083 -0.14485188 0.10531755 0.043008108 0.06744604 -0.10989232
0.18090683 -0.16925694 0.021465894 0.15398902 -0.012394659 -0.060434137 -0.08299013 -0.006370963
-0.06090989 -0.09710835 -0.06199603 0.021205828 -0.114098825 -0.029678974 0.024694873 -0.202967
0.033411622 0.2017333 0.08462574 -0.045541815 -0.094699904 -0.038832787 -0.09250658 -0.08462375
-0.15223265 -0.06914297 0.07540239 0.10984491 0.03054531 0.01962613 -0.13757442 -0.0051616984
0.11071268 0.01516741 0.058351554 -0.14663784 -0.06365085 -0.10377268 0.16688804 -0.0066182716
-0.0230937 0.119081244 0.09519244 0.13096295 0.0746565 -0.2073618 0.11193847 -0.07747136
0.03004585 -0.14223652 -0.074590206 -0.118180156 -0.09054773 -0.08904711 -0.17075545 -0.026062865
0.0014982349 -0.10585888 0.1592679 0.15248768 -0.1125645 0.1344042 0.17359947 -0.090640984
-0.08035998 0.15440227 0.04641776 -0.21360801 0.08405123 0.009077779 0.14475283 0.016174037
-0.12009185 0.04700858 -0.14866847 0.15239891 -0.123241864 0.15386164 0.13984065 -0.13779135

conv3.lin_rel.bias f4 [30]
00000000: 3cd9 7b3d 30bf 163e ba96 3a3e eb68 8b3d
00000010: 53e8 3a3e 66c6 013e dd57 c8bc b676 3cbe
00000020: 4a9d adbc 23fa 17be cb90 ffbd d626 01bd
00000030: d1d0 c43d 8108 303e f8fc cc3c 70b1 d3bc
00000040: bc0e 5d3e 42fc 6fbd 950f 33be ec2f 34be
00000050: edcd 063e 1b2a d03d c8af 63bd 8ea5 203e
00000060: 75e3 1a3e cae1 a13c 906b 753d 1526 173e
00000070: 5f71 c63c cdd6 0cbd
0.061486468 0.1472137 0.1822156 0.06807121 0.18252687 0.12673339 -0.024455959 -0.1840466
-0.021193165 -0.14841513 -0.12478789 -0.031531177 0.09610141 0.17190744 0.025022969 -0.025841445
0.21587652 -0.05859018 -0.17486413 -0.17596406 0.13164492 0.10164281 -0.05558756 0.15688154
0.1512583 0.019760985 0.059917033 0.14760621 0.024223981 -0.034384537

conv3.lin_root.weight f4 [30, 30]
00000000: e6ab 90bd 2047 86bc 1a29 b1bd 5f71 e73e
00000010: ab94 ccbc 1e56 1a3f ae0d 0fbd 415a 35be
00000020: 61c6 c63d a09c 04be ed24 7dbe 6721 97be
00000030: 58e8 80bc efd5 a23d d23d 793e 9a81 3ebe
00000040: b2b5 e0bd af7d e5bd 8116 47be d97b 2e3e
00000050: a122 f5bd ab68 a2bd 3d9f d33d 14b8 e53e
00000060: d4f4 77be aefe e7be 1076 de3d 32f6 14be
00000070: 8292 413e 7500 6b3c 9f35 cdbd 1217 ea3c
00000080: 5223 8d3d d3c4 9c3f 4747 e33e 1e7e 6e3d
00000090: 7c47 9f3e 46fb 9f3d 1a1c db3d a4f1 88bc
000000a0: f1f8 e13d 8d42 94bc fb2b 963d eb0c c03d
000000b0: 168e bd3d 3070 013d 7246 683d aaa4 bfbd
000000c0: f25e 023e 719a 57be 9ed5 15be 0a89 993c
000000d0: 9381 8ebd ec85 973e 3195 203d c2fe f5be
000000e0: 7e55 61be 95ee 23bc 3a64 d23c 2524 bc3b
000000f0: baa5 5e3e 4e3b 733d 9111 383e c63c 05bf
00000100: bb38 393d 6eff 8dbe e82d 993b 75ae 203e
00000110: 51d2 a63d 6309 0cbe f93c 1d3e 4f34 903c
00000120: 5393 a13d 36ae a53d 4411 1abe a4af 5a3d
00000130: 1fcf 87bd f6e8 8f3e eabc d4bd 9821 51be
00000140: 92b8 67be 92e0 2dbe f815 4a3e beb6 b0be
00000150: d062 2b3e 50a1 233f 1ba4 9bbd a531 1b3d
00000160: 9de3 3cbe a63d eebb a574 8f3d cb55 dfbd
00000170: c874 c0bb 959a d23d 80a1 1e3e 0604 fc3b
00000180: cb69 0a3e 5746 1b3e af92 bdbd e78b 5c3e
00000190: 82ee c93c e930 d23d 6b00 a03d 9ab4 263e
000001a0: 95fa 9dbd 2e1d 40be 9f69 e73d a9fe 6bbd
000001b0: 7c6b 49bd 1805 bf3a 1aba 35be 2d53 2d3e
000001c0: e111 573e 13d4 333d 9bb3 bdbd 72fe f13c
000001d0: 7367 60be 15da 653c 9ea8 163e 2703 e0bd
000001e0: 7c2e 41bd 879e 313e 086d 83bd 845f 293c
000001f0: 2451 aebd 37a5 1a3e 2b20 10be a268 283c
00000200: a287 ba3c 67fe c6bd c2a8 29be 2e3f 84bd
00000210: b59f 91bd 9d18 103e bbb6 203d a4d9 a0bd
00000220: 2445 e53d 181c c53d 1c24 febd 7ac7 e13d
00000230: ad61 c43d 3dbf 243e b06c 28be 29dd 61bd
00000240: ae12 f7bd 4204 c8bd 5ce9 e6bd 3d76 34be
00000250: c66f 9dbb 8f0b 16bd b478 9d3d 1e60 b7bc
00000260: 81fe 153d 8a47 d0bd 69fd 0d3e ed13 a93d
00000270: 3d7f 623e bb9a e0bd 7ebc 8fbd 8651 fc3d
00000280: e991 21be eeec 40bd 389a 4e3e ac84 93bd
00000290: c1ed bcbd fb5b e5bd 91bd 30bd 826c e53c
000002a0: 5d6e 583d f016 523c a175 233e 3077 113d
000002b0: 4e74 b73d c433 623e 659b 093c 774c 16be
000002c0: b4a2 cc3d c7da 673d f801 563c 6ae5 563e
000002d0: 0968 a3bd 2511 013e d1a7 a0be 982b 073f
000002e0: a062 683e c1c8 f43e eade 513e b0bb 0fbe
000002f0: 5842 14be 5c62 563d eb4b bbbd 8337 c5bd
00000300: 1407 60bd 72fb fb3d 1a91 9b3d 0968 9e3d
00000310: fb92 26be 01b3 753d ff09 b13d 2ee3 9c3d
00000320: 768d a2bd 291b ea3d f0ce 163d 55f0 2e3e
00000330: fc15 dcbd 81b9 f0be 123b 193e 4a5e bf3d
00000340: b869 143d d674 79bd a444 bcbc aecc 613e
00000350: 5f56 8eba d68d 1d3f 1165 71be 8610 143f
00000360: 8324 183d 9398 3cbe 7b64 c73d 7af7 0ebe
00000370: 6e21 30be c43a b0bd b664 903e 0d00 29be
00000380: 6692 023e 1f1f 91bd 82ca 133e 159a 82be
00000390: ea30 8dbe 6ebe 5d3e 57c0 28bc 59b2 343d
000003a0: 73e3 6cbd 9024 dc3e b1a1 333d b1bb f0be
000003b0: da63 493e 0c0d 47bd dc9c 143e 3b77 afbd
000003c0: 4216 69be 46a8 973e a815 4dbe 5c3c 0e3f
000003d0: 6219 6fbe b9b4 303f fe9e 3ebe 07ca 7abe
000003e0: 0691 923e 50fa bd3d 9ca4 bdbd 46b6 98be
000003f0: 6931 673e 57a6 54be 6a05 273e d0cd fcbd
-0.07064037 -0.016391337 -0.086504176 0.45203683 -0.024973234 0.60287654 -0.034925155 -0.1771021
0.097058065 -0.12950373 -0.24721117 -0.2951767 -0.01573579 0.07950961 0.24339989 -0.18604127
-0.10972156 -0.11205613 -0.19442178 0.17039432 -0.119694956 -0.0793012 0.10333107 0.44867003
-0.24214488 -0.45311493 0.108623624 -0.14547041 0.18903545 0.014343371 -0.10019993 0.028575454
0.068915024 1.2247566 0.44390318 0.058225743 0.31109226 0.078115985 0.10698719 -0.016716786
0.1103381 -0.01809814 0.07332607 0.09377464 0.09255616 0.03160113 0.056707807 -0.09357579
0.12731531 -0.21055008 -0.1463227 0.018742103 -0.06958308 0.29594362 0.03920478 -0.48045927
-0.22005269 -0.010005613 0.025682557 0.0057416135 0.21742907 0.05938273 0.17975451 -0.5204586
0.045220118 -0.2773394 0.004674662 0.1569155 0.081455834 -0.13675456 0.1535529 0.017603068
0.07889428 0.08089869 -0.15045649 0.05339016 -0.06631302 0.28107423 -0.10387595 -0.20422971
-0.22629002 -0.16980198 0.19734943 -0.3451442 0.16736913 0.6391802 -0.0759966 0.03788914
-0.18446203 -0.0072705327 0.0700467 -0.109050356 -0.0058732964 0.102833904 0.15491295 0.0076909093
0.1351692 0.15163551 -0.09256493 0.21537744 0.024649862 0.10263235 0.0781258 0.16279832
-0.0771381 -0.18761131 0.112994425 -0.05761591 -0.04917477 0.0014573662 -0.17746773 0.1692626
0.21002914 0.04390342 -0.09262773 0.029540274 -0.21914463 0.014029046 0.1471276 -0.10938101
-0.04716347 0.1734563 -0.064172804 0.010337714 -0.0851157 0.15102087 -0.14074771 0.010278853
0.022769753 -0.09716492 -0.16568282 -0.06457363 -0.0711054 0.14071889 0.039236765 -0.07854012
0.11194828 0.09624499 -0.12409231 0.11024375 0.09588943 0.16088577 -0.16447711 -0.055142555
-0.1206411 -0.09766437 -0.112749785 -0.1762323 -0.004804584 -0.036632117 0.07689038 -0.0223847
0.036619667 -0.10169895 0.138662 0.08255754 0.2211885 -0.109670125 -0.07018374 0.12320237
-0.15778317 -0.047100954 0.20176017 -0.072030395 -0.092250355 -0.111991845 -0.043149535 0.028005842
0.052839626 0.012822852 0.1596284 0.035514057 0.0895773 0.2209006 0.008398865 -0.14677607
0.09991971 0.056605127 0.013061993 0.20985952 -0.079788275 0.12604196 -0.31378034 0.52800894
0.22693872 0.47809413 0.20495191 -0.14036441 -0.14478433 0.052339897 -0.091453396 -0.09629729
-0.05469425 0.12303819 0.07596035 0.07734687 -0.16267006 0.059985165 0.08644485 0.076605186
-0.07937138 0.11430962 0.036818445 0.17083867 -0.10746381 -0.47016528 0.1496394 0.09344156
0.036233634 -0.06090244 -0.02298195 0.22050735 -0.0010859481 0.6154455 -0.2357371 0.5783771
0.037144195 -0.18417577 0.09735962 -0.13961592 -0.17200252 -0.08604959 0.28201836 -0.16503926
0.12751159 -0.07086014 0.1443272 -0.2550818 -0.2757638 0.21654674 -0.010299764 0.044115398
-0.0578341 0.42996645 0.043855373 -0.47018197 0.19666997 -0.048596427 0.14512962 -0.08567663
-0.22762397 0.2962057 -0.20027792 0.5556085 -0.23349527 0.6902576 -0.18615338 -0.2449113
0.2862627 0.09276259 -0.09259912 -0.29826564 0.22577442 -0.20766579 0.16310659 -0.12343943

lin.weight f4 [1, 30]
00000000: 5e42 94be 439b 5cbe 64c6 353e 4617 77be
00000010: 75f1 bebd 8407 463e 6b3f 6dbe 5046 44be
00000020: 5ebe a2be ea87 763e 4437 65be fb7c 793e
00000030: 9f56 c1bd dde6 4fbe 1012 bbbc ed81 793e
00000040: 6f09 943e b80c 3a3e f34f ed3d 4529 61be
00000050: e7b2 2f3e f4a1 243e 7fb5 31be dfac a0bd
00000060: 180f bcbb ddef 3d3e 1302 70bd 0258 bfbd
00000070: 4267 0bbe 52ca 413e
-0.28956884 -0.21543603 0.17751461 -0.24129972 -0.09323398 0.19338804 -0.23168723 -0.19167447
-0.31785864 0.24075285 -0.22384363 0.24364083 -0.0944035 -0.20302911 -0.022835761 0.24365969
0.28913447 0.18168914 0.11587515 -0.219884 0.1715809 0.16077405 -0.17354392 -0.078454725
-0.005739104 0.18548532 -0.058595728 -0.09342958 -0.13613608 0.18924835
