models/neural_network_NeuralPsi_dynamics_SIS_graph_size_10/neural_network.pth (torch, 3995 bytes, 8 tensors)

g.0.weight f4 [30, 1]
-0.76464945 1.2818723 0.5904246 0.6775685 1.13345 0.81002456 -0.6501689 0.78302354
-0.59992766 0.6663612 -1.1688646 -0.78350097 0.67396945 -0.5260598 0.33527142 -1.014625
-1.129879 0.32493472 -1.0824234 0.5013633 -0.62292296 0.11458771 0.6862546 0.0480589
0.48013085 1.0648737 0.13020259 0.5479014 -0.8494482 1.0122138
00000000: 11c0 43bf 6414 a43f 1126 173f 2175 2d3f
00000010: e414 913f c55d 4f3f 7871 26bf 3b74 483f
00000020: dc94 19bf a696 2a3f 5b9d 95bf 8593 48bf
00000030: 4389 2c3f dbab 06bf b2a8 ab3e 3bdf 81bf
00000040: e09f 90bf d85d a63e da8c 8abf 5859 003f
00000050: e177 1fbf f6ac ea3d 62ae 2f3f 69d9 443d
00000060: b6d3 f53e c84d 883f d453 053e 4443 0c3f
00000070: 7075 59bf 3990 813f

g.0.bias f4 [30]
-1.0436127 0.060817484 0.12782352 0.64431274 0.24087887 -0.7446537 0.065474905 -0.3780514
-0.29404363 0.7833714 0.50397116 -0.39367217 -0.5766849 -0.102415286 -0.28221166 0.19379163
-0.34837863 0.73613924 0.47008973 0.32892668 0.44262892 -0.05504179 0.14802913 -0.13867341
0.25486 -0.42394385 0.5117774 0.963954 0.54178065 0.34126484
00000000: 1a95 85bf c11b 793d 2be4 023e aef1 243f
00000010: f3a8 763e a0a1 3ebf b517 863d f48f c1be
00000020: e38c 96be 078b 483f 4104 013f 668f c9be
00000030: 9fa1 13bf 1bbf d1bd 0c7e 90be 5071 463e
00000040: af5e b2be 9f73 3c3f 9aaf f03e 1469 a83e
00000050: 42a0 e23e 8073 61bd f394 173e 6700 0ebe
00000060: 037d 823e 2b0f d9be d803 033f b0c5 763f
00000070: 23b2 0a3f 44ba ae3e

g.2.weight f4 [1, 30]
-0.005725868 -0.23903342 -0.19169748 -0.28147954 -0.32538322 -0.1623733 0.42868102 -0.24390125
0.20115401 -0.0920376 0.37415394 0.121442884 -0.21278878 0.32252708 -0.033092346 0.38764966
0.20956671 -0.14621052 0.50319827 -0.20074451 0.34765974 -0.064791836 -0.3617786 -0.0032232811
-0.18898593 -0.55442196 -0.009624773 -0.03962525 0.23266146 -0.13813546
00000000: 10a0 bbbb 2dc5 74be 584c 44be 161e 90be
00000010: a198 a6be 3045 26be 147c db3e 40c1 79be
00000020: 51fb 4d3e 367e bcbd 1b91 bf3e 0cb7 f83d
00000030: 4de5 59be 4522 a53e d78b 07bd 047a c63e
00000040: a898 563e 36b8 15be 9ad1 003f f88f 4dbe
00000050: 7500 b23e 95b1 84bd 0b3b b9be af3d 53bb
00000060: 8785 41be 99ee 0dbf 39b1 1dbc 164e 22bd
00000070: ce3e 6e3e 6273 0dbe

nn_fun1.0.weight f4 [30, 1]
-0.9118288 0.95331866 -0.7713857 0.44307652 0.965319 0.23671004 -0.64236623 0.4778955
-0.7231142 0.5539515 -1.0373895 -0.6750164 0.31859696 0.67297745 0.7608326 0.42213935
-0.4921703 0.4460403 0.6952915 0.8695233 -0.77721584 -1.0128224 0.7778752 -1.0265054
-1.4855825 0.6006857 0.7622382 0.21554787 0.65154 -0.26729462
00000000: 9d6d 69bf b10c 743f 8979 45bf edda e23e
00000010: 251f 773f 1e64 723e 1d72 24bf b8ae f43e
00000020: 031e 39bf c4cf 0d3f 2ec9 84bf e0cd 2cbf
00000030: 241f a33e 4048 2c3f edc5 423f a622 d83e
00000040: bffd fbbe 655f e43e a0fe 313f 1499 5e3f
00000050: 9ef7 46bf 2aa4 81bf d422 473f 8764 83bf
00000060: 9127 bebf 8ac6 193f 0b22 433f 95b8 5c3e
00000070: 53cb 263f d7da 88be

nn_fun1.0.bias f4 [30]
-0.20159405 -0.25806788 0.17419106 -0.40786967 -0.5169426 -1.0795599 -0.5935106 1.1275197
0.9144501 0.20614123 0.46382892 0.7056612 1.023634 0.59938747 0.006333683 0.76575714
-0.44741043 0.6059091 0.7126697 0.06858637 -0.4237179 0.26912603 0.3530318 0.18130317
0.97812253 -0.0076205223 0.6067253 0.7862814 -0.021157287 -1.1814542
00000000: ac6e 4ebe 7921 84be 245f 323e 4bd4 d0be
00000010: 5a56 04bf 052f 8abf 50f0 17bf 9152 903f
00000020: 6719 6a3f b016 533e fc7a ed3e 36a6 343f
00000030: 7006 833f 7571 193f c98a cf3b a908 443f
00000040: fb12 e5be dc1c 1b3f 8571 363f 0377 8c3d
00000050: 8df1 d8be e3ca 893e 96c0 b43e 8aa7 393e
00000060: 3d66 7a3f 93b5 f9bb 5952 1b3f bd49 493f
00000070: 0c52 adbc e439 97bf

nn_fun2.0.weight f4 [30, 1]
0.7370277 -1.3721765 -0.86261314 1.0370511 -0.27878696 -1.0973465 1.1727387 0.032796115
1.2632833 0.86309874 -1.4141977 -1.2367332 -0.32031214 -0.6603991 -1.3967333 -1.0361778
0.747414 0.6741304 -0.04324767 0.9539036 0.4463198 0.7033947 -0.08952327 -0.46541196
1.0382138 0.13123716 -0.6230757 1.2786342 0.5260277 0.49826056
00000000: d9ad 3c3f 7ba3 afbf 37d4 5cbf 17be 843f
00000010: 2abd 8ebe da75 8cbf 4d1c 963f 3855 063d
00000020: 44b3 a13f 0af4 5c3f 6e04 b5bf 464d 9ebf
00000030: f4ff a3be ea0f 29bf 28c8 b2bf 79a1 84bf
00000040: 8656 3f3f cf93 2c3f 7824 31bd 0733 743f
00000050: 0784 e43e ad11 343f fa57 b7bd 7a4a eebe
00000060: 31e4 843f 0963 063e e481 1fbf 49aa a33f
00000070: c0a9 063f 021c ff3e

nn_fun2.0.bias f4 [30]
0.14095192 1.2280705 -0.4381717 -0.27609384 0.7222343 0.6635308 -0.7856775 -1.2744375
0.15426892 0.5452277 -1.6872776 -0.69410664 0.37368718 0.9081805 0.9376146 0.8815952
0.82282317 -0.064713955 1.2350937 -0.65310836 -0.034538604 -0.39108956 0.059190013 0.39649922
-0.76089185 0.8183023 0.8200261 -0.903867 0.63229454 -1.0402689
00000000: b355 103e 6a31 9d3f 0b58 e0be 2c5c 8dbe
00000010: 59e4 383f 28dd 293f 2922 49bf c520 a3bf
00000020: acf8 1d3e 0b94 0b3f b6f8 d7bf f9b0 31bf
00000030: ed53 bf3e 847e 683f 8307 703f 39b0 613f
00000040: 8aa4 523f c088 84bd 8d17 9e3f 1c32 27bf
00000050: 5a78 0dbd e43c c8be 3a71 723d f201 cb3e
00000060: cfc9 42bf 427c 513f 3bed 513f d463 67bf
00000070: 0ede 213f 8827 85bf

agg.0.weight f4 [1, 30]
0.09888102 0.804785 0.085692436 -0.06575319 0.63357025 -0.09329857 0.38243595 -0.21880426
-0.2529318 0.15885021 0.36743948 0.2847058 0.44239968 0.50652355 0.67179775 0.49769318
-0.21816735 -0.28139096 0.17484462 -0.58113056 0.11909121 0.53705066 0.0720335 -0.86826193
1.5623705 0.12463416 0.36433682 -0.37648568 0.1752455 0.29196337
00000000: 2282 ca3d 6406 4e3f 847f af3d 9ca9 86bd
00000010: a931 223f 5213 bfbd a5ce c33e 390e 60be
00000020: 4780 81be a1a9 223e 0721 bc3e f5c4 913e
00000030: 3682 e23e 87ab 013f f0fa 2b3f a4d1 fe3e
00000040: 4367 5fbe 7a12 90be 780a 333e f9c4 14bf
00000050: 18e6 f33d 277c 093f 4d86 933d 6a46 5ebf
00000060: c2fb c73f 3240 ff3d 5b8a ba3e bbc2 c0be
00000070: 8e73 333e 397c 953e
