models/neural_network_ResGatedGraphConv_dynamics_MM_graph_size_10/neural_network.pth (torch, 38043 bytes, 25 tensors)

conv1.bias f4 [30]
0	0x3efa194f	0.48847434
1	0x3d7f6e84	0.062361255
2	0x3ca0276d	0.01955005
3	0xbe865f24	-0.26244462
4	0xbe1cfb95	-0.15330346
5	0xbdfeb257	-0.124363594
6	0xbd2420b1	-0.04007024
7	0xbe228794	-0.15872031
8	0xbefa828f	-0.48927733
9	0xbec8852e	-0.39164108
10	0xbe8e6046	-0.27807826
11	0xbe1824bd	-0.14857765
12	0x3bb76fe5	0.0055980557
13	0xbe89ed3d	-0.2693881
14	0x3e9e1add	0.3087987
15	0xbe40604c	-0.18786734
16	0xbe136535	-0.14394076
17	0x3dabbdeb	0.08385833
18	0x3deae1b2	0.11468829
19	0x3e5707a9	0.20999016
20	0xbdbdd4ea	-0.09269126
21	0xbe271768	-0.16317523
22	0xbd616215	-0.05502518
23	0x3ccd707b	0.025078049
24	0x3e1f851b	0.1557812
25	0x3e5c488f	0.21512054
26	0xbe832b56	-0.25619
27	0xbe342e11	-0.17595698
28	0x3e67c60a	0.2263414
29	0xbc4364ae	-0.011925859

conv1.lin_key.weight f4 [30, 1]
0	0x3f8e3179	1.1108848
1	0xbf898e2f	-1.0746516
2	0x3f4f2e67	0.8093018
3	0x3f40ffb4	0.7539017
4	0x3df6e76f	0.12055861
5	0x3a1974e0	0.00058539025
6	0x3eb10d34	0.34580386
7	0xbf348fcf	-0.70531934
8	0x3f67cf1c	0.905504
9	0x3ec37a8a	0.38179427
10	0xbf17cebd	-0.5929983
11	0x3dc5aa03	0.09651568
12	0xbd8c963b	-0.06864592
13	0x3ed657a5	0.41863742
14	0xbe09112b	-0.13385455
15	0x3ddbed2c	0.10738596
16	0x3f452682	0.77011883
17	0x3f21e305	0.6323703
18	0xbf030a7b	-0.51187867
19	0x3f269748	0.65074587
20	0xbf0cdb5e	-0.5502223
21	0x3db21df1	0.08697117
22	0x3f27ea4e	0.65591896
23	0xbf870dac	-1.0551047
24	0xbfb5364f	-1.4157199
25	0x3f1fe893	0.62464255
26	0xbecb614b	-0.39722666
27	0x3dc0c13e	0.09411858
28	0x3f07223e	0.52786624
29	0xbf4520c0	-0.770031

conv1.lin_key.bias f4 [30]
0	0x3f4a532f	0.7903318
1	0xbef3ad98	-0.4759338
2	0xbf4faf61	-0.8112698
3	0x3f6ca72a	0.9244257
4	0xbf5c6f59	-0.86107403
5	0xbf720216	-0.9453443
6	0x3f65e64d	0.89804536
7	0x3ebda4a8	0.37039685
8	0x3fa2b7d1	1.2712346
9	0x3e897d95	0.26853624
10	0x3f206b9f	0.62664217
11	0x3e913b00	0.28365326
12	0x3f5b9473	0.8577339
13	0x3e8c666e	0.27421898
14	0x3f333459	0.7000175
15	0xbf39cae5	-0.7257522
16	0x3ef9ea04	0.48811352
17	0x3e881578	0.2657888
18	0xbdae7a7d	-0.085194565
19	0xbdfc67eb	-0.12324508
20	0xbf79860e	-0.97470176
21	0xbf0adfa8	-0.5424752
22	0xbe78c534	-0.24293977
23	0xbef420a4	-0.47681153
24	0x3d9af6e5	0.07566623
25	0xbf5a2e34	-0.8522675
26	0xbd91e72d	-0.071241714
27	0x3e8a10ec	0.26966035
28	0xbe21be38	-0.15795219
29	0xbf276e8b	-0.6540305

conv1.lin_query.weight f4 [30, 1]
0	0x3dd1524c	0.10220775
1	0x3f7e6817	0.9937758
2	0xbec34d04	-0.38144696
3	0x3ea13a63	0.31489858
4	0xbf149dcf	-0.58053297
5	0x3ebbe5fa	0.36698896
6	0xbf1001ba	-0.56252635
7	0x3ea96c24	0.33090317
8	0xbc391781	-0.011297108
9	0xbe340928	-0.17581618
10	0x3dfc3623	0.12315013
11	0x3ecd9fab	0.4016088
12	0x3e56ed52	0.20988968
13	0x3ed6fb15	0.41988435
14	0xbf1f26d3	-0.62168616
15	0xbf531862	-0.8245908
16	0x3f8bd372	1.0923903
17	0xbf2a2f7d	-0.6647871
18	0xbe7ed3b4	-0.24885446
19	0xbecb6251	-0.39723447
20	0x3f948378	1.1602621
21	0xbe40870e	-0.1880152
22	0xbf35f58d	-0.71077806
23	0xbdd331e6	-0.10312252
24	0xbd66e54d	-0.056371022
25	0xbdb32dfd	-0.08749006
26	0x3f25b7d1	0.64733607
27	0x3f5cb80b	0.8621833
28	0x3d0fb673	0.035086107
29	0x3e673e47	0.2258235

conv1.lin_query.bias f4 [30]
0	0x3fa46c55	1.284556
1	0x3f6258f4	0.8841698
2	0xbd58adc2	-0.052900083
3	0x3f323d6d	0.6962498
4	0x3f299763	0.6624662
5	0xbf754518	-0.95808554
6	0x3e07a268	0.13245547
7	0xbdc296d7	-0.09501427
8	0x3f9c7981	1.222458
9	0xbe151139	-0.14557351
10	0x3ee200a8	0.44141126
11	0xbe9a2f34	-0.30114138
12	0x3d835cb3	0.06414165
13	0x3f48d4f7	0.7844996
14	0x3f5695a1	0.83822066
15	0xbe3663bf	-0.17811488
16	0x3e269470	0.16267562
17	0xbf2780f1	-0.65431124
18	0x3ecb5688	0.39714456
19	0x3f0bbb4c	0.5458267
20	0x3ef9ef94	0.48815596
21	0x3f184fa7	0.5949654
22	0x3ecccf99	0.40002134
23	0x3f51857d	0.8184431
24	0xbd8affcf	-0.06787073
25	0x3e64c1d3	0.22339563
26	0x3e9546cc	0.29155576
27	0x3f4443e3	0.76666087
28	0xbf8f2c50	-1.1185398
29	0x3f4392f1	0.7639609

conv1.lin_value.weight f4 [30, 1]
0	0x3f537742	0.8260385
1	0xbf1644bb	-0.58698624
2	0xbf5da6b7	-0.8658251
3	0xbe57f0cc	-0.2108795
4	0x3f04c427	0.51861805
5	0x3f2d079c	0.67589736
6	0x3f1fe5a6	0.6245979
7	0xbc835320	-0.016030848
8	0xbfb0e90e	-1.3821123
9	0xbf474b55	-0.7784932
10	0x3f2bb306	0.67070043
11	0xbbabf15c	-0.005247278
12	0x3f83d030	1.0297909
13	0xbefb6a55	-0.49104562
14	0x3f2c9002	0.6740724
15	0xbf2f479f	-0.6846866
16	0xbe9424cd	-0.28934327
17	0x3e328767	0.17434464
18	0x3d7055d0	0.058675587
19	0x3d931773	0.07182207
20	0x3f19fe92	0.6015407
21	0x3f60b695	0.877786
22	0xbf199996	-0.5999998
23	0xbeb68de5	-0.35655132
24	0x3f4991aa	0.7873789
25	0x3b88395c	0.0041572284
26	0xbc8484ea	-0.01617666
27	0xbf7adfd0	-0.9799776
28	0x3f0c547f	0.5481643
29	0xbee2ee05	-0.4432222

conv1.lin_value.bias f4 [30]
0	0x3f1dde4e	0.61667335
1	0x3edbe5bc	0.4294871
2	0x3e6136ce	0.21993563
3	0x3e459091	0.19293429
4	0xbed533b1	-0.41641
5	0x3f16b1a6	0.5886482
6	0xbf7360ad	-0.9506939
7	0x3e709506	0.23494348
8	0xbf809870	-1.004652
9	0xbf9aa508	-1.2081614
10	0xbda0a07f	-0.07843112
11	0x3f22e2e3	0.6362745
12	0xbf63afdc	-0.88940215
13	0xbe12f62d	-0.14351721
14	0x3f8b0c50	1.0863132
15	0x3eba475c	0.36382568
16	0xbe5cc47d	-0.2155933
17	0x3eb167bb	0.34649453
18	0x3ed866ae	0.42265838
19	0x3ca1f3dc	0.019769602
20	0xbef04c5f	-0.46933267
21	0xbe3a7eb9	-0.18212403
22	0x3f59cbb0	0.8507643
23	0xbe80364d	-0.25041428
24	0xbf0f977a	-0.5609051
25	0xbf0e56ee	-0.55601394
26	0x3df7e776	0.121046945
27	0xbf15aae3	-0.5846388
28	0xbeec14c5	-0.46109596
29	0x3ef6fd77	0.48240253

conv1.lin_skip.weight f4 [30, 1]
0	0x3f6dbccb	0.928662
1	0xbe09a2a7	-0.13440953
2	0x3dcdcf61	0.1004932
3	0x3f33ef40	0.7028694
4	0x3f244db1	0.6418105
5	0x3f1eca00	0.6202698
6	0x3f4da5e7	0.8033127
7	0xbadf12fc	-0.0017019208
8	0xbfaab2a5	-1.3335768
9	0xbf5cf71f	-0.86314577
10	0xbe092e1c	-0.13396496
11	0xbec409a7	-0.38288614
12	0xbf2c1fee	-0.6723622
13	0x3e1ff320	0.15620089
14	0xbf1d27a5	-0.6138862
15	0x3f60026c	0.87503695
16	0xbf41deb1	-0.75730425
17	0xbe1e3194	-0.154486
18	0xbcc02787	-0.023456348
19	0xbf82ac42	-1.0208819
20	0x3f42f21b	0.76150674
21	0x3e8cc574	0.27494395
22	0x3eeaf4bf	0.4588985
23	0x3f4d180e	0.8011483
24	0xbf6d08de	-0.92591655
25	0xbe650e8a	-0.22368827
26	0x3f5f3416	0.8718885
27	0xbe7648ec	-0.24051255
28	0xbf3e85b7	-0.7442278
29	0x3f3278c2	0.6971551

conv2.bias f4 [30]
0	0x3d398139	0.045289252
1	0xbd83bd31	-0.0643257
2	0xbce371ed	-0.027764285
3	0xbd39e844	-0.04538752
4	0x3c9434cb	0.01809158
5	0x3d182647	0.03714588
6	0x3ca8b4e3	0.020594066
7	0xbca6497d	-0.020298714
8	0x3d6f43a6	0.058414124
9	0x3d4b1021	0.04957593
10	0xbd2d7fa7	-0.042358067
11	0x3d545cb0	0.051846206
12	0x3d4d3310	0.050097525
13	0xbd839979	-0.06425757
14	0x3d37ee56	0.04490503
15	0xbd6f1883	-0.058372986
16	0xbdf707de	-0.120620474
17	0xbe347bb6	-0.17625317
18	0xbd16ecdd	-0.036846984
19	0xbd1ad6ea	-0.037802614
20	0x3db87737	0.090071134
21	0x3d455956	0.0481809
22	0xbe237961	-0.15964271
23	0xbcd0204c	-0.025406025
24	0xbd4c88ea	-0.04993526
25	0x3ccbe014	0.024887122
26	0x3dba8478	0.09107298
27	0xbd1b180d	-0.037864733
28	0x3d52ada6	0.051435135
29	0xbd1d55ce	-0.038411908

conv2.lin_key.weight f4 [30, 30]
0	0x3dfef4ff	0.12449073
1	0xbb02eaac	-0.00199763
2	0xbe528838	-0.20559776
3	0x3dc41d98	0.09575957
4	0xbcb4e0ec	-0.022079907
5	0xbc717b3e	-0.014738856
6	0x3c8df2a5	0.017327616
7	0xbcec6305	-0.02885581
8	0xbd892b27	-0.06697684
9	0xbcec1c41	-0.028822066
10	0xbdf309d9	-0.11867113
11	0x3e441cb9	0.19151582
12	0xbc576b65	-0.013148163
13	0x3d349282	0.044085033
14	0xbe01442e	-0.12623665
15	0x3e0bcf36	0.13653263
16	0x3da78d6a	0.081812695
17	0xbba3d803	-0.005000116
18	0x3dad1081	0.084504135
19	0xbdb081c5	-0.086185016
20	0x3d6ebe6a	0.05828706
21	0xbd8899c2	-0.06669952
22	0x3d56d48a	0.052448787
23	0x3d87e570	0.066355586
24	0xbdb9639f	-0.09052204
25	0xbe242cff	-0.1603279
26	0x3e67ab2d	0.22623892
27	0xbe58a004	-0.21154791
28	0x3d4a4339	0.049380515
29	0xbdef0f08	-0.11672789
30	0xbd9745d6	-0.07386367
31	0xbdc82a24	-0.09773663
32	0xbd6b485f	-0.057442065
33	0xbd5a51d2	-0.053300686
34	0xbde343e1	-0.11096931
35	0xbdcecb10	-0.10097325
36	0x3e335d08	0.17515957
37	0xbdbb067a	-0.09132095
38	0x3b36383d	0.0027804517
39	0x3e2abdc1	0.16673948
40	0xbe7a1051	-0.24420287
41	0xbe4bdfc5	-0.1990958
42	0x3cf5a5a0	0.029986203
43	0x3e73aff8	0.23797596
44	0x3d4f16ca	0.050558843
45	0x3cff261b	0.0311461
46	0x3e0efd89	0.13963903
47	0x3cc163b7	0.023607118
48	0xbe8c27d6	-0.27374142
49	0x3d248b19	0.040171716
50	0x3c38b921	0.011274607
51	0xbe02c895	-0.12771828
52	0xbe3a4d03	-0.1819344
53	0x3d6bd44a	0.0575755
54	0xbe1543f5	-0.14576705
55	0x3e6eb461	0.23310997
56	0x3d580e91	0.052748267
57	0xbcef3492	-0.029199872
58	0x3e2517d2	0.16122368
59	0xbe6117f2	-0.2198179
60	0xbe4b2cd7	-0.19841324
61	0xbda5aa03	-0.08089068
62	0x3e20b732	0.15694883
63	0xbeafdaca	-0.3434661
64	0xbd1fa759	-0.038977955
65	0xbe3c3dda	-0.1838297
66	0xbd994b5e	-0.07485078
67	0xbe1f92cc	-0.15583342
68	0x3e3365ee	0.17519352
69	0x3e715cd5	0.23570569
70	0xbe8a7755	-0.27044168
71	0xbcd5d811	-0.026104005
72	0x3dc80390	0.097663045
73	0x3e20d9db	0.15708105
74	0x3d3d3194	0.04618986
75	0xbde83347	-0.113379054
76	0xbcf1299c	-0.029438786
77	0xbe836a56	-0.25667065
78	0xbc2636ea	-0.0101449285
79	0x3e76c5b5	0.24098857
80	0xbd5bae8d	-0.05363326
81	0xbc27f360	-0.010250896
82	0xbcaa8758	-0.02081649
83	0x3e1d4d7e	0.15361592
84	0x3e081713	0.13290052
85	0xbc944f73	-0.01810429
86	0xbe5b24d9	-0.21400775
87	0x3e932301	0.28737643
88	0x3e971b7f	0.29513165
89	0xbde7257e	-0.11286448
90	0x3de6a2e1	0.112615354
91	0xbddd5d31	-0.108087905
92	0xbdc24242	-0.09485294
93	0x3e28a940	0.16470814
94	0xbdf8b659	-0.12144155
95	0x3e20a0eb	0.15686385
96	0x3d4281ba	0.047487
97	0x3decffa9	0.11572201
98	0xbe3f97b5	-0.18710215
99	0x3de6344f	0.11240446
100	0x3cca0d81	0.024664642
101	0x3e273587	0.16329013
102	0xbc25ff9d	-0.010131744
103	0x3d5b7dd0	0.05358678
104	0x3daa7968	0.08323938
105	0x3daee530	0.08539808
106	0xbe43c696	-0.19118723
107	0x3babb7f0	0.005240433
108	0x3e4b078d	0.19827099
109	0xbdeaa20f	-0.114566915
110	0x3cb1b80b	0.021694204
111	0x3e28f9ca	0.16501537
112	0xbca03f4b	-0.01956143
113	0xbd8d25a8	-0.06891948
114	0xbc0bac8c	-0.008525025
115	0x3d706f6e	0.058700018
116	0x3d36c04b	0.04461698
117	0x3e09d877	0.13461481
118	0xbe0c1f78	-0.1368388
119	0x3e4a14f8	0.19734561
120	0x3daa3908	0.08311659
121	0xbd08d545	-0.033406515
122	0x3cfb284c	0.030658863
123	0x3bfd2c19	0.007726204
124	0x3d231691	0.039816443
125	0x3d3b1ace	0.04567986
126	0xbd35bab6	-0.044367515
127	0xbd2fa7f6	-0.04288479
128	0x3d0cdddd	0.034391273
129	0x3dab03ba	0.0835032
130	0xbdf51931	-0.119676955
131	0xbe170747	-0.1474887
132	0xbdab6dd4	-0.083705574
133	0x3e7aad8e	0.24480268
134	0xbe73c949	-0.23807253
135	0xbe6b44bb	-0.22975437
136	0x3d3383ae	0.04382675
137	0x3d2d421d	0.04229938
138	0x3dc8506d	0.09780965
139	0x3c825953	0.015911734
140	0x3be10b25	0.0068677836
141	0xbd26c441	-0.040714506
142	0x3c01e9ec	0.0079293065
143	0xbdc110ff	-0.0942707
144	0xbb9fd378	-0.004877504
145	0x3db6977b	0.08915611
146	0xbe1d03ca	-0.15333477
147	0x3c58e37c	0.01323783
148	0x3e6e6607	0.23281108
149	0x3dd2be40	0.102901936
150	0x3e0e7adc	0.13914055
151	0x3b33d916	0.0027442626
152	0xbd031154	-0.031998947
153	0x3e120a3f	0.14261721
154	0x3e484b3a	0.19559947
155	0xbaa5f061	-0.001266014
156	0x3d569047	0.052383687
157	0xbd09b44f	-0.03361922
158	0x3e10024c	0.14063376
159	0x3db72921	0.089433916
160	0xbd279305	-0.040911693
161	0xbdf0a115	-0.11749474
162	0x3db5c0a2	0.088746324
163	0x3dc84a6c	0.0977982
164	0x3ccec1bd	0.025238866
165	0xbc1c22dc	-0.0095297955
166	0xbd6fa45d	-0.05850636
167	0xbe01d702	-0.12679675
168	0x3d615ad0	0.055018246
169	0xbe7afb4c	-0.24509925
170	0x3e09fc7d	0.13475223
171	0x3d4224da	0.047398426
172	0xbdbe6aad	-0.092976905
173	0x3e163611	0.14669062
174	0x3df42cbe	0.119225964
175	0x3caf50d1	0.021400841
176	0xbcb52571	-0.02211258
177	0x3e1e5c07	0.15464793
178	0xbd2a4e83	-0.04157878
179	0x3cafef00	0.021476269
180	0xbc80cdcd	-0.015723133
181	0xbd252bfd	-0.040325154
182	0xbcbe87c6	-0.023258101
183	0x3e35afd4	0.17742854
184	0xbdddc470	-0.10828483
185	0xbe37fd88	-0.17967808
186	0xbd507b8d	-0.050899077
187	0x3b482543	0.0030539788
188	0xbd9ef452	-0.07761444
189	0x3e4bf704	0.19918448
190	0xbdd237c9	-0.102645464
191	0xbdc5050a	-0.09620102
192	0x3ce964e1	0.028490486
193	0x3e80c106	0.25147265
194	0xbe28d7fe	-0.16488644
195	0x3e806ce1	0.25083068
196	0x3e231e95	0.15929635
197	0xbbf0939b	-0.0073418147
198	0xbd07b8e3	-0.033135306
199	0xbed1b9fd	-0.4096221
200	0xbe0d515b	-0.13800566
201	0x3ba33c56	0.004981558
202	0xbe7ae338	-0.2450074
203	0x3e781de0	0.24230146
204	0x3d4d6185	0.05014183
205	0x3e18eb71	0.14933564
206	0xbe2db388	-0.16963017
207	0x3e208255	0.15674718
208	0x3dcd1233	0.10013237
209	0xbe689290	-0.22712159
210	0xbdc807f2	-0.097671404
211	0x3d8bd8ed	0.06828485
212	0xbd6d33b1	-0.057910625
213	0xbd48a5e7	-0.04898634
214	0x3d4bf335	0.049792487
215	0x3def2ae0	0.116781
216	0xbe04753f	-0.12935351
217	0x3d4a0e83	0.049330246
218	0x3e00ee3b	0.12590878
219	0xbde3b620	-0.11118722
220	0xbe1b9cdb	-0.15196554
221	0x3ced3931	0.028957935
222	0xbc9b517c	-0.018959753
223	0x3ce8878b	0.028384944
224	0x3e399e39	0.18126763
225	0xbeec06c2	-0.46098906
226	0x3d8e6d81	0.0695448
227	0xbd66a825	-0.0563127
228	0xbd491798	-0.049094766
229	0x3f3995cd	0.724942
230	0x3d927ea9	0.07153065
231	0x3de8d1fa	0.11368175
232	0xbb08587c	-0.0020804694
233	0xbdffff87	-0.1249991
234	0x3e56cd3d	0.2097673
235	0x3e2a8cdf	0.166553
236	0xbe3acd77	-0.18242441
237	0xbde4d814	-0.11174026
238	0x3d643da8	0.055722862
239	0xbe1ef911	-0.15524699
240	0x3e335ff2	0.17517069
241	0x3ddd1312	0.10794653
242	0xbe10ff56	-0.14159903
243	0xbddccb90	-0.10781014
244	0x3d714593	0.05890424
245	0xbaa3ea38	-0.0012505716
246	0xbd99ea51	-0.075153954
247	0x3e5b39e9	0.2140881
248	0xbd6536b9	-0.05596039
249	0x3d161fc6	0.036651395
250	0x3de3ba36	0.11119501
251	0x3c939599	0.01801567
252	0xbe1043ce	-0.14088365
253	0xbe33c8ce	-0.1755707
254	0x3df18b75	0.117941774
255	0x3e563f8d	0.2092268

conv2.lin_key.bias f4 [30]
0	0x3e4ebbab	0.20188777
1	0xbe113112	-0.14178875
2	0xbce8cb6c	-0.028417312
3	0x3e32f388	0.17475712
4	0xbe646e00	-0.22307587
5	0xbc033567	-0.008008338
6	0xbdc51d72	-0.09624757
7	0x3dc654f2	0.09684171
8	0x3e523553	0.20528154
9	0x3e2dd19c	0.16974491
10	0xbd91ed72	-0.07125367
11	0x3e3cbf50	0.18432355
12	0xbdd1d587	-0.10245805
13	0xbd913c65	-0.070915975
14	0xbc8051f3	-0.015664076
15	0x3e26f306	0.16303644
16	0xbe3301f5	-0.17481215
17	0xbe5e0b1b	-0.21683924
18	0x3d3cf873	0.046135377
19	0x3e34db40	0.17661762
20	0xbe3c1f37	-0.18371283
21	0x3def025a	0.116703704
22	0x3c46c003	0.01213074
23	0x3ae0c9be	0.0017149968
24	0x3b6781ed	0.0035325245
25	0xbdc18253	-0.094486855
26	0xbdfc0375	-0.12305347
27	0x3cc0aaaf	0.023518888
28	0xbe375d1b	-0.1790661
29	0xbc111667	-0.008855439

conv2.lin_query.weight f4 [30, 30]
0	0xbdba8b09	-0.0910855
1	0xbe160af5	-0.14652617
2	0x3dd34d33	0.10317459
3	0x3e1755eb	0.14778869
4	0x3cd4df63	0.025985425
5	0xbcb84945	-0.022495875
6	0xbd9df96c	-0.07713589
7	0x3e5e0141	0.21680166
8	0x3e051083	0.1299458
9	0xbd8e2790	-0.0694114
10	0xbd25085f	-0.040291186
11	0x3e6203b0	0.22071719
12	0xbd2a2c8e	-0.041546397
13	0x3c8b0556	0.016970318
14	0xbd55cda5	-0.05219807
15	0xbca6a952	-0.02034441
16	0xbccc0ceb	-0.024908504
17	0x3d7ba7ab	0.061439198
18	0x3d900748	0.07032639
19	0xbd73de1f	-0.059538003
20	0x3b6be3fe	0.0035994048
21	0x3db47a09	0.08812339
22	0xbdca30ae	-0.09872566
23	0xbce04706	-0.027377617
24	0x3dd3c072	0.103394404
25	0xbe609b6a	-0.21934286
26	0xbdae2b07	-0.085043006
27	0x3d1698da	0.036766864
28	0xbdbeceb2	-0.09316768
29	0x3e374ef6	0.17901215
30	0xbdbf97d4	-0.09355131
31	0x3e4e7b61	0.20164253
32	0x3e262320	0.16224337
33	0xbd971a57	-0.07378071
34	0xbdd92438	-0.10602611
35	0x3cffe506	0.031237137
36	0x3c8f4679	0.017489659
37	0x3d822274	0.06354228
38	0x3c78ebc7	0.015192932
39	0xbb727c81	-0.003700048
40	0xbcc2a756	-0.023761433
41	0x3d1e5632	0.03865642
42	0x3b929b88	0.004474107
43	0x3e917395	0.28408495
44	0xbe91ed5a	-0.28501397
45	0xbe64451a	-0.22291985
46	0x3e76fe4a	0.24120441
47	0xbe871fff	-0.263916
48	0xbd20986b	-0.039207857
49	0x3eadadea	0.33921748
50	0xbe124994	-0.1428588
51	0xbe17592c	-0.1478011
52	0xbddabf55	-0.10681025
53	0xbc3320d1	-0.010933117
54	0x3d7e0341	0.062014822
55	0x3e0452c9	0.12922205
56	0xbe50c96b	-0.20389335
57	0x3d8ae003	0.06781008
58	0xbc5f13f3	-0.013615596
59	0xbe961752	-0.29314667
60	0x3cbfc2bc	0.023408286
61	0xbcf577a3	-0.029964274
62	0x3e62462a	0.22097078
63	0x3c52b3fe	0.012860296
64	0x3d00517b	0.031327706
65	0xbd535716	-0.051596723
66	0x3e1c2187	0.15247165
67	0xbe927d85	-0.2861139
68	0x3e5a86cc	0.21340483
69	0x3e8937ca	0.26800376
70	0xbe94960b	-0.29020724
71	0xbdc62e9c	-0.09676859
72	0x3e2b59a3	0.16733412
73	0x3e9e1d30	0.30881643
74	0xbdbb71b9	-0.0915255
75	0xbe61ac22	-0.2203832
76	0x3e771be6	0.24131736
77	0xbde80ce2	-0.11330582
78	0xbe6e622a	-0.23279634
79	0x3e937384	0.2879907
80	0xbe27ba0c	-0.16379565
81	0xbe50e26f	-0.20398878
82	0xbd8c0d09	-0.06838424
83	0xbd4f4f0e	-0.0506125
84	0x3db97cb9	0.09056992
85	0x3e575224	0.21027428
86	0xbdba1913	-0.09086814
87	0x3dc5e222	0.09662272
88	0x3d9856b6	0.07438414
89	0xbdb3392e	-0.087511405
90	0x3d1413c0	0.036151648
91	0x3dfd4668	0.123669446
92	0xbe5ec206	-0.21753702
93	0xbd4292e6	-0.047503375
94	0xbdae4d8b	-0.08510884
95	0xbdebbdf4	-0.1151084
96	0x3e036b5e	0.12833926
97	0x3d9ccf74	0.07656756
98	0xbd47b151	-0.048753086
99	0x3bdf7ba1	0.0068201576
100	0x3e23a053	0.15979128
101	0xbd8447f2	-0.06459035
102	0xbcc41286	-0.023934614
103	0xbc8df259	-0.017327474
104	0xbabf650a	-0.0014602256
105	0xbe2dc2a5	-0.16968782
106	0xbcaab539	-0.020838367
107	0x3deb0d86	0.11477189
108	0x3e6ea0b2	0.23303488
109	0xbe468dd6	-0.19390044
110	0xbbe659ae	-0.0070297336
111	0xbd58f384	-0.05296661
112	0x3e3313e6	0.1748806
113	0x3d3e3cb8	0.046444625
114	0x3d55b102	0.05217076
115	0xbe222d87	-0.1583768
116	0x3d457fdb	0.048217636
117	0x3db81570	0.08988464
118	0x3e0c51de	0.13703105
119	0x3dd7c385	0.10535339
120	0xbe4d76af	-0.20064805
121	0x3d9ea200	0.07745743
122	0x3be6fb40	0.0070489943
123	0x3b4835c4	0.0030549625
124	0xbd6af216	-0.057359777
125	0xbe517a67	-0.20456849
126	0xbd3ae6ca	-0.045630254
127	0xbe6ed639	-0.23323907
128	0x3e02cb9f	0.12772988
129	0x3e2578a0	0.16159296
130	0xbe613948	-0.21994507
131	0x3c0110a0	0.007877499
132	0xbd5d812c	-0.054078266
133	0x3bf260c3	0.007396789
134	0xbe5314b7	-0.20613371
135	0xbe3c11ab	-0.18366115
136	0x3cb66042	0.022262696
137	0xbe87da23	-0.26533613
138	0xbe2d6684	-0.16933638
139	0x3e83b64d	0.25725022
140	0xbb66a76f	-0.0035195013
141	0xbdbcae9a	-0.0921299
142	0xbd5bd5d2	-0.05367071
143	0x3d85b703	0.06529047
144	0x3dbf7c0d	0.09349833
145	0x3e82199e	0.2541017
146	0xbdb8cb1c	-0.09023115
147	0xbcdd1cc2	-0.026991252
148	0x3e7fbdfc	0.24974817
149	0xbe4db0f1	-0.20087029
150	0x3dd7fda6	0.105464265
151	0x3e7366c3	0.23769669
152	0x3e3c1b7c	0.1836986
153	0xbe4ac760	-0.19802618
154	0xbb08a5c7	-0.0020850764
155	0xbd588d9c	-0.052869424
156	0xbdb76ce3	-0.08956315
157	0xbddda4a6	-0.1082242
158	0x3e1e3cc4	0.15452868
159	0xbcd03f9c	-0.025420956
160	0xbc10ca44	-0.008837286
161	0xbe571b1f	-0.2100644
162	0x3dd414ec	0.10355553
163	0x3ddc16a2	0.10746504
164	0xbe2aec43	-0.16691689
165	0x3e0027bd	0.12515159
166	0x3dbb3e5f	0.09142756
167	0x3d53f188	0.051744014
168	0xbda97ff7	-0.082763605
169	0x3dfcfb83	0.123526596
170	0xbe59db68	-0.21275103
171	0xbd9b961a	-0.07596989
172	0x3ce5cf56	0.028052967
173	0x3e414c0c	0.18876666
174	0x3d8da7cd	0.06916771
175	0xbd8af493	-0.0678493
176	0xbe45eefb	-0.19329445
177	0x3b29cbc4	0.0025908807
178	0x3e0a2a71	0.13492753
179	0x3df829cc	0.12117347
180	0xbe0804f4	-0.1328314
181	0x3dc281c4	0.09497407
182	0x3d53baaf	0.051691707
183	0xbe44d0bf	-0.19220255
184	0xbe6db77f	-0.2321453
185	0x3bf780b5	0.007553185
186	0xbcf4337c	-0.029809706
187	0xbc63a15b	-0.013893451
188	0x3e841e11	0.2580419
189	0x3e8e9299	0.2784622
190	0xbe7e4182	-0.24829677
191	0xbe111d4d	-0.14171334
192	0x3e174d58	0.14775598
193	0x3dc7d83b	0.097580396
194	0xbe2c5742	-0.16830161
195	0x3cd6f849	0.026241438
196	0x3e052d7c	0.13005632
197	0xbe8f39aa	-0.27973682
198	0xbde50035	-0.1118168
199	0x3d0fd8ac	0.035118744
200	0x3cb31b84	0.021863706
201	0xbe010b58	-0.12601984
202	0xbe9a9212	-0.30189568
203	0x3e1141e0	0.14185286
204	0x3def277f	0.11677455
205	0x3dd8273c	0.10554358
206	0x3c29f693	0.010373729
207	0x3db664ce	0.08905946
208	0x3dc9a94f	0.09846746
209	0xbe85606d	-0.2605013
210	0xbe20a840	-0.15689182
211	0x3e802678	0.2502935
212	0x3d2d2edb	0.042281013
213	0xbc98e72b	-0.018664917
214	0xbdd19055	-0.10232607
215	0xbe16d31b	-0.14728968
216	0xbd6a85cf	-0.057256516
217	0x3e1cf082	0.15326121
218	0xbe2c3074	-0.16815358
219	0x3d914dc7	0.07094913
220	0xbe308608	-0.17238629
221	0xbd987fa5	-0.07446221
222	0xbe30096f	-0.17191099
223	0x3d2afdb5	0.04174586
224	0x3c8a5d84	0.016890295
225	0xbe0242e0	-0.12720823
226	0x3ca50be3	0.02014727
227	0xbe378575	-0.17922004
228	0xbc2483a7	-0.010041154
229	0x3e18ac5f	0.14909504
230	0xbd7e51ff	-0.062089916
231	0x3dea6746	0.11445479
232	0xbe6283c2	-0.22120574
233	0xbe47d0dd	-0.19513269
234	0x3e366f3a	0.17815867
235	0x3d513908	0.05107978
236	0xbddeb709	-0.10874755
237	0x3e0132c2	0.12617019
238	0x3e00be48	0.12572587
239	0xbc20b026	-0.009807622
240	0x3d556b4d	0.052104283
241	0x3ded3c72	0.11583795
242	0xbd8890bd	-0.06668232
243	0xba71519f	-0.0009205583
244	0x3cfffe43	0.031249171
245	0x3e16a35e	0.14710757
246	0xbe339999	-0.17539062
247	0xbde8c529	-0.1136573
248	0x3bd4771e	0.0064839264
249	0xbe41f817	-0.18942295
250	0x3dda51d7	0.10660141
251	0x3cbd8b3b	0.02313768
252	0xbd9301bf	-0.071780674
253	0xbd02c053	-0.031921696
254	0x3dcaa04f	0.09893858
255	0x3c88528e	0.016640928

conv2.lin_query.bias f4 [30]
0	0xbd31d608	-0.043417007
1	0xbe3afd67	-0.18260728
2	0xbdaa84d9	-0.0832612
3	0x3e360572	0.17775515
4	0xbc8af224	-0.016961165
5	0x3d720908	0.059090644
6	0xbe0337b2	-0.12814215
7	0x3e3e35bc	0.18575186
8	0xbcb0f787	-0.021602405
9	0xbdcba416	-0.09943406
10	0x3e63e555	0.22255452
11	0x3e146649	0.14492144
12	0xbd237864	-0.039909735
13	0xbc8f5e32	-0.01750097
14	0x3d470453	0.04858811
15	0x3cccd8a8	0.025005654
16	0x3d51656d	0.051122118
17	0x3b951af7	0.0045503336
18	0xbdd1f3c9	-0.102515765
19	0xbd413403	-0.047168743
20	0x3cac9705	0.021068105
21	0x3d8c9b90	0.06865609
22	0xbe4e40ec	-0.20141953
23	0x3d316da8	0.043317467
24	0xbca171c0	-0.01970756
25	0x3e0ac349	0.13551058
26	0xbd509917	-0.050927248
27	0x3db3d507	0.08780866
28	0xbe0ce704	-0.1376
29	0x3c17acfa	0.009257549

conv2.lin_value.weight f4 [30, 30]
0	0x3e1a01da	0.15039769
1	0x3cf3ea67	0.029774858
2	0xbdd848e9	-0.105607815
3	0x3ddc1dc9	0.107478686
4	0x3e238628	0.15969145
5	0x3b7a789f	0.0038218868
6	0xbbf4030d	-0.0074466527
7	0xbdeeb123	-0.1165488
8	0x3d99fc59	0.075188346
9	0xbe0685b6	-0.13136944
10	0x3e328e98	0.17437208
11	0x3d86e6ac	0.06586966
12	0xbe430d5b	-0.19048063
13	0x3de17132	0.110079184
14	0x3d9061a6	0.07049875
15	0x3bf2c9d8	0.0074093156
16	0xbe5a8c7f	-0.21342658
17	0x3d09b701	0.03362179
18	0xbca6325d	-0.020287687
19	0x3d4d89de	0.05018031
20	0xbd7a2e0e	-0.061079077
21	0x3d8eb35f	0.06967806
22	0x3db912b6	0.09036772
23	0xbdaaa3d2	-0.083320275
24	0xbd01134d	-0.031512547
25	0x3d6c7eb1	0.05773801
26	0x3ce590dc	0.028023176
27	0xbe2f15b4	-0.17098123
28	0xbde85371	-0.1134404
29	0x3e13f65b	0.14449446
30	0x3e1f812c	0.15576619
31	0xbe1d0ea0	-0.1533761
32	0x3de4c7a0	0.11170888
33	0x3e0d4b8b	0.13798349
34	0xbd9f3c56	-0.0777518
35	0xbdd320e0	-0.10309005
36	0x3d5310db	0.051529747
37	0x3db10cd5	0.08645026
38	0xbd8762a1	-0.06610609
39	0x3e0df655	0.138635
40	0x3e333b2f	0.17503045
41	0x3daf41db	0.08557483
42	0x3d3e4d73	0.04646058
43	0x3dca5ac2	0.09880592
44	0xbc2a69ae	-0.010401173
45	0xbe74ccc2	-0.23906234
46	0xbda53119	-0.08066005
47	0xbd9f0508	-0.077646315
48	0x3c9a9ff2	0.018875096
49	0x3ea13c48	0.31491303
50	0xbda3de69	-0.08001406
51	0x3dcff733	0.101545714
52	0x3e0749b6	0.13211712
53	0xbd18ca36	-0.03730222
54	0x3d8957ee	0.067062244
55	0xbdf21473	-0.11820307
56	0xbd7dc709	-0.061957393
57	0x3d7de4e3	0.06198586
58	0xbd81938b	-0.0632697
59	0xbda8fa98	-0.08250922
60	0xbdf0129f	-0.11722302
61	0xbd1609d9	-0.036630485
62	0x3d95a85f	0.07307505
63	0x3d8370cd	0.064179994
64	0xbe364a99	-0.17801894
65	0x3d0e732f	0.034777816
66	0xbcf244d1	-0.02957383
67	0xbc9f3fed	-0.019439662
68	0x3dc7bf54	0.0975329
69	0xbd81718f	-0.06320488
70	0xbd1412f0	-0.036150873
71	0xbc74eabe	-0.014948545
72	0xbda52cd5	-0.08065192
73	0x3da39cb0	0.0798887
74	0x3d0b3e08	0.033994704
75	0x3bac00a5	0.0052491003
76	0x3e442423	0.1915441
77	0x3d4da74d	0.05020838
78	0xbd8764cc	-0.06611022
79	0xbe31a84d	-0.17349358
80	0xbe0cf9db	-0.13767187
81	0x3d8519f3	0.0649909
82	0x3d5b4db9	0.05354092
83	0x3d3d1039	0.04615805
84	0x3decfa0f	0.115711324
85	0xbe0602fc	-0.13087076
86	0xbe47da0d	-0.19516774
87	0xbdf4a8fa	-0.11946292
88	0xbd29aad1	-0.04142267
89	0x3e149c6c	0.14512795
90	0xbcb19701	-0.02167845
91	0xbd9d7a66	-0.07689361
92	0x3ca0e758	0.019641563
93	0xbdf95d87	-0.12176042
94	0x3cf71989	0.030163543
95	0xbe612b73	-0.21989231
96	0x3cf4c0c8	0.029877082
97	0xbe2c2215	-0.16809876
98	0x3e11a0ac	0.14221448
99	0x3ddee7bf	0.10884046
100	0x3dd4b9a9	0.10386974
101	0xbd412dc5	-0.04716279
102	0x3c49768c	0.01229633
103	0x3dd1fe47	0.10253578
104	0xbe36a83c	-0.17837614
105	0xbda093f3	-0.07840719
106	0x3e519e35	0.20470507
107	0x3d11865b	0.035528522
108	0xbe41ed76	-0.1893824
109	0xbd687a72	-0.056757398
110	0x3c7ada04	0.015310768
111	0x3dc9b30d	0.09848604
112	0x3dd50bf6	0.10402672
113	0xbde4fc6c	-0.11180958
114	0xbdc5d737	-0.096601896
115	0xbd878c69	-0.06618578
116	0xbe436071	-0.19079758
117	0x3e19a7d5	0.15005429
118	0x3e028e87	0.12749682
119	0xbb5db478	-0.0033829492
120	0xbd24f0ac	-0.040268585
121	0xbd148fff	-0.036270138
122	0x3e069873	0.13144092
123	0x3dde231e	0.10846542
124	0x3d9bfe85	0.07616905
125	0x3ca293b7	0.019845827
126	0x3cf240b5	0.02957187
127	0x3d817013	0.063202046
128	0x3e14b680	0.14522743
129	0xbca52652	-0.020159874
130	0x3d590c56	0.05299028
131	0xbdec16aa	-0.1152776
132	0x3d8fb3cb	0.07016715
133	0xbe04701a	-0.12933388
134	0xbc369b06	-0.011145359
135	0x3caed28e	0.021340635
136	0x3e1b89cd	0.15189286
137	0xbe160235	-0.1464928
138	0x3dad25bb	0.08454462
139	0xbe025b16	-0.12730059
140	0x3b8960d8	0.004192453
141	0xbe2acd80	-0.16679955
142	0x3c8a6523	0.016893929
143	0x3dd00f6f	0.10159194
144	0xbe5789d7	-0.21048675
145	0x3d030f3c	0.03199695
146	0xbdb8e332	-0.09027709
147	0xbe055bfb	-0.13023369
148	0x3e0bee00	0.13665009
149	0xbdd926ad	-0.1060308
150	0x3e3db586	0.18526277
151	0xbe1d2455	-0.15345891
152	0xbc58827b	-0.013214703
153	0xbdc85325	-0.097814836
154	0x3b931075	0.004488046
155	0x3d0e6e64	0.034773245
156	0xbd5f8c5c	-0.054577217
157	0xbdf3c1df	-0.11902212
158	0x3ce462f7	0.027879221
159	0x3e010957	0.12601219
160	0xbd24e405	-0.04025652
161	0xbd4591cc	-0.048234746
162	0xbd35b1ef	-0.044359144
163	0x3e23c675	0.15993674
164	0xbe21c7ab	-0.15798824
165	0x3e0ded11	0.13859965
166	0x3d854676	0.0650758
167	0x3da1ba20	0.07896829
168	0xbe1b2c20	-0.15153551
169	0xbdaf12b6	-0.08548491
170	0xbde3902c	-0.11111483
171	0xbd557c89	-0.05212072
172	0xbdcf64f3	-0.101266764
173	0x3e05ffdb	0.13085882
174	0xbe355fc4	-0.17712313
175	0x3cd80533	0.026369667
176	0xbdc7ed74	-0.097620875
177	0x3d72f592	0.059316225
178	0xbd793de2	-0.06085003
179	0x3e288ac5	0.16459186
180	0xbd94fec1	-0.07275153
181	0xbd814d51	-0.06313575
182	0x3d620b2b	0.05518643
183	0xbd456885	-0.04819538
184	0xbe24b3d8	-0.1608423
185	0x3c8c24e6	0.017107438
186	0x3e19b804	0.15011603
187	0x3ddb522e	0.10709034
188	0xbe105bd2	-0.14097527
189	0xbda11e86	-0.0786715
190	0x3de046ea	0.10951026
191	0xbd49e77f	-0.049293038
192	0x3c93f048	0.018058911
193	0x3e5bac88	0.21452534
194	0x3ca518c7	0.020153416
195	0xbd408894	-0.04700525
196	0xbdf9ebdd	-0.122031905
197	0xbe30514b	-0.17218511
198	0x3e05d530	0.13069606
199	0xbc36ddcf	-0.011161282
200	0x3d4be498	0.04977855
201	0xbe12395c	-0.14279693
202	0x3de05a1d	0.10954688
203	0x3dac01f9	0.08398814
204	0xbe482499	-0.19545211
205	0x3e521ecc	0.2051956
206	0xbd3cfb02	-0.046137817
207	0xbdb899db	-0.090137206
208	0xbdf6359a	-0.120219424
209	0xbde7ae3b	-0.11312529
210	0xbdf69061	-0.12039257
211	0xbc53981f	-0.012914686
212	0x3e26c6c4	0.1628676
213	0xbe463f14	-0.1936
214	0xbd980ab4	-0.074239165
215	0xbdba59e0	-0.090991735
216	0xbd68d58b	-0.056844275
217	0x3c638ba5	0.013888274
218	0x3d6a7d17	0.0572482
219	0xbdd215e8	-0.102580845
220	0xbe3255cc	-0.17415541
221	0x3df66d69	0.12032587
222	0x3e44a7f5	0.19204696
223	0xbe077812	-0.13229397
224	0xbe367abd	-0.17820258
225	0x3e07a29a	0.13245621
226	0xbddf4263	-0.10901334
227	0xbd808f6b	-0.06277355
228	0x3da38100	0.07983589
229	0x3e11282d	0.14175482
230	0xbe41f645	-0.189416
231	0xbe0aa546	-0.1353961
232	0x3d82b3d8	0.06381959
233	0xbd00586f	-0.031334337
234	0xbaf54ecf	-0.0018715503
235	0x3e1253a9	0.14289726
236	0x3dc50f3f	0.096220486
237	0x3e355510	0.1770823
238	0x3e118e1b	0.14214365
239	0xbd0fbfaa	-0.035094894
240	0x3d0246b2	0.0318057
241	0xbe0c1202	-0.13678744
242	0xbc78ede9	-0.015193441
243	0x3e0f8267	0.14014588
244	0xbb5ebefb	-0.0033988345
245	0xbd5d199a	-0.053979494
246	0x3dee8aee	0.116475925
247	0x3c8ed498	0.017435357
248	0xbe5ff452	-0.21870545
249	0xbdaf1ff2	-0.08551015
250	0x3de74999	0.112933345
251	0xbcbec9d2	-0.023289595
252	0xbc978913	-0.01849798
253	0xbe04b07d	-0.1295795
254	0x3cb2f5e8	0.021845773
255	0x3da8cf56	0.08242671

conv2.lin_value.bias f4 [30]
0	0x3e56b297	0.20966564
1	0xbd7dcbf3	-0.06196208
2	0x3c31e4f2	0.0108578075
3	0x3dd2152b	0.10257944
4	0x3d77fbde	0.060542934
5	0xbcdc13b9	-0.026864873
6	0xbe59b06a	-0.21258703
7	0x3db0a953	0.08626046
8	0x3e249046	0.16070661
9	0xbe039f1a	-0.12853661
10	0x3dd238a5	0.1026471
11	0xbe03c1be	-0.12866876
12	0x3e3f5bf9	0.18687429
13	0xbe172497	-0.14760052
14	0x3e21d38b	0.15803353
15	0xbe3bed9b	-0.18352358
16	0x3d8ad678	0.06779188
17	0x3c95ca5f	0.018284975
18	0x3d13151f	0.035908815
19	0xbe54f0f2	-0.20795038
20	0xbe5196b7	-0.2046765
21	0xbdcdbc35	-0.10045663
22	0x3e4b17e5	0.19833334
23	0x3d28a724	0.041175023
24	0xbe20a601	-0.15688325
25	0x3dd023f2	0.10163106
26	0x3e0f2e0b	0.13982408
27	0xbe5f978d	-0.21835156
28	0x3d85978c	0.06523046
29	0x3c81f3a6	0.015863251

conv2.lin_skip.weight f4 [30, 30]
0	0x3e195acd	0.14976044
1	0x3c3ea5d3	0.011636215
2	0xbd32c726	-0.043646954
3	0xbe0c5819	-0.13705482
4	0x3e3a481c	0.1819157
5	0xbdd4ed57	-0.103968315
6	0x3e087305	0.13325126
7	0xbdcba930	-0.09944379
8	0xbe600f79	-0.21880902
9	0xbcbdac46	-0.023153435
10	0x3e2aa748	0.16665375
11	0xbdfb6569	-0.12275202
12	0x3b61cbaa	0.0034453669
13	0x3a83efbf	0.0010065957
14	0x3c410481	0.011780859
15	0x3e1ec978	0.15506542
16	0xbdbc05cc	-0.09180793
17	0xbd7d69ea	-0.061868586
18	0xbdc59a13	-0.09648528
19	0xbe5f0f2f	-0.21783136
20	0xbd777c04	-0.060421005
21	0xbdabc5e0	-0.08387351
22	0x3e133cf4	0.1437872
23	0x3d1ab778	0.037772626
24	0x3e5faa69	0.2184235
25	0x3d953877	0.072861604
26	0x3c74e7c5	0.014947836
27	0xbe354eb8	-0.1770581
28	0xbe1bcf99	-0.15215911
29	0x3e108743	0.14114098
30	0xbe48a1df	-0.19592999
31	0xbec221ab	-0.37916312
32	0x3d3737ad	0.04473083
33	0x3e55a698	0.20864332
34	0x3e6df63e	0.23238465
35	0x3c3e631e	0.011620311
36	0x3e1453e7	0.14485131
37	0x3e307cbb	0.17235081
38	0x3cddb4d5	0.027063766
39	0x3e6d4587	0.23171054
40	0x3e27514c	0.16339606
41	0xbe193176	-0.14960274
42	0x3dc2e275	0.095158495
43	0x3c8fce58	0.017554447
44	0x3def5ed9	0.11688013
45	0x3e1de7b0	0.15420413
46	0xbd791cbb	-0.060818415
47	0xbdc1dfbb	-0.09466501
48	0x3d270771	0.04077858
49	0xbe16d912	-0.14731243
50	0x3e8a60cf	0.27026984
51	0x3e148561	0.14504005
52	0xbdf90515	-0.121591724
53	0x3ef80391	0.4844022
54	0xbe79b254	-0.24384433
55	0xbde62447	-0.11237388
56	0xbda53416	-0.08066575
57	0x3caf8d08	0.021429554
58	0xbe3d4e9f	-0.18487023
59	0x3e2c9cf8	0.16856754
60	0xbe248786	-0.16067323
61	0xbe0d27b8	-0.13784683
62	0x3d4894c0	0.048969984
63	0x3d0079ad	0.03136604
64	0x3e27f346	0.16401395
65	0x3d3b888d	0.04578452
66	0x3e277d64	0.16356426
67	0x3d8a3dfd	0.067501046
68	0x3d7ebbba	0.06219075
69	0x3e0005ed	0.1250226
70	0xbe1bc3cb	-0.15211408
71	0xbd2b5073	-0.04182477
72	0x3de206bc	0.11036441
73	0xbdfae0f1	-0.122499354
74	0xbe116f49	-0.14202608
75	0x3e57b083	0.21063428
76	0xbb2cb700	-0.0026354194
77	0x3d5a7beb	0.053340834
78	0xbe447643	-0.19185738
79	0xbee25f9b	-0.44213566
80	0x3e7b7b53	0.24558763
81	0x3d8b73f7	0.06809228
82	0xbd53517a	-0.051591374
83	0x3ebbcdc5	0.36680427
84	0xbd632a39	-0.05546019
85	0xbd57d25f	-0.05269086
86	0x3da48806	0.08033757
87	0xbd1a3932	-0.037652202
88	0xbe26aaf4	-0.16276151
89	0x3e22b899	0.15890731
90	0xbcc90fc3	-0.024543649
91	0xbd58fd14	-0.05297573
92	0x3cb95ea5	0.022628138
93	0xbe1cc5d8	-0.15309846
94	0x3de6788f	0.112534635
95	0x3d96f6f8	0.07371324
96	0x3e09ddef	0.13463567
97	0xbd4090ca	-0.04701308
98	0x3c901d47	0.017592086
99	0xbde89552	-0.113566056
100	0x3dcc38a4	0.09971741
101	0xbe1b3850	-0.151582
102	0x3d32a59f	0.04361498
103	0xbdb7f711	-0.08982671
104	0xbdec694f	-0.115435235
105	0x3cc3af84	0.023887403
106	0x3e67388d	0.22580166
107	0xbd4abc30	-0.049495876
108	0x3cccdb69	0.025006967
109	0x3e1ce031	0.15319897
110	0x3d43af5c	0.047774658
111	0xbc236f4f	-0.0099752685
112	0xbe0fae22	-0.1403127
113	0x3e2e5453	0.17024355
114	0xbe12a646	-0.14321241
115	0xbd98b5f9	-0.074565835
116	0xbd351a69	-0.04421464
117	0x3e003a2c	0.12522191
118	0x3e5c8fa1	0.21539165
119	0xbe31b1e5	-0.17353018
120	0xbe092ad9	-0.13395251
121	0x3d497f7a	0.049193837
122	0xbe254af8	-0.1614188
123	0xbd3f0be4	-0.0466422
124	0x3de1c42b	0.11023744
125	0x3e063fcf	0.13110279
126	0xbdcf1b25	-0.10112599
127	0xbdf3bd22	-0.119013086
128	0x3e121dec	0.14269227
129	0xbe4948d5	-0.1965669
130	0x3d5010c5	0.050797243
131	0x3e17327f	0.14765356
132	0x3daa69f1	0.08320988
133	0x3d8dd9fd	0.069263436
134	0x3b20630b	0.0024473097
135	0x3e2e099e	0.16995856
136	0x3d894500	0.06702614
137	0xbca4ee53	-0.020133173
138	0xbdb8ffc1	-0.09033156
139	0xbe6194b1	-0.22029378
140	0x3c706909	0.01467348
141	0xbd58c5db	-0.052923065
142	0x3c62bf1e	0.013839511
143	0x3dcfb71c	0.10142347
144	0xbe91baec	-0.28462923
145	0x3de2e79b	0.110793315
146	0xbe377244	-0.17914683
147	0x3a4ce71c	0.00078164204
148	0xbdb6785b	-0.08909675
149	0xbc16917c	-0.00918996
150	0x3e24ee4c	0.16106528
151	0x3e5942e2	0.2121692
152	0x3dfa6af4	0.12227431
153	0xbe32b2df	-0.17451046
154	0x3cf40bae	0.029790726
155	0xbe39c9ca	-0.18143383
156	0xbe475ad9	-0.1946825
157	0xbdb5b755	-0.088728584
158	0xbe208fc4	-0.15679842
159	0x3bd404e2	0.0064703086
160	0x3c53ecd9	0.012934887
161	0xbe293aeb	-0.16526382
162	0xbe130abc	-0.14359564
163	0x3ddc68cb	0.10762175
164	0x3cd754b6	0.02628551
165	0xbd8aa46b	-0.067696415
166	0x3d2a00c9	0.041504655
167	0x3ddf57ec	0.10905442
168	0xbd7bc6d2	-0.061468907
169	0x3e498c9e	0.19682547
170	0x3dc0a3bf	0.09406232
171	0x3d4957d3	0.04915602
172	0x3dc91712	0.098188534
173	0xbe192747	-0.1495639
174	0x3e3310bb	0.17486851
175	0x3d9071e8	0.07052976
176	0x3db326b2	0.08747615
177	0x3dc4b3a3	0.096045755
178	0x3e016d70	0.12639403
179	0x3dd99fc2	0.106261745
180	0x3d1d46c4	0.038397565
181	0x3d88d171	0.06680573
182	0x3d915f03	0.070982
183	0x3d9dc785	0.07704071
184	0xbb30a807	-0.002695562
185	0xbc6f1e5e	-0.014594642
186	0xbcb55f8d	-0.022140289
187	0x3d863eb2	0.06554927
188	0xbdfbf5a2	-0.1230271
189	0x3bb9429e	0.0056536933
190	0x3d768d4b	0.06019334
191	0x3e250833	0.16116409
192	0x3d4389be	0.047738783
193	0xbdb9e9d0	-0.09077799
194	0xbdc17bc4	-0.094474345
195	0xbeefb65d	-0.4681882
196	0xbd286823	-0.041114938
197	0xbe26fee2	-0.16308168
198	0x3e2074f9	0.15669622
199	0x3e84fb59	0.25973013
200	0xbda6572e	-0.08122097
201	0xbd137307	-0.03599837
202	0x3e372e82	0.17888835
203	0xbe9eb966	-0.31000823
204	0x3dc233cf	0.09482538
205	0x3e3ca768	0.18423235
206	0xbe022042	-0.12707618
207	0x3dc743b6	0.09729712
208	0xbb814f8f	-0.0039462517
209	0x3df768e9	0.12080557
210	0x3dc3719c	0.09543154
211	0xbe2918f4	-0.16513425
212	0xbe07744b	-0.13227956
213	0x3e168248	0.14698136
214	0xbe0de92e	-0.13858482
215	0xbd8681b2	-0.06567706
216	0x3e38d0e8	0.18048441
217	0x3ded61f1	0.115909465
218	0xbe05b00b	-0.13055436
219	0x3d65a332	0.05606384
220	0x3ba244f9	0.00495207
221	0xbe468cfa	-0.19389716
222	0xbcd3751a	-0.025812674
223	0xbd6cd3a4	-0.057819024
224	0x3ce2dac6	0.02769221
225	0x3e887b45	0.26656547
226	0x3e43415d	0.19067903
227	0xbe03fa5f	-0.12888478
228	0x3e08c5a0	0.13356638
229	0xbed32bb1	-0.4124427
230	0x3e29cd77	0.16582285
231	0xbd9f4504	-0.077768356
232	0xbdb1032e	-0.086431846
233	0x3e0b33eb	0.13594024
234	0xbe883fa7	-0.26611063
235	0x3e4264a6	0.18983707
236	0x3ce63b94	0.028104581
237	0x3e2029db	0.15640967
238	0xbbdef6f2	-0.0068043405
239	0xbe2bbe11	-0.16771723
240	0x3d71bc28	0.05901733
241	0x3d6e7051	0.058212582
242	0x3d318009	0.043334994
243	0x3dfff8ea	0.124986485
244	0x3dcbf2a2	0.09958388
245	0x3e6cf487	0.23140155
246	0xbd7668e1	-0.060158614
247	0x3e5799bf	0.21054743
248	0xbe0cbc02	-0.13743594
249	0x3de356b2	0.1110052
250	0xbdb10a42	-0.08644535
251	0x3e372ade	0.17887446
252	0x3cb31f99	0.021865653
253	0xbe082196	-0.13294062
254	0x3d9baf26	0.07601766
255	0x3dd96be9	0.10616285

conv3.bias f4 [30]
0	0x3d0e2dce	0.03471165
1	0x3cf0bf93	0.029388225
2	0x3b2adaa6	0.0026070266
3	0x3d6f0ae4	0.058359995
4	0xbd5b3875	-0.05352064
5	0xbc054948	-0.008135147
6	0xbcc8d6d4	-0.0245165
7	0xbcad81bc	-0.021180026
8	0x3cec0f48	0.02881588
9	0x3d323fa3	0.04351772
10	0xbd2c6201	-0.04208565
11	0x3c567648	0.013089724
12	0xbcd514b4	-0.026010849
13	0xbd1716e2	-0.036887057
14	0xbd6500d5	-0.055908997
15	0x3b328a82	0.0027243202
16	0xbe080737	-0.13284002
17	0x3cb61ca0	0.022230446
18	0x3d568f4c	0.052382752
19	0x3c861178	0.016365752
20	0xbd29a961	-0.041421298
21	0xbd11d6d1	-0.035605256
22	0xbd481d24	-0.048855916
23	0xbd301402	-0.04298783
24	0xbdb27857	-0.08714359
25	0x3d6a8c33	0.05726261
26	0xbd2ffbce	-0.04296475
27	0xbd859ce1	-0.06524063
28	0x3cf099ed	0.029370273
29	0xbd251d28	-0.04031101

conv3.lin_key.weight f4 [30, 30]
0	0xbe64b335	-0.22333987
1	0x3ceaa8e2	0.028644983
2	0xbd624217	-0.05523881
3	0xbc9c2c9c	-0.01906424
4	0x3e43850f	0.19093727
5	0x3cc87e75	0.024474362
6	0xbe149c0d	-0.14512654
7	0xbd87fc62	-0.06639935
8	0xbdf6d8b8	-0.120530546
9	0xbde3da5b	-0.111256324
10	0x3d843d5f	0.06457018
11	0xbd366340	-0.044528246
12	0xbe2a1609	-0.16609968
13	0xbbd6929b	-0.0065482385
14	0x3e111e20	0.14171648
15	0x3e3328ce	0.17496035
16	0x3d0f4d9d	0.034986127
17	0xbe029b10	-0.12754464
18	0x3e1dec92	0.15422276
19	0x3e039690	0.12850404
20	0x3e7f86d8	0.24953783
21	0x3eaa4740	0.33257484
22	0xbde16d53	-0.1100718
23	0x3e3c823a	0.18409052
24	0x3e076f1f	0.13225983
25	0x3c4fd78d	0.012685669
26	0x3e807960	0.25092602
27	0xbcbad146	-0.022804867
28	0x3d8d5f16	0.06902902
29	0xbd330d0d	-0.043713618
30	0xbe87a5b7	-0.26493618
31	0x3cb68863	0.022281831
32	0xbdbe22f6	-0.09284012
33	0x3d97ee7a	0.07418533
34	0x3e95182e	0.2912001
35	0x3e6b577d	0.22982593
36	0x3e134f86	0.14385805
37	0x3daf6850	0.08564818
38	0xbc7ccbfb	-0.015429492
39	0xbe9dfddb	-0.3085774
40	0xbcfeb2d9	-0.03109114
41	0xbe376b21	-0.1791196
42	0x3d1820ed	0.037140775
43	0xbd74f373	-0.059802484
44	0x3e68af75	0.22723182
45	0x3dbe83ee	0.09302507
46	0x3d01ffbd	0.03173803
47	0x3e1449f8	0.14481342
48	0xbd59351b	-0.05302916
49	0x3e1b61e7	0.15174066
50	0x3e1915db	0.14949743
51	0xbcb732b3	-0.022363042
52	0x3c6c7fa9	0.014434733
53	0x3cc72ddb	0.024313858
54	0x3ce98d60	0.028509796
55	0xbe207dd6	-0.15673003
56	0x3e2986e1	0.16555358
57	0x3e44e1d1	0.19226767
58	0x3e458260	0.19288015
59	0x3e3d6107	0.18494044
60	0x3e857d07	0.2607195
61	0xbe2db80c	-0.1696474
62	0x3cddab8d	0.02705934
63	0xbd6a1297	-0.057146635
64	0xbe6a22a8	-0.22864783
65	0xbe802180	-0.25025558
66	0x3d878033	0.06616249
67	0x3d6e2065	0.058136363
68	0x3e2850aa	0.16437021
69	0x3e09c011	0.13452174
70	0x3cc50aa9	0.024052935
71	0x3e320e9f	0.1738839
72	0x3e57775d	0.21041627
73	0xbe3833ba	-0.17988482
74	0xbd685ea8	-0.056730896
75	0x3e035069	0.12823643
76	0xba3b400d	-0.0007143028
77	0x3d3693a7	0.044574406
78	0xbd6b1b59	-0.057399128
79	0xbe464acb	-0.19364469
80	0x3bf73e9d	0.007545306
81	0x3e2c3714	0.16817886
82	0x3d98f24c	0.074680895
83	0x3c790819	0.015199685
84	0x3e25686c	0.16153115
85	0x3d89c96d	0.06727872
86	0xbdd1c093	-0.10241809
87	0x3daae975	0.0834531
88	0xbe17075e	-0.14748904
89	0xbde84c16	-0.11342637
90	0xbda21c0d	-0.079155065
91	0x3b1b5f17	0.00237078
92	0xbd6f3509	-0.058400188
93	0xbe55b418	-0.20869482
94	0x3de2eb3b	0.11080023
95	0xbe3a4dd1	-0.18193747
96	0x3ba07845	0.0048971497
97	0xbd828917	-0.06373804
98	0xbd94bce9	-0.07262594
99	0x3dc68878	0.09693998
100	0xbb9b64f4	-0.004742259
101	0xbbfbd20e	-0.0076849526
102	0x3e6e318a	0.23261085
103	0xbe20fb4d	-0.15720864
104	0xbe34f206	-0.1767045
105	0x3d556e28	0.052107006
106	0xbc976840	-0.018482327
107	0x3cbeb191	0.02327803
108	0x3da17c9d	0.07885096
109	0xbcf5c614	-0.030001678
110	0x3c8df9ed	0.017331088
111	0x3e34b363	0.17646556
112	0xbda43a07	-0.0801888
113	0xbdfe9fb9	-0.124328084
114	0x3d463c33	0.048397254
115	0x3d4096cc	0.04701881
116	0xbde6fb9e	-0.11278461
117	0xbd2ca5e5	-0.042150397
118	0xbd8fe3bc	-0.07025859
119	0xbcd16800	-0.025562286
120	0xbdc01c81	-0.09380437
121	0x3e2df38c	0.16987437
122	0xbd261611	-0.040548388
123	0x3dc75c25	0.09734372
124	0xbe2a9cda	-0.16661397
125	0xbded4ea8	-0.11587268
126	0xbcf2a7d3	-0.02962104
127	0x3e0b6298	0.1361183
128	0xbd821a52	-0.063526765
129	0xbd4bc832	-0.049751468
130	0x3cd3cedc	0.025855474
131	0xbc933519	-0.017969655
132	0x3dfee75d	0.12446473
133	0xbdda22e5	-0.10651187
134	0xbdf9c84a	-0.12196405
135	0x3d706016	0.058685385
136	0x3d050c60	0.032482505
137	0x3d96758f	0.07346641
138	0x3dc7b4b6	0.09751265
139	0xbdc65f52	-0.0968615
140	0xbe0f5645	-0.13997753
141	0x3db52bc5	0.08846239
142	0x3e29190b	0.1651346
143	0x3cec5bf2	0.028852437
144	0x3d7ee722	0.062232144
145	0x3e24d33b	0.16096203
146	0x3e5966fb	0.2123069
147	0x3d4ba35a	0.04971633
148	0xbd001246	-0.031267427
149	0xbe3a0bed	-0.18168612
150	0x3d857650	0.06516707
151	0xbe1c34c2	-0.152545
152	0x3c8ad3e5	0.016946742
153	0x3e76c615	0.24099
154	0xbd0b1fb1	-0.03396577
155	0xbd8309f6	-0.06398384
156	0xbd1107fd	-0.03540801
157	0x3bc7df6c	0.006099632
158	0xbd9e5a1a	-0.07732029
159	0xbe31b510	-0.17354226
160	0x3e84e8eb	0.25958952
161	0x3db08024	0.08618191
162	0xbdb4af49	-0.088224955
163	0x3e7c4158	0.24634302
164	0x3cf7f1d5	0.030266682
165	0xbddc749d	-0.1076443
166	0xbe599244	-0.21247202
167	0xbf052629	-0.5201135
168	0xbd9a0d03	-0.07522013
169	0xbda9c60f	-0.0828973
170	0x3e92c4c1	0.28665736
171	0x3ec8930d	0.3917469
172	0xbf0e9f11	-0.55711466
173	0xbdabdf61	-0.083922155
174	0xbdf80436	-0.12110178
175	0xbe636d31	-0.22209622
176	0x3ec8e2d4	0.39235556
177	0x3d6a8e91	0.05726487
178	0xbe181249	-0.14850725
179	0x3e360bba	0.17777911
180	0xbd8b9a85	-0.06816582
181	0xbe500112	-0.20312908
182	0x3c8b5d0c	0.017012142
183	0xbda64ba8	-0.08119899
184	0xbe1b55c3	-0.15169434
185	0x3e29f910	0.16598916
186	0x3d12dc74	0.03585477
187	0xbd91eeb6	-0.071256086
188	0xbdb3251f	-0.08747315
189	0x3e14c456	0.14528021
190	0xbe0c2c0d	-0.13688679
191	0x3e202a4b	0.15641133
192	0xbe28b1bd	-0.16474052
193	0x3ded90d5	0.1159989
194	0x3e218ef6	0.15777192
195	0x3c42883a	0.011873299
196	0xbe538765	-0.20657118
197	0xbec161b5	-0.37769857
198	0x3df519a8	0.11967784
199	0x3e2c7fa0	0.1684556
200	0x3eb66c77	0.35629627
201	0x3f0d456b	0.5518405
202	0xbedf5d97	-0.4362609
203	0x3cb1eaa7	0.021718336
204	0x3b8e36cb	0.004340028
205	0xbe072baa	-0.1320025
206	0x3e3e268f	0.18569396
207	0xbd8f98f7	-0.070115976
208	0xbdb66c59	-0.089073844
209	0x3dd6f116	0.10495202
210	0xbe15c14c	-0.14624518
211	0x3d9595c9	0.0730396
212	0x3def2235	0.11676446
213	0x3c983ec3	0.018584615
214	0x3e975b83	0.29562005
215	0x3e4fd9b9	0.20297898
216	0xbe08d9cc	-0.13364333
217	0x3dad0ffd	0.08450315
218	0xbe5e8aee	-0.21732685
219	0xbda8bce5	-0.08239154
220	0x3c9aaf19	0.018882321
221	0xbd6d4d5c	-0.057935104
222	0x3c622041	0.013801635
223	0x3e055b77	0.13023172
224	0x3e00739e	0.12544104
225	0x3e363b3d	0.17796035
226	0xbd8b600a	-0.06805427
227	0x3e5e2d56	0.21696982
228	0x3dab10e3	0.0835283
229	0x3e787a03	0.24265294
230	0xbdd10875	-0.10206691
231	0x3d67fae4	0.056635752
232	0x3dfd75ca	0.12375982
233	0x3e5b8c92	0.21440342
234	0x3dd7e754	0.10542169
235	0xbe5c036b	-0.21485679
236	0x3db49dad	0.08819137
237	0x3e5e9ee7	0.21740304
238	0x3e64337d	0.22285266
239	0x3e049e72	0.12951067
240	0xbdf71013	-0.12063613
241	0x3e052f8d	0.1300642
242	0xbcf91900	-0.030407429
243	0x3dd64a9b	0.104634486
244	0x3d885ad4	0.06657949
245	0xbd46f8ac	-0.048576996
246	0xbdf4d378	-0.11954397
247	0x3df3d022	0.119049326
248	0xbdac0a2e	-0.08400379
249	0xbe071dad	-0.13194914
250	0x3e12c652	0.14333466
251	0x3d991eb6	0.07476561
252	0x3d6a6ed9	0.05723462
253	0xbdd8d954	-0.10588327
254	0xbc0480c6	-0.008087343
255	0x3e3024de	0.17201564

conv3.lin_key.bias f4 [30]
0	0xbd6f27b9	-0.05838749
1	0xbd64bef6	-0.055846177
2	0x3e219dcd	0.15782852
3	0xbd8942a5	-0.067021646
4	0x3e20020f	0.15625785
5	0x3dc65530	0.09684217
6	0xbe38355a	-0.17989102
7	0x3ccbff63	0.024902051
8	0xbdda932a	-0.106726006
9	0x3d83e8db	0.06440898
10	0x3d7146bc	0.05890535
11	0xbe70b7e2	-0.23507646
12	0x3e16cf83	0.14727597
13	0x3e5b2a6f	0.21402906
14	0xbd8b4c27	-0.06801634
15	0xbce034a5	-0.027368853
16	0xbdefaa33	-0.11702385
17	0xbded64f1	-0.11591519
18	0xbb97542e	-0.0046181893
19	0xbe07cc7b	-0.13261597
20	0x3c727e4b	0.014800618
21	0xbe4de622	-0.2010732
22	0xbcc3c7c9	-0.023898976
23	0x3e320207	0.17383586
24	0xbe372a99	-0.17887343
25	0x3c98d2ed	0.018655265
26	0x3d68f74e	0.056876473
27	0xbd703d4b	-0.058652204
28	0xbdad2d26	-0.08455877
29	0x3e3ce959	0.1844839
