models/neural_network_SAGEConv_single_dynamics_MM_graph_size_10/neural_network.pth (torch, 2316 bytes, 4 tensors)

conv1.lin_l.weight f4 [30, 1]
00000000: 554c 163f ea87 6fbb 2869 85be 7280 eabe
00000010: d786 fa3e efe7 753e 0e1d 883f 3b51 b03d
00000020: 2d35 043f 6f49 76bd 6f9a 7b3d bb29 16bc
00000030: 59b0 233f 78ce 933f e0be 493f 7c9a b53e
00000040: f8fc dc3e bfcf 983f 47e5 493f cb35 fd3e
00000050: b7ea 143a d139 923e 1791 2cbd 88a5 33be
00000060: 89aa 83be a192 023e f6d4 a23f 9246 6b3f
00000070: 7738 db3e 79d2 cc3e
0.58710223 -0.0036549517 -0.2605679 -0.4580112 0.48931 0.24014257 1.0633867 0.086092435
0.5164364 -0.060128625 0.061426576 -0.009165223 0.6394096 1.1547384 0.7880688 0.35469425
0.4316175 1.1938399 0.78865474 0.49455103 0.0005680727 0.28559735 -0.042130556 -0.17543614
-0.25716045 0.12751247 1.272124 0.91904557 0.42816517 0.40004328

conv1.lin_l.bias f4 [30]
00000000: f795 b3be eab1 d5bb 9d6d 6c3f 2b9c 253f
00000010: 9bc3 5bbf be36 07bf 74db a13f 558a 603e
00000020: e277 51bf 5c78 2f3e ecf6 e23e 3b1c e3bd
00000030: b7af c83e 8be9 b2be 86ad ddbc 09bd 3cbe
00000040: b0c4 84be eb73 c13e efa0 9a3f 1aa9 9dbe
00000050: 154c 53bf bc90 12bf 383f edbe b115 543f
00000060: b799 d03e dece 10bf 89c6 6b3e f3f6 463f
00000070: 8172 8cbd 8a5e 10be
-0.35075352 -0.006521453 0.92354757 0.6469142 -0.85845345 -0.52817905 1.2645097 0.2192777
-0.8182355 0.17135757 0.4432901 -0.11089369 0.3919656 -0.34943804 -0.027060281 -0.18431486
-0.2593131 0.3778375 1.2080363 -0.30793077 -0.82537967 -0.572521 -0.46337295 0.828456
0.40742275 -0.56565654 0.23024954 0.77720565 -0.068577774 -0.14098564

conv1.lin_r.weight f4 [30, 1]
00000000: c9c1 02bf 3f71 46bd ac5e 84bf 5adc 11bf
00000010: e6e6 01be d2d0 f33e 5ea0 b6be 83fc 823e
00000020: 9647 843f ba97 853f 0800 6e3e ead0 4a3f
00000030: 9d36 b0bd 96a4 e9be 9f43 6bbd 32d8 57bf
00000040: 0b09 acbe 3d48 82bf fd41 09be 8d0d 1dbf
00000050: a38b cb3d 115a 62bf f99d 16bf d39f a5bf
00000060: f98e 35bf 984f 7bbf 04f0 71bf 7c8b d13e
00000070: 097c 763f 825b 53be
-0.5107694 -0.048447844 -1.0341392 -0.56976855 -0.12685737 0.47620255 -0.35669225 0.25583276
1.0334346 1.0436928 0.232422 0.7922503 -0.08604167 -0.45633382 -0.057437535 -0.8431426
-0.3360065 -1.0178295 -0.13404079 -0.613488 0.09938743 -0.8841868 -0.588348 -1.29394
-0.70921284 -0.98168325 -0.9450686 0.4092673 0.9628301 -0.20640376

lin.weight f4 [1, 30]
00000000: f37d 033e 32f7 083d 7b3f b43e e7ff dd3d
00000010: a0b0 853e 27e7 42bd 8edb bebd 648a 7ebe
00000020: 8fdd 9ebe 1472 bcbe 9d7e 29be 0198 8abe
00000030: 4728 1a3b 58db 5f3e ff0d 0f3d 4c6f 723e
00000040: 696e 5c3e 9f06 d23e 2ab2 d7bd 35c8 9e3e
00000050: 36f5 ee3b d57c bd3e 4e71 a03e 1c02 013f
00000060: d512 e83d b29b b13e 585c 443f 222b 1abe
00000070: f4b2 47be 775f 0d3e
0.12841015 0.03343887 0.35204682 0.10839825 0.26111317 -0.047583725 -0.093192205 -0.2485748
-0.3102841 -0.36805785 -0.16552205 -0.27069095 0.0023522542 0.21861017 0.034925457 0.23675269
0.21526493 0.41020676 -0.10532029 0.3101212 0.007292415 0.37009302 0.31336445 0.50393844
0.11331717 0.346891 0.76703405 -0.15055516 -0.19501859 0.13805948
