models/neural_network_ResGatedGraphConv_dynamics_MAK_graph_size_10/neural_network.pth (torch, 38043 bytes, 25 tensors)

conv1.bias f4 [30]
0	0x3cbe2f91	0.02321604
1	0x3e1db8cb	0.15402524
2	0xbdf93bbe	-0.12169598
3	0x3e69a504	0.22816855
4	0xbe7960b2	-0.24353293
5	0xbe283518	-0.16426504
6	0x3da8ac40	0.08235979
7	0x3ec88223	0.39161786
8	0xbe1dd0e8	-0.15411723
9	0xbda27bff	-0.07933807
10	0x3d36ab67	0.044597056
11	0x3eaa4528	0.33255887
12	0xbcd7beca	-0.026336093
13	0x3d9bf48b	0.07615002
14	0x3e3b51e8	0.18292964
15	0x3ed94030	0.42431784
16	0xbc7cd396	-0.015431305
17	0x3e14ebc3	0.14543061
18	0x3e51e4dd	0.2049746
19	0xbdd88c34	-0.105736166
20	0xbc234f1f	-0.009967594
21	0xbd99859f	-0.07496189
22	0x3e1e09a7	0.1543337
23	0x3e895715	0.2682425
24	0x3dcb4b15	0.0992643
25	0xbcc07de1	-0.023497524
26	0x3e9ca96e	0.30598015
27	0x3e0fe18a	0.1405088
28	0xbd6a3f07	-0.057189014
29	0x3e6ad148	0.22931397

conv1.lin_key.weight f4 [30, 1]
0	0x3e6a8a4b	0.22904317
1	0x3f59daa4	0.85099244
2	0x3f588c2f	0.84588903
3	0x3e855741	0.26043132
4	0x3f4ecdb4	0.8078263
5	0xbf27a113	-0.65480155
6	0xbd910655	-0.07081286
7	0x3f16416a	0.58693564
8	0x3f6db4c4	0.9285395
9	0x3e64f6bb	0.22359745
10	0xbf2bfb63	-0.6718046
11	0x3ea624d9	0.32449988
12	0xbddcbc33	-0.10778084
13	0xbf8a0155	-1.0781657
14	0x3e208def	0.15679143
15	0x3f7a4fd9	0.9777809
16	0x3ed4cb33	0.4156128
17	0x3f563a45	0.8368266
18	0xbea87368	-0.32900548
19	0xbf789aa5	-0.9711097
20	0xbeffebcc	-0.49984586
21	0xbf6353d5	-0.8879979
22	0xbe06745b	-0.13130324
23	0x3f061a0d	0.523835
24	0x3c573a0e	0.0131364
25	0x3f55df55	0.835439
26	0x3f62dddb	0.88619775
27	0xbf0713c5	-0.5276454
28	0xbf97dc60	-1.1864128
29	0x3f559392	0.834283

conv1.lin_key.bias f4 [30]
0	0xbe7ec6dd	-0.24880548
1	0xbf0f7c58	-0.5604911
2	0x3f5343b9	0.8252521
3	0xbed688ea	-0.41901332
4	0x3f72db56	0.9486593
5	0xbf60a63d	-0.8775366
6	0xbf84c351	-1.0372106
7	0x3e70bfd9	0.23510684
8	0xbf337a5b	-0.70108575
9	0x3ec62cb9	0.38705996
10	0xbf747ccb	-0.9550292
11	0x3d7123a0	0.058871865
12	0x3f004662	0.50107396
13	0x3e38eeec	0.18059891
14	0xbeccc85d	-0.39996615
15	0x3f5e3c55	0.8681081
16	0x3f518248	0.8183942
17	0xbf8028d7	-1.0012463
18	0x3eb95956	0.3620097
19	0xbf2e6a4d	-0.6813095
20	0xbe0f6a33	-0.14005356
21	0xbf2229a1	-0.6334477
22	0x3f242301	0.6411591
23	0x3f45ee96	0.7731718
24	0xbe958964	-0.29206383
25	0x3f4b5c34	0.79437566
26	0x3fa195f2	1.2623885
27	0x3f0a5144	0.5403025
28	0x3f18eeb0	0.5973921
29	0xbf0bfab1	-0.546794

conv1.lin_query.weight f4 [30, 1]
0	0xbf47763f	-0.77914804
1	0xbf800f84	-1.0004735
2	0x3e72435e	0.23658511
3	0xbefaddde	-0.48997396
4	0x3f551b40	0.83244705
5	0x3ecfb7ad	0.4056982
6	0x3e48d32d	0.19611807
7	0xbab777d0	-0.0013997499
8	0x3f138f0e	0.5764016
9	0x3e944e1a	0.28965837
10	0x3f1350eb	0.57545346
11	0xbf75a004	-0.9594729
12	0xbe6a3a31	-0.22873761
13	0xbf321dc4	-0.6957667
14	0x3d775eac	0.06039302
15	0x3e8c0fbc	0.27355754
16	0xbef76910	-0.48322344
17	0xbea8d65b	-0.3297604
18	0x3f1b6951	0.60707575
19	0x3f81313c	1.009315
20	0x3f5ac9ca	0.85464156
21	0xbeedb2a5	-0.46425357
22	0xbf1ed596	-0.62044656
23	0x3f4eb23b	0.8074071
24	0x3f0876d9	0.5330635
25	0xbe39c8d6	-0.18143019
26	0x3d9411ed	0.072299816
27	0xbf296ae9	-0.66178757
28	0x3f313cd7	0.6923346
29	0x3db339ae	0.08751236

conv1.lin_query.bias f4 [30]
0	0xbf74869e	-0.9551791
1	0xbf39623c	-0.7241552
2	0x3ef03f30	0.46923208
3	0xbf15a896	-0.58460367
4	0x3f142979	0.5787578
5	0xbeb63d19	-0.3559349
6	0xbe57cb69	-0.21073689
7	0xbf70c812	-0.94055283
8	0x3f8588cc	1.0432372
9	0x3f8e1c6c	1.1102424
10	0xbf75231d	-0.95756704
11	0xbf4a1792	-0.78942215
12	0xbf3ed6e0	-0.74546623
13	0xbf8a5e89	-1.08101
14	0xbefc3e3b	-0.49266228
15	0xbdee96f5	-0.116498865
16	0x3e1c0ab1	0.15238453
17	0xbea8b78e	-0.3295254
18	0x3e41c421	0.18922473
19	0xbf249c7b	-0.6430127
20	0xbf06e7b1	-0.52697283
21	0xbf11068a	-0.566506
22	0x3f81851a	1.0118744
23	0x3f9c5f09	1.2216502
24	0x3f0596df	0.52183336
25	0x3f38235e	0.71928966
26	0x3de7ee44	0.113247424
27	0x3f3bfd4c	0.73433375
28	0x3de34bac	0.11098418
29	0x3f6a8b0f	0.91618437

conv1.lin_value.weight f4 [30, 1]
0	0xbed695aa	-0.4191106
1	0xbde1a4f6	-0.11017792
2	0x3e4ad870	0.19809127
3	0xbf1472a3	-0.5798742
4	0xbf9b2495	-1.2120539
5	0xbedc469c	-0.4302262
6	0xbf643b5e	-0.8915309
7	0xbd813936	-0.0630974
8	0xbf822640	-1.0167923
9	0x3f2403ef	0.640685
10	0xbd169e56	-0.036772095
11	0x3e43aa96	0.19108042
12	0x3f400678	0.7500987
13	0xbf02a04c	-0.51025844
14	0x3c127480	0.008938909
15	0xbc665914	-0.014059324
16	0x3f4aeba7	0.79265827
17	0xbe709405	-0.23493965
18	0xbf3a984b	-0.7288863
19	0xbe05e3c4	-0.13075167
20	0x3f27bf63	0.6552641
21	0x3e9eaffd	0.30993643
22	0x3f6dd669	0.9290529
23	0x3e90473d	0.2817935
24	0xbf22b65c	-0.6355951
25	0xbf6c3f4f	-0.922841
26	0x3f464ec0	0.7746391
27	0x3ebfea74	0.3748356
28	0xbebb81a0	-0.36622334
29	0x3ec82d88	0.39097238

conv1.lin_value.bias f4 [30]
0	0x3f40a643	0.75253695
1	0xbf024c29	-0.5089746
2	0xbef1a1d8	-0.4719379
3	0xbee69daf	-0.45042178
4	0xbee2c788	-0.44292855
5	0x3f43cc5b	0.76483697
6	0x3ed1f9af	0.41010806
7	0xbee7f8f2	-0.45307118
8	0xbf4122e3	-0.7544386
9	0xbf8bca98	-1.0921202
10	0xbf54a993	-0.8307125
11	0xbf66c0a4	-0.90137696
12	0xbf5cecd0	-0.8629885
13	0x3bd96481	0.0066342955
14	0xbf28fa75	-0.6600717
15	0x3f5343c7	0.82525295
16	0xbf2b42b6	-0.6689867
17	0xbe05bb89	-0.1305982
18	0x3f84d1f1	1.0376569
19	0xbe7ead70	-0.24870849
20	0xbf776db4	-0.9665177
21	0xbedd78a9	-0.4325612
22	0x3e865a40	0.2624073
23	0x3f4928c4	0.7857783
24	0x3ebd7be5	0.37008587
25	0x3f1a9df2	0.60397255
26	0x3f18970a	0.5960547
27	0x3f44ccf6	0.76875246
28	0x3e3aa8a4	0.18228394
29	0x3ebeacb8	0.3724115

conv1.lin_skip.weight f4 [30, 1]
0	0xbf0dc9bf	-0.55385965
1	0xbdede83f	-0.11616563
2	0xbd2592fe	-0.040423386
3	0xbbc01051	-0.00586132
4	0x3ed01efc	0.4064864
5	0x3f3317f4	0.69958425
6	0xbf6e44f5	-0.9307397
7	0xbe832c4d	-0.25619736
8	0x3f2c6977	0.67348427
9	0xbf00c8c6	-0.50306356
10	0x3f1ef31a	0.62089694
11	0x3e5812bd	0.21100898
12	0xbedc9c0d	-0.43087807
13	0xbe73d209	-0.23810591
14	0x3e72522b	0.23664157
15	0x3f80d923	1.0066265
16	0x3f31b76b	0.694205
17	0xbeba7c41	-0.36422923
18	0x3f62f58a	0.8865591
19	0xbe88df01	-0.26732638
20	0x3f133b57	0.5751242
21	0x3ef1ed37	0.47251293
22	0x3f0333ec	0.512511
23	0x3e21a2c4	0.15784746
24	0xbeaaced8	-0.33360934
25	0x3dc5b73c	0.0965409
26	0x3f77a624	0.96737885
27	0xbf22a06c	-0.63526034
28	0x3f8a4c1f	1.080448
29	0x3f3e8429	0.7442041

conv2.bias f4 [30]
0	0xbdf203af	-0.11817109
1	0x3d854eb6	0.065091535
2	0xbd48aeb4	-0.048994735
3	0xbce6a2a0	-0.028153718
4	0xbc8673b7	-0.016412599
5	0x3cd245bd	0.02566802
6	0x3d624997	0.055245962
7	0x3d8223a7	0.063544564
8	0xbd3cd0fe	-0.046097748
9	0x3d433d61	0.047665957
10	0x3d644cc4	0.055737272
11	0xbd830352	-0.06397118
12	0xbc6e6156	-0.014549574
13	0x3db8945f	0.090126745
14	0x3d1eccdb	0.038769584
15	0x3d40f32b	0.047106903
16	0x3e156997	0.1459106
17	0xbd4cb2b9	-0.04997513
18	0x3d70a595	0.05875166
19	0xbd1e9b17	-0.038722124
20	0x3d6002f4	0.054690316
21	0x3d490725	0.04907908
22	0x3dab49a5	0.08363656
23	0xbd18cbc4	-0.0373037
24	0x3d77cb68	0.060496718
25	0xbd444195	-0.047914106
26	0xbd2f37c4	-0.04277779
27	0x3d2d2e6d	0.042280603
28	0xbdb9cd3f	-0.09072351
29	0xbd4d2910	-0.05008799

conv2.lin_key.weight f4 [30, 30]
0	0xbb494b40	-0.0030715019
1	0xbda6775a	-0.08128233
2	0x3d173ffa	0.036926247
3	0xbe3d5549	-0.18489565
4	0x3dfd5408	0.12369543
5	0x3cd9d3d7	0.02659027
6	0xbd2180ab	-0.039429348
7	0xbdc17c2f	-0.09447514
8	0xbdb2c2e0	-0.08728576
9	0xbd561d93	-0.052274298
10	0x3f18ecb8	0.59736204
11	0xbe45acf4	-0.19304258
12	0x3de1808b	0.11010846
13	0xbdc61bbc	-0.09673259
14	0x3d72e73d	0.059302557
15	0x3e0073e8	0.12544215
16	0xbd465ea1	-0.04843009
17	0xbe89f290	-0.26942873
18	0xbc5b3222	-0.013378652
19	0x3dfb9330	0.12283933
20	0xbdecbd4d	-0.11559544
21	0x3e339bb4	0.17539865
22	0xbe190a4a	-0.14945331
23	0xbe416dcb	-0.18889539
24	0xbdb97306	-0.09055142
25	0x3e3727b9	0.17886247
26	0x3e0b9336	0.13630375
27	0xbc9dd880	-0.019268274
28	0x3e9269a2	0.28596216
29	0x3d164d35	0.036694724
30	0x3db36b0b	0.08760651
31	0xbc9bbd3b	-0.01901113
32	0x3d0ee71a	0.034888364
33	0x3e005c32	0.1253517
34	0xbe2e7de2	-0.17040208
35	0x3e1d30a3	0.15350585
36	0x3d94b62e	0.072613105
37	0x3cf78c6c	0.030218326
38	0x3dd92596	0.10602872
39	0xbde2829c	-0.11060068
40	0xbc487203	-0.012234214
41	0xba9b6d79	-0.0011858187
42	0x3dd75069	0.10513384
43	0xbe168716	-0.14699969
44	0xbe3c7bd8	-0.18406618
45	0x3e16997f	0.14706992
46	0xbcf8163b	-0.030284038
47	0xbe39f438	-0.18159568
48	0x3b8c25c1	0.0042769616
49	0x3dbd41cb	0.09241065
50	0xbd79b58a	-0.060964145
51	0x3e685a2f	0.22690652
52	0x3b330d50	0.0027321167
53	0xbdd7db16	-0.10539834
54	0x3d4dc310	0.050234854
55	0x3d0d2a0d	0.03446393
56	0x3e0696da	0.13143483
57	0x3e233b5f	0.15940617
58	0xbd9082be	-0.07056187
59	0x3e536c5a	0.20646802
60	0x3e462903	0.19351582
61	0x3da3b606	0.079937026
62	0xbd62ed57	-0.055402126
63	0xbe3f783a	-0.18698207
64	0x3d3be774	0.045875028
65	0x3e3511f0	0.17682624
66	0x3c50ef88	0.012752421
67	0x3d0ff4d3	0.035145592
68	0xbe5fd811	-0.21859767
69	0xbbe8457a	-0.0070883604
70	0xbdf54150	-0.11975348
71	0xbe2ae28f	-0.16687988
72	0x3dafbcf3	0.08580961
73	0x3d945a6f	0.07243811
74	0xbd5668d9	-0.052346084
75	0xbc993feb	-0.018707236
76	0xbe29d1a1	-0.16583873
77	0x3d63092a	0.05542866
78	0x3dc87b1d	0.09789107
79	0x3daeb670	0.08530891
80	0x3d91ff43	0.071287654
81	0xbcd2d94f	-0.025738386
82	0x3e615a6d	0.22007151
83	0x3e18679b	0.14883272
84	0xbc02e90f	-0.007990136
85	0x3e8a3543	0.2699376
86	0x3e7674d4	0.24068004
87	0x3e0631a0	0.13104868
88	0x3c8d7c29	0.017271118
89	0x3e5f92c1	0.21833326
90	0xbdf500ce	-0.11963044
91	0xbd63623a	-0.055513598
92	0xbde81d0d	-0.11333666
93	0xbdce47c8	-0.10072285
94	0x3e1766ce	0.1478531
95	0xbdf857fe	-0.12126158
96	0xbdab162b	-0.083538376
97	0x3e6a4359	0.22877254
98	0xbd9e5be1	-0.07732368
99	0x3e461c9f	0.19346856
100	0xbd14530a	-0.036212005
101	0x3e34e32a	0.17664781
102	0x3dc0dea4	0.09417465
103	0x3c7bda1d	0.0153718265
104	0x3e128216	0.14307436
105	0xbe21eabc	-0.158122
106	0xbdae954a	-0.085245684
107	0xbb3bf34b	-0.002867895
108	0xbdba3ae2	-0.09093262
109	0xbd9dfa6c	-0.0771378
110	0xbcf94d90	-0.030432492
111	0xbe1859cf	-0.1487801
112	0xbdc0e029	-0.09417755
113	0xbe461a38	-0.19345939
114	0x3e61d31b	0.22053187
115	0x3ea227ad	0.31670895
116	0x3d57c78d	0.05268054
117	0x3d9ddac1	0.077077396
118	0xbc9d02c7	-0.019166363
119	0xbe350471	-0.17677476
120	0x3e0c017e	0.13672444
121	0x3e9c0c5d	0.30478182
122	0x3e02e1f4	0.12781507
123	0x3e775ee4	0.24157292
124	0x3e358f44	0.17730433
125	0xbd71771d	-0.058951486
126	0x3de8c28d	0.113652326
127	0x3e1b4d7f	0.15166281
128	0x3e5a949d	0.21345754
129	0x3e9110a5	0.2833301
130	0x3d51242b	0.051059883
131	0x3c266660	0.010156244
132	0xbafe96fe	-0.0019423661
133	0xbd16d2ad	-0.03682201
134	0x3e915e1b	0.2839211
135	0xbe6bf029	-0.23040833
136	0xbdf3775d	-0.11888001
137	0x3e74186c	0.23837441
138	0xbd85c276	-0.06531231
139	0x3d8f3801	0.06993104
140	0xbb74bc1e	-0.0037343572
141	0xbe031865	-0.12802275
142	0xbdde6ca9	-0.10860569
143	0xbd3d2e06	-0.04618647
144	0x3ea41c02	0.32052618
145	0xbe0ce6ac	-0.1375987
146	0x3d6232f5	0.055224378
147	0xbdb63d6e	-0.088984355
148	0xbe095d91	-0.13414599
149	0xbe1ddd5f	-0.15416478
150	0xbd3cc6c4	-0.046087995
151	0x3df00a61	0.117207296
152	0x3e199367	0.14997636
153	0xbcd631fd	-0.026146883
154	0x3e38ce75	0.18047507
155	0xbe850e2c	-0.25987375
156	0x3e8a25ce	0.26981968
157	0x3e793db8	0.2433995
158	0xbd950ebf	-0.07278203
159	0x3e789800	0.24276733
160	0x3e4eb80b	0.20187394
161	0x3be06e61	0.0068490957
162	0x3e8a1104	0.26966107
163	0x3cb315e9	0.021861034
164	0x3e2a1659	0.16610087
165	0xbe15045e	-0.14552447
166	0x3c8b7855	0.017025152
167	0x3d4c1843	0.049827825
168	0xbdb83380	-0.08994198
169	0x3e4d8a7b	0.20072357
170	0x3e2e3619	0.17012824
171	0xbdf720b4	-0.120667845
172	0x3d08b849	0.033378873
173	0x3d9eaa07	0.07747274
174	0x3e8ecf65	0.27892604
175	0x3e2926ed	0.16518755
176	0x3cefff10	0.029296428
177	0xbe05c4d3	-0.13063364
178	0xbd3a9f6a	-0.045562185
179	0xbcb34014	-0.02188114
180	0x3d890d69	0.06692011
181	0x3d90d43c	0.070717305
182	0x3d2a76fa	0.04161737
183	0xbe037d04	-0.12840658
184	0xbcf45cf1	-0.029829474
185	0x3e0dbea9	0.13842262
186	0xbdaf26ad	-0.08552299
187	0x3e01fa78	0.12693202
188	0xbccffaea	-0.0253882
189	0xbe6311b9	-0.2217473
190	0x3dacf3ce	0.084449396
191	0xbe32cfbc	-0.17462057
192	0xbd8efd1a	-0.06981869
193	0x3c7731af	0.015087529
194	0xbe4a9af5	-0.19785674
195	0xbdfa45d5	-0.12220351
196	0xbdba6a76	-0.09102337
197	0xbe1f4e0e	-0.15557119
198	0x3e323152	0.17401627
199	0xbe051d87	-0.12999545
200	0xbd2e8c7e	-0.042614453
201	0xbd1a657d	-0.037694443
202	0x3e4361f2	0.19080332
203	0x3dc267f0	0.09492481
204	0xbe0016f9	-0.12508763
205	0xbdf25d4e	-0.11834203
206	0xbdf31385	-0.118689574
207	0x3d8178ac	0.063218445
208	0xbd92bf07	-0.07165342
209	0x3e414ffe	0.18878171
210	0x3cb4a374	0.022050597
211	0x3e6dbe35	0.2321709
212	0x3e667b0b	0.22507875
213	0x3d1e0c52	0.03858597
214	0xbc217757	-0.009855113
215	0xbe4c50fe	-0.19952771
216	0xbc6f5294	-0.0146070905
217	0x3e6a5486	0.22883806
218	0x3e5005d5	0.20314725
219	0x3d95047a	0.072762445
220	0xbe3efff7	-0.1865233
221	0x3e5412ea	0.2071034
222	0x3e12811c	0.14307064
223	0x3d764ba9	0.06013075
224	0x3e52fa39	0.20603265
225	0xbe634a81	-0.2219639
226	0xbe67750e	-0.22603247
227	0x3e7e5204	0.24835974
228	0xbcb3c486	-0.021944296
229	0x3e471d85	0.19444855
230	0x3e24d93d	0.16098495
231	0xbe1655f8	-0.14681232
232	0x3d8cb828	0.068710625
233	0xbd25db46	-0.04049232
234	0x3db4f31e	0.088354334
235	0x3e8db48b	0.27676806
236	0xbd94c0d8	-0.072633445
237	0xbe43af94	-0.19109946
238	0xbe20ed88	-0.15715611
239	0xbe24f9ce	-0.16110918
240	0x3db72b4b	0.08943804
241	0x3d8b24cb	0.06794127
242	0xbe279020	-0.16363573
243	0xbe21c8c2	-0.1579924
244	0xbca98a7b	-0.020695915
245	0x3ddc9f58	0.1077258
246	0x3d60fe47	0.054929998
247	0xbe424c06	-0.18974313
248	0x3dddbded	0.10827241
249	0x3d9614e7	0.073282056
250	0x3d9d7b3d	0.076895215
251	0x3de5103b	0.11184736
252	0xbd5d09ea	-0.053964533
253	0xbe002e8f	-0.1251776
254	0xbe53910a	-0.20660797
255	0x3e2e49cf	0.17020343

conv2.lin_key.bias f4 [30]
0	0x3cc07dff	0.02349758
1	0x3dfa838d	0.122321226
2	0x3e4f54f7	0.20247255
3	0xbe815c8a	-0.25265914
4	0xbe39a284	-0.18128401
5	0xbe6622f3	-0.2247427
6	0x3e162367	0.14661942
7	0xbe47aad0	-0.19498754
8	0x3d22b799	0.039725874
9	0x3d20bc30	0.03924197
10	0x3e008b76	0.125532
11	0x3de2522d	0.1105083
12	0xbe320fbf	-0.17388819
13	0x3e17274f	0.14761089
14	0xbd99828b	-0.07495602
15	0xbdc79e38	-0.09746975
16	0xbde4633b	-0.11151739
17	0xbdfd605e	-0.12371896
18	0xba19591f	-0.0005849767
19	0x3d6ed4e3	0.058308493
20	0xbdd4b4f8	-0.103860795
21	0x3daa828e	0.083256826
22	0xbe16d396	-0.14729151
23	0xbcac0d5e	-0.021002468
24	0xbc8d97a8	-0.01728423
25	0xbda072ba	-0.07834382
26	0x3da20e19	0.07912845
27	0xbe636c33	-0.22209243
28	0xbd826d31	-0.06368483
29	0x3ca71bef	0.020399062

conv2.lin_query.weight f4 [30, 30]
0	0x3f26c5b7	0.6514544
1	0xbe62deea	-0.22155347
2	0x3dea0c88	0.114281714
3	0xbd872da0	-0.06600499
4	0xbd722811	-0.05912024
5	0xbe2e4cea	-0.17021528
6	0xbe195683	-0.14974408
7	0x3d5dbb5e	0.054133765
8	0x3cfce5ce	0.030871298
9	0x3e359a47	0.17734633
10	0x3d120144	0.03564574
11	0x3d7e7d06	0.06213095
12	0xbdd7ac84	-0.105309516
13	0x3e414b68	0.18876421
14	0xbe5af236	-0.21381459
15	0xbd83afbb	-0.06430002
16	0xbdfabe54	-0.122433335
17	0xbe69eaf9	-0.22843541
18	0x3c2ac70c	0.010423433
19	0x3e182c98	0.14860761
20	0xbe23612e	-0.1595504
21	0x3da11313	0.07864966
22	0x3cba8dd5	0.022772709
23	0xbe55fbe8	-0.20896876
24	0xbcf8a61c	-0.030352645
25	0x3d333329	0.043749962
26	0x3df1c52f	0.11805188
27	0xbe0b05a6	-0.13576373
28	0x3e02bae0	0.127666
29	0x3e07f92c	0.13278645
30	0x3dcdff87	0.100585036
31	0xbdb49c84	-0.088189155
32	0xbde6165d	-0.11234734
33	0xbe647597	-0.22310482
34	0xbc2cb828	-0.010541953
35	0x3e575b78	0.21030986
36	0xbdde18f6	-0.10844605
37	0xbb589ef9	-0.003305374
38	0x3d6d1211	0.057878558
39	0xbe640574	-0.22267705
40	0x3dbb2295	0.091374554
41	0xbb1d721e	-0.0024024318
42	0xbda3f46b	-0.080056034
43	0xbe36e317	-0.17860065
44	0xbdaa509a	-0.08316155
45	0x3e4f0053	0.20214967
46	0x3dc0a85e	0.094071135
47	0xbe41f6db	-0.18941824
48	0x3cdea510	0.027178317
49	0xbe2d6304	-0.16932303
50	0x3dd1a253	0.10236039
51	0x3ce55d8e	0.027998712
52	0x3e37a628	0.17934477
53	0x3d2e2aba	0.042521216
54	0xbe24f81c	-0.16110271
55	0xbc01157d	-0.007878658
56	0x3d922236	0.071354315
57	0x3e26d5f8	0.1629256
58	0xbdb98cd1	-0.09060062
59	0xbd351083	-0.0442052
60	0x3b857cf0	0.0040737316
61	0xbca0b454	-0.019617237
62	0xbe038b8a	-0.12846199
63	0xbd9129ef	-0.07088076
64	0xbe41e976	-0.18936715
65	0xbdc501c2	-0.09619476
66	0xbe199aa1	-0.15000392
67	0xbd8e0ae5	-0.06935672
68	0xbd711c48	-0.05886486
69	0xbdf07764	-0.11741522
70	0xbcb7b3d8	-0.022424623
71	0xbd63af0f	-0.05558687
72	0x3df2be9b	0.11852761
73	0xbc80b901	-0.015713217
74	0x3d7276d7	0.059195366
75	0x3e61afaa	0.22039667
76	0xbd06f1d3	-0.032945465
77	0xbc612ed7	-0.013744078
78	0xbdcf179f	-0.10111927
79	0x3d42b3ba	0.04753468
80	0xbd0816bc	-0.033224806
81	0xbca26455	-0.019823233
82	0xbd8c8b0f	-0.06862461
83	0xbc7e7847	-0.015531606
84	0xbe2db44a	-0.16963306
85	0xbe188502	-0.14894488
86	0xbc96d09e	-0.018410023
87	0x3deded00	0.1161747
88	0xbd1bf4a2	-0.038075097
89	0xbd630d6a	-0.055432715
90	0xbe46c9d3	-0.19412927
91	0x3db8669e	0.09003948
92	0x3e065640	0.1311884
93	0x3d0fc45b	0.03509937
94	0xbd7ad8e4	-0.061242
95	0x3d99a959	0.075030036
96	0x3c807aa6	0.015683483
97	0xbb2436d0	-0.0025057085
98	0x3d79be9f	0.060972806
99	0x3df91190	0.12161553
100	0x3e06b1dc	0.13153785
101	0xbd5295d2	-0.05141241
102	0xbcc211e4	-0.023690172
103	0x3b407c1b	0.0029370848
104	0x3e8651bb	0.2623423
105	0x3d97de55	0.07415453
106	0xbe1fead1	-0.15616919
107	0x3e3ac97b	0.18240921
108	0x3cf3806a	0.029724319
109	0x3e115d94	0.14195853
110	0x3e74c0e5	0.23901708
111	0xbde84cff	-0.11342811
112	0xbe1f9b91	-0.15586688
113	0xbe0c7efd	-0.13720317
114	0x3d24900a	0.04017643
115	0xbe61529d	-0.2200417
116	0xbe17656b	-0.14784782
117	0xbdd093b7	-0.10184424
118	0x3cb8cc84	0.022558458
119	0xbcf10ec4	-0.029425986
120	0xbe859a0e	-0.26094097
121	0x3e914c17	0.28378364
122	0x3e8aa50e	0.27079052
123	0x3e2e53c7	0.17024146
124	0xbc14736e	-0.009060724
125	0xbe18dae6	-0.14927253
126	0xbd1825d5	-0.037145454
127	0xbd1f40a0	-0.03887999
128	0x3e625d79	0.2210597
129	0x3c96336e	0.01833507
130	0x3d0d5c76	0.034512006
131	0x3d8c931e	0.06863998
132	0xbd4e7a0d	-0.050409365
133	0xbd20f449	-0.03929547
134	0x3e287fa1	0.16454937
135	0xbe3cbec3	-0.18432145
136	0xbdc1e990	-0.09468377
137	0xbd778d82	-0.060437687
138	0xbe1c556b	-0.1526696
139	0xbd6d9692	-0.058004923
140	0x3db1cf2e	0.086820945
141	0xbd7a64a5	-0.06113114
142	0xbce4b3ee	-0.027917828
143	0xbcbecd93	-0.023291385
144	0x3e8e281a	0.2776497
145	0x3c634b90	0.013872996
146	0xbe7ca286	-0.24671373
147	0xbe93fef8	-0.28905463
148	0xbe903de1	-0.2817221
149	0x3c53a8a1	0.012918622
150	0xbd8a8208	-0.06763083
151	0xbbbef3a9	-0.0058273864
152	0x3e00c020	0.1257329
153	0xbdb415f9	-0.087932535
154	0x3e2e8792	0.17043903
155	0xbbf29f84	-0.0074042697
156	0x3e842ae8	0.25813985
157	0x3e326ade	0.17423579
158	0x3e3d4961	0.18485023
159	0x3e7d420c	0.24732226
160	0xbdb8b42d	-0.09018741
161	0x3c97efb1	0.018546911
162	0x3e79ccdd	0.24394555
163	0xbcb13b32	-0.021634672
164	0xbd7af96c	-0.061273023
165	0xbd8b3f27	-0.06799155
166	0xbe545473	-0.2073534
167	0x3e3f53bb	0.18684284
168	0xbe36b091	-0.17840792
169	0x3e57d547	0.21077453
170	0xbd98cc0e	-0.07460795
171	0x3d7deba4	0.061992303
172	0x3d903eba	0.07043214
173	0xbc816fe1	-0.015800418
174	0xbd6f5dcd	-0.058439065
175	0x3dd16094	0.10223499
176	0xbe645245	-0.22297008
177	0xbe0710fc	-0.13190073
178	0xbe29d0c5	-0.16583546
179	0xbe0029be	-0.12515923
180	0xbce45601	-0.027873041
181	0xbe119e37	-0.1422051
182	0x3ca2bc44	0.019865163
183	0xbe4c7be7	-0.1996914
184	0x3d2de217	0.042451944
185	0x3e245209	0.16046919
186	0x3c02d46f	0.007985218
187	0x3d6945c9	0.056951318
188	0xbe148cce	-0.14506838
189	0x3ca82fe0	0.020530641
190	0x3c2caf72	0.010539876
191	0x3af5c747	0.0018751406
192	0xbc623e63	-0.013808819
193	0xbd020cb5	-0.0317504
194	0xbd187d10	-0.037228644
195	0x3c914949	0.01773514
196	0xbd8cd0e2	-0.06875779
197	0x3dc05de6	0.0939291
198	0xbd9fd8ef	-0.07805049
199	0x3d887b5d	0.06664155
200	0x3dc05457	0.093910865
201	0x3d2bf225	0.041978974
202	0x3dd64ba2	0.104636446
203	0xbdfc6e35	-0.12325708
204	0x3dc8b422	0.097999826
205	0xbcdef8a5	-0.027218172
206	0xbdfb94e4	-0.12284258
207	0x3e4dd03e	0.2009897
208	0x3d6aa3bd	0.05728506
209	0x3d8e8cd4	0.069604546
210	0x3e01ed0a	0.1268808
211	0xbdaf5ed9	-0.08563013
212	0xbdd5850a	-0.10425766
213	0x3e55057e	0.20802876
214	0x3e1c5978	0.15268505
215	0x3ca3c2d0	0.019990355
216	0x3e475a60	0.19468069
217	0x3e2b7a27	0.16745816
218	0x3e828940	0.25495338
219	0x3d0ecdbf	0.034864184
220	0xbe06c6f3	-0.1316183
221	0x3e2f31f0	0.17108893
222	0x3e46776d	0.19381495
223	0xbdb183b9	-0.08667702
224	0xbd757a6d	-0.059931207
225	0xbe65f4f7	-0.22456728
226	0xbea23bc0	-0.3168621
227	0x3e4cec6f	0.20012067
228	0x3d550071	0.052002374
229	0x3e0ce44e	0.13758966
230	0x3d9d6403	0.07685091
231	0xbe07c27a	-0.1325778
232	0xbe38bbb7	-0.18040358
233	0xbd39b2c4	-0.0453365
234	0x3df67a1d	0.1203501
235	0xbdb7bee4	-0.08971956
236	0xbe209215	-0.15680726
237	0xbe516181	-0.20447351
238	0xbe6f7fb5	-0.2338856
239	0x3d09a63b	0.033605795
240	0xbcec999c	-0.02888184
241	0x3df59647	0.11991554
242	0xbd852cf2	-0.06502713
243	0xbd67e8c9	-0.056618486
244	0xbcf60ae8	-0.030034497
245	0x3e1f260a	0.15541855
246	0xbd4c8733	-0.049933624
247	0x3d81611c	0.0631735
248	0x3d9d7e7e	0.07690142
249	0xbd2f5b0d	-0.042811442
250	0xbd68b23c	-0.056810603
251	0xbaaf77bd	-0.0013387125
252	0xbd3d3a9a	-0.046198465
253	0xbe13d4dc	-0.14436668
254	0x3be6b085	0.0070400857
255	0xbe015092	-0.12628391

conv2.lin_query.bias f4 [30]
0	0x3dd26b33	0.10274353
1	0x3e387bd1	0.18015982
2	0xbd1fb0e8	-0.03898707
3	0xbe02a1ad	-0.12756987
4	0xbe774941	-0.24149038
5	0x3d31a06e	0.04336589
6	0x3e307544	0.17232233
7	0xbe1b0efb	-0.15142433
8	0x3de2ef3e	0.11080788
9	0xbe083dd8	-0.13304842
10	0x3dfb3032	0.12265052
11	0xbd40879d	-0.04700433
12	0x3cf04dab	0.02933391
13	0x3de38638	0.111095846
14	0xbdeb0d9f	-0.114772074
15	0xbca86e62	-0.020560447
16	0xbde56161	-0.11200214
17	0x3e371276	0.17878136
18	0xbd5c0ada	-0.053721286
19	0x3ddf13f4	0.10892478
20	0xbca21a00	-0.019787788
21	0xbd72dcfc	-0.05929278
22	0xbc08e369	-0.008355
23	0x3dd38a18	0.10329074
24	0xbe661e3b	-0.2247247
25	0x3da0597a	0.07829566
26	0x3d3e5b50	0.0464738
27	0xbe4bd05f	-0.19903706
28	0x3dbc6685	0.091992415
29	0xbd9b1780	-0.07572842

conv2.lin_value.weight f4 [30, 30]
0	0xbdb5d2f1	-0.088781245
1	0x3de52f0c	0.11190614
2	0x3e169a6f	0.14707349
3	0xbdada7c3	-0.08479264
4	0xbe0beebb	-0.13665287
5	0xbe191b6b	-0.14951865
6	0xbe0fbdb5	-0.14037211
7	0xbd6c58f6	-0.057702027
8	0xbd9ce409	-0.07660682
9	0x3e240f4e	0.16021463
10	0x3d8d5929	0.069017716
11	0xbe1f801a	-0.1557621
12	0x3c77da9d	0.015127805
13	0x3d42e2b2	0.047579475
14	0xbdf860ae	-0.12127815
15	0x3d600e06	0.054700874
16	0xbd8773d0	-0.06613886
17	0xbdc8cf23	-0.09805133
18	0x3e0e4b7f	0.13895987
19	0xbd229be6	-0.039699458
20	0x3bf4a291	0.0074656685
21	0xbc5d8cce	-0.01352234
22	0x3ccaa241	0.024735572
23	0x3d7b2cd6	0.061322056
24	0xbe3bc017	-0.18334995
25	0xbc0da3ac	-0.008644979
26	0xbadc799d	-0.0016820912
27	0x3aefdf5b	0.0018300818
28	0x3d1a04d6	0.03760227
29	0x3db066dc	0.08613369
30	0x3e72145b	0.23640577
31	0x3d102902	0.035195358
32	0xbdd44c78	-0.10366148
33	0x3d0c4f71	0.03425545
34	0xbe18d4cf	-0.1492493
35	0x3e09dd51	0.13463332
36	0xbbc20bb5	-0.0059218057
37	0xbe491403	-0.1963654
38	0xbe09f026	-0.13470516
39	0x3d00326c	0.031298086
40	0xbe11e469	-0.14247288
41	0xbd47e111	-0.048798624
42	0xbbe59960	-0.007006809
43	0xbe5b610a	-0.21423736
44	0x3d21dffb	0.039520245
45	0xbca90b99	-0.020635413
46	0xbe80eb9a	-0.2517975
47	0xbd0435bc	-0.032277808
48	0x3e425dcd	0.18981095
49	0xbe0c39ac	-0.13693875
50	0x3caed59e	0.021342095
51	0x3e5f6692	0.21816471
52	0x3dfe0aab	0.124043785
53	0x3d54fb20	0.051997304
54	0xbd823b10	-0.063589215
55	0x3c7efd39	0.015563303
56	0x3e0a1797	0.13485561
57	0xbc35a3af	-0.0110863885
58	0x3d585081	0.05281115
59	0xbd8f4a88	-0.069966376
60	0xbe4a427c	-0.19751924
61	0x3e0f7d8e	0.14012739
62	0x3e0f9b96	0.14024195
63	0xbd23baef	-0.039973196
64	0x3e097707	0.13424312
65	0xbe2fa3a2	-0.17152265
66	0xbd11d578	-0.03560397
67	0x3d591a99	0.05300388
68	0xbc6ad9c9	-0.014334151
69	0x3e4bf639	0.19918145
70	0xbd9f1f0b	-0.07769593
71	0x3e329cd2	0.17442635
72	0xbcc1b9cc	-0.023648165
73	0x3dc1ce9f	0.09463238
74	0x3de2dfc8	0.11077839
75	0xbddfb94c	-0.109240144
76	0x3c4e8a7f	0.012606262
77	0x3cf7964d	0.030223036
78	0x3dd7402f	0.10510289
79	0x3df58702	0.11988641
80	0x3e2efc85	0.17088516
81	0x3ddfe932	0.1093315
82	0xbde3ff61	-0.11132694
83	0xbdf490a6	-0.11941652
84	0x3addb333	0.0016914367
85	0x3ba438ca	0.0050116526
86	0x3abad023	0.0014252703
87	0xbe52b3bc	-0.20576376
88	0x3d3366ba	0.04379914
89	0xbd2aae4c	-0.04167013
90	0x3ddca855	0.10774294
91	0xbb92bb1a	-0.0044778707
92	0x3a4b0568	0.0007744641
93	0xbca6f816	-0.020381968
94	0xbe0ff5e3	-0.14058642
95	0x3e14e089	0.14538778
96	0x3da54918	0.08070582
97	0x3e458684	0.19289595
98	0xbe0a3525	-0.13496836
99	0xbd56820f	-0.052370127
100	0x3d8b2776	0.06794636
101	0xbd67a72e	-0.05655592
102	0x3e17f5ff	0.14839934
103	0x3e47ecbe	0.19523904
104	0x3e32b77d	0.17452808
105	0x3dc8d3c9	0.0980602
106	0x3e811932	0.25214535
107	0xbbe70f58	-0.0070513897
108	0x3e01786f	0.12643598
109	0xbd6b06d4	-0.05737956
110	0x3e08e38c	0.13368052
111	0x3dbd55ec	0.09244904
112	0xbd9bb719	-0.076032825
113	0xbdfe74ea	-0.12424643
114	0xbe3ca572	-0.18422487
115	0xbe46760d	-0.1938097
116	0xbe36ace3	-0.17839389
117	0x3c9207eb	0.017826041
118	0xbc799ebe	-0.015235601
119	0x3d982ca2	0.07430388
120	0xbdf38aec	-0.118917316
121	0xbe1fbef8	-0.15600193
122	0xbcb66404	-0.022264488
123	0xbe047f1c	-0.12939113
124	0x3e04bd34	0.129628
125	0xbe253fc8	-0.16137612
126	0x3dec9dcc	0.11553535
127	0x3c94260b	0.018084547
128	0x3b513f95	0.0031928767
129	0xbe21b729	-0.15792526
130	0xbe248ca0	-0.16069269
131	0x3d86e191	0.06585992
132	0x3e3e395a	0.18576565
133	0xbdd59eba	-0.10430665
134	0xbc33f2ff	-0.010983228
135	0x3d4592d5	0.048235733
136	0xbd59e05d	-0.053192485
137	0x3e1a7f4d	0.15087624
138	0x3e0227e2	0.12710527
139	0xbdbe76e7	-0.093000226
140	0xbc4c2eac	-0.012462299
141	0x3e01b169	0.12665333
142	0x3e0efe2b	0.13964145
143	0xbe0e0b7f	-0.13871573
144	0xbe2a8ab9	-0.16654481
145	0x3e00c37e	0.12574574
146	0xbda9d312	-0.082922116
147	0xbdd8dff6	-0.10589592
148	0xbbab48bc	-0.0052271765
149	0xbd02d9d2	-0.03194601
150	0x3e23a89b	0.15982287
151	0x3ddab52b	0.10679086
152	0xbe07ff6b	-0.13281028
153	0xbd29cadc	-0.041453227
154	0xbe2ceb0a	-0.16886535
155	0x3d732ca4	0.059368744
156	0xbd9568cb	-0.07295378
157	0x3dc1d860	0.094650984
158	0x3bf9bf5c	0.007621689
159	0xbd40ddc2	-0.047086485
160	0xbd83002f	-0.063965194
161	0x3b9b774e	0.004744447
162	0x3e050dd9	0.12993564
163	0x3c60f627	0.013730562
164	0xbde625fc	-0.11237714
165	0xbe0d0d83	-0.13774686
166	0xbd3f0f41	-0.046645407
167	0xbd5805f6	-0.05274006
168	0xbcf0d1e7	-0.029396964
169	0xbd8339be	-0.06407498
170	0xbda7c6d2	-0.08192219
171	0xbe203257	-0.15644203
172	0xbbbc09b7	-0.005738463
173	0xbe092d88	-0.13396275
174	0x3dc0eda6	0.09420328
175	0x3e15e444	0.14637858
176	0xbd7bd97f	-0.061486717
177	0x3c7e653f	0.015527069
178	0xbd9b0aff	-0.07570457
179	0x3e463f9b	0.19360201
180	0x3d3dea23	0.04636587
181	0xbe4af05c	-0.19818252
182	0x3d4cbab6	0.04998275
183	0x3d89a128	0.06720191
184	0xbe2eefbd	-0.1708364
185	0x3e3cb530	0.18428493
186	0xbd66ccac	-0.056347534
187	0xbcef05eb	-0.029177627
188	0x3e001d7e	0.1251125
189	0xbdd290fc	-0.1028156
190	0xbe0d3ae3	-0.13791995
191	0xbdd3f271	-0.103489764
192	0xbdf0feba	-0.11767335
193	0x3dfc8389	0.12329776
194	0xbcb2eec4	-0.021842368
195	0x3d3addfd	0.04562186
196	0xbe083cd3	-0.13304453
197	0xbe5a7390	-0.21333146
198	0xbcfb8597	-0.030703349
199	0xbdfa8ae5	-0.12233523
200	0xbe4e11a6	-0.2012392
201	0x3e333945	0.17502315
202	0x3df267ce	0.118362054
203	0x3e32f2ac	0.17475384
204	0x3d925fc2	0.071471706
205	0xbd19486b	-0.03742258
206	0x3e3b18e9	0.18271221
207	0xbd30c3d6	-0.043155514
208	0xbd4afcf4	-0.04955764
209	0x3e5b30aa	0.21405283
210	0x3db4b4e0	0.08823562
211	0xbdbe5929	-0.0929435
212	0x3d656b24	0.05601038
213	0x3d296810	0.041359007
214	0x3e1a317b	0.15057938
215	0x3dcaff52	0.0991198
216	0xbe2f7ab7	-0.17136656
217	0x3c9c18ec	0.019054852
218	0xbdd83ed3	-0.10558858
219	0xbd96ae9f	-0.07357525
220	0x3d480c90	0.048840106
221	0x3e043a80	0.12912941
222	0x3e1006be	0.14065072
223	0xbd869885	-0.065720595
224	0xbdcbd317	-0.099523716
225	0x3dc41ef6	0.09576218
226	0xbe8a7ed8	-0.270499
227	0xbd0465f4	-0.032323793
228	0xbe22e325	-0.15906961
229	0xbda97616	-0.08274476
230	0xbdc84cc3	-0.09780266
231	0x3c944c8d	0.018102909
232	0xbce26e29	-0.02764042
233	0x3e3dbd0f	0.18529151
234	0xbcfec0a3	-0.031097716
235	0xbd1ba840	-0.038002253
236	0xbdcc68e9	-0.099809475
237	0x3d12ef4a	0.035872735
238	0x3d75bc13	0.059993815
239	0x3dec8441	0.11548663
240	0xbe111710	-0.14168954
241	0x3d5e4229	0.054262314
242	0x3e1bd488	0.15217793
243	0xbda0f12b	-0.07858499
244	0x3e3d22bc	0.18470281
245	0xbe1cfba3	-0.15330367
246	0x3da9a4f8	0.082834184
247	0xbcf99077	-0.030464394
248	0x3e223e65	0.15844114
249	0x3e37a3c7	0.1793357
250	0x3db9f55b	0.09080001
251	0xbdcb752c	-0.09934458
252	0x3cd49ec2	0.025954608
253	0x3d662ca4	0.056194916
254	0x3e14f303	0.14545827
255	0x3d5cc31a	0.053897

conv2.lin_value.bias f4 [30]
0	0xbd6f411a	-0.058411695
1	0x3dc18932	0.09449996
2	0x3d900041	0.070312984
3	0xba98ff11	-0.0011672695
4	0x3da6fc83	0.081536315
5	0xbd83f751	-0.06443656
6	0xbd95e69c	-0.07319376
7	0xbdd4b500	-0.103860855
8	0xbe5a6a86	-0.21329698
9	0x3dcd5924	0.10026768
10	0xbd03d8d6	-0.032189213
11	0xbe23bfed	-0.15991183
12	0x3ddf0ba5	0.10890893
13	0x3a377460	0.0006998237
14	0x3dc7c86d	0.09755025
15	0x3e14eed7	0.14544235
16	0xbe3f744c	-0.18696707
17	0xbe10decd	-0.14147492
18	0x3e3d235d	0.18470521
19	0xbe700d4e	-0.23442575
20	0x3e0844ec	0.13307542
21	0xba97a3b7	-0.0011569177
22	0x3de9a375	0.1140813
23	0xbe0973a2	-0.13423017
24	0x3ceaed9c	0.028677754
25	0xbe457d8d	-0.19286175
26	0xbe572805	-0.2101136
27	0x3e435c14	0.19078094
28	0x3cc86c8f	0.024465827
29	0xbe253040	-0.16131687

conv2.lin_skip.weight f4 [30, 30]
0	0xbea0522a	-0.31312686
1	0xbda8cb05	-0.08241848
2	0x3d00a8af	0.03141087
3	0xbdd0a2b0	-0.1018728
4	0x3d3b6bb9	0.04575703
5	0xbe356ef0	-0.177181
6	0x3c8f57d3	0.017497933
7	0x3c576b15	0.013148089
8	0x3d899d9b	0.06719514
9	0xbd84ef4f	-0.06490957
10	0x3ded4a8e	0.11586486
11	0x3d574d84	0.05256416
12	0xbc293c5c	-0.010329332
13	0xbd0cae5a	-0.034345962
14	0xbddaee99	-0.1069004
15	0xbe887456	-0.26651257
16	0x3e14718b	0.14496438
17	0xbe0557b3	-0.13021736
18	0xbe739d12	-0.23790386
19	0x3e1ade7f	0.15123938
20	0x3ccd193f	0.025036452
21	0x3ea23590	0.3168149
22	0x3d0b8a0b	0.034067195
23	0xbe56e4a0	-0.20985651
24	0xbd82e250	-0.06390822
25	0xbf060cec	-0.5236347
26	0xbe2dac9e	-0.1696038
27	0xbe909e27	-0.2824566
28	0x3d91e0f0	0.071229815
29	0xbe6d9a49	-0.23203386
30	0xbdd109a4	-0.10206917
31	0xbb9877f2	-0.0046529705
32	0x3da43322	0.08017565
33	0xbe365c23	-0.17808585
34	0xbe498e26	-0.19683132
35	0xbdca3052	-0.098724976
36	0x3dc9636b	0.098334156
37	0xbe3b20da	-0.1827425
38	0xbd0b1b13	-0.033961367
39	0xbd49fa7e	-0.049311154
40	0x3db59000	0.088653564
41	0xbe009477	-0.12556635
42	0xbe2d7c50	-0.16941953
43	0x3d7edeff	0.062224384
44	0xbe69231a	-0.22767296
45	0x3e0a5adc	0.13511223
46	0x3e04a6db	0.12954275
47	0x3d39641a	0.04526148
48	0xbc8a0298	-0.01684694
49	0x3dc10020	0.09423852
50	0xbe53b7e3	-0.20675616
51	0xbdf18e14	-0.117946774
52	0x3e5abfd9	0.21362247
53	0x3d5a1192	0.053239413
54	0xbdc34bb6	-0.09535925
55	0x3e2edfb0	0.17077518
56	0x3e559c50	0.2086041
57	0x3da03276	0.07822125
58	0x3dc71a90	0.09721863
59	0x3c4e6e31	0.012599514
60	0x3dd54bad	0.10414825
61	0xbbc76f4c	-0.0060862657
62	0x3e657178	0.22406566
63	0xbd15af6a	-0.03654424
64	0xbde986a0	-0.11402631
65	0xbb854efe	-0.0040682545
66	0x3df3d363	0.11905553
67	0x3da621c2	0.081119075
68	0x3d8a7be6	0.06761913
69	0x3e2b71e3	0.16742663
70	0xbc9b8e29	-0.018988686
71	0x3c6add9c	0.014335062
72	0x3e2d1ab1	0.16904713
73	0xbd2717a8	-0.040794045
74	0xbd98c63f	-0.074596874
75	0xbb6419be	-0.0034805383
76	0xbd84d083	-0.06485083
77	0xbd6b9252	-0.05751259
78	0x3c3e113d	0.01160079
79	0xbdd968f2	-0.1061572
80	0xbd38a636	-0.045080386
81	0xbd88f64b	-0.06687602
82	0xbe273b3a	-0.16331187
83	0x3d9757d4	0.07389799
84	0xbdd9525e	-0.106114134
85	0x3d1574be	0.036488287
86	0xbe46d69c	-0.19417804
87	0x3cfc0975	0.030766228
88	0xbe370e23	-0.17876486
89	0x3ca44d30	0.020056337
90	0xbece4dc1	-0.40293697
91	0xbc4821b5	-0.012215068
92	0xbe136634	-0.14394456
93	0x3dce5ba6	0.10076074
94	0x3e4095c6	0.18807134
95	0x3de9b376	0.114111826
96	0x3d9ecc0a	0.07753761
97	0xbe269fc9	-0.1627189
98	0xbcd55546	-0.026041638
99	0x3de00ec4	0.10940316
100	0x3eb29888	0.34881997
101	0x3e0c74c1	0.13716413
102	0x3d9f46fd	0.07777212
103	0xbb117379	-0.0022194071
104	0x3e28dda4	0.16490799
105	0x3dc2028b	0.09473141
106	0x3ea30175	0.3183705
107	0xbe22d6fb	-0.15902321
108	0x3de65ddd	0.11248372
109	0xbd1b0c26	-0.037853383
110	0x3e2411b0	0.16022372
111	0x3e08b749	0.13351168
112	0x3d205c96	0.039150797
113	0x3e1407e0	0.14456129
114	0xbd7076d6	-0.05870708
115	0xbed2fa1c	-0.41206443
116	0x3db8f3d3	0.09030881
117	0xbd2f1939	-0.042748664
118	0x3e28e832	0.16494825
119	0x3dfd7009	0.12374885
120	0xbeb2a150	-0.34888697
121	0xbb94d66f	-0.004542164
122	0x3dbc1688	0.09183985
123	0xbe2d9f4d	-0.169553
124	0xbd885f43	-0.06658795
125	0xbdcb7dcf	-0.099361055
126	0xbe29923c	-0.1655969
127	0xbd939f5a	-0.07208128
128	0x3e12d559	0.14339198
129	0x3e37d4b8	0.1795224
130	0x3e73ec7a	0.23820677
131	0x3d5ecdaf	0.054395374
132	0xbc95d35c	-0.01828926
133	0xbdc946d4	-0.098279625
134	0x3c30d996	0.010794064
135	0xbdcb29b0	-0.09920061
136	0x3ee4f1e6	0.44715804
137	0xbdaee590	-0.08539879
138	0xbde7c37b	-0.11316582
139	0xbd328f04	-0.04359342
140	0x3e19dc85	0.15025528
141	0x3e0128f7	0.12613283
142	0xbd4d8a2b	-0.050180595
143	0x3e06b338	0.13154304
144	0xbdd7f2d8	-0.10544366
145	0xbef7fb59	-0.4843395
146	0x3cbe9c34	0.023267843
147	0xbd944407	-0.07239538
148	0x3e5eeac0	0.21769238
149	0xbd90ce09	-0.07070548
150	0x3f06e500	0.52693176
151	0xb9da810c	-0.00041676348
152	0xbe1bb1c3	-0.1520453
153	0xbe303c3d	-0.17210479
154	0x3d235a47	0.039881017
155	0xbd90f150	-0.07077277
156	0x3d93146f	0.07181632
157	0xbdf6a083	-0.12042334
158	0xbe25fbc4	-0.16209322
159	0xbe0b21f9	-0.13587178
160	0xbebbb0cf	-0.36658332
161	0xbe3eaba5	-0.18620165
162	0x3d56acf9	0.052411053
163	0x3e076684	0.132227
164	0xbc3f67e9	-0.011682489
165	0xbce666a6	-0.028125118
166	0xbf1f4e5b	-0.62228936
167	0xbde50d68	-0.11184198
168	0x3d9b5f26	0.075865075
169	0xbdba8c6f	-0.09108817
170	0xbe5e49f0	-0.21707892
171	0xbe104df8	-0.14092243
172	0x3e3108b7	0.1728848
173	0xbd992d4f	-0.07479345
174	0xbd1d0ab1	-0.038340274
175	0x3f2ca665	0.674414
176	0x3b947a83	0.004531206
177	0xbda87dec	-0.08227143
178	0x3da91226	0.08255415
179	0x3cac1b30	0.021009058
180	0xbc9077a7	-0.01763518
181	0x3d4c0fb2	0.049819656
182	0xbd096c31	-0.033550445
183	0xbe595a40	-0.21225834
184	0xbe320f59	-0.17388667
185	0xbdc7c2df	-0.097539656
186	0xbdfdeed4	-0.123990685
187	0xbd8d90f1	-0.06912411
188	0x3d620e27	0.055189278
189	0xbe2c97ac	-0.16854733
190	0xbcaa0564	-0.020754524
191	0xbe1dc02c	-0.15405339
192	0x3dad35d4	0.084575325
193	0x3df39042	0.11892749
194	0x3d352fdd	0.0442351
195	0x3e0caebb	0.1373853
196	0x3d63e50d	0.05563836
197	0xbe6124d5	-0.21986707
198	0x3cb98355	0.022645632
199	0xbe6339e6	-0.22190055
200	0x3dbaf207	0.09128194
201	0x3e5d0b82	0.21586421
202	0x3db9ffe5	0.09082011
203	0x3d39ea9a	0.04538975
204	0x3e039ead	0.12853499
205	0x3d04a9ab	0.03238837
206	0x3dfa87ba	0.12232919
207	0x3daa9fa9	0.08331234
208	0x3da143b0	0.078742385
209	0x3e5e41ca	0.21704784
210	0x3e627309	0.22114195
211	0x3e2b0956	0.1670278
212	0xbe268b10	-0.16263986
213	0x3d90e665	0.07075194
214	0xbe1fcaed	-0.15604754
215	0x3dbce956	0.09224193
216	0x3e4531a0	0.19257212
217	0x3dd34a82	0.103169456
218	0x3d90b4cb	0.070657335
219	0x3c824a71	0.015904637
220	0xbef76b7b	-0.4832419
221	0x3de3f093	0.1112987
222	0xbdbcbc44	-0.09215596
223	0x3e16f506	0.14741907
224	0x3e0b4773	0.13601474
225	0x3d126e21	0.03574956
226	0xbf282a54	-0.6568959
227	0xbdbf9788	-0.09355074
228	0x3c519dae	0.012793941
229	0xbd14930c	-0.036273047
230	0x3d1a9e2e	0.03774851
231	0xbe9efe44	-0.31053364
232	0x3d7f0533	0.062260818
233	0x3e690c22	0.22758535
234	0x3cbc7019	0.023002671
235	0x3eaa4559	0.33256033
236	0xbd2635b5	-0.040578563
237	0xbd939c7b	-0.07207581
238	0xbd3aab3b	-0.045573454
239	0x3d1e9ba2	0.03872264
240	0xbe11243b	-0.14173977
241	0x3e007371	0.12544037
242	0xbdea13e4	-0.11429575
243	0x3e1f76f4	0.15572721
244	0xbc36f6d2	-0.011167245
245	0xbe605bcb	-0.21910016
246	0x3d9d1408	0.07669836
247	0x3e3e218e	0.18567488
248	0x3e45b68c	0.19307917
249	0xbdd3a3c1	-0.10333968
250	0xbcbd9c62	-0.023145858
251	0x3e2b380a	0.16720596
252	0xbd78d67d	-0.060751427
253	0x3d197c7e	0.03747224
254	0xbd5b7962	-0.053582557
255	0xbd3c0a6c	-0.045908377

conv3.bias f4 [30]
0	0xbd65829e	-0.05603277
1	0x3d47eca1	0.04880965
2	0xbd178b8f	-0.036998328
3	0xbd6eae6c	-0.05827181
4	0xbd5521f4	-0.052034333
5	0x3d2cb14f	0.042161282
6	0xbd1b1fc8	-0.037872106
7	0xbdbc750f	-0.09202015
8	0x3bae2f8a	0.0053157257
9	0xbdf93f5e	-0.121702895
10	0x3d8bade9	0.0682028
11	0x3d36a2cf	0.04458886
12	0x3cdfe2c8	0.027329817
13	0x3d27ced0	0.040968716
14	0xbd56f495	-0.052479345
15	0xbda6f13f	-0.08151483
16	0xbc80d704	-0.015727527
17	0x3d16ca47	0.036814
18	0xbc0778f8	-0.008268587
19	0x3d182aef	0.03715032
20	0x3c71ae89	0.014751085
21	0x3c11780d	0.00887872
22	0x3c30d00c	0.01079179
23	0xbd3dae85	-0.046309013
24	0xbda60273	-0.08105936
25	0x3d02e61e	0.031957738
26	0xbcf8aa1e	-0.030354556
27	0x3d75d47f	0.060017105
28	0x3d5a5efd	0.053313244
29	0xbbe92bcd	-0.007115817

conv3.lin_key.weight f4 [30, 30]
0	0x3d8b358c	0.06797323
1	0xbbe5ab99	-0.0070089814
2	0xbe051981	-0.1299801
3	0x3e2f3740	0.1711092
4	0x3e52fbf1	0.2060392
5	0xbe48804c	-0.19580191
6	0x3ca76c85	0.020437488
7	0xbcedaecf	-0.02901402
8	0xbe37ee71	-0.17962052
9	0x3e46d588	0.19417393
10	0x3da32221	0.07965494
11	0xbe19da28	-0.15024626
12	0x3e0f2451	0.13978697
13	0x3e3f3617	0.18672977
14	0x3e30a06c	0.17248696
15	0xbe09d418	-0.13459814
16	0xbe9d6de3	-0.307479
17	0xbdd3bb57	-0.103384666
18	0x3dcfc908	0.101457655
19	0x3eae7e2b	0.34080634
20	0xbe1d99d0	-0.15390706
21	0xbd75ec13	-0.06003959
22	0xbeb95d81	-0.3620415
23	0xbe34c0d3	-0.17651682
24	0xbecc80e8	-0.39942098
25	0xbd3265b7	-0.043554034
26	0xbc85b45d	-0.016321355
27	0xbde1f006	-0.11032109
28	0x3e1b40ee	0.15161487
29	0xbccbcc3e	-0.024877664
30	0x3e39af29	0.18133225
31	0x3e022313	0.12708692
32	0xbe548e4c	-0.20757407
33	0xbd681a48	-0.05666569
34	0x3cf0eb97	0.029409213
35	0x3e225b04	0.15855032
36	0xbdf3e3c1	-0.11908675
37	0x3df286b3	0.11842098
38	0xbd867b8d	-0.06566534
39	0x3e4ad935	0.1980942
40	0xbdc4e823	-0.09614589
41	0xbc113fbf	-0.008865296
42	0x3d2d6425	0.042331833
43	0xbc69168e	-0.014226569
44	0xbd2484d2	-0.04016573
45	0x3d8c8a38	0.06862301
46	0x3e6c68c6	0.23086843
47	0xbd30dd37	-0.043179717
48	0xbd93197e	-0.071825966
49	0xbe483185	-0.1955014
50	0xbd015a72	-0.031580396
51	0xbe115136	-0.14191136
52	0x3d0c73e7	0.03429022
53	0xbd78f014	-0.06077583
54	0x3dea5a24	0.11442974
55	0xbe339773	-0.17538242
56	0xbe6038bd	-0.21896644
57	0xbdb6c422	-0.08924128
58	0xbd0d1155	-0.034440357
59	0xbd7f90fd	-0.06239413
60	0xbd5e7327	-0.054309037
61	0x3e1b8e3b	0.15190975
62	0xbd98d25c	-0.07461998
63	0x3da2de2d	0.07952533
64	0xbcd544c6	-0.02603377
65	0x3d1eaa8f	0.038736876
66	0xbdb183a5	-0.08667687
67	0xbdf0530e	-0.117345914
68	0x3c39dbec	0.011343937
69	0x3e06e0b5	0.13171656
70	0x3e012ba4	0.12614304
71	0x3d56050d	0.05225091
72	0x3d00ce6b	0.031446856
73	0xbe097773	-0.13424473
74	0xbdaf022f	-0.08545338
75	0x3e39e691	0.1815436
76	0xbd206d8b	-0.03916697
77	0xbd2aee2a	-0.041731037
78	0xbce64a7b	-0.028111687
79	0x3db9aa02	0.090656295
80	0x3e13eb3a	0.144452
81	0x3e0487c6	0.12942418
82	0xbd1e14d4	-0.038594082
83	0xbd4950e8	-0.049149424
84	0xbe133128	-0.1437422
85	0xbd1dd1bc	-0.038530096
86	0xbe24bba9	-0.16087212
87	0xbe5e3857	-0.2170118
88	0xbe42efee	-0.19036838
89	0x3d016317	0.03158864
90	0xbe01b092	-0.12665012
91	0xbd8c06c9	-0.06837232
92	0xbd00e2c7	-0.03146627
93	0x3da28913	0.07936301
94	0xbca6399a	-0.020291138
95	0xbca7a10e	-0.020462539
96	0x3dd9a274	0.106266886
97	0x3d89d9f3	0.06731024
98	0x3e7e9440	0.2486124
99	0xbcfcb1f6	-0.030846577
100	0xbe520299	-0.20508803
101	0x3de0f825	0.1098483
102	0x3e08a74e	0.13345072
103	0xbe0d03ee	-0.1377103
104	0x3c97963b	0.018504253
105	0xbdf79beb	-0.12090286
106	0x3d75221c	0.059846982
107	0x3e8413f0	0.2579646
108	0xbe3e41d9	-0.18579806
109	0x3c9e38d6	0.01931421
110	0xbdd8d689	-0.10587794
111	0xbe44f25a	-0.19233075
112	0xbe99ab42	-0.30013472
113	0x3d2b0632	0.041753955
114	0xbd9bad36	-0.07601397
115	0xbd602f36	-0.054732524
116	0xbcc41170	-0.023934096
117	0xbdfd7488	-0.12375742
118	0x3dfd059a	0.12354584
119	0x3d54046b	0.051762026
120	0xbe191034	-0.14947587
121	0x3d520046	0.051269792
122	0x3d60b3ce	0.054858975
123	0xbcd3f3dd	-0.025873119
124	0x3d81c95f	0.063372366
125	0xbd922724	-0.07136372
126	0xbdd741d3	-0.10510602
127	0xbdbade7c	-0.09124467
128	0xbe29f852	-0.16598633
129	0xbd9675ec	-0.073467106
130	0x3bf6f6ac	0.00753673
131	0xbe2268be	-0.15860268
132	0x3de95ff6	0.11395256
133	0xbda22945	-0.07918028
134	0x3ba6072c	0.005066773
135	0x3e0fbc20	0.14036608
136	0x3cf58042	0.029968385
137	0xbde089e7	-0.10963803
138	0xbc71d62f	-0.014760538
139	0x3c644072	0.013931381
140	0x3cb0c770	0.021579474
141	0xbe15470d	-0.14577885
142	0x3e53471e	0.20632598
143	0x3d36104b	0.044449132
144	0xbe023a21	-0.12717487
145	0xbdb5bf6b	-0.08874401
146	0x3cf5348e	0.029932287
147	0xbdfad1a8	-0.1224702
148	0xbdb54d15	-0.08852593
149	0x3d8a571d	0.06754897
150	0x3e56de22	0.20983174
151	0xbe13ba45	-0.14426525
152	0x3e7ceee5	0.24700506
153	0x3de59ce7	0.11211567
154	0x3d9e873d	0.077406384
155	0x3da26dd0	0.07931101
156	0xbd8503f0	-0.06494892
157	0xbdb16adc	-0.0866296
158	0xbde06f54	-0.10958734
159	0xbe19b18c	-0.15009135
160	0x3df1d764	0.118086606
161	0x3da19e6f	0.07891547
162	0x3d198ad5	0.037485916
163	0xbd9243a2	-0.07141806
164	0xbcf45778	-0.029826865
165	0x3e205f5f	0.15661381
166	0xbec244c4	-0.3794309
167	0x3d9f0d8b	0.07766255
168	0x3da7908e	0.081818685
169	0xbdcb60eb	-0.09930595
170	0xbe2c34f0	-0.16817069
171	0x3df99376	0.12186329
172	0xbed88d7c	-0.42295444
173	0x3ccf2898	0.025287911
174	0xbec98214	-0.39357054
175	0x3d0e74b6	0.034779273
176	0xbd9f5531	-0.07779921
177	0xbda517e9	-0.08061201
178	0xbdc06ca3	-0.09395721
179	0x3d97daf1	0.07414807
180	0xbe6fbd76	-0.23412117
181	0x3d978cc3	0.07399895
182	0xbe4106a3	-0.18850188
183	0x3de1db73	0.11028185
184	0x3c65e623	0.01403192
185	0x3e03813b	0.12842266
186	0x3d95762b	0.072979294
187	0xbd8efc49	-0.06981713
188	0xbe3195a7	-0.17342244
189	0x3dffaa88	0.12483698
190	0xbd0b17a2	-0.033958085
191	0x3d9dce15	0.07705323
192	0x3da5a389	0.080878325
193	0x3e10bf5a	0.14135495
194	0xbd899c1a	-0.06719227
195	0x3e09573a	0.1341218
196	0xbe276bda	-0.16349736
197	0xbe45001e	-0.19238326
198	0x3dcd5de6	0.10027675
199	0x3e4a9271	0.19782425
200	0x3d269b7c	0.040675625
201	0xbe0c1dc2	-0.13683227
202	0xbdc23116	-0.09482019
203	0x3d9e4aab	0.077290855
204	0xbddf3ff2	-0.109008685
205	0xbe2bafe9	-0.16766323
206	0xbce9a23c	-0.028519742
207	0x3e03196a	0.12802663
208	0xbd59c2ec	-0.053164408
209	0x3d22eb6f	0.03977531
210	0x3e8eda6f	0.27901027
211	0xbc026c4a	-0.007960388
212	0x3bab2292	0.005222627
213	0x3e4a2fba	0.19744769
214	0x3e8548ed	0.260322
215	0xbd65e8f9	-0.056130383
216	0x3dd41235	0.10355035
217	0xbdca495b	-0.09877273
218	0xbd89b433	-0.067238234
219	0xbc96aea6	-0.018393826
220	0xbe08ab28	-0.13346541
221	0x3e144cf6	0.14482483
222	0xbe049efb	-0.12951271
223	0xbdbeefc8	-0.093230784
224	0x3d1d497e	0.038400166
225	0xbd73140f	-0.0593453
226	0xbe5a0760	-0.21291876
227	0xbd94c748	-0.072645724
228	0xbd8421dc	-0.06451771
229	0x3eb85c34	0.36007845
230	0xbcb3a737	-0.02193032
231	0x3da7232e	0.08161007
232	0xbe3fd9fe	-0.18735501
233	0xbe15f30f	-0.14643501
234	0xbf0132d7	-0.504682
235	0x3e3315cc	0.17488784
236	0x3e1eb215	0.1549762
237	0x3e1e02c4	0.15430743
238	0x3df283a7	0.11841517
239	0x3df6205c	0.12017891
240	0x3e8533e6	0.26016158
241	0x3dc02503	0.093820594
242	0x3cabca96	0.020970624
243	0x3cd76df8	0.026297554
244	0x3ec6e93e	0.38849825
245	0xbd40ed6e	-0.04710143
246	0x3de4878f	0.11158668
247	0xbd91e604	-0.0712395
248	0xbdc39432	-0.095497504
249	0xbd309217	-0.043108072
250	0x3e0393e1	0.1284938
251	0x3e2f53cb	0.17121808
252	0xbd725477	-0.059162583
253	0xbe4093d8	-0.18806398
254	0x3c212c8e	0.009837283
255	0xbe0a27d4	-0.13491756

conv3.lin_key.bias f4 [30]
0	0xbc732352	-0.014839964
1	0x3e00ed2e	0.12590477
2	0x3e078957	0.13235985
3	0xbd45dd95	-0.04830702
4	0xbd46331c	-0.048388585
5	0xbd47c3d4	-0.04877074
6	0xbd5944e6	-0.053044222
7	0xbe3621d3	-0.1778634
8	0x3c8698f5	0.016430357
9	0x3df6fcbd	0.12059925
10	0xbdcfab44	-0.10140088
11	0x3d90d075	0.0707101
12	0x3e450cbe	0.19243142
13	0x3d94f881	0.07273961
14	0x3d046c70	0.032329977
15	0xbda90f45	-0.082548656
16	0x3de64230	0.11243093
17	0xbdf9b41d	-0.12192557
18	0xbe07b4f1	-0.13252617
19	0x3e520c17	0.20512424
20	0xbc358b36	-0.011080554
21	0x3e375cde	0.1790652
22	0x3dc3f544	0.09568265
23	0x3b9e3390	0.004827924
24	0x3dd78fc2	0.105254665
25	0x3cb2550d	0.021769071
26	0x3deea490	0.116524816
27	0x3c959a44	0.018262036
28	0xbde75add	-0.11296628
29	0x3d8afdde	0.067867026
